models/2a_LOSO/model_7.pth (torch, 985978 bytes, 93 tensors)

fusion_proj f4 [48, 48]
0.13413514 0.8466834 1.0989989 2.5085976 -0.63578206 -0.039191604 0.04163969 2.239665
-1.3833039 0.1418556 -1.3913823 0.24098901 -0.8577902 -0.49601203 1.0084287 -0.404627
-0.8487678 0.31455767 1.1128738 0.011789558 -0.23405597 -0.7392616 -0.50134194 0.010651945
-0.98874086 0.4187124 -1.5975405 1.0600563 -0.15944229 -0.16939363 0.39425322 -0.09783374
-1.7620043 0.8108913 -0.042972974 1.1176814 1.9792422 0.2074903 1.8273914 0.97888315
0.47155887 -1.3091402 0.63360643 -0.5322601 0.3057499 -0.37518117 2.252077 0.120159164
-0.61409044 1.797966 0.66782546 -1.3190047 2.910259 -0.09151316 1.1452527 -0.23778439
-0.14056142 1.2872567 -0.6604811 -1.1242098 -1.8307418 2.310631 -0.031636305 0.7080718
-0.59976965 1.3365659 0.81503004 1.3154215 0.75916713 0.85194963 -0.41274488 0.5476746
-0.66377497 0.26599994 0.4812336 -0.13211553 -1.7777008 -0.98914415 -2.0993106 0.96950316
-0.3659767 -0.64899814 1.1157407 -0.6943455 -0.15277208 0.6842827 0.6844177 -0.22444613
-0.6792837 -0.6287817 -0.4369255 0.61889166 -0.44686064 0.43185112 -0.0077481223 -0.8482082
-0.6704404 0.8130626 0.1409186 1.1457697 -0.7131558 0.9470681 -0.2911475 0.29885256
-0.8521945 0.28966424 1.5577027 -0.8824949 -0.2614349 -0.061693855 -1.1294782 -0.2752346
1.3324277 -0.07991073 0.97414714 1.1730859 -1.4272859 0.2996028 -0.65680856 -0.7202128
0.44622117 0.4630905 2.377205 -0.7545546 -0.6286647 -0.96847194 0.6159916 -1.1724558
-0.98322994 -0.8410576 -1.3933222 -1.3362881 0.2940672 0.22228767 1.2678031 0.656491
-0.51928425 1.8053111 -0.8213635 0.14928167 -1.3454752 -0.60986865 -0.6039036 0.22053045
-0.92361313 0.15471055 1.0791606 0.09048617 0.065012015 -0.73089343 -0.09365668 -0.825988
-0.24057092 0.34613717 0.9695792 -0.68986166 0.6673428 -1.0750016 1.3056277 -1.7293886
1.6081098 1.3117939 -0.09616244 -0.0934918 0.6035715 -1.3331009 0.5484866 0.9633237
-1.9038041 0.28513843 0.3487299 -0.18008134 -0.5039124 2.02487 -1.1751862 -0.854356
-1.7080103 -0.5173753 1.1235503 1.7872292 0.38427702 0.5753992 -0.9251215 -1.2745591
-1.4589502 0.39344677 -0.6061362 -0.9301959 -0.36515874 0.18688361 0.58754146 0.21408594
-0.15084767 0.28040424 0.9049334 -0.89907837 0.95541304 -1.3890808 0.2192713 -1.1951133
-0.9492667 0.07336438 -0.2989028 1.0748527 -1.1814071 -1.2392015 0.18495783 -0.5654023
-0.375384 0.6389917 1.1272118 -2.70628 -0.6181115 -1.6577693 -2.3508227 -0.62224585
1.8202925 1.3531395 0.2431537 -0.8907606 1.7562795 0.82938707 -0.87697685 -0.42406085
0.103124455 -0.22371052 -0.18654892 -1.3103595 -0.13077079 -1.2458074 1.3849223 0.45358545
-1.5869511 -1.5023621 -0.40424296 -1.290119 0.044921678 -0.5874668 -0.44246167 0.038373083
0.31206533 -0.9872909 -0.24288368 0.3584702 0.4733249 0.9611664 0.60058147 -1.3465296
2.1375484 0.34992364 0.95395786 -1.1842859 0.56919235 -2.1415076 0.2966591 0.07215811
00000000: b95a 093e 3ec0 583f ffab 8c3f dd8c 2040
00000010: 9dc2 22bf 6087 20bd 618e 2a3d ac56 0f40
00000020: 1a10 b1bf 9842 113e d118 b2bf d3c5 763e
00000030: 2398 5bbf 4af5 fdbe 3114 813f 452b cfbe
00000040: d948 59bf b40d a13e a672 8e3f fe28 413c
00000050: 5eac 6fbe 4040 3dbf f257 00bf 7f85 2e3c
00000060: 1f1e 7dbf 7961 d63e 357c ccbf edaf 873f
00000070: d744 23be 8675 2dbe 8fdb c93e 0e5d c8bd
00000080: 5b89 e1bf 9296 4f3f 6e04 30bd 2f10 8f3f
00000090: cf57 fd3f 5678 543e f6e7 e93f 1698 7a3f
000000a0: 2a70 f13e e891 a7bf 0834 223f 3342 08bf
000000b0: 408b 9c3e bf17 c0be 0822 1040 0216 f63d
000000c0: 0835 1dbf c023 e63f 9cf6 2a3f 25d5 a8bf
000000d0: af41 3a40 406b bbbd a497 923f c07d 73be
000000e0: 55ef 0fbe d4c4 a43f 4a15 29bf 1be6 8fbf
000000f0: bf55 eabf 61e1 1340 1295 01bd 3244 353f
00000100: 818a 19bf 9714 ab3f cfa5 503f bb5f a83f
00000110: c758 423f 5f19 5a3f 4c53 d3be 6734 0c3f
00000120: 28ed 29bf 2531 883e 4064 f63e 4b49 07be
00000130: b38b e3bf 8d38 7dbf 1b5b 06c0 5c31 783f
00000140: 4c61 bbbe be24 26bf 97d0 8e3f a0c0 31bf
00000150: 4970 1cbe 272d 2f3f 0036 2f3f 35d5 65be
00000160: 89e5 2dbf d6f7 20bf b3b4 dfbe af6f 1e3f
00000170: ebca e4be 971b dd3e f6e3 fdbb 2c24 59bf
00000180: fba1 2bbf df24 503f f74c 103e 95a8 923f
00000190: 6191 36bf 0e73 723f 4911 95be 3403 993e
000001a0: 6b29 5abf df4e 943e cd62 c73f 30eb 61bf
000001b0: ccda 85be b2b2 7cbd be92 90bf 8deb 8cbe
000001c0: fe8c aa3f 3da8 a3bd b561 793f ae27 963f
000001d0: 4eb1 b6bf 8a65 993e 9b24 28bf de5f 38bf
000001e0: 1a77 e43e 331a ed3e 2024 1840 7e2a 41bf
000001f0: 2bf0 20bf c7ed 77bf a0b1 1d3f 0813 96bf
00000200: f5b4 7bbf 8d4f 57bf 6258 b2bf 7d0b abbf
00000210: fa8f 963e 619f 633e 5f47 a23f cb0f 283f
00000220: d0ef 04bf 6f14 e73f e144 52bf 4bdd 183e
00000230: 8838 acbf 5a20 1cbf 6d99 1abf bcd2 613e
00000240: e971 6cbf 716c 1e3e ef21 8a3f d050 b93d
00000250: 0525 853d d51b 3bbf 13cf bfbd f373 53bf
00000260: 3958 76be e438 b13e 5836 783f c69a 30bf
00000270: fad6 2a3f a799 89bf cf1e a73f 9b5c ddbf
00000280: 8bd6 cd3f dde8 a73f d0f0 c4bd a178 bfbd
00000290: a983 1a3f 0da3 aabf 9e69 0c3f 629c 763f
000002a0: daaf f3bf aafd 913e ba8c b23e 3e67 38be
000002b0: 6700 01bf 7897 0140 806c 96bf 13b7 5abf
000002c0: 15a0 dabf b572 04bf 7fd0 8f3f edc3 e43f
000002d0: f5bf c43e 5d4d 133f c3d4 6cbf c124 a3bf
000002e0: e1be babf db71 c93e be2b 1bbf 5221 6ebf
000002f0: 16f6 babe 6b5e 3f3e 1e69 163f 5839 5b3e
00000300: d077 1abe 2591 8f3e b7a9 673f 002a 66bf
00000310: f395 743f 66cd b1bf a888 603e 79f9 98bf
00000320: 2403 73bf 1040 963d ca09 99be c694 893f
00000330: 5938 97bf 289e 9ebf 9665 3d3e 35be 10bf
00000340: 5532 c0be f694 233f 7a48 903f b133 2dc0
00000350: 8e3c 1ebf c931 d4bf e173 16c0 814b 1fbf
00000360: 58ff e83f ad33 ad3f 49fd 783e e308 64bf
00000370: c4cd e03f b652 543f 8e81 60bf 811e d9be
00000380: ea32 d33d 5f14 65be ae06 3fbe dcb9 a7bf
00000390: c7e8 05be 9e76 9fbf 2245 b13f 5a3c e83e
000003a0: 3721 cbbf 674d c0bf eff8 cebe 9f22 a5bf
000003b0: cbff 373d 3964 16bf 568a e2be 182d 1d3d
000003c0: 07c7 9f3e 19bf 7cbf 80b6 78be 6889 b73e
000003d0: a457 f23e 000f 763f b5bf 193f 155b acbf
000003e0: 98cd 0840 3129 b33e 9536 743f ae96 97bf
000003f0: 97b6 113f 760e 09c0 b4e3 973e a2c7 933d

pos_enc f4 [1, 500, 48]
-0.9279579 -1.7024904 -1.2003144 0.017659938 1.2412701 1.8355517 -1.5424773 -0.3916045
0.40416992 0.027668813 -1.2101823 1.5477821 -0.5731618 0.73715794 -0.8605649 -1.9377315
1.2600262 -0.02241241 0.11982397 1.0844424 -0.9480015 0.45570287 0.10049455 0.8353947
-0.04347584 0.6283907 -0.17664357 0.9109104 1.7075496 0.40334556 0.8013126 0.37527788
2.0114825 0.47580767 0.26792908 0.4829359 0.8829065 -0.2248918 -0.5460703 1.2228215
1.5850887 1.5555238 -0.17045689 -0.67119706 -0.073792905 -1.2051113 -0.42693174 -0.33506656
-1.1741842 0.35052434 -1.3467131 -3.7215135 0.36811838 1.0162009 -0.06065068 -0.3083695
-0.43776333 4.489638 -2.510846 -2.9337704 1.2389612 0.2346482 0.3878602 -0.83005655
0.87949175 1.5572952 0.9783354 -1.177671 -2.9611325 -3.4218466 -0.9209191 0.10868893
-2.0513976 -0.61140203 -1.8075168 0.3467369 0.8357112 1.0018487 1.5064623 -0.10979457
0.71643573 2.0217671 -1.4170735 -0.53865033 1.5480047 1.6149528 3.5798535 -0.6837491
2.1899464 -1.9751384 1.2870326 -3.4450824 1.200082 -0.44755918 -0.004175642 -1.2941493
0.025919247 2.088751 0.39680168 -1.174481 2.4067035 -0.42444983 -0.10162892 -0.22364697
-0.92832434 2.5074751 -1.3546317 0.8826018 0.87061805 -1.6943517 -0.81240827 -3.47348
-1.9611957 -2.2923732 0.053159278 -2.6390135 1.4674718 1.6466694 1.3253628 0.39754933
0.5147561 -0.020464707 -1.5608053 0.020767273 -2.0698667 2.890913 3.4840672 -0.015682999
-0.99967945 1.0582608 0.9911363 -2.3780177 -0.35548258 1.5910997 0.5002941 -1.4575146
-1.0952914 -2.224232 1.705385 -0.18658581 -2.0458171 -0.24739364 -1.7098475 1.2351865
1.7842631 2.1977131 1.4126729 -3.0929854 -2.5935154 -1.5329138 -2.8930886 2.1113446
1.5159292 0.5715759 0.73479354 0.036881253 -0.014530463 0.16527604 3.166872 0.08183426
-2.239216 1.3624202 -0.5950773 -1.2850419 0.8666782 4.264594 -0.32466745 0.3206397
0.11208833 -0.23218225 1.6562179 -2.5414882 0.38278973 -0.57947224 0.4621404 -0.6515378
-1.463031 1.9691709 -0.78316945 0.5128678 -0.033577573 0.40549156 -0.34827048 -0.65166503
-1.2457892 -1.0434148 0.06743631 -0.76798475 -1.3409973 4.2048593 1.4609474 1.2584021
-1.6483326 -1.7110475 0.8477041 0.113957085 -1.2632695 -0.84576184 -1.4407308 1.667642
0.94343704 -0.73885167 3.238439 0.4454137 -1.4490733 -0.9059018 -0.78604895 0.71780664
0.78155 1.8291806 -2.2402968 0.41565764 1.8921554 0.44093037 0.36548707 -0.9853252
3.444438 0.31325844 0.90208304 1.6171662 -1.3880827 -0.75187427 -1.2626909 2.4909291
-0.10792187 0.67678714 -1.3747597 -0.4880767 -3.1018941 -3.1402428 1.7140548 -1.8528074
2.118377 1.3932034 2.1434584 0.8595363 0.9888897 -0.79597455 0.58037484 -0.7435249
-2.1474195 -1.0771961 -0.61231905 -0.45192087 -1.5353279 -1.9366721 2.4320698 0.5520969
0.64008963 0.63078904 -0.045398977 -1.0520142 -0.36386934 -0.1503819 -0.9706381 2.3419878
00000000: a68e 6dbf 35eb d9bf e7a3 99bf 93ab 903c
00000010: f0e1 9e3f 5cf3 ea3f e56f c5bf 6380 c8be
00000020: 5cef ce3e b5a9 e23c 41e7 9abf b91d c63f
00000030: bbba 12bf 62b6 3c3f fb4d 5cbf 9607 f8bf
00000040: 8a48 a13f 3b9a b7bc 4566 f53d 02cf 8a3f
00000050: 3ab0 72bf e351 e93e 16d0 cd3d 6ddc 553f
00000060: b913 32bd 37de 203f 0de2 34be 6d31 693f
00000070: fc90 da3f 4f83 ce3e d322 4d3f 6c24 c03e
00000080: 21bc 0040 109d f33e 002e 893e 6043 f73e
00000090: 2906 623f 094a 66be 43cb 0bbf 6a85 9c3f
000000a0: 30e4 ca3f 671b c73f 408c 2ebe 92d3 2bbf
000000b0: bc20 97bd 1641 9abf cc96 dabe d88d abbe
000000c0: ab4b 96bf ed77 b33e 1861 acbf 472d 6ec0
000000d0: 037a bc3e df12 823f d96c 78bd 9be2 9dbe
000000e0: 8422 e0be 1dab 8f40 b3b1 20c0 e5c2 3bc0
000000f0: 4896 9e3f 9e47 703e 9d95 c63e 967e 54bf
00000100: 5f26 613f 7355 c73f 3074 7a3f ecbd 96bf
00000110: 3283 3dc0 89ff 5ac0 5bc1 6bbf 4d98 de3d
00000120: 194a 03c0 d884 1cbf b65c e7bf 8087 b13e
00000130: 2bf1 553f 943c 803f c2d3 c03f fadb e0bd
00000140: 5568 373f a264 0140 aa62 b5bf fde4 09bf
00000150: 0525 c63f c6b6 ce3f 521c 6540 2e0a 2fbf
00000160: 1528 0c40 56d1 fcbf 7cbd a43f 3b7c 5cc0
00000170: 499c 993f 7a26 e5be d3d3 88bb afa6 a5bf
00000180: 9a54 d43c 19ae 0540 9729 cb3e 6555 96bf
00000190: 6e07 1a40 7d51 d9be d322 d0bd b603 65be
000001a0: aaa6 6dbf 797a 2040 9264 adbf 31f2 613f
000001b0: d3e0 5e3f 84e0 d8bf fdf9 4fbf 7f4d 5ec0
000001c0: 7608 fbbf 3eb6 12c0 8bbd 593d 99e5 28c0
000001d0: 1ed6 bb3f 10c6 d23f 7da5 a93f 968b cb3e
000001e0: 0ec7 033f 9aa5 a7bc 78c8 c7bf 2120 aa3c
000001f0: b278 04c0 b804 3940 f5fa 5e40 a279 80bc
00000200: feea 7fbf 1775 873f 1cbb 7d3f 7131 18c0
00000210: d001 b6be 28a9 cb3f 4613 003f d78f babf
00000220: 8232 8cbf d159 0ec0 0e4a da3f 5a10 3fbe
00000230: abee 02c0 c254 7dbe 48dc dabf 971a 9e3f
00000240: bc62 e43f 55a7 0c40 77d2 b43f 79f3 45c0
00000250: 28fc 25c0 8536 c4bf 5d28 39c0 4520 0740
00000260: f809 c23f cc52 123f 6e1b 3c3f cc10 173d
00000270: 2e11 6ebc 1f3e 293e 08ae 4a40 b898 a73d
00000280: 514f 0fc0 c963 ae3f fc56 18bf 417c a4bf
00000290: 9fde 5d3f 8e77 8840 d03a a6be e32a a43e
000002a0: 918e e53d 2fc1 6dbe f3fe d33f bea7 22c0
000002b0: 04fd c33e 4b58 14bf ab9d ec3e 2ecb 26bf
000002c0: 9a44 bbbf cb0d fc3f cb7d 48bf 4e4b 033f
000002d0: a388 09bd 979c cf3e 8250 b2be 85d3 26bf
000002e0: 0576 9fbf 9e8e 85bf 0c1c 8a3d a69a 44bf
000002f0: cda5 abbf 358e 8640 5300 bb3f 5213 a13f
00000300: 90fc d2bf 9b03 dbbf 2303 593f 5562 e93d
00000310: d1b2 a1bf d983 58bf de69 b8bf 4b75 d53f
00000320: 1785 713f 6225 3dbf 9642 4f40 440d e43e
00000330: 3c7b b9bf 2ee9 67bf 813a 49bf 2dc2 373f
00000340: a913 483f 9722 ea3f 0661 0fc0 14d1 d43e
00000350: 2632 f23f a0c1 e13e 1f21 bb3e 463e 7cbf
00000360: ac71 5c40 6963 a03e eaee 663f 4dff ce3f
00000370: b2ac b1bf d57a 40bf db9f a1bf 626b 1f40
00000380: 2406 ddbd ec41 2d3f 20f8 afbf 30e5 f9be
00000390: 6f85 46c0 bdf9 48c0 2666 db3f cb28 edbf
000003a0: 7d93 0740 7d54 b23f 6c2e 0940 920a 5c3f
000003b0: e027 7d3f fdc4 4bbf 7293 143f a657 3ebf
000003c0: 526f 09c0 90e1 89bf f1c0 1cbf 2c62 e7be
000003d0: a085 c4bf dfe4 f7bf 08a7 1b40 3956 0d3f
000003e0: eadc 233f 647b 213f 47f4 39bd 67a8 86bf
000003f0: 154d babe b6fd 19be bd7b 78bf 21e3 1540

riemannian.proj.0.weight f4 [256, 253]
-0.098615386 0.02137094 0.011420378 -0.0056579285 0.079033315 -0.031701535 0.020839779 0.01741709
0.028039638 -0.0017192482 0.03170743 -0.060641702 -0.0610494 0.11850004 -0.0773085 -0.03601441
0.0013474507 -0.07134475 -0.008957609 -0.0035325254 0.050640702 0.013401826 0.038193647 -0.10045797
-0.07589239 0.013797578 0.08978419 0.011627338 -0.031710446 0.062239237 -0.04735457 0.008312517
-0.108897544 -0.14325093 -0.02471264 0.00093673397 -0.063307144 0.119230084 -0.13743415 0.14036779
-0.0009708981 0.0022183838 0.018892048 -0.018451089 0.055657327 -0.03250309 0.080879815 -0.016626285
0.016513804 0.020846862 -0.046682622 -0.013543131 -0.11424267 -0.11189008 -0.033212915 0.07119754
-0.06246012 0.0428584 -0.025447827 0.02790269 0.051186867 0.074679166 -0.005489817 0.015497122
0.035695754 0.0525191 -0.005221287 0.04825293 0.07058614 0.06256229 -0.008461591 -0.0009226631
0.025101686 -0.047158416 0.066381626 0.09886933 0.07662072 0.027179588 -0.048391096 -0.0034337766
0.0317012 0.05286584 0.073399454 0.07216049 0.008443101 0.037021175 0.00031695006 -0.0067636687
0.03936379 -0.06854282 0.006606378 -0.027413096 -0.033226065 -0.01589899 0.08893244 -0.10262464
-0.024361238 0.06303019 0.06477174 0.13662378 0.009698963 -0.041723687 0.05857161 -0.06297259
-0.016013678 -0.030881811 -0.012644279 -0.014154982 0.035546217 0.033381592 -0.06710432 -0.025538577
-0.19034919 -0.055943526 0.032100715 0.069430314 0.03225856 -0.1588679 -0.14963101 -0.06425747
-0.011392023 -0.062615 -0.044355858 -0.029613644 -0.14254302 -0.035907947 0.00834864 0.03821039
-0.035552844 -0.10404943 0.05113483 -0.006879412 -0.086118616 -0.08269418 -0.0036816555 -0.071175836
0.057554655 -0.060835835 0.024786992 0.11137996 -0.069694616 0.0637695 0.11197908 -0.088064454
0.07654388 0.06183544 -0.0949717 0.06867143 -0.038522445 -0.05511408 0.06663188 0.042495973
0.0033382853 -0.005274934 0.045910466 -0.030855719 -0.11461451 -0.09216097 0.056460623 0.04123116
-0.07248876 0.12917441 0.010297889 0.002053768 0.025890296 0.006096604 -0.052449394 -0.026754769
-0.041820124 0.0504598 0.04252555 -0.037309743 0.040031385 0.10154989 -0.0230388 -0.045135517
-0.09957661 0.08300101 -0.025144864 0.003578045 0.0878068 0.047391996 0.12044194 -0.030568961
0.018904716 -0.085566364 0.035092663 -0.013443441 -0.03186553 0.020144012 -0.015349885 -0.04557646
-0.084967226 -0.1147213 -0.0124990605 -0.03242142 -0.006746178 0.08519789 -0.00152951 0.020762706
0.034280103 0.0063161324 -0.008563777 0.01825752 -0.07387475 0.019497475 0.017382067 0.058179557
0.03591507 0.010645704 0.009920678 0.093180075 0.036103956 0.14114304 0.049964968 0.01744667
-0.06572311 0.04044645 0.010137788 -0.10866366 0.048974786 -0.13960569 0.037165802 0.0225807
-0.033208396 0.07570154 -0.074144006 -0.0090986425 0.02786126 -0.0064088907 0.044844054 -0.011647229
-0.13741234 0.027282875 0.039900165 0.0002665457 -0.052887484 -0.05461886 0.11328913 0.07130293
-0.085717164 -0.011290176 0.031137373 0.050192524 -0.104051806 0.075158834 0.056968365 -0.041551683
0.09012658 -0.019056054 -0.12790576 0.10105705 -0.04353287 0.40200672 -0.15107934 -0.0663123
00000000: ddf6 c9bd 1c12 af3c 8a1c 3b3c 2566 b9bb
00000010: 38dc a13d 78d9 01bd 2fb8 aa3c 49ae 8e3c
00000020: 62b3 e53c 6658 e1ba a6df 013d 6f63 78bd
00000030: f00e 7abd 26b0 f23d eb53 9ebd d983 13bd
00000040: f19c b03a 321d 92bd efc2 12bc f181 67bb
00000050: a06c 4f3d 5593 5b3c f170 1c3d e8bc cdbd
00000060: 786d 9bbd 3d0f 623c c6e0 b73d 9780 3e3c
00000070: d0e2 01bd 92ee 7e3d def6 41bd 3931 083c
00000080: ad05 dfbd 5fb0 12be 2a72 cabc 278f 753a
00000090: 2da7 81bd e72e f43d 8abb 0cbe 93bc 0f3e
000000a0: de83 7eba 4e62 113b 7fc3 9a3c bd26 97bc
000000b0: f0f8 633d f621 05bd 51a4 a53d d933 88bc
000000c0: f547 873c 0ac7 aa3c 4736 3fbd 02e4 5dbc
000000d0: 10f8 e9bd a026 e5bd 440a 08bd 04d0 913d
000000e0: 2fd6 7fbd 4a8c 2f3d f677 d0bc 2f94 e43c
000000f0: 52a9 513d 64f1 983d ece3 b3bb a4e7 7d3c
00000100: b635 123d 451e 573d 5417 abbb dda4 453d
00000110: 778f 903d a820 803d 7ca2 0abc dfde 71ba
00000120: 0da2 cd3c 2f29 41bd 17f3 873d 017c ca3d
00000130: 53eb 9c3d baa7 de3c be35 46bd 3609 61bb
00000140: 1ed9 013d da89 583d 7452 963d e1c8 933d
00000150: ef54 0a3c 84a3 173d 512c a639 c4a1 ddbb
00000160: ed3b 213d 2e60 8cbd 517a d83b 6e91 e0bc
00000170: 0e18 08bd 993e 82bc 3622 b63d de2c d2bd
00000180: 3891 c7bc f915 813d 0ca7 843d 1be7 0b3e
00000190: 66e8 1e3c 75e6 2abd c9e8 6f3d c6f7 80bd
000001a0: 1e2f 83bc dafb fcbc f329 4fbc 4cea 67bc
000001b0: e998 113d 23bb 083d fd6d 89bd 4736 d1bc
000001c0: e6ea 42be 0a25 65bd 0a7c 033d 7b31 8e3d
000001d0: 8d21 043d 44ae 22be df38 19be 6c99 83bd
000001e0: 9ca5 3abc 4b3c 80bd 7dae 35bd 5098 f2bc
000001f0: ccf6 11be 3614 13bd bcc8 083c 7f82 1c3d
00000200: dc9f 11bd de17 d5bd c172 513d b16c e1bb
00000210: f55e b0bd 915b a9bd ee47 71bb a3c4 91bd
00000220: 6ebe 6b3d ff2e 79bd 170e cb3c 2d1b e43d
00000230: 0dbc 8ebd 9599 823d 4a55 e53d 235b b4bd
00000240: 0ac3 9c3d 2947 7d3d 8680 c2bd 9ba3 8c3d
00000250: b6c9 1dbd 4dbf 61bd 4c76 883d 4210 2e3d
00000260: 22c7 5a3b 5bd9 acbb 9d0c 3c3d 22c5 fcbc
00000270: 03bb eabd e4be bcbd 4143 673d 01e2 283d
00000280: fd74 94bd 4c46 043e 7ab8 283c 8298 063b
00000290: e317 d43c 05c6 c73b 2dd5 56bd d12c dbbc
000002a0: 944b 2bbd efae 4e3d 452f 2e3d 1ad2 18bd
000002b0: f3f7 233d 64f9 cf3d debb bcbc 05e0 38bd
000002c0: d2ee cbbd 6ffc a93d 9afc cdbc a27d 6a3b
000002d0: 0dd4 b33d 1c1e 423d 44aa f63d c26b fabc
000002e0: 10de 9a3c 6b3d afbd 53bd 0f3d e141 5cbc
000002f0: 6e85 02bd 0e05 a53c 167e 7bbc 62ae 3abd
00000300: 4c03 aebd 00f3 eabd dcc8 4cbc 53cc 04bd
00000310: 0b0f ddbb 3b7c ae3d d779 c8ba 8d16 aa3c
00000320: 4b69 0c3d 8ff7 ce3b 164f 0cbc cb90 953c
00000330: a54b 97bd 2bb9 9f3c d664 8e3c b04d 6e3d
00000340: ae1b 133d 526b 2e3c 578a 223c 32d5 be3d
00000350: bee1 133d cd87 103e 11a8 4c3d 52ec 8e3c
00000360: d799 86bd 2dab 253d f718 263c 0e8b debd
00000370: c999 483d cbf4 0ebe 2b3b 183d 29fb b83c
00000380: 8705 08bd 6909 9b3d d0d8 97bd 7912 15bc
00000390: 4c3d e43c ac01 d2bb 66ae 373d 05d4 3ebc
000003a0: d2b5 0cbe 5680 df3c 5b6e 233d 29bf 8b39
000003b0: 8ca0 58bd 07b8 5fbd 2204 e83d 4507 923d
000003c0: 7b8c afbd 6efa 38bc ce13 ff3c ad96 4d3d
000003d0: 1d19 d5bd e0ec 993d a957 693d 1932 2abd
000003e0: 4994 b83d 711b 9cbc baf9 02be 00f7 ce3d
000003f0: 864f 32bd d3d3 cd3e 8bb4 1abe bece 87bd

riemannian.proj.0.bias f4 [256]
-0.017866 -0.040221658 -0.0030210535 0.02676486 0.007863643 -0.036186412 -0.02220353 0.039643507
-0.05876372 0.011084286 0.053772073 0.024294535 0.064501576 0.04041814 0.054866258 0.031810742
-0.057043426 -0.004327345 -0.030596463 -0.044681415 0.035743278 0.010257402 0.03636393 -0.03319168
0.023045981 0.029098606 -0.019720268 -0.022523345 0.02513805 0.019713787 -0.044034828 -0.056405894
-0.026906274 0.011431838 0.037209656 -0.047486812 -0.0251822 0.01173001 -0.010699613 0.042605996
0.039170347 -0.007947217 0.0038214633 0.011492145 -0.0080103 -0.041691035 0.0054984195 0.0029858325
0.012812163 -0.040051203 0.010070281 -0.031000331 0.023439754 0.048264835 -0.011864907 0.021902012
0.024128871 -0.018445801 -0.0487839 0.006202977 -0.03133558 0.019563844 -0.018426873 -0.039885834
0.009508761 0.018839197 0.03854255 -0.005512252 -0.035145044 0.042462334 0.018041812 0.017340453
0.010261051 0.052665286 -0.016228266 0.01518269 -0.048367452 -0.0882376 -0.018981406 -0.029949952
0.02465037 0.015629 -0.016989792 0.009470305 0.019737614 -0.014413533 0.006319536 0.029409593
0.00024990225 0.018125415 -0.07459615 0.037712373 0.0045583523 0.025845954 0.037880022 -0.0062725097
0.02794017 0.018971272 0.053042542 -0.0105481185 0.0427285 0.03395453 0.024879849 0.056854837
0.0034485408 -0.03191901 0.03749456 0.0054150387 -0.033455085 -0.023250185 0.0036985553 0.001310715
0.028707165 0.0435099 0.026115265 -0.022732398 0.04471364 -0.008601314 -0.02068193 -0.01969148
0.009054786 -0.023745298 -0.021780018 0.0033931003 -0.051204123 0.033069484 -0.029155299 -0.045204416
-0.030317746 0.007828037 -0.015116276 -0.003153902 0.019230355 0.007916996 0.04250316 0.00034015594
0.010097844 0.07415821 0.027244711 -0.016661223 0.0073221526 -0.0086281 0.024290612 0.0032802948
0.041460652 -0.048869494 -0.0011097279 0.007850295 0.010952965 0.008695912 -0.02184257 0.050427943
-0.0030245623 0.023723297 -0.0017656931 0.022677315 -0.025940021 0.015421149 -0.019330146 0.03028927
0.0039240997 0.03452934 -0.008243058 0.02522473 0.01422119 0.05523669 -0.014847176 0.041399818
0.06203653 0.023289816 0.026137399 0.001733072 0.015226956 0.015257413 -0.023394566 0.038582534
-0.05749812 -0.0022184837 -0.05367844 0.023750627 0.0009524335 -0.01809855 0.056554794 0.050751846
-0.033881973 -0.027101675 -0.013952549 -0.052496634 -0.017401187 -0.0075630974 -0.047120307 0.00017646705
-0.022629658 0.020772383 -0.02201747 0.039746325 0.04943113 -0.0028164377 0.031884786 -0.016856527
-0.036452606 -0.008197508 -0.030038174 -0.023867177 -0.030544741 -0.040740088 -0.057836853 -0.045879733
-0.015662333 -0.031565834 0.040121533 0.0068541607 0.07302024 -0.001603744 0.031574458 0.025656706
0.03672411 -0.024814969 0.040516976 0.052225556 -0.045301054 0.00061335857 -0.014820751 -0.020180773
-0.04987988 0.047939226 0.05767454 0.057794426 -0.019241612 -0.033092808 0.019999998 -0.021626899
0.046156336 -0.03197756 0.028071946 -0.0024907955 0.0044996715 0.0076225037 0.01236339 -0.015638025
0.032692928 0.011772713 0.017618338 0.05972758 0.02048215 -0.04520461 -0.013163143 0.0050592097
-0.017055834 0.028864114 -0.014576768 0.02233746 0.032020003 -0.0066386145 -0.00090875063 0.028209772
00000000: b85b 92bc 77bf 24bd defc 45bb fb41 db3c
00000010: 82d6 003c 3438 14bd 2de4 b5bc 3b61 223d
00000020: 3ab2 70bd dd9a 353c 1b40 5c3d 5505 c73c
00000030: 6719 843d 7e8d 253d 71bb 603d fb4b 023d
00000040: 5ea6 69bd 67cc 8dbb 6fa5 fabc dc03 37bd
00000050: 8b67 123d aa0e 283c 58f2 143d 00f4 07bd
00000060: edca bc3c 3360 ee3c 668c a1bc e182 b8bc
00000070: 50ee cd3c cf7e a13c dd5d 34bd de09 67bd
00000080: 8c6a dcbc 9b4c 3b3c 2769 183d 8881 42bd
00000090: e74a cebc 3a2f 403c 6e4d 2fbc a083 2e3d
000000a0: 1671 203d 0b35 02bc 8471 7a3b 8d49 3c3c
000000b0: a23d 03bc 38c4 2abd 162c b43b f5ad 433b
000000c0: 1bea 513c bb0c 24bd d2fd 243c 68f4 fdbc
000000d0: ba04 c03c 59b1 453d 0765 42bc d96b b33c
000000e0: e9a9 c53c a61b 97bc a0d1 47bd 5842 cb3b
000000f0: bd59 00bd 5b44 a03c f4f3 96bc 545f 23bd
00000100: a2ca 1b3c a954 9a3c cbde 1d3d 1fa0 b4bb
00000110: 40f4 0fbd fcec 2d3d 6ccc 933c 910d 8e3c
00000120: f81d 283c 8eb7 573d 24f1 84bc d1c0 783c
00000130: f31c 46bd eab5 b4bd e57e 9bbc 9a59 f5bc
00000140: 93ef c93c 6308 803c 2d2e 8bbc 5729 1b3c
00000150: c7b0 a13c bd26 6cbc 1c14 cf3b 63ec f03c
00000160: 5005 8339 c07b 943c dec5 98bd 4a78 1a3d
00000170: 3b5e 953b e5ba d33c 1528 1b3d a089 cdbb
00000180: c9e2 e43c a469 9b3c 2343 593d 04d2 2cbc
00000190: 1404 2f3d e813 0b3d d3d0 cb3c 9ee0 683d
000001a0: ea00 623b 82bd 02bd e593 193d a370 b13b
000001b0: 3308 09bd 2c77 bebc 7663 723b 4ccc ab3a
000001c0: 4a2b eb3c 7037 323d aeef d53c 4b39 babc
000001d0: a625 373d 87ec 0cbc 276d a9bc 0750 a1bc
000001e0: 865a 143c 8085 c2bc 026c b2bc c75e 5e3b
000001f0: 6abb 51bd de73 073d 18d7 eebc 4428 39bd
00000200: ec5c f8bc 2b41 003c 42aa 77bc b2b1 4ebb
00000210: fa88 9d3c 4ab6 013c cb17 2e3d f556 b239
00000220: 6d71 253c 42e0 973d 4d30 df3c 1e7d 88bc
00000230: abee ef3b e05c 0dbc 1bfd c63c 37fa 563b
00000240: a5d2 293d 612b 48bd 4a74 91ba 869e 003c
00000250: 1174 333c 4c79 0e3c 30ef b2bc 888d 4e3d
00000260: bc37 46bb 5c57 c23c d46e e7ba c7c5 b93c
00000270: 2b80 d4bc fda8 7c3c 415a 9ebc 3421 f83c
00000280: bc95 803b a36e 0d3d e40d 07bc 18a4 ce3c
00000290: feff 683c de3f 623d 9241 73bc db92 293d
000002a0: 041a 7e3d 49ca be3c 191e d63c 3f28 e33a
000002b0: 7c7a 793c 3afa 793c f6a5 bfbc b808 1e3d
000002c0: 2683 6bbd fb63 11bb eddd 5bbd ad90 c23c
000002d0: bbac 793a 6943 94bc 00a6 673d 2be1 4f3d
000002e0: d3c7 0abd 5504 debc 3b99 64bc b606 57bd
000002f0: ef8c 8ebc dcd3 f7bb 3901 41bd 030a 3939
00000300: d561 b9bc d82a aa3c fb5d b4bc 0bcd 223d
00000310: 4c78 4a3d fc93 38bb 9f99 023d b316 8abc
00000320: 544f 15bd d74e 06bc 9e12 f6bc 1985 c3bc
00000330: f738 fabc 14df 26bd 56e6 6cbd 63ec 3bbd
00000340: 4b4e 80bc 2d4b 01bd 7a56 243d de98 e03b
00000350: a38b 953d b834 d2ba 3854 013d 032e d23c
00000360: 056c 163d c348 cbbc 21f5 253d 77ea 553d
00000370: 998d 39bd ccc9 203a bcd2 72bc 2652 a5bc
00000380: d84e 4cbd ec5b 443d 233c 6c3d d9b9 6c3d
00000390: 96a0 9dbc 538c 07bd 09d7 a33c e52a b1bc
000003a0: 6d0e 3d3d e7fa 02bd 23f7 e53c 9d3c 23bb
000003b0: fb71 933b 32c6 f93b d18f 4a3c 511b 80bc
000003c0: 05e9 053d 56e2 403c 5554 903c e8a4 743d
000003d0: 2fca a73c 7828 39bd 39aa 57bc bac7 a53b
000003e0: adb8 8bbc 6f74 ec3c 65d3 6ebc 0dfd b63c
000003f0: 6827 033d bc88 d9bb 3939 6eba 2e18 e73c

riemannian.proj.3.weight f4 [48, 256]
0.18589865 0.09417254 -0.23309422 -0.24710953 0.10292644 -0.0005170185 0.0934578 -0.25362048
0.11499158 0.14017065 -0.120356 -0.14906739 -0.059066013 0.10238324 -0.10635391 -0.17087567
0.23239574 -0.1458563 0.22647975 -0.04751069 0.014260825 -0.02434253 -0.17877571 0.24535562
-0.07132797 -0.035961587 0.10224952 -0.0673844 -0.10838674 -0.090291195 0.11376821 0.060612146
0.05869476 -0.05332459 -0.16437024 0.14944883 0.27162525 -0.027555203 0.08837389 0.12632191
-0.1315448 -0.076524675 -0.094003655 0.020289648 -0.101359576 0.16599643 -0.1294681 -0.00644471
-0.111571886 0.04613499 0.13137886 0.059450854 -0.14045331 0.02761964 -0.058699302 -0.26545748
-0.028646909 0.052098155 -0.006358183 -0.008149985 0.17916936 -0.18055092 -0.018626595 0.07085898
-0.0979594 -0.113843665 -0.33551413 0.07336295 0.16876686 -0.0042901887 -0.26298735 -0.14199919
0.06187422 0.017214693 -0.044743337 -0.019297441 -0.0607863 0.10195847 0.14160803 -0.024787797
-0.21284254 0.013673342 -0.09179318 -0.17751984 0.059825044 0.14891674 0.07237967 -0.26750323
0.092132606 -0.079840705 0.30082947 -0.13528217 0.08189923 -0.2914935 -0.25658864 -0.15229744
-0.19843858 -0.18387897 -0.07867241 -0.0026609588 -0.16033608 -0.10378457 -0.1178673 -0.14271656
-0.03373497 0.3697395 -0.21291637 0.11497427 -0.020620205 -0.06311704 -0.1682734 -0.17251636
-0.19474956 -0.08510918 0.13185777 0.077272385 0.0954687 0.23645982 0.01908676 0.33075356
0.020466905 -0.20005961 0.103340186 -0.3379235 0.25075316 -0.047798257 0.14916514 0.021434497
0.12975238 -0.22842646 0.33811936 -0.12959829 0.12985641 -0.04301113 -0.048888355 -0.25060034
0.07062873 -0.12724034 -0.13083598 -0.081297025 0.11051999 0.0006846632 -0.14211985 -0.02179711
0.0011815277 0.0837538 -0.14156093 -0.14892505 0.040645603 0.014056803 0.20470147 -0.15717903
0.111825734 -0.121871755 -0.0040763123 0.036350425 0.18018758 -0.1800444 0.12768947 -0.24020864
-0.15522428 -0.049302764 0.0534466 -0.3273072 -0.166357 -0.13517535 0.012242406 -0.31235617
0.13846235 -0.10657201 0.018014563 0.06048848 -0.10388665 -0.10434927 -0.06988174 -0.15783787
-0.021180382 -0.1873472 0.034604717 0.048122793 -0.004982493 0.09783249 -0.28874362 -0.14332011
0.08839992 0.28840652 -0.0274126 0.10040495 -0.12895218 0.11362976 0.088070475 -0.01249574
0.27662355 -0.10931767 0.032632306 -0.090101644 -0.113951884 -0.021706935 -0.22636667 0.05323676
0.15962726 0.12620911 0.17785797 0.20956318 0.09122915 0.12663195 0.16703047 -0.026520083
-0.021556066 -0.18113592 -0.32638973 -0.0338049 -0.01346841 0.002571156 -0.27489036 -0.19481309
-0.40722334 0.103024624 -0.22995788 -0.23601428 0.17062265 0.08695001 0.09005995 -0.030363357
0.13449293 -0.20689341 -0.21556455 -0.34743616 0.23967297 -0.15330844 -0.013439695 0.064885356
-0.17073831 0.12068114 0.015150069 0.17486018 -0.031246414 0.100758836 -0.2689291 0.13162225
-0.040723052 0.08557657 -0.22640848 -0.2691964 0.1256273 0.1700903 0.12373409 -0.15927653
0.07464096 -0.034407414 0.21244054 -0.17484598 -0.110384755 -0.087461196 -0.04367179 -0.06908355
00000000: 375c 3e3e 88dd c03d 40b0 6ebe 480a 7dbe
00000010: 19cb d23d 8688 07ba ce66 bf3d 8bda 81be
00000020: b580 eb3d e588 0f3e 357d f6bd 1fa5 18be
00000030: 34ef 71bd 4eae d13d 14d0 d9bd 08fa 2ebe
00000040: 26f9 6d3e 5b5b 15be 4fea 673e 929a 42bd
00000050: 3ca6 693c fc69 c7bc fb10 37be 813e 7b3e
00000060: 6614 92bd 754c 13bd 3268 d13d d500 8abd
00000070: def9 ddbd 97ea b8bd 4fff e83d 7144 783d
00000080: eb69 703d e36a 5abd ac50 28be 1d09 193e
00000090: 7712 8b3e 73bb e1bc 5ffd b43d 885a 013e
000000a0: aeb3 06be f8b8 9cbd fd84 c0bd 7a36 a63c
000000b0: 9c95 cfbd f8fa 293e 4993 04be 252e d3bb
000000c0: cd7f e4bd 0bf8 3c3d 2e88 063e bd82 733d
000000d0: fed2 0fbe 9542 e23c ae6e 70bd 0bea 87be
000000e0: ecac eabc e064 553d 4e58 d0bb 8487 05bc
000000f0: 2c78 373e 57e2 38be cd96 98bc 831e 913d
00000100: f09e c8bd de26 e9bd 82c8 abbe 503f 963d
00000110: 38d1 2c3e b694 8cbb 47a6 86be 3c68 11be
00000120: d26f 7d3d d405 8d3c ca44 37bd ab15 9ebc
00000130: 0efb 78bd 9acf d03d b201 113e c70f cbbc
00000140: 65f3 59be 2706 603c 10fe bbbd c3c7 35be
00000150: 1b0b 753d a17d 183e cb3b 943d 2ff6 88be
00000160: 05b0 bc3d 8683 a3bd 5206 9a3e 6987 0abe
00000170: c9ba a73d a33e 95be 965f 83be dcf3 1bbe
00000180: 7c33 4bbe c54a 3cbe 001f a1bd 7b63 2ebb
00000190: 242f 24be 018d d4bd 6964 f1bd 4a24 12be
000001a0: ae2d 0abd 7f4e bd3e c006 5abe a177 eb3d
000001b0: b4eb a8bc 8243 81bd dd4f 2cbe 21a8 30be
000001c0: 6e6c 47be b94d aebd b905 073e fc40 9e3d
000001d0: 1885 c33d 8622 723e d65b 9c3c 8858 a93e
000001e0: 36aa a73c 6ddc 4cbe 05a4 d33d 4f04 adbe
000001f0: b862 803e 1bc8 43bd bfbe 183e 6697 af3c
00000200: cfdd 043e a0e8 69be fb1d ad3e 6ab5 04be
00000210: 14f9 043e 702c 30bd 283f 48bd b04e 80be
00000220: cca5 903d 4b4b 02be def9 05be 0e7f a6bd
00000230: 4e58 e23d f87a 333a de87 11be da8f b2bc
00000240: 7edd 9a3a 1d87 ab3d 59f5 10be cf7f 18be
00000250: 017c 263d 814e 663c 439d 513e 8af3 20be
00000260: e404 e53d e697 f9bd 9692 85bb 2fe4 143d
00000270: 1883 383e 8f5d 38be 07c1 023e 41f9 75be
00000280: 1df3 1ebe b2f1 49bd d2ea 5a3d cf94 a7be
00000290: 7d59 2abe 686b 0abe 5f94 483c 26ed 9fbe
000002a0: 13c9 0d3e 6d42 dabd 4793 933c c5c2 773d
000002b0: 86c2 d4bd 12b5 d5bd 281e 8fbd 40a0 21be
000002c0: 7b82 adbc f2d7 3fbe adbd 0d3d 681c 453d
000002d0: 2e44 a3bb 675c c83d 34d6 93be 82c2 12be
000002e0: 040b b53d 05aa 933e 6490 e0bc 1ca1 cd3d
000002f0: 0a0c 04be b8b6 e83d 4b5e b43d efba 4cbc
00000300: 9aa1 8d3e f1e1 dfbd 74a9 053d 3687 b8bd
00000310: 9b5f e9bd bed2 b1bc aacc 67be ca0e 5a3d
00000320: 5475 233e f63c 013e 6620 363e bb97 563e
00000330: 59d6 ba3d ceab 013e 090a 2b3e a540 d9bc
00000340: 5996 b0bc b27b 39be 8e1c a7be 0277 0abd
00000350: 9baa 5cbc d780 283b 6ebe 8cbe 157d 47be
00000360: 947f d0be 93fe d23d 147a 6bbe baad 71be
00000370: b4b7 2e3e d912 b23d 5a71 b83d 93bc f8bc
00000380: 84b8 093e dedb 53be f4bc 5cbe 27e3 b1be
00000390: d56c 753e e3fc 1cbe 2b32 5cbc 9de2 843d
000003a0: 06d6 2ebe ac27 f73d ff37 783c 8c0e 333e
000003b0: 7bf8 ffbc a65a ce3d 13b1 89be fcc7 063e
000003c0: 37cd 26bd c542 af3d a0d7 67be 1cd4 89be
000003d0: 71a4 003e 272c 2e3e 4c68 fd3d 6319 23be
000003e0: 5cdd 983d caee 0cbd 038a 593e d30a 33be
000003f0: 6711 e2bd db1e b3bd 31e1 32bd ad7b 8dbd

riemannian.proj.3.bias f4 [48]
0.12164753 0.091679506 -0.17175984 0.02952328 0.10404494 -0.03713701 -0.19970834 -0.054629195
-0.07621777 0.090639725 0.028118672 -0.020997006 -0.03541714 -0.045324717 0.020962927 0.09162001
-0.022088865 0.12805332 0.16275652 -0.0715675 -0.04127384 0.055443566 -0.016501777 0.037015624
-0.058320582 -0.11856101 -0.014103241 0.10514088 -0.10666712 0.0058395807 -0.099000394 0.0862279
0.03584742 0.05311861 0.1254212 -0.0053716223 0.062074378 0.0763622 0.07369192 0.35068026
0.014583598 -0.0653905 -0.102130026 0.02458548 0.10411327 -0.12878856 0.017847475 -0.10170392
00000000: 5722 f93d 77c2 bb3d d0e1 2fbe ceda f13c
00000010: 8315 d53d fa1c 18bd 5880 4cbe ddc2 5fbd
00000020: 1018 9cbd 52a1 b93d 2159 e63c ea01 acbc
00000030: 9011 11bd 69a6 39bd 72ba ab3c 46a3 bb3d
00000040: b5f3 b4bc 6920 033e a5a9 263e fb91 92bd
00000050: c20e 29bd cb18 633d bc2e 87bc b29d 173d
00000060: 90e1 6ebd 1dd0 f2bd 4811 67bc 1a54 d73d
00000070: 4a74 dabd f459 bf3b b8c0 cabd 4198 b03d
00000080: bfd4 123d e692 593d 6a6e 003e 6f04 b0bb
00000090: b441 7e3d c963 9c3d caeb 963d 5d8c b33e
000000a0: 0bf0 6e3c 74eb 85bd 8c29 d1bd 7d67 c93c
000000b0: 5739 d53d 26e1 03be de34 923c 254a d0bd

cnn.block1.0.weight f4 [16, 1, 1, 64]
-0.07744817 -0.09770564 0.010898058 -0.041169792 0.039158706 0.02628915 0.07886663 0.07914005
0.16096614 0.016245158 -0.089058846 -0.08241055 -0.09794461 -0.08527751 0.043075815 0.09441436
0.15051556 0.11985472 0.12471527 -0.035848293 -0.17359237 -0.20369606 -0.23453072 -0.1592287
-0.05962493 0.19344445 0.20793246 0.21868527 0.0913504 -0.04201557 -0.18134049 -0.22695784
-0.096504144 0.024009967 0.06700472 0.16567889 0.23161016 0.11083268 0.06785034 -0.009002261
-0.09374932 -0.15342341 -0.08916277 -0.1294883 -0.05734302 0.024977883 0.14087093 0.09630528
0.04799706 -0.041995402 -0.030784221 -0.14329137 -0.12824668 -0.046175823 0.02282865 0.13728349
0.111981794 0.11034832 0.057879344 0.012549964 -0.07022972 -0.028534984 0.025968913 -0.031441014
-0.105606474 -0.06532852 -0.13820405 -0.14257671 0.034868773 -0.061828036 -0.004584851 0.16115537
0.07636905 0.035657704 0.09152055 0.19121227 0.08933298 0.119029455 0.026791362 0.13568565
-0.096417926 -0.10611851 -0.06864203 -0.26989615 -0.23382191 -0.052127324 -0.15596527 -0.029257352
0.021113658 -0.007028326 0.05214677 0.023449315 0.22206207 0.13261043 0.044587847 0.11808282
0.1920047 -0.06256378 -0.060965963 0.0033952317 0.02125148 -0.0045257146 0.011674622 0.09066208
0.005020439 -0.16313015 -0.0019995645 -0.070366375 -0.24563532 0.021496624 -0.08138364 -0.07038969
-0.026421392 -0.07000321 -0.012304757 0.019830575 0.1923944 0.22763497 0.10076605 0.044968817
0.14873862 0.065852314 -0.09094518 0.048573364 0.036845334 -0.08606618 -0.17673375 -0.114309944
0.060296547 -0.09975173 -0.124210104 -0.06832301 0.034477588 0.06885298 0.009763305 -0.021652255
0.009401602 -0.02674797 -0.13610388 -0.18238334 -0.08095386 0.08223834 0.21210515 0.22343864
0.19870745 0.11326545 0.017945543 -0.0814245 -0.18101987 -0.20829813 -0.08078836 0.052971054
0.13169481 0.14912795 0.11765847 0.03689109 -0.0711107 -0.1757951 -0.23141238 -0.15338853
-0.06672813 -0.014490168 0.036428504 0.11575282 0.17722291 0.1284462 0.013938879 -0.062408786
-0.06850081 -0.00040380564 0.05200927 0.08500565 0.087856896 0.11729747 0.1568497 0.0586667
-0.113055564 -0.22391982 -0.21486396 -0.117672406 -0.052365545 -0.019482512 -0.00015035822 0.06822752
0.09260738 0.043566596 -0.071732305 -0.099744 -0.05887756 0.036001764 0.085313916 0.12109167
0.15500768 0.0028222946 -0.09435191 -0.11385519 -0.045905534 0.041026916 0.07566021 0.076314695
0.025550283 -0.0011891795 -0.046902005 -0.039172843 0.044829126 0.09388273 0.09521076 0.024994098
-0.033153497 -0.12723573 -0.12525573 -0.04648818 0.082067356 0.17138158 0.22979078 0.14671776
-0.014916546 -0.18222664 -0.22784528 -0.20104757 -0.11688469 0.13424021 0.22254243 0.2771028
0.17420343 0.0151861645 -0.14276525 -0.21117024 -0.21293712 -0.09551858 0.063425206 0.187767
0.21505685 0.14670686 0.020914258 -0.07517182 -0.12199454 -0.11091618 -0.034706082 -0.009426188
0.12867278 0.1185456 0.059977133 0.005359323 -0.031155095 -0.06502124 0.025218707 0.08604757
0.06777513 0.027256738 -0.06897236 -0.031191994 -0.048051566 -0.012449426 0.028528262 0.10769209
00000000: 259d 9ebd e519 c8bd c58d 323c a8a1 28bd
00000010: e164 203d 585c d73c d484 a13d 2e14 a23d
00000020: 4fd4 243e 9114 853c 7c64 b6bd ddc6 a8bd
00000030: 2f97 c8bd faa5 aebd 4470 303d 515c c13d
00000040: c020 1a3e 6476 f53d b86a ff3d a9d5 12bd
00000050: 33c2 31be b395 50be d228 70be d90c 23be
00000060: 4539 74bd 4d16 463e 3fec 543e 08ef 5f3e
00000070: eb15 bb3d 8518 2cbd 52b1 39be a367 68be
00000080: f7a3 c5bd 8db0 c43c c539 893d baa7 293e
00000090: 372b 6d3e 3efc e23d 1ef5 8a3d 387e 13bc
000000a0: a5ff bfbd 071b 1dbe f89a b6bd 9598 04be
000000b0: 84e0 6abd 6b9e cc3c 7840 103e b43b c53d
000000c0: 9198 443d 5f03 2cbd 312f fcbc f9ba 12be
000000d0: 1953 03be dc22 3dbd 2603 bb3c 0b94 0c3e
000000e0: b656 e53d 4dfe e13d e412 6d3d 5d9e 4d3c
000000f0: 99d4 8fbd 33c2 e9bc c2bc d43c 4bc8 00bd
00000100: 3548 d8bd f6ca 85bd 5d85 0dbe a1ff 11be
00000110: 8fd2 0e3d 653f 7dbd 853c 96bb ea05 253e
00000120: 6067 9c3d d00d 123d 206f bb3d 26cd 433e
00000130: 36f4 b63d b7c5 f33d 8f79 db3c 2ef1 0a3e
00000140: c376 c5bd a954 d9bd 3194 8cbd d42f 8abe
00000150: 036f 6fbe 7683 55bd 5cb5 1fbe 1dad efbc
00000160: 8df6 ac3c df4d e6bb da97 553d c718 c03c
00000170: 3d64 633e 07cb 073e bfa1 363d 68d5 f13d
00000180: e19c 443e 7021 80bd 72b7 79bd 8982 5e3b
00000190: 9517 ae3c 724c 94bb ea46 3f3c 0aad b93d
000001a0: 7f82 a43b 970b 27be 200b 03bb 3f1c 90bd
000001b0: d387 7bbe b019 b03c 77ac a6bd 7828 90bd
000001c0: ad71 d8bc d85d 8fbd e499 49bc bb73 a23c
000001d0: 0a03 453e 2419 693e 6e5e ce3d 3931 383d
000001e0: f04e 183e 94dd 863d 7741 babd ddf4 463d
000001f0: 22eb 163d 7743 b0bd b1f9 34be 551b eabd
00000200: 83f9 763d a34a ccbd de61 febd efec 8bbd
00000210: 5f38 0d3d cb02 8d3d 45f6 1f3c 1260 b1bc
00000220: 2d09 1a3c 8f1e dbbc d15e 0bbe b3c2 3abe
00000230: 23cb a5bd 936c a83d 1832 593e 19cd 643e
00000240: f779 4b3e b7f7 e73d 8802 933c e3c1 a6bd
00000250: 465d 39be 1b4c 55be 5e74 a5bd 2df8 583d
00000260: 01db 063e ffb4 183e edf6 f03d 1d1b 173d
00000270: 7da2 91bd a103 34be 5ef7 6cbe e211 1dbe
00000280: c2a8 88bd 2b68 6dbc 0e36 153d d10f ed3d
00000290: ec79 353e 6787 033e e55f 643c 5ba0 7fbd
000002a0: 274a 8cbd e0b5 d3b9 ac07 553d 7117 ae3d
000002b0: 51ee b33d a839 f03d 359d 203e 7e4c 703d
000002c0: ad89 e7bd 3d4b 65be 4c05 5cbe 3bfe f0bd
000002d0: 417d 56bd ca99 9fbc 7aa9 1db9 dfba 8b3d
000002e0: f0a8 bd3d e372 323d 63e8 92bd 9546 ccbd
000002f0: 9929 71bd 9676 133d 10b9 ae3d e9fe f73d
00000300: 55ba 1e3e 3ff6 383b 933b c1bd e92c e9bd
00000310: 7107 3cbd d70b 283d bdf3 9a3d e14a 9c3d
00000320: d44e d13c 3ede 9bba 511c 40bd b473 20bd
00000330: bf9e 373d 9745 c03d dcfd c23d 6cc0 cc3c
00000340: f6cb 07bd 154a 02be 0a43 00be 646a 3ebd
00000350: ee12 a83d a77e 2f3e 464e 6b3e 2e3d 163e
00000360: 8764 74bc 9f99 3abe 4650 69be 6adf 4dbe
00000370: 3e61 efbd 4476 093e 2ae2 633e 6be0 8d3e
00000380: 6262 323e 64cf 783c 0e31 12be 033d 58be
00000390: 300c 5abe 3f9f c3bd 13e5 813d fe45 403e
000003a0: dd37 5c3e 533a 163e 6154 ab3c aff3 99bd
000003b0: 46d8 f9bd 0628 e3bd f727 0ebd 4c70 1abc
000003c0: ccc2 033e 09c8 f23d 95aa 753d 439d af3b
000003d0: f838 ffbc db29 85bd 7697 ce3c b539 b03d
000003e0: b0cd 8a3d 8649 df3c 6141 8dbd 5a86 ffbc
000003f0: b8d1 44bd adf8 4bbc 1ab4 e93c ac8d dc3d

cnn.block1.1.weight f4 [16]
3.943351 3.544967 4.0829086 2.8301768 4.509554 3.6765006 2.5861633 5.098939
2.1637948 1.8440067 0.25082442 3.360116 0.6881064 4.8312626 0.25357217 1.4090528
00000000: dd5f 7c40 bde0 6240 30a7 8240 9e21 3540
00000010: 444e 9040 c94b 6b40 b383 2540 822a a340
00000020: 9d7b 0a40 6908 ec3f 0f6c 803e 240c 5740
00000030: be27 303f b499 9a40 36d4 813e d85b b43f

cnn.block1.1.bias f4 [16]
-0.0112374015 0.020988954 -0.01349089 0.0036324009 -0.02752868 -0.017582081 0.00050823 0.014481977
0.002203316 -0.0014809661 0.033377286 -0.06052137 0.09519362 -0.02968066 0.0153332455 -0.0066806544
00000000: 141d 38bc 07f1 ab3c e508 5dbc 930d 6e3b
00000010: d483 e1bc 4c08 90bc bd3a 053a d045 6d3c
00000020: 8265 103b fa1c c2ba 9fb6 083d 42e5 77bd
00000030: dff4 c23d db24 f3bc 4b38 7b3c 64e9 dabb

cnn.block1.1.running_mean f4 [16]
3.3684508e-05 -0.00014342504 -2.3238585e-05 0.0004888285 -3.8690094e-05 -4.5357752e-05 -0.000103712846 -5.0190625e-05
0.0053051943 0.0025001185 -0.0002962326 8.847855e-05 -0.004853351 -0.0001657076 0.0044418555 0.0030564992
00000000: 7748 0d38 5e64 16b9 7bf0 c2b7 ba24 003a
00000010: 2c47 22b8 843e 3eb8 6980 d9b8 c683 52b8
00000020: 32d7 ad3b 07d9 233b ab4f 9bb9 8f8d b938
00000030: dc08 9fbb ccc1 2db9 fc8c 913b 8c4f 483b

cnn.block1.1.running_var f4 [16]
0.68497825 1.5088363 0.8924494 0.56394374 0.9215324 1.2668953 1.9506898 1.8599988
7.193091 1.8619187 2.371691 0.8552808 6.1879067 2.2146788 6.415052 4.4003334
00000000: bc5a 2f3f 8c21 c13f 9077 643f 9e5e 103f
00000010: 8ce9 6b3f a029 a23f 34b0 f93f 7114 ee3f
00000020: cd2d e640 5a53 ee3f c9c9 1740 aff3 5a3f
00000030: 5503 c640 4cbd 0d40 1b48 cd40 88cf 8c40

cnn.block1.2.weight f4 [32, 1, 22, 1]
-0.0017920097 -0.013689937 0.07456335 0.059621427 -0.04737739 -0.050174054 0.00012915891 -0.016486036
0.13244732 -0.098201156 -0.35287097 0.06450816 0.02860891 -0.08458432 0.030234283 -0.0075144805
-0.10429293 0.29854432 0.011693208 0.12130987 0.026785627 -0.0630443 0.029650789 -0.04128443
-0.043861162 0.12742424 0.026865363 -0.15394807 0.009267668 0.01752958 0.010324305 -0.023223925
0.08176084 -0.043081563 -0.051789403 0.0922037 -0.05258949 -0.047551334 0.06555022 0.06383434
-0.27578565 -0.10155653 -0.016559042 0.37158635 0.037330512 -0.20630649 -0.020901939 0.022788227
0.08208352 0.18537633 0.07647335 -0.013351125 0.108754545 -0.018254142 -0.06752486 -0.0112675475
-0.41669118 0.0058446005 0.013707748 -0.07120809 0.011127569 0.21319565 -0.013759775 0.009424181
-0.0004282886 -0.023128137 -0.0017166197 0.14424911 0.06658919 -0.27963352 0.10596042 0.09642434
-0.10415043 -0.027999552 0.13173102 -0.023782121 -0.021831417 0.3337966 -0.27458712 -0.07479719
-0.003024668 -0.122625634 -0.018410623 -0.052542932 0.06014296 0.10728378 0.0362891 -0.07497845
-0.055260614 0.06272893 0.0973456 0.074949265 -0.17658816 -0.0011959708 -0.045392107 0.072727494
0.23333345 0.08218999 -0.09278787 0.056679502 -0.03227498 -0.3617527 0.048956443 -0.1048156
-0.04125845 0.06395605 0.11231244 0.06254822 0.0614446 -0.11035477 -0.040365845 0.014642041
0.044791877 0.14367728 -0.0048276167 0.006815142 0.036856305 -0.19891964 -0.3148365 -0.11373783
0.041058034 0.017289756 0.01832348 0.2865808 0.12033638 0.0027778111 0.04443326 -0.10554154
0.056186337 -0.06039127 0.09875744 -0.08738117 -0.10848244 0.17519209 -0.040157817 0.06563253
0.033884067 0.041927528 -0.03404913 0.04176585 0.08106168 -0.39930284 0.115361154 0.14792733
-0.056622628 0.00085162657 0.012525064 -0.12081474 0.010181231 -0.028344557 -0.09725271 0.057022575
0.0475321 0.06905921 -0.0064855125 -0.023483472 -0.032902822 -0.16992562 0.00950452 0.021538096
0.04430285 -0.08577036 -0.04803416 0.4771476 -0.023882648 -0.08435095 0.0128754 -0.06305319
0.07792674 0.09661555 0.037897374 -0.05627169 0.018507622 -0.10537436 -0.08877204 -0.0033470318
0.03914783 -0.016573744 -0.022389313 -0.0042624255 0.006522962 -0.023385148 -0.014369791 -0.005364732
0.040274948 0.11427497 -0.090726756 0.15818612 0.0131874895 -0.026111918 0.12769166 -0.061514966
-0.4110574 -0.0028080512 -0.0418227 0.0782941 0.15326086 -0.023986405 0.013060062 -0.067625314
-0.01428647 0.0068681156 0.05221396 -0.018283479 -0.09882776 0.16943356 -0.11742547 -0.24523981
0.102746986 -0.009403015 0.00011234637 0.2642778 0.19590952 0.03214179 -0.016881425 -0.039981082
-0.14576714 -0.13720435 0.12301287 -0.0047723525 0.04793908 0.12923022 -0.21478783 0.02447318
0.06253565 0.05540331 0.20483537 -0.22809751 -0.32359105 0.07065438 0.04163499 -0.013067862
-0.050059933 0.024730554 0.12151463 0.0037327232 0.05480583 -0.018305006 0.12504107 -0.008841404
-0.13209312 0.017005641 -0.02273611 -0.028952505 -0.04197352 0.043519095 0.13829331 -0.03525304
0.014530109 -0.010462608 0.008191596 0.12761064 -0.10891341 0.08789113 0.074103005 -0.077599846
00000000: dee1 eaba c24b 60bc abb4 983d 9935 743d
00000010: cb0e 42bd 4f83 4dbd d56e 0739 b90d 87bc
00000020: 45a0 073e b01d c9bd 81ab b4be db1c 843d
00000030: 3c5d ea3c 8b3a adbd e3ad f73c 083c f6bb
00000040: 8897 d5bd cdda 983e de94 3f3c 4f71 f83d
00000050: 886d db3c 5f1d 81bd 36e6 f23c dd19 29bd
00000060: c3a7 33bd 807b 023e c014 dc3c 90a4 1dbe
00000070: 6bd7 173c 329a 8f3c 4627 293c 1a40 bebc
00000080: 3a72 a73d 4b76 30bd 2021 54bd 4bd5 bc3d
00000090: 1468 57bd 30c5 42bd 323f 863d 94bb 823d
000000a0: c733 8dbe dffc cfbd d4a6 87bc 9140 be3e
000000b0: e1e7 183d 0242 53be 8b3a abbc 60ae ba3c
000000c0: 681b a83d 4bd3 3d3e 0f9e 9c3d adbe 5abc
000000d0: b4ba de3d b689 95bc 794a 8abd 859b 38bc
000000e0: 8c58 d5be 1084 bf3b 7696 603c 8cd5 91bd
000000f0: 6850 363c f64f 5a3e ae70 61bc e167 1a3c
00000100: ec8b e0b9 3877 bdbc 3300 e1ba 0ab6 133e
00000110: ea5f 883d 202c 8fbe c701 d93d 207a c53d
00000120: d24c d5bd 515f e5bc 7fe4 063e b9d2 c2bc
00000130: cdd7 b2bc 63e7 aa3e af96 8cbe 452f 99bd
00000140: 8239 46bb 2623 fbbd e0d1 96bc 4237 57bd
00000150: 7758 763d 99b7 db3d e1a3 143d 4d8e 99bd
00000160: f458 62bd 0678 803d 215d c73d 007f 993d
00000170: 87d3 34be 1fc2 9cba 13ed 39bd 27f2 943d
00000180: f7ee 6e3e 3a53 a83d 9107 bebd c428 683d
00000190: c532 04bd a637 b9be 8d86 483d 90a9 d6bd
000001a0: 9ffe 28bd 64fb 823d 1104 e63d 4819 803d
000001b0: 55ad 7b3d af01 e2bd a856 25bd 2ce5 6f3c
000001c0: b077 373d 2320 133e fc30 9ebb 8e51 df3b
000001d0: a3f6 163d 97b1 4bbe 4032 a1be 61ef e8bd
000001e0: 782c 283d 3fa3 8d3c 1f1b 963c b8ba 923e
000001f0: ec72 f63d f00b 363b a6ff 353d 2a26 d8bd
00000200: a523 663d d65c 77bd 5741 ca3d e6f4 b2bd
00000210: 0b2c debd 8e65 333e 867c 24bd 596a 863d
00000220: 05ca 0a3d 33bc 2b3d 1a77 0bbd ab12 2b3d
00000230: ab03 a63d 6c71 ccbe 7842 ec3d 437a 173e
00000240: 21ed 67bd b13f 5f3a ed35 4d3c b86d f7bd
00000250: 2ecf 263c d832 e8bc 6e2c c7bd 8190 693d
00000260: 05b1 423d ea6e 8d3d 6c84 d4bb 6960 c0bc
00000270: 1cc5 06bd fb00 2ebe d9b8 1b3c a970 b03c
00000280: e876 353d 5fa8 afbd 78bf 44bd b14c f43e
00000290: 8ba5 c3bc 31c0 acbd 57f3 523c 0822 81bd
000002a0: 0e98 9f3d 60de c53d 473a 1b3d 257d 66bd
000002b0: 4c9d 973c 83ce d7bd 1ece b5bd e059 5bbb
000002c0: 7a59 203d a9c5 87bc cb69 b7bc d1ab 8bbb
000002d0: 92be d53b 3692 bfbc 466f 6bbc a2ca afbb
000002e0: 58f7 243d ff08 ea3d f3ce b9bd 8bfb 213e
000002f0: 5710 583c a9e8 d5bc 9ac1 023e 1ef7 7bbd
00000300: 1e76 d2be 4807 38bb 484e 2bbd a858 a03d
00000310: 6af0 1c3e 237f c4bc dff9 553c 247f 8abd
00000320: cc11 6abc ee0d e13b 4ede 553d 3cc7 95bc
00000330: 3566 cabd fe7f 2d3e c47c f0bd 2520 7bbe
00000340: 036d d23d 1a0f 1abc 809b eb38 6b4f 873e
00000350: 819c 483e 1ca7 033d ea4a 8abc 34c3 23bd
00000360: fb43 15be 4c7f 0cbe 2cee fb3d 6561 9cbb
00000370: c55b 443d ed54 043e 57f1 5bbe fa7b c83c
00000380: b112 803d 95ee 623d 5dc0 513e 6592 69be
00000390: baad a5be 3eb3 903d 7489 2a3d 961a 56bc
000003a0: a50b 4dbd bb97 ca3c aadc f83d b4a0 743b
000003b0: 147c 603d 61f4 95bc c40a 003e 89db 10bc
000003c0: 6b43 07be 6a4f 8b3c 1441 babc ce2d edbc
000003d0: 6dec 2bbd 1441 323d c39c 0d3e 7e65 10bd
000003e0: b20f 6e3c 5c6b 2bbc 0b36 063c 5dac 023e
000003f0: fe0d dfbd 4400 b43d 51c3 973d abec 9ebd

cnn.block1.3.weight f4 [32]
3.7315714 3.3219554 3.3760366 3.2787364 3.7919083 4.6738734 2.0186052 2.721626
4.09974 4.5308337 1.0906236 4.348169 0.39965945 3.6752298 0.60464525 5.8248143
1.328729 2.8153286 2.5347266 0.072377674 0.08006332 0.3066685 2.7004735 3.727034
1.0368786 0.2843582 3.5068684 5.6437 0.13919654 0.65148175 2.6252635 1.1072769
00000000: 11d2 6e40 eb9a 5440 fc10 5840 d1d6 5140
00000010: a0ae 7240 5f90 9540 d430 0140 1f2f 2e40
00000020: 1231 8340 97fc 9040 8e99 8b3f 3324 8b40
00000030: 2aa0 cc3e f736 6b40 08ca 1a3f e164 ba40
00000040: cb13 aa3f 582e 3440 f638 2240 bf3a 943d
00000050: 3df8 a33d a703 9d3e 8fd4 2c40 ba87 6e40
00000060: 70b8 843f 6697 913e 8870 6040 3199 b440
00000070: 8a89 0e3e 82c7 263f 5104 2840 40bb 8d3f

cnn.block1.3.bias f4 [32]
-1.630021 -1.2892275 -1.633773 -0.95453423 -1.5664788 -1.7907779 -0.6845291 -1.2687286
-2.6257145 -1.8150342 -0.30103642 -2.0290003 -0.04588327 -2.3791707 -0.028806083 -3.0674675
-0.31783864 -1.371296 -1.0843544 0.0025788308 -0.007770371 -0.015802277 -1.2028198 -1.8346977
-0.28892013 0.012393391 -2.1889489 -1.8348528 0.0001849815 -0.112405956 -0.8656342 -0.3571943
00000000: 87a4 d0bf 6805 a5bf 791f d1bf 5b5c 74bf
00000010: 6182 c8bf 3638 e5bf 4d3d 2fbf b365 a2bf
00000020: b50b 28c0 0a53 e8bf 7221 9abe 24db 01c0
00000030: 19f0 3bbd 5544 18c0 bcfa ebbc 6351 44c0
00000040: bfbb a2be a186 afbf 20cc 8abf 9a01 293b
00000050: 999e febb c773 81bc 00f6 99bf 60d7 eabf
00000060: 57ed 93be a60d 4b3c bd17 0cc0 75dc eabf
00000070: 98f7 4139 1835 e6bd 349a 5dbf 2ce2 b6be

cnn.block1.3.running_mean f4 [32]
0.00015691952 -0.0004878069 -0.0017943673 1.4025013e-05 0.0004022272 -0.0008264573 0.0020815867 -0.0010390746
-7.538318e-05 -0.002420468 0.00023545371 -0.00041769896 -0.0007599472 -0.00063476793 -0.00067976234 -0.00013351448
-0.0024861754 -0.0074167266 -0.0036528406 0.0040033874 -0.001731442 0.0018309823 -0.001651768 -0.00084558903
-0.0063779377 0.0025185202 -1.5697098e-06 -0.00031806715 -0.002571549 -0.0007799896 0.0011369443 0.0032774557
00000000: c38a 2439 55c0 ffb9 fa30 ebba f94c 6b37
00000010: 05e2 d239 9ca6 58ba 3b6b 083b 8f31 88ba
00000020: 0917 9eb8 b7a0 1ebb 20e4 7639 9bfe dab9
00000030: 3137 47ba 8e66 26ba 1432 32ba 0500 0cb9
00000040: 1aef 22bb 0308 f3bb 7f64 6fbb d92e 833b
00000050: 8ef1 e2ba 92fd ef3a 2380 d8ba 85aa 5dba
00000060: 05fe d0bb c20d 253b d1ae d2b5 40c2 a6b9
00000070: 6f87 28bb 3778 4cba 8505 953a 95ca 563b

cnn.block1.3.running_var f4 [32]
0.2902233 0.2770751 0.22497933 0.20809743 0.37722984 0.22250237 0.14999804 0.20362103
0.10319392 0.52143943 0.3067116 0.21937446 0.10746865 0.23548037 1.3923562 0.17908801
0.2531716 0.2788035 0.1330871 0.077740066 0.0010222006 0.00048302725 0.29807103 0.34299952
0.007084478 0.008587134 0.22530197 0.496688 0.0012727687 0.0017017276 0.038681466 0.022413174
00000000: 2698 943e cadc 8d3e fb60 663e 7e17 553e
00000010: 4524 c13e a9d7 633e 1699 193e 0882 503e
00000020: 5557 d33d 0e7d 053f 4e09 9d3e b3a3 603e
00000030: 8618 dc3d c421 713e ba38 b23f d962 373e
00000040: b59f 813e 55bf 8e3e fc47 083e 2f36 9f3d
00000050: 5cfb 853a d23e fd39 c49c 983e a29d af3e
00000060: e924 e83b 0db1 0c3c 8fb5 663e e44d fe3e
00000070: 08d3 a63a 810c df3a 7570 1e3d d59b b73c
