models/2a_LOSO/model_8.pth (torch, 985978 bytes, 93 tensors)

fusion_proj f4 [48, 48]
0.4715713 -0.0063812933 0.7945948 -0.6947753 -0.11657636 -0.39113533 0.61665046 -0.11584617
-2.018198 -0.7877959 0.85763526 0.15652353 -1.0196686 -0.43552783 0.09934966 -0.5144433
-0.25496924 1.3340107 -0.28263435 -0.026185395 -0.6633818 0.068223394 -2.125927 1.935562
1.2934128 1.6183894 0.6570747 -0.07652007 0.01970838 -0.74208724 0.4138006 -0.30020338
0.36052987 -1.1817199 1.2850581 -0.1114282 0.037848774 0.05881722 -0.22169381 1.1412802
-0.9093987 1.0264077 0.060474273 0.74177355 -2.0503263 -1.1837366 -0.30738872 -0.31609407
-0.93972117 -0.32787195 -2.1368203 0.13796124 -1.501799 -1.283989 1.9829831 -0.4200906
-0.36456087 -0.38865232 0.036427602 0.14822038 -0.6248108 0.22298194 -0.25361425 -0.114162154
-0.5072699 -0.96084 0.76689726 -0.52535295 -1.3584645 0.8639523 1.6891973 -1.5274014
0.10798427 0.8003833 1.3973386 1.3373901 -0.20803696 -1.732949 1.0906484 1.2610087
-1.0291439 0.011380593 -1.1573533 0.71610093 1.2697563 0.7812412 -1.7246748 -0.14030045
-2.0080762 -0.25680518 0.91943693 -0.8387845 0.41318738 0.37923047 -0.31051138 0.43624172
-0.049590163 0.57852554 -1.955519 0.8678739 -1.5302079 0.039489992 -0.107490696 -0.80542934
-1.4510862 -0.90107006 -1.5630258 0.17823023 -1.4440792 0.73302 0.2237033 1.4353497
0.6360004 0.13185957 0.6391457 -0.46865928 0.5490155 0.8159959 0.8786736 -0.44191635
2.2892668 -0.69814456 -1.9260507 0.87404406 0.4586824 -0.15937608 -0.7077542 -1.3645226
0.70082307 -0.4179217 -0.67289007 -0.67428464 0.7480888 -0.02995145 0.30616555 0.10455365
-0.19811751 -0.21260123 -0.15553433 1.1034948 0.9446772 1.626256 0.3828811 -0.079926334
-0.6767605 1.8481997 -0.8944701 -0.3344366 0.93945533 -0.3852487 0.68333685 0.9619455
-0.016509864 1.6063071 -0.020286048 -0.9551792 -0.5098689 1.3691772 0.12597303 1.203746
0.58496183 1.1323729 -0.09106085 0.2522018 -2.015163 0.5700321 2.494245 -0.017799288
0.8494131 0.6715214 2.801922 -0.8065972 -0.24611314 0.08953759 0.034996793 1.1082783
0.30869606 -0.65793115 1.3187417 0.51168853 -1.9483232 -1.0549664 0.49490276 0.87526155
-0.71476185 0.34298584 -0.03701477 0.36079025 0.42522383 -0.07199996 0.28564298 -0.3737932
-0.79868966 -0.13118513 0.555705 0.5170938 -1.0968901 1.3339458 0.45917675 -0.6495614
0.47820407 3.24298 -0.079409204 -0.61920625 -0.51998323 -0.16247384 1.2684474 -0.4860308
0.78684294 0.78856325 -0.74925166 -0.6204821 0.15003106 -1.4126822 -0.7513616 0.60090053
0.7344841 -0.3992233 -0.44048628 0.29103273 -0.72076535 0.09172865 0.15306537 1.4066144
0.53869045 -0.6059333 -0.2832561 0.23784912 1.6151065 -0.5884351 0.12153107 -2.0225441
-0.2133629 -0.9574865 -0.8502316 0.45313814 -0.4997489 0.33713558 -0.42328116 -2.110083
-0.79507846 0.04696432 0.3998242 1.3878201 0.680594 0.09296275 0.59059775 -2.0021367
1.5939028 0.46258587 2.3444269 0.48940855 -1.0123947 0.68949085 2.752309 -0.2718808
00000000: cb71 f13e 2b1a d1bb 916a 4b3f cbdc 31bf
00000010: 96bf eebd e442 c8be cedc 1d3f c240 edbd
00000020: 282a 01c0 feac 49bf fc8d 5b3f b447 203e
00000030: 8084 82bf 81fd debe d677 cb3d 8eb2 03bf
00000040: 548b 82be ddc0 aa3f 73b5 90be c182 d6bc
00000050: 64d3 29bf b5b8 8b3d 300f 08c0 7fc0 f73f
00000060: 8d8e a53f 6227 cf3f 0c36 283f 8eb6 9cbd
00000070: 7873 a13c 6ef9 3dbf acdd d33e 42b4 99be
00000080: 5f97 b83e 9942 97bf c97c a43f 7834 e4bd
00000090: 5107 1b3d 53ea 703d b403 63be 7815 923f
000000a0: 5ace 68bf 5461 833f dfb3 773d dfe4 3d3f
000000b0: 8c38 03c0 ae84 97bf 0e62 9dbe 15d7 a1be
000000c0: 9191 70bf d5de a7be aac1 08c0 b645 0d3e
000000d0: f33a c0bf c059 a4bf 64d2 fd3f 1d16 d7be
000000e0: b9a7 babe 70fd c6be 1c35 153d 15c7 173e
000000f0: 9af3 1fbf 6155 643e bad9 81be d9cd e9bd
00000100: 71dc 01bf 9cf9 75bf 6153 443f 887d 06bf
00000110: 2ae2 adbf fa2b 5d3f 9e37 d83f e481 c3bf
00000120: db26 dd3d ece5 4c3f fedb b23f 992f ab3f
00000130: a407 55be 46d1 ddbf 5e9a 8b3f bc68 a13f
00000140: fdba 83bf ab75 3a3c 2724 94bf 6452 373f
00000150: 6087 a23f 6cff 473f 25c2 dcbf ecaa 0fbe
00000160: 5284 00c0 f87b 83be 3860 6b3f 95ba 56bf
00000170: 4c8d d33e 7f2a c23e 59fb 9ebe 135b df3e
00000180: 0e1f 4bbd 401a 143f 724e fabf fc2c 5e3f
00000190: dadd c3bf 42c0 213d 1524 dcbd 9e30 4ebf
000001a0: 31bd b9bf 87ac 66bf 3b11 c8bf fc81 363e
000001b0: 96d7 b8bf 33a7 3b3f 7a12 653e 8ab9 b73f
000001c0: ecd0 223f 3206 073e 0d9f 233f 1cf4 efbe
000001d0: 488c 0c3f 1be5 503f c1f0 603f dc42 e2be
000001e0: 5983 1240 9ab9 32bf d488 f6bf 5ac1 5f3f
000001f0: 6bd8 ea3e 7c33 23be 612f 35bf ada8 aebf
00000200: 2469 333f d5f9 d5be 8642 2cbf eb9d 2cbf
00000210: bf82 3f3f be5c f5bc bbc1 9c3e 3920 d63d
00000220: 51df 4abe 23b4 59be 6444 1fbe 513f 8d3f
00000230: 5dd6 713f 2829 d03f fe08 c43e 6bb0 a3bd
00000240: 2d40 2dbf cf91 ec3f fefb 64bf 463b abbe
00000250: 2580 703f 513f c5be 2aef 2e3f 0f42 763f
00000260: b23f 87bc 799b cd3f ed2e a6bc a086 74bf
00000270: c586 02bf 3341 af3f 13ff 003e 5914 9a3f
00000280: 0fc0 153f 98f1 903f 1c7e babd 9820 813e
00000290: 6ef8 00c0 a0ed 113f b6a1 1f40 d0cf 91bc
000002a0: 2373 593f d4e8 2b3f b152 3340 277d 4ebf
000002b0: 1505 7cbe 7c5f b73d cc58 0f3d 10dc 8d3f
000002c0: 690d 9e3e 2d6e 28bf 87cc a83f 05fe 023f
000002d0: a862 f9bf 2409 87bf e563 fd3e 2411 603f
000002e0: a2fa 36bf d79b af3e cd9c 17bd 80b9 b83e
000002f0: f0b6 d93e b774 93bd cc3f 923e d361 bfbe
00000300: ed76 4cbf 6555 06be af42 0e3f 4260 043f
00000310: e566 8cbf bcbe aa3f 3719 eb3e a849 26bf
00000320: 2ad7 f43e fc8c 4f40 4ba1 a2bd 4d84 1ebf
00000330: 9f1d 05bf 8b5f 26be 7c5c a23f 07d9 f8be
00000340: 8a6e 493f 48df 493f f5ce 3fbf ead7 1ebf
00000350: bea1 193e c5d2 b4bf 3c59 40bf 9ed4 193f
00000360: 2607 3c3f ff66 ccbe 6b87 e1be 3e02 953e
00000370: 1484 38bf 3bdc bb3d 2bbd 1c3e f10b b43f
00000380: 9ee7 093f 721e 1bbf f206 91be b88e 733e
00000390: cfbb ce3f afa3 16bf 48e5 f83d 5d71 01c0
000003a0: ce7b 5abe d61d 75bf c7a8 59bf b901 e83e
000003b0: 16df ffbe 099d ac3e 4fb8 d8be 9a0b 07c0
000003c0: 438a 4bbf a95d 403d c2b5 cc3e 17a4 b13f
000003d0: 693b 2e3f 4163 be3d 6a31 173f 0223 00c0
000003e0: 0205 cc3f 0ed8 ec3e 170b 1640 c293 fa3e
000003f0: 2696 81bf 7982 303f d525 3040 f633 8bbe

pos_enc f4 [1, 500, 48]
1.6375929 -1.4661981 -0.50576544 2.82184 -0.7174528 0.8102486 1.0427507 0.44892302
0.39442596 -0.19302356 0.23348585 0.50112665 0.46390173 0.4555157 1.1231776 1.0831811
0.6769764 0.2535515 -0.7127362 1.1852556 1.1231381 -1.0840774 -0.45730686 0.8942156
0.73527235 0.49327546 1.2332464 0.35042372 -0.77679443 -0.34427878 0.38891655 -0.613505
1.4556575 0.8063648 -0.58866423 -0.7598141 1.0395143 0.67652726 0.17414322 0.5093859
-0.2413441 0.21479225 0.6892702 -0.085741095 -0.24299368 -0.48720023 -1.460957 0.035631094
0.65618384 -0.6076843 -0.22496668 1.0366961 1.9672792 -1.8246295 0.08794035 0.92838734
0.83514196 -1.2858855 -1.9986802 -0.6507073 -0.22428973 -1.4966422 0.19588213 -0.7397176
1.2019908 1.6634988 -0.56784993 -0.41319945 -0.99966455 2.2268107 -0.50226927 0.57160604
-0.3583153 -0.56066644 -1.5060207 0.67193824 -0.05325792 2.5293906 0.9481625 0.058080807
1.3727102 1.419854 -0.32692647 1.8772053 0.6833483 1.5582888 -0.06545615 0.21668957
-1.0314376 -1.1740606 2.300122 0.6330636 0.1357528 0.8049832 0.41180518 1.9904758
-0.41298348 -0.11622555 1.6244297 1.1340159 -0.7867124 0.3094445 -1.1666803 -2.404938
2.556392 0.85208297 1.2893201 -3.0409067 -0.6306794 -0.44830045 -2.0923648 -0.041985415
1.0911939 0.24682122 -0.38688514 1.1062468 1.5318567 0.8852444 0.31599972 0.5585148
-0.8837368 1.6169323 2.0367768 -0.47504383 0.2404205 0.645605 1.6671444 0.6400641
-2.227028 -2.2279084 -0.26598454 -2.1115732 1.7987992 -1.5113394 -0.672062 -1.3878467
2.591129 -1.2982715 -1.5035725 0.8419094 1.8159347 1.5201479 0.9461917 2.3233128
-0.41425386 -0.8163867 -0.029361771 0.91381884 0.4064093 2.4036813 0.44876528 -2.4304497
0.53364176 0.73050284 2.9459326 -0.40458733 0.12647384 0.6806972 0.0014844493 -0.17631048
-1.0779451 0.2920892 -0.7441706 1.5813961 1.2389722 1.2955582 0.890888 0.033492435
-0.3043223 -0.050243504 -1.2555596 0.6978826 -0.5825988 -0.6932297 -0.27555665 0.33413517
0.95034665 0.089307904 -0.4192183 -1.4898801 0.93910176 0.6276851 1.5656507 1.5127017
-1.2910941 0.8224281 -0.16854295 -2.8182375 1.328285 0.0062609464 -2.3958938 -0.053619776
-2.8228016 2.3782957 0.88837206 -2.4706633 0.3766697 1.3355953 0.049669325 -1.9954277
0.99121034 0.5471556 -1.5095267 3.602082 0.75328434 0.64660656 1.6843983 0.37523314
-1.135927 -0.8539149 0.015706424 1.4207045 0.40975866 0.088886246 0.5395794 -1.0040982
-0.19690293 0.47826406 -1.0619591 0.90446645 1.0490727 1.8181014 -3.0253844 -0.10076537
1.146644 0.31677487 -1.2029455 -0.8406954 -0.8760746 -0.16380769 0.7023712 1.7657937
-1.6001877 0.7857282 1.0135589 1.4715394 -0.1536176 -1.2976428 0.6440591 -4.0090556
-1.2513312 -0.57802594 1.5941348 0.471976 3.021498 0.88970536 1.283589 -0.284232
0.13423951 -0.19600166 -1.2542334 0.8980667 0.40579906 2.2769413 0.7578375 0.29107744
00000000: a59c d13f 61ac bbbf d879 01bf 0799 3440
00000010: fdaa 37bf 746c 4f3f db78 853f 3dd9 e53e
00000020: 33f2 c93e f8a7 45be ea16 6f3e d649 003f
00000030: 8784 ed3e 5b39 e93e 49c4 8f3f aea5 8a3f
00000040: 534e 2d3f 81d1 813e e175 36bf 75b6 973f
00000050: fdc2 8f3f 0cc3 8abf 2024 eabe 50eb 643f
00000060: cf3a 3c3f 9a8e fc3e 05db 9d3f bd6a b33e
00000070: 00dc 46bf 4f45 b0be 1220 c73e aa0e 1dbf
00000080: fc52 ba3f ec6d 4e3f b3b2 16bf 2d83 42bf
00000090: ce0e 853f e430 2d3f 9a52 323e 1d67 023f
000000a0: e822 77be 80f2 5b3e 0374 303f 0799 afbd
000000b0: 56d3 78be 4f72 f9be a400 bbbf e9f1 113d
000000c0: aafb 273f 3391 1bbf aa5d 66be 75b2 843f
000000d0: cecf fb3f 768d e9bf 121a b43d cbaa 6d3f
000000e0: ddcb 553f e597 a4bf c1d4 ffbf c194 26bf
000000f0: 35ac 65be f991 bfbf 5395 483e 225e 3dbf
00000100: d6da 993f 87ed d43f 9d5e 11bf e18e d3be
00000110: 04ea 7fbf 1184 0e40 b894 00bf c654 123f
00000120: 1a75 b7be d687 0fbf 49c5 c0bf 2504 2c3f
00000130: fa24 5abd 89e1 2140 c7ba 723f 24e6 6d3d
00000140: f8b4 af3f c7bd b53f e862 a7be 4348 f03f
00000150: eaef 2e3f 0276 c73f e00d 86bd dfe3 5d3e
00000160: 2606 84bf 9e47 96bf 3335 1340 7510 223f
00000170: c802 0b3e 6113 4e3f 21d8 d23e e9c7 fe3f
00000180: 9272 d3be a907 eebd 50ed cf3f 6f27 913f
00000190: fc65 49bf 826f 9e3e c855 95bf 81ea 19c0
000001a0: ed9b 2340 1c22 5a3f 7108 a53f 379e 42c0
000001b0: 3574 21bf a387 e5be 4ee9 05c0 e6f8 2bbd
000001c0: 3eac 8b3f b4be 7c3e cf15 c6be 7f99 8d3f
000001d0: e113 c43f 619f 623f b7ca a13e d3fa 0e3f
000001e0: 933c 62bf a3f7 ce3f 8d5a 0240 f238 f3be
000001f0: cb30 763e 5f46 253f fd64 d53f 3edb 233f
00000200: a087 0ec0 0d96 0ec0 202f 88be 0424 07c0
00000210: 0d3f e63f 9273 c1bf 410c 2cbf f6a4 b1bf
00000220: 0fd5 2540 c32d a6bf 1075 c0bf 6087 573f
00000230: 8c70 e83f 3594 c23f 9f39 723f 28b1 1440
00000240: 1519 d4be b8fe 50bf 1988 f0bc 08f0 693f
00000250: e114 d03e ead5 1940 90c4 e53e 7d8c 1bc0
00000260: bf9c 083f 3c02 3b3f 298a 3c40 1226 cfbe
00000270: 5c82 013e 2c42 2e3f da91 c23a bc8a 34be
00000280: 1bfa 89bf b78c 953e f781 3ebf 306b ca3f
00000290: a496 9e3f dad4 a53f 3c11 643f 5d2f 093d
000002a0: 22d0 9bbe 22cc 4dbd 2db6 a0bf 6fa8 323f
000002b0: 3225 15bf 8077 31bf c315 8dbe c413 ab3e
000002c0: eb49 733f 10e7 b63d c8a3 d6be 64b4 bebf
000002d0: f968 703f f9af 203f 3e67 c83f 36a0 c13f
000002e0: 9242 a5bf a68a 523f 8696 2cbe 015e 34c0
000002f0: 3e05 aa3f a028 cd3b 5356 19c0 69a0 5bbd
00000300: c8a8 34c0 ff35 1840 5a6c 633f 591f 1ec0
00000310: dada c03e c9f4 aa3f 1072 4b3d 2d6a ffbf
00000320: f6bf 7d3f 6412 0c3f 2c38 c1bf 8388 6640
00000330: 3ed7 403f 0288 253f 5d9a d73f 8f1e c03e
00000340: 0e66 91bf 2b9a 5abf c2aa 803c a5d9 b53f
00000350: e3cb d13e fe09 b63d e021 0a3f 4a86 80bf
00000360: eca0 49be 07df f43e 47ee 87bf 1d8b 673f
00000370: 0448 863f 8cb7 e83f e69f 41c0 135e cebd
00000380: 3bc5 923f 5130 a23e 1efa 99bf d037 57bf
00000390: 6d46 60bf 34bd 27be 99ce 333f 8705 e23f
000003a0: f3d2 ccbf 7c25 493f 4cbc 813f 675b bc3f
000003b0: ef4d 1dbe 2919 a6bf 0fe1 243f 2f4a 80c0
000003c0: 9f2b a0bf 82f9 13bf 9c0c cc3f d7a6 f13e
000003d0: 3960 4140 bbc3 633f a54c a43f db86 91be
000003e0: 1576 093e a9b4 48be b88a a0bf b3e7 653f
000003f0: e5c4 cf3e 68b9 1140 a301 423f 1a08 953e

riemannian.proj.0.weight f4 [256, 253]
-0.084015846 0.039962124 -0.084309556 0.1829168 -0.0059833745 -0.04428117 -0.072412945 0.08140484
-0.029021204 -0.04802433 0.045894545 0.010392028 -0.04192974 0.1611398 0.040048283 -0.08798368
0.010048922 -0.03094883 0.01444125 -0.11005741 0.123423874 -0.040187277 0.09162588 -0.013160057
0.030338584 0.014480869 -0.035141353 -0.08386649 -0.11962282 0.00890189 -0.009566538 0.007731091
0.015136824 0.021884112 0.03401023 -0.029919298 0.01544224 -0.067393824 -0.016322574 -0.030191617
-0.042923115 -0.024507651 0.03240722 0.11421859 -0.04789879 0.0056213406 0.06282717 -0.049351707
0.017914573 -0.023569606 -0.025163768 -0.010926238 0.009915765 0.03126783 0.07903193 -0.06440607
-0.079821005 0.057265207 0.037628267 0.018737148 0.091694705 0.08243053 0.0017876948 0.12100392
-0.042176053 -0.08529332 0.03272303 -0.011820302 -0.00980152 -0.041852847 -0.04965939 -0.029014567
-0.11259348 0.034587126 0.050339896 0.033792287 0.06993527 0.028688911 -0.018694608 -0.04598374
-0.022048023 -0.02163416 -0.026636666 -0.09380634 0.112614855 -0.04907086 -0.024451464 0.08032334
-0.04241965 0.052183595 -0.02099184 0.1381641 -0.022873104 0.10208885 0.050136585 -0.012813078
-0.11283386 0.020144189 -0.0150733525 -0.02698604 0.09174133 0.13433896 0.13334188 0.041129876
-0.020628167 -0.07550729 -0.0843363 0.04004681 -0.07837975 -0.034451496 0.07801899 0.00049675856
-0.010187041 0.023786917 -0.054933775 -0.0027544994 -0.18081605 -0.031718086 0.058666214 -0.09598982
0.0076186815 0.10522737 0.118407354 0.083612844 -0.05070134 -0.04834084 -0.057734802 -0.011966157
0.08666377 0.06537395 0.055568833 -0.08996818 -0.02027252 0.14371279 0.073231146 -0.015793895
-0.046553716 -0.030786837 -0.05974125 0.002327031 -0.042239577 -0.10319492 0.050946403 -0.060622968
-0.14860483 -0.10174178 0.020649089 0.15726109 0.14422376 0.012311968 0.10838257 0.020485805
-0.02285447 0.05912672 -0.10992167 -0.017322632 -0.03436329 0.08505031 -0.023795636 0.19570959
0.044963196 0.0098563135 0.028910333 -0.044201847 -0.0085909385 0.038576733 0.01438349 -0.12418647
0.05459589 0.090717226 0.014182733 0.046050414 -0.03634544 -0.05952106 0.09763083 0.04906499
-0.009035822 -0.029904986 0.08047427 0.07257872 0.051308636 0.05235969 -0.16521095 0.055702224
0.042761624 -0.03511371 -0.011964335 0.05366542 -0.03779248 0.0020751567 -0.10554688 0.03408994
0.026659954 0.014891365 -0.0752832 -0.046600763 0.027276041 -0.06911698 0.08260853 -0.033603165
0.07185925 0.0030988646 0.08437049 0.08232071 -0.041048598 -0.012073231 0.0077718413 -0.066156566
0.042230062 0.063578114 0.10086096 -0.017862165 0.0164608 -0.026399007 0.11663057 0.0054354304
0.024264185 -0.0420512 -0.051452287 -0.080246314 0.0659597 -0.14840396 -0.029720541 -0.019649671
0.025827983 0.08143082 -0.043298423 -0.07657877 0.0040367898 -0.060495824 -0.048254807 -0.05112331
-0.03645987 0.03636954 0.047934614 0.12824443 -0.04446159 0.01737806 0.111967586 0.032225862
-0.11802868 0.025471507 -0.00044850458 0.12142688 -0.082023524 0.17947921 0.059186913 -0.053433865
-0.014086607 0.06961481 0.00037752616 0.04090386 0.08777873 0.123212166 -0.049921896 -0.058012236
00000000: 8010 acbd 53af 233d 7daa acbd 8b4e 3b3e
00000010: 2f10 c4bb 2c60 35bd 3d4d 94bd 95b7 a63d
00000020: e0bd edbc 29b5 44bd ebfb 3b3d 5343 2a3c
00000030: 85be 2bbd d501 253e ab09 243d ca30 b4bd
00000040: 3ca4 243c 6788 fdbc fe9a 6c3c c865 e1bd
00000050: a8c5 fc3d 6a9b 24bd 59a6 bb3d 489d 57bc
00000060: 9f88 f83c 2b41 6d3c 61f0 0fbd 32c2 abbd
00000070: cffc f4bd 3cd9 113c f8bc 1cbc 1855 fd3b
00000080: 7100 783c 4f46 b33c 504e 0b3d 5119 f5bc
00000090: 7301 7d3c c605 8abd ebb6 85bc 6954 f7bc
000000a0: 26d0 2fbd 45c4 c8bc 6fbd 043d 70eb e93d
000000b0: 8631 44bd 3933 b83b 88ab 803d 0425 4abd
000000c0: 95c1 923c 0c15 c1bc 3f24 cebc f703 33bc
000000d0: bc75 223c b212 003d 7edb a13d 54e7 83bd
000000e0: 3279 a3bd ec8e 6a3d 1920 1a3d a67e 993c
000000f0: 6fca bb3d 56d1 a83d 1551 ea3a e7d0 f73d
00000100: ccc0 2cbd 44ae aebd 9508 063d f1a9 41bc
00000110: 8e96 20bc e46d 2bbd a567 4bbd f5af edbc
00000120: 6997 e6bd 3bab 0d3d 3531 4e3d c869 0a3d
00000130: 393a 8f3d 0205 eb3c 6f25 99bc 7259 3cbd
00000140: 0e9e b4bc 1f3a b1bc 2335 dabc 8a1d c0bd
00000150: 9ea2 e63d 87fe 48bd 704e c8bc 9080 a43d
00000160: 3ac0 2dbd 77be 553d 14f7 abbc e47a 0d3e
00000170: 6060 bbbc f613 d13d 055c 4d3d f2ed 51bc
00000180: 7015 e7bd 6d05 a53c 39f6 76bc d411 ddbc
00000190: e1e2 bb3d 2790 093e c68a 083e cd77 283d
000001a0: 67fc a8bc 91a3 9abd 83b8 acbd 2008 243d
000001b0: 9085 a0bd 031d 0dbd 6cc8 9f3d e738 023a
000001c0: 8ce7 26bc c8dc c23c 3d02 61bd d584 34bb
000001d0: d827 39be d3ea 01bd fc4b 703d 5096 c4bd
000001e0: 22a6 f93b 7381 d73d 8e7f f23d 363d ab3d
000001f0: 35ac 4fbd 0b01 46bd 547b 6cbd b30d 44bc
00000200: c67c b13d c7e2 853d 259c 633d 3d41 b8bd
00000210: 8e12 a6bc 7229 133e 36fa 953d 3362 81bc
00000220: 1caf 3ebd ad34 fcbc 3eb3 74bd 1a81 183b
00000230: 6803 2dbd dc57 d3bd 2dad 503d ca4f 78bd
00000240: dd2b 18be ff5d d0bd 4728 a93c 0d09 213e
00000250: 65af 133e 23b8 493c aef7 dd3d d9d1 a73c
00000260: 4c39 bbbc dc2e 723d 9d1e e1bd 31e8 8dbc
00000270: 85c0 0cbd db2e ae3d 11ef c2bc 1868 483e
00000280: 542b 383d 607c 213c 5dd5 ec3c ff0c 35bd
00000290: 02c1 0cbc a302 1e3d bba8 6b3c 7a55 febd
000002a0: f19f 5f3d f4c9 b93d b25e 683c 5c9f 3c3d
000002b0: f5de 14bd 5bcc 73bd acf2 c73d 5ff8 483d
000002c0: fc0a 14bc 4dfb f4bc b2cf a43d 27a4 943d
000002d0: 0129 523d 1d77 563d 0f2d 29be 0428 643d
000002e0: d026 2f3d 65d3 0fbd 0f06 44bc 45d0 5b3d
000002f0: 4acc 1abd 5aff 073b f628 d8bd e5a1 0b3d
00000300: fa65 da3c e9fa 733c 142e 9abd 71e0 3ebd
00000310: 0172 df3c 348d 8dbd a92e a93d 79a3 09bd
00000320: f12a 933d 5216 4b3b 6fca ac3d c397 a83d
00000330: 9322 28bd cdce 45bc eeaa fe3b 187d 87bd
00000340: 6ef9 2c3d 3e35 823d 3190 ce3d ad53 92bc
00000350: cdd8 863c bb42 d8bc 02dc ee3d b21b b23b
00000360: afc5 c63c e13d 2cbd a2bf 52bd 2e58 a4bd
00000370: e115 873d 35f7 17be 7e78 f3bc 59f8 a0bc
00000380: 3595 d33c 34c5 a63d b059 31bd 55d5 9cbd
00000390: 0c47 843b 78ca 77bd d5a6 45bd ad66 51bd
000003a0: f256 15bd 3af8 143d 1657 443d 8252 033e
000003b0: 5b1d 36bd 6f5c 8e3c 434f e53d 44ff 033d
000003c0: 05b9 f1bd 9fa9 d03c 4425 ebb9 a8ae f83d
000003d0: f3fb a7bd 66c9 373e fa6d 723d 78dd 5abd
000003e0: 83cb 66bc 3692 8e3d b4ee c539 ce8a 273d
000003f0: 56c5 b33d a956 fc3d e77a 4cbd 3d9e 6dbd

riemannian.proj.0.bias f4 [256]
-0.024435349 0.023613866 -0.0015913382 -0.01865786 0.018151466 0.016581777 -0.00686708 -0.0038771261
-0.0002147774 0.02347243 0.0055739684 0.004932274 -0.016007097 0.009965781 0.015893102 -0.07130654
-0.009582251 -0.0017722829 0.003487964 -0.0017183946 0.023746517 0.017036974 -0.016394945 0.010322862
-0.003036897 -0.03147232 -0.013056853 0.005221701 -0.01462937 -0.02267875 -0.0071572196 -0.0072967424
-0.0012464644 0.0017934012 0.011232021 -0.0050981063 -0.007846651 0.010260746 0.0063938852 0.010381337
0.008120348 0.049885556 -0.009913038 0.00807833 0.023037523 0.050259493 -0.002913799 0.016824786
0.0011740874 0.02452183 0.042729404 0.023058036 -0.017612966 0.00019581 0.015122024 0.017485464
-0.0031251938 0.02489279 -0.0028413052 -0.015138296 -0.019370018 -0.032137178 0.011913395 -0.0046662716
-0.025651664 -0.009136268 -0.017138666 -0.01806778 0.014418541 -0.0037465405 -0.008456804 0.003242418
0.006121518 -0.009926668 0.024901794 -0.016615612 0.017255446 0.008878252 0.01753681 0.034078628
-0.018043479 -0.0009474998 0.0071545336 0.008539229 0.016185213 0.00980468 -0.010614576 0.0061158743
0.021281216 0.0035153392 0.00043507363 0.012173143 0.018647883 -0.014400531 -0.03197174 -0.0070563923
0.008930429 -0.018529417 0.032026567 0.012972452 0.0005936438 -0.017807093 -0.02648743 -0.005298692
-0.009623147 -0.005592677 0.023060415 0.015742602 -0.023062702 -0.011580068 0.0016487263 -0.018136352
0.013444395 0.030977255 0.01033582 -0.030796496 0.0042697554 -0.014973306 -0.016004656 0.012622509
-0.003951589 -0.019851753 -0.027130928 -0.022583265 -0.034798905 -0.01740353 0.008357165 -0.0062554837
0.02049619 0.013978027 -0.026346333 0.006004519 -0.0021276213 0.010672043 -0.021165365 0.0011633501
-0.010496897 -0.0092373155 -0.014225069 -0.0148762185 -0.037867628 0.008899366 -0.008650669 -7.654756e-05
0.005569229 -0.04808025 0.007105955 -0.0039165737 -0.038013373 -0.0054417807 0.004831349 0.0074114054
0.015019341 0.015334621 -0.000814116 0.0081418995 -0.015764156 -0.01319982 -0.0039266855 0.0047442466
0.010186733 0.005062587 -0.0054104715 -0.0008570981 -0.008803647 0.0052033416 -0.0046920683 -0.0021014488
-0.0016216486 -0.010495771 0.015692124 -0.017013593 0.0083994055 0.0096339295 -0.028781146 -0.004275207
-0.008245415 0.03859569 -0.023647273 -0.0030756877 -0.02597159 0.010452766 -0.058890454 0.0015820113
-0.022101052 -0.010683081 -0.022821316 -0.033753976 0.0015194275 -0.015867699 0.027932134 0.020307727
0.01609254 -0.011909747 -0.0035210864 -0.022301339 -0.025511825 0.004769419 -0.008579445 0.010562952
0.038111407 0.01483771 0.018624093 0.002312163 -0.001343803 0.01130993 0.034430612 -0.0113737555
-0.0027041899 -0.0029636556 -0.011171743 0.012133979 0.026142826 0.013164886 -9.098451e-05 0.011329244
-0.022617187 0.00070587726 0.020965109 0.014851982 0.0015211412 0.0022672357 -0.03334129 0.043909967
0.008772147 0.000364747 -0.0086897975 -0.03869159 -0.0026694 0.017194454 -0.028196212 -0.0015861321
0.007475309 0.012769774 -0.030891096 0.010035287 -0.006654778 0.028605515 -0.012099346 0.00017590451
-0.008988592 -0.016113652 -0.0045788335 -0.017057411 -0.01493788 -0.005344791 -0.031528585 0.015297759
0.011926169 -0.012208637 -0.014092006 0.012498327 -0.014571053 0.013744107 0.0021554434 -0.025974175
00000000: a42c c8bc de71 c13c 7394 d0ba 5ed8 98bc
00000010: 62b2 943c 82d6 873c 3e05 e1bb 6217 7ebb
00000020: df35 61b9 4149 c03c d6a5 b63b ea9e a13b
00000030: 5121 83bc 8447 233c 4032 823c 2a09 92bd
00000040: e0fe 1cbc f24b e8ba 5396 643b c13b e1ba
00000050: 0e88 c23c 2091 8b3c b14e 86bc 3921 293c
00000060: ad06 47bb 1fe9 00bd 69ec 55bc ce1a ab3b
00000070: 06b0 6fbc c9c8 b9bc 1c87 eabb 8319 efbb
00000080: 6860 a3ba 8f10 eb3a 8306 383c 040e a7bb
00000090: 3d8f 00bc b01c 283c cc83 d13b 7c16 2a3c
000000a0: 350b 053c cc54 4c3d 4c6a 22bc f95a 043c
000000b0: 30b9 bc3c e6dc 4d3d 6ff5 3ebb 22d4 893c
000000c0: d6e3 993a 01e2 c83c 0705 2f3d 35e4 bc3c
000000d0: 1149 90bc 5952 4d39 5ec2 773c ad3d 8f3c
000000e0: 0dd0 4cbb f7eb cb3c 3135 3abb 9e06 78bc
000000f0: dfad 9ebc 46a2 03bd 6630 433c 86e7 98bb
00000100: 7023 d2bc 49b0 15bc 6366 8cbc e202 94bc
00000110: bf3b 6c3c 8588 75bb 688e 0abc bf7e 543b
00000120: 0497 c83b 77a3 22bc d9fe cb3c 771d 88bc
00000130: 4b5b 8d3c 1676 113c 5ba9 8f3c 0896 0b3d
00000140: ebcf 93bc a361 78ba 9470 ea3b 1fe8 0b3c
00000150: da96 843c cfa3 203c c2e8 2dbc ac67 c83b
00000160: f255 ae3c 9b61 663b 981a e439 dd71 473c
00000170: 72c3 983c 34f0 6bbc cdf4 02bd 4f39 e7bb
00000180: ef50 123c 01cb 97bc 4a2e 033d 688a 543c
00000190: c39e 1b3a 2ee0 91bc 2bfc d8bc a6a0 adbb
000001a0: 67aa 1dbc c642 b7bb 32e9 bc3c a1f6 803c
000001b0: feed bcbc 53ba 3dbc 131a d83a b092 94bc
000001c0: e145 5c3c 03c4 fd3c 9257 293c ef48 fcbc
000001d0: 4ee9 8b3b 9952 75bc 321c 83bc a4ce 4e3c
000001e0: 557c 81bb 25a0 a2bc ae41 debc 8a00 b9bc
000001f0: 4c89 0ebd d991 8ebc 7eec 083c cdfa ccbb
00000200: a0e7 a73c 1804 653c 44d4 d7bc 8ec1 c43b
00000210: 906f 0bbb cbd9 2e3c fd62 adbc 8d7b 983a
00000220: 2dfb 2bbc 1c58 17bc 4410 69bc 62bb 73bc
00000230: 161b 1bbd a5ce 113c 89bb 0dbc 2988 a0b8
00000240: 147e b63b ccef 44bd 12d9 e83b 9a56 80bb
00000250: e9b3 1bbd f750 b2bb 4b50 9e3b 60db f23b
00000260: af13 763c 103e 7b3c 666a 55ba 9a65 053c
00000270: d523 81bc 0f44 58bc 6dab 80bb a075 9b3b
00000280: 41e6 263c 0fe4 a53b 534a b1bb e1ae 60ba
00000290: 2c3d 10bc cb80 aa3b ecbf 99bb 76b8 09bb
000002a0: 7f8d d4ba 74f6 2bbc c58c 803c 1760 8bbc
000002b0: a99d 093c a1d7 1d3c 70c6 ebbc 0917 8cbb
000002c0: c717 07bc 8416 1e3d edb7 c1bc 7a91 49bb
000002d0: 5fc2 d4bc 1442 2b3c 1e37 71bd 7e5b cf3a
000002e0: 440d b5bc 1708 2fbc c5f3 babc 9c41 0abd
000002f0: 8727 c73a fafc 81bc eed1 e43c 645c a63c
00000300: 81d4 833c 1921 43bc 07c2 66bb 4cb1 b6bc
00000310: 2dfe d0bc c948 9c3b cd90 0cbc 3b10 2d3c
00000320: b51a 1c3d de19 733c 8e91 983c a887 173b
00000330: 8c22 b0ba 494d 393c 1d07 0d3d fd58 3abc
00000340: c738 31bb e439 42bb b009 37bc 99cd 463c
00000350: 7b29 d63c 89b1 573c f0ce beb8 4b9e 393c
00000360: ae47 b9bc 9f0a 393a 05bf ab3c ba55 733c
00000370: 0761 c73a e795 143b e090 08bd f0da 333d
00000380: 0db9 0f3c 833b bf39 a75f 0ebc 137b 1ebd
00000390: 1af1 2ebb 62db 8c3c befb e6bc c3e5 cfba
000003a0: 70f3 f43b 5038 513c 530f fdbc 0b6b 243c
000003b0: 5310 dabb 1d56 ea3c 563c 46bc 0273 3839
000003c0: e344 13bc c700 84bc 0a0a 96bb fcbb 8bbc
000003d0: 03be 74bc 5b23 afbb 1e24 01bd 74a3 7a3c
000003e0: fa65 433c bc06 48bc 28e2 66bc c8c5 4c3c
000003f0: 6dbb 6ebc f72e 613c 5742 0d3b cbc7 d4bc

riemannian.proj.3.weight f4 [48, 256]
0.14560702 -0.15259561 0.067985 -0.13744068 -0.09819793 0.007420377 -0.085008696 0.21493115
0.07094517 -0.1162237 -0.12678197 -0.13067862 0.06028512 -0.08741155 0.1358134 0.14631623
-0.010430552 -0.049206197 0.15203333 -0.09821351 -0.022480112 0.09064429 -0.07020273 -0.03941928
-0.14982273 -0.116040334 -0.0014110957 -0.12477313 0.1347542 -0.08184236 0.045989122 -0.05341621
0.06584867 -0.027798686 -0.021702312 -0.102323614 0.030171556 0.10281432 -0.017224412 0.036131095
0.19132231 -0.022069732 -0.090642326 0.0051274947 0.013744973 0.08353772 0.028657902 0.004763489
0.11272463 -0.14196715 -0.017250096 0.1318667 -0.009855396 0.10780599 -0.016082238 -0.09476294
-0.051065307 0.0016566111 0.024377434 0.17185795 0.08635928 -0.03148665 -0.023113787 0.009971123
-0.00747743 -0.08034487 0.051021736 0.033421453 0.071022004 0.021397872 0.09257461 0.057859138
-0.10521308 -0.022836074 0.03792265 0.13968502 -0.07319229 -0.045750126 0.014817676 0.16745162
0.06400534 0.08375283 0.04145278 -0.101850815 0.003509162 -0.047573082 0.06690008 -0.04279683
0.03277676 -0.22706082 -0.032547448 -0.10163669 0.07977698 -0.07164021 0.09544357 -0.2076289
-0.061723743 -0.018222725 -0.018316807 0.12908138 -0.08433754 -0.019448087 0.005062656 -0.12317999
0.12036014 0.012633203 0.07066618 0.060538623 0.003078812 0.049403124 -0.053761967 0.04792278
0.001970065 0.043154776 -0.049549147 0.1734692 0.07203407 0.016966715 -0.0012274322 -0.013231037
-0.07982184 0.08119989 0.03084371 0.010435035 0.025175735 0.15940775 -0.1203074 0.016202807
-0.16625762 -0.23379698 -0.08168923 0.12754904 0.06314258 -0.020504454 0.09042342 0.060344234
-0.116572924 -0.17685892 -0.013258672 0.15158145 -0.030569697 0.05842015 0.058809813 -0.03214839
-0.021558411 0.031005045 0.07635366 0.024967052 0.04394827 -0.0018396181 -0.010855737 -0.14343351
-0.046591118 -0.06892072 0.047728166 -0.053355522 0.06140506 -0.010272011 -0.0616129 0.03687984
0.10793814 -0.076688185 0.054433413 -0.14725937 0.05896417 -0.032301556 0.06603424 -0.12968197
0.08491721 0.05095671 -0.26624966 0.013010156 -0.11349921 0.115684025 -0.09831807 -0.1844538
-0.015510679 -0.08732268 0.18666813 -0.019233804 -0.024225937 0.01976857 0.12971911 -0.0033655036
-0.06456946 -0.12504523 -0.06942776 -0.1427718 -0.07203605 0.09995953 0.028924562 -0.015225262
-0.12649944 -0.04143469 -0.12168298 0.017297167 -0.09594117 0.024394795 0.074271455 -0.06964556
-0.15032344 -0.038411908 -0.082250014 0.06895101 0.06299991 0.030794507 0.044872005 0.15066339
-0.038997434 0.18241589 0.05852214 0.054756314 0.08582592 -0.07806436 0.00085741136 -0.027476028
0.042567663 -0.15396811 0.10707778 -0.028052077 0.026488341 -0.0471232 0.06597213 -0.12610722
-0.033199668 0.024665384 -0.063113555 0.016717002 0.0632671 -0.12445795 -0.06771007 0.0674057
0.07316938 0.085112296 0.077908084 -0.10294576 -0.040861838 -0.028934104 -0.046496913 -0.053755607
-0.07896047 -0.092949845 0.07653232 -0.078764476 0.080395445 -0.16019413 0.0786755 -0.1556369
-0.04781751 0.09077422 0.027242862 0.030267017 -0.005443148 -0.051106144 -0.14764313 -0.016702827
00000000: 021a 153e 0642 1cbe b83b 8b3d 40bd 0cbe
00000010: ff1b c9bd a226 f33b 0a19 aebd e916 5c3e
00000020: b44b 913d b106 eebd 22d3 01be 9ed0 05be
00000030: 88ed 763d d404 b3bd ab12 0b3e ecd3 153e
00000040: e8e4 2abc 708c 49bd a0ae 1b3e 2a24 c9bd
00000050: 3628 b8bc b7a3 b93d 73c6 8fbd 1c76 21bd
00000060: 216b 19be 8ea6 edbd 84f4 b8ba 0e89 ffbd
00000070: 01fd 093e f89c a7bd 175f 3c3d f5ca 5abd
00000080: abdb 863d 12ba e3bc 0cc9 b1bc 0b8f d1bd
00000090: 572a f73c 5090 d23d 361a 8dbc 33fe 133d
000000a0: ffe9 433e 95cb b4bc afa2 b9bd 8b04 a83b
000000b0: 9832 613c d315 ab3d fac3 ea3c 0b17 9c3b
000000c0: 2cdc e63d d65f 11be 1350 8dbc 1008 073e
000000d0: 8778 21bc 63c9 dc3d e6be 83bc 1313 c2bd
000000e0: db29 51bd a522 d93a 2fb3 c73c 88fb 2f3e
000000f0: 22dd b03d 25f8 00bd 2059 bdbc ec5d 233c
00000100: 3b05 f5bb da8b a4bd 2bfc 503d efe4 083d
00000110: fc73 913d 974a af3c c297 bd3d b4fd 6c3d
00000120: f579 d7bd b812 bbbc c854 1b3d 9709 0f3e
00000130: d7e5 95bd 7c64 3bbd d6c5 723c 7078 2b3e
00000140: 3b15 833d 9b86 ab3d 64ca 293d 2997 d0bd
00000150: f8f9 653b fedb 42bd e902 893d bb4b 2fbd
00000160: ed40 063d a282 68be 7950 05bd e626 d0bd
00000170: 1d62 a33d 1ab8 92bd eb77 c33d ac9c 54be
00000180: 09d2 7cbd d347 95bc 210d 96bc e92d 043e
00000190: 29b9 acbd 9851 9fbc a3e4 a53b ca45 fcbd
000001a0: 617f f63d 7efb 4e3c 6eb9 903d 59f7 773d
000001b0: e5c5 493b ee5a 4a3d 8235 5cbd ad4a 443d
000001c0: 351c 013b 10c3 303d 0cf4 4abd e9a1 313e
000001d0: 9986 933d c8fd 8a3c cae1 a0ba fec6 58bc
000001e0: a279 a3bd 214c a63d f3ab fc3c b6f7 2a3c
000001f0: 583d ce3c c93b 233e ba63 f6bd c0bb 843c
00000200: 703f 2abe 7a68 6fbe af4c a7bd 379c 023e
00000210: e650 813d f5f8 a7bc ea2f b93d 842b 773d
00000220: c9bd eebd 811a 35be e73a 59bc 2b38 1b3e
00000230: 4d6d fabc f849 6f3d 8fe2 703d 08ae 03bd
00000240: 449b b0bc 4bfe fd3c 4f5f 9c3d b487 cc3c
00000250: 1a03 343d 571f f1ba 43dc 31bc 3ce0 12be
00000260: 54d6 3ebd 4e26 8dbd 9c7e 433d 528b 5abd
00000270: df83 7b3d f04b 28bc cf5d 7cbd 510f 173d
00000280: ac0e dd3d b20e 9dbd 92f5 5e3d 29cb 16be
00000290: 6a84 713d a34e 04bd f63c 873d 5acb 04be
000002a0: 13e9 ad3d fcb7 503d e051 88be 8d28 553c
000002b0: 4672 e8bd bfeb ec3d fc5a c9bd 75e1 3cbe
000002c0: 8120 7ebc 3cd6 b2bd ee25 3f3e 3690 9dbc
000002d0: 7975 c6bc b2f1 a13c 16d5 043e c88f 5cbb
000002e0: fe3c 84bd db0b 00be 2430 8ebd c532 12be
000002f0: a387 93bd 95b7 cc3d 34f3 ec3c 6173 79bc
00000300: 1289 01be 6cb7 29bd ed34 f9bd cab2 8d3c
00000310: ce7c c4bd 98d7 c73c a21b 983d 55a2 8ebd
00000320: 63ee 19be ce55 1dbd b272 a8bd 3036 8d3d
00000330: 1906 813d c344 fc3c b5cb 373d 8147 1a3e
00000340: c6bb 1fbd 3bcb 3a3e e9b4 6f3d 2848 603d
00000350: 80c5 af3d 35e0 9fbd e7c3 603a 6815 e1bc
00000360: 6e5b 2e3d d1a9 1dbe 984b db3d 78cd e5bc
00000370: 14fe d83c 4204 41bd 651c 873d 4022 01be
00000380: 60fc 07bd 0f0f ca3c ae41 81bd 18f2 883c
00000390: 2e92 813d cfe3 febd 94ab 8abd 000c 8a3d
000003a0: d4d9 953d 5b4f ae3d 468e 9f3d 3ad5 d2bd
000003b0: be5e 27bd 3707 edbc 8c73 3ebd d72e 5cbd
000003c0: 07b6 a1bd 7d5c bebd fabc 9c3d 454f a1bd
000003d0: 5ea6 a43d ee09 24be 9f20 a13d 485f 1fbe
000003e0: 4bdc 43bd d6e7 b93d 6c2c df3c 89f2 f73c
000003f0: 6f5c b2bb ad54 51bd c32f 17be 5ed4 88bc

riemannian.proj.3.bias f4 [48]
-0.015448743 -0.00876764 0.016897678 0.043288827 -0.029844576 0.019879857 -0.0043752007 0.014975581
-0.029833991 -0.01960071 0.000544554 0.026414907 -0.038609322 0.02173104 -0.018009324 0.01037868
0.043690648 0.028295636 -0.007700161 -0.0060536517 0.012959361 -0.011862686 0.00023324725 0.0952483
0.12190141 0.027126238 0.008319511 -0.004659545 -0.030558467 0.081502 0.03306051 0.08179661
0.051870186 0.001615024 -0.05540994 -0.015853906 -0.006845942 0.015327926 -0.007775007 0.016838213
0.02487128 0.045656532 0.03919559 -0.027566465 0.013163525 -0.013930377 -0.02428134 0.023596274
00000000: b91c 7dbc 26a6 0fbc 006d 8a3c a04f 313d
00000010: 9d7c f4bc 15db a23c d85d 8fbb 245c 753c
00000020: 6a66 f4bc ab91 a0bc 66c0 0e3a 1364 d83c
00000030: cf24 1ebd 4b05 b23c 4a88 93bc 570b 2a3c
00000040: f7f4 323d 40cc e73c a251 fcbb b65d c6bb
00000050: 8053 543c b65b 42bc d593 7439 8a11 c33d
00000060: 72a7 f93d d837 de3c 8f4e 083c 19af 98bb
00000070: c055 fabc 85ea a63d 756a 073d fb84 a73d
00000080: d575 543d 37af d33a 89f5 62bd 0de0 81bc
00000090: ed53 e0bb fb21 7b3c 7cc5 febb 4bf0 893c
000000a0: dbbe cb3c 5802 3b3d 8e8b 203d 11d3 e1bc
000000b0: d3ab 573c 3c3c 64bc a9e9 c6bc f94c c13c

cnn.block1.0.weight f4 [16, 1, 1, 64]
0.044467337 -0.082807004 -0.05172646 0.017110117 0.07310489 0.04806056 0.033965517 0.04501933
-0.017936936 0.07250407 -0.014442815 -0.011360045 -0.060412843 0.035703216 0.018926896 -0.07642147
-0.12194671 -0.024146305 -0.010523345 -0.017035902 0.0350957 0.02497536 -0.009377633 0.1196244
-0.03944088 0.016762711 0.059175126 0.013737314 0.057380542 -0.023972413 0.049852684 -0.01159832
0.037585463 -0.03756235 0.007481175 -0.05432927 -0.0019278533 -0.066094354 -0.072521195 -0.046280805
0.04757816 -0.028931156 0.028856494 0.06792442 0.1031467 -0.005823358 -0.08719739 -0.035118148
-0.07060799 0.0013622608 0.042351257 0.12983763 0.10984879 0.13584308 -0.047149103 -0.077088475
-0.1375186 -0.10551009 -0.028325569 -0.11083237 0.019336615 -0.027614255 0.0717693 0.10065693
0.071686365 -0.033923544 -0.007014254 -0.10572742 -0.10909779 -0.113918915 -0.12419931 -0.09574398
-0.0049743587 -0.043652643 0.021620356 0.055626493 0.057839073 0.0965524 0.116881154 0.102391325
0.091995336 0.104685575 0.0120432405 0.0013861035 -0.040696517 -0.024519246 -0.029184658 -0.03995724
-0.07083079 -0.04780766 -0.03765613 -0.066096246 0.001124866 0.005364884 -0.04301184 -0.035917096
-0.026258592 0.0074802237 0.031890914 0.030344216 0.062492814 0.076186754 0.09160414 0.03967302
-0.043741282 0.041836664 -0.028434113 -0.06609279 -0.08772445 -0.06649556 -0.07541805 -0.062066168
-0.042327266 -0.06886481 -0.019058576 -0.04620011 -0.037390925 -0.05485589 0.02084315 0.009288051
0.02258078 0.03921816 0.022672547 0.06540684 0.017025659 0.03285437 -0.04646574 -0.08491455
0.07250513 0.059301108 -0.029997014 -0.07903606 -0.04168956 0.0691652 -0.042746674 -0.05762446
-0.043513067 -0.019081715 0.017339164 -0.00277269 -0.03396622 -0.017834157 -0.017037744 -0.023556782
-0.059832647 -0.13173606 -0.11372617 -0.070529684 -0.035125226 -0.06419056 -0.09970416 -0.000887626
-0.09402306 -0.08978278 -0.08737659 -0.1182665 -0.06341221 -0.0075275493 -0.012553838 -0.084412344
-0.022267276 0.042030215 -0.07615494 -0.09308076 -0.08458746 -0.07951271 0.011171277 0.021805346
-0.021212783 -0.044571 -0.032627895 0.058700733 -0.007817047 -0.00739453 -0.03367031 -0.01360066
0.039587017 0.10451442 0.008888086 -0.0034033796 0.035632607 0.036857814 0.028109519 0.059284043
-0.03752785 0.013085378 0.0027636492 0.04786427 0.09118555 0.10827254 0.049114395 0.1808331
0.16054997 0.0675571 0.037563194 -0.029549006 -0.09230051 -0.10073266 -0.109445855 -0.09888912
-0.039364193 -0.010217599 0.064199515 -0.008042308 -0.0022991397 0.084490776 0.023433443 0.051745884
0.040418886 -0.015959585 0.0753424 0.03263171 0.11894957 -0.006703588 0.02478362 0.012930407
0.031004013 -0.07763701 -0.068758406 -0.1081498 -0.09201321 -0.11768502 -0.017857982 -0.011734482
-0.040364906 0.03660695 0.11231396 0.07899927 0.016753368 0.039771155 0.060404032 0.08257946
0.054224785 0.06858349 -0.032203693 -0.012473883 0.036551546 -0.087206736 -0.08195445 -0.069982976
-0.05527046 -0.033598796 -0.025723504 0.0036157882 -0.01624181 -0.006814723 0.072091274 -0.0013605714
0.08904109 -0.006970236 0.09882466 0.068057746 -0.03167839 0.03715861 -0.0432705 -0.12176508
00000000: 6223 363d b896 a9bd 20df 53bd 842a 8c3c
00000010: 04b8 953d 26db 443d 6d1f 0b3d 3066 383d
00000020: 7bf0 92bc 047d 943d 8fa1 6cbc 7b1f 3abc
00000030: 7573 77bd 893d 123d 940c 9b3c dc82 9cbd
00000040: 32bf f9bd 79ce c5bc 1c6a 2cbc e08e 8bbc
00000050: 82c0 0f3d 2099 cc3c a5a4 19bc a3fd f43d
00000060: c38c 21bd f451 893c 9e61 723d 7912 613c
00000070: dc07 6b3d cb61 c4bc 5432 4c3d e106 3ebc
00000080: 37f3 193d fbda 19bd a524 f53b 5e88 5ebd
00000090: 06b0 fcba 7a5c 87bd fe85 94bd f190 3dbd
000000a0: 51e1 423d 0801 edbc 7464 ec3c f51b 8b3d
000000b0: 943e d33d ded1 bebb 8c94 b2bd 0cd8 0fbd
000000c0: ec9a 90bd e38d b23a 8378 2d3d 28f4 043e
000000d0: 67f8 e03d 731a 0b3e 6b1f 41bd 90e0 9dbd
000000e0: add1 0cbe ad15 d8bd 060b e8bc 15fc e2bd
000000f0: d267 9e3c 4a37 e2bc c8fb 923d 3825 ce3d
00000100: 4dd0 923d 6af3 0abd d4d7 e5bb 9e87 d8bd
00000110: aa6e dfbd 524e e9bd 355c febd 6b15 c4bd
00000120: f2ff a2bb 1dcd 32bd 2c1d b13c 9bd8 633d
00000130: aae8 6c3d 44bd c53d 635f ef3d 8bb2 d13d
00000140: 0d68 bc3d 6465 d63d 0351 453c eaad b53a
00000150: 64b1 26bd 96dc c8bc aa14 efbc 34aa 23bd
00000160: bc0f 91bd f7d1 43bd 503d 1abd 785d 87bd
00000170: 3d70 933a e9cb af3b 2f2d 30bd ce1d 13bd
00000180: 421c d7bc aa1c f53b 0ca0 023d 6f94 f83c
00000190: 77f8 7f3d cd07 9c3d f49a bb3d 2d80 223d
000001a0: 0f2a 33bd ec5c 2b3d a8ee e8bc a85b 87bd
000001b0: e0a8 b3bd d32e 88bd c774 9abd 1839 7ebd
000001c0: 5b5f 2dbd fe08 8dbd bb20 9cbc 543c 3dbd
000001d0: 3a27 19bd 92b0 60bd 41bf aa3c e92c 183c
000001e0: 54fb b83c 39a3 203d c7bb b93c 05f4 853d
000001f0: 6579 8b3c 4e92 063d dc52 3ebd aee7 adbd
00000200: 927d 943d b8e5 723d 4cbc f5bc a8dd a1bd
00000210: acc2 2abd 7ca6 8d3d 2317 2fbd a007 6cbd
00000220: c23a 32bd 4251 9cbc dd0a 8e3c 05b6 35bb
00000230: 2a20 0bbd f018 92bc bd92 8bbc 27fa c0bc
00000240: 1413 75bd d1e5 06be 44e9 e8bd de71 90bd
00000250: 78df 0fbd 5776 83bd b231 ccbd 93af 68ba
00000260: 298f c0bd 09e0 b7bd 7ff2 b2bd b535 f2bd
00000270: 43de 81bd a9a9 f6bb 9dae 4dbc 61e0 acbd
00000280: dd69 b6bc e027 2c3d 1ff7 9bbd 20a1 bebd
00000290: 313c adbd 8fd7 a2bd bb07 373c 20a1 b23c
000002a0: 6ec6 adbc 1590 36bd d4a4 05bd 2e70 703d
000002b0: 1213 00bc d04d f2bb e1e9 09bd 4dd5 5ebc
000002c0: ff25 223d a80b d63d 569f 113c 3c0b 5fbb
000002d0: 7ff3 113d 38f8 163d ef45 e63c d3d3 723d
000002e0: ceb6 19bd 0e64 563c 571e 353b 530d 443d
000002f0: 7dbf ba3d febd dd3d 2d2c 493d 502c 393e
00000300: 3667 243e 605b 8a3d dddb 193d c210 f2bc
00000310: 0d08 bdbd ed4c cebd 2625 e0bd 6186 cabd
00000320: 593c 21bd b767 27bc 097b 833d e2c3 03bc
00000330: 2aad 16bb 8009 ad3d 7ef7 bf3c 7ef3 533d
00000340: 468e 253d adbd 82bc 1e4d 9a3d d4a8 053d
00000350: d59b f33d c6a9 dbbb 0507 cb3c 0fda 533c
00000360: 21fc fd3c 2700 9fbd 35d1 8cbd a47d ddbd
00000370: 6c71 bcbd d804 f1bd e74a 92bc fc41 40bc
00000380: ac55 25bd 2bf1 153d dd04 e63d 5fca a13d
00000390: 5c3e 893c 14e7 223d 386a 773d 6c1f a93d
000003a0: cf1a 5e3d 8075 8c3d 05e8 03bd 425f 4cbc
000003b0: 13b7 153d 7299 b2bd bcd7 a7bd 3c53 8fbd
000003c0: 4763 62bd e49e 09bd 19ba d2bc dcf6 6c3b
000003d0: 8b0d 85bc 0a4e dfbb 97a4 933d 3355 b2ba
000003e0: 2d5b b63d 9466 e4bb 9564 ca3d dc61 8b3d
000003f0: 33c1 01bd a033 183d 683c 31bd f85f f9bd

cnn.block1.1.weight f4 [16]
1.5058178 1.7122858 0.8373558 2.1753197 0.82219595 1.0054616 0.92778414 0.6985164
0.79615766 1.9179934 2.0583637 2.633456 2.3587358 1.3945564 1.8665698 0.30441374
00000000: a3be c03f 2e2c db3f f35c 563f 7038 0b40
00000010: 6f7b 523f f7b2 803f 4383 6d3f f9d1 323f
00000020: fdd0 4b3f cf80 f53f 3bbc 0340 8b8a 2840
00000030: 87f5 1640 d380 b23f c2eb ee3f 1edc 9b3e

cnn.block1.1.bias f4 [16]
-0.015528197 -0.00041778508 0.0005271321 0.0107399635 -0.022265745 0.0346067 0.0010425935 0.01706701
-0.003396246 0.003735844 0.0024208892 -0.038487136 0.006151701 0.01813677 -0.010618324 -0.016397547
00000000: fb69 7ebc 2a0a dbb9 3d2f 0a3a acf6 2f3c
00000010: a766 b6bc c1bf 0d3d a2a7 883a 1dd0 8b3c
00000020: 8d93 5ebb 10d5 743b c8a7 1e3b b0a4 1dbd
00000030: 3594 c93b 9093 943c 7bf8 2dbc 2654 86bc

cnn.block1.1.running_mean f4 [16]
-6.0290175e-05 0.000437893 -8.479151e-06 4.4515335e-05 -0.0010853681 0.00016069452 -0.00032805518 -0.0015394179
-0.0013518695 -5.6930196e-05 0.00011647134 8.53753e-05 9.4084695e-05 0.0012387843 0.00031181207 0.0010519578
00000000: 15e0 7cb8 0195 e539 ad41 0eb7 fab5 3a38
00000010: e942 8eba 1b80 2839 d2fe abb9 4bc6 c9ba
00000020: 3731 b1ba 55c8 6eb8 1342 f438 840b b338
00000030: 564f c538 b45e a23a b57a a339 d9e1 893a

cnn.block1.1.running_var f4 [16]
0.29229912 0.79767966 0.97074515 0.5441771 0.82010686 0.42661965 0.55345505 1.631913
1.1043231 0.30512908 0.82917136 0.28570566 0.3221248 1.0553495 0.3837149 0.63582706
00000000: 3ba8 953e bc34 4c3f c182 783f 314f 0b3f
00000010: 86f2 513f e46d da3e 3baf 0d3f 86e2 d03f
00000020: 765a 8d3f e139 9c3e 9344 543f 0348 923e
00000030: 8bed a43e b115 873f 4876 c43e 90c5 223f

cnn.block1.2.weight f4 [32, 1, 22, 1]
-0.052204333 -0.076697595 -0.029278683 -0.0003717029 0.14445977 0.092922114 0.022710472 0.00648993
-0.0242751 0.07200288 0.09968837 -0.04593774 -0.05870887 0.021062842 0.047213484 -0.0018067559
-0.10188172 -0.117339306 -0.053265132 -0.0024776298 0.022061128 0.044342652 -0.016101414 -0.004150639
-0.16015859 -0.061637815 0.106040366 0.03666711 0.23202159 0.092349865 -0.043944687 -0.0045243627
-0.020427285 -0.04845496 0.086215734 0.024533719 -0.11895435 0.067953005 0.010748157 -0.05745126
-0.021949034 -0.07208445 0.060649354 0.02387645 0.035782207 -0.016134784 -0.06743845 0.003577185
-0.013905548 0.03046774 -0.0954282 -0.17282832 -0.011626539 -0.014876706 0.05248021 0.06575473
0.027215548 -0.09412407 -0.012570539 0.048416466 0.070014276 0.09155272 0.01547474 0.0063141943
0.023515388 -0.124719985 -0.02424786 0.111874804 0.012155512 -0.028783305 -0.09678826 -0.02394657
0.2664761 -0.056313664 0.014978163 0.06045645 -0.0044687376 -0.08677638 -0.15135862 -0.061767116
-0.048877437 -0.049698766 0.105796695 0.080566555 0.05437134 -0.032278895 0.042354174 -0.04035399
0.06808963 -0.04585774 0.037023235 -0.05791806 -0.02608055 -0.006593624 -0.047865584 0.018230587
0.07675107 0.057816092 -0.046711992 0.0056254407 -0.015046778 0.094327874 -0.090613 -0.19827467
0.033527195 0.0680499 0.078524895 0.069861196 0.07311994 -0.15695894 0.013628457 -0.05293862
0.018078102 0.09856433 -0.0318508 -0.018128429 -0.007919884 0.13406669 -0.028225748 0.0009863346
-0.0469739 -0.021907311 0.029048234 0.024090119 -0.07026379 -0.10637196 -0.10905522 0.04966469
0.00827912 0.015451318 0.13411944 -0.028899593 -0.08194262 0.020974161 -0.08589753 0.04794102
0.18516333 0.067668706 0.019688882 -0.032548904 0.05802278 0.008094544 0.054360155 -0.09834557
0.009124644 0.011402113 0.0066203736 -0.03705199 -0.075527914 -0.21171252 -0.017556384 -0.006213223
0.1397008 0.005875711 -0.008090661 0.05013588 0.047417995 -0.06820964 0.008459442 -0.0411579
0.045326415 -0.011149023 0.10405256 0.055014465 -0.0024792452 0.045036595 -0.0012148143 -0.073807254
-0.08687357 0.11815749 -0.10470178 0.0069519402 -0.2305528 0.025915636 0.008183474 0.09813493
0.06427028 0.094827905 -0.017777251 -0.038315363 -0.07074314 -0.069575384 0.04042989 0.0155642545
0.045743547 0.049875244 -0.08479529 0.04274895 -0.041005854 -0.13668965 -0.05574912 0.06404948
0.110606976 0.08158912 -0.13535817 -0.05090615 0.11821101 0.012318728 0.0009238381 -0.04893934
-0.028262401 0.03456255 0.04835434 -0.039530687 -0.03457441 0.13919236 0.0703155 -0.16398548
0.029005805 0.10738648 0.0061197565 0.072145 -0.039669674 -0.13571571 -0.0637965 0.023718799
-0.059950713 -0.024231963 0.010098663 0.14306733 -0.03922744 -0.19157241 0.0650196 -0.04686755
0.06485722 0.0216292 -0.040020425 0.07902196 -0.051986974 0.10483097 0.022192162 -0.011132251
0.022453303 0.05029926 0.17549089 0.08430807 -0.11619663 -0.08023828 0.09598279 0.006086873
-0.09143295 -0.13589023 -0.034717593 -0.038041685 -0.0267136 0.015976848 0.13436767 -0.0019340275
0.013417609 -0.06867141 -0.010183609 0.049654692 -0.003074548 0.038998473 0.09784482 0.07844548
00000000: 36d4 55bd a113 9dbd d9d9 efbc 1ee1 c2b9
00000010: 43ed 133e f34d be3d 500b ba3c 7ba9 d43b
00000020: 93dc c6bc 3f76 933d 6b29 cc3d 3629 3cbd
00000030: b678 70bd fb8b ac3c ed62 413d abd0 ecba
00000040: 5da7 d0bd 974f f0bd 8a2c 5abd bb5f 22bb
00000050: 8ab9 b43c a4a0 353d 1de7 83bc 1502 88bb
00000060: 9d00 24be ef77 7cbd b12b d93d 4030 163d
00000070: 1197 6d3e ed21 bd3d 58ff 33bd 1b41 94bb
00000080: 1f57 a7bc b578 46bd e091 b03d f0fa c83c
00000090: 579e f3bd f22a 8b3d 0a19 303c 0352 6bbd
000000a0: 76ce b3bc 03a1 93bd 756b 783d 8b98 c33c
000000b0: 5d90 123d 182d 84bc 2c1d 8abd 356f 6a3b
000000c0: 18d4 63bc 7b97 f93c dc6f c3bd e8f9 30be
000000d0: 3d7d 3ebc 6dbd 73bc 7df5 563d 6aaa 863d
000000e0: 24f3 de3c 1fc4 c0bd a9f4 4dbc 5850 463d
000000f0: a563 8f3d fe7f bb3d c489 7d3c 4de7 ce3b
00000100: 58a3 c03c 316d ffbd 73a3 c6bc 9e1e e53d
00000110: ea27 473c f7ca ebbc ec38 c6bd 992b c4bc
00000120: 8e6f 883e 28a9 66bd f866 753c 2fa1 773d
00000130: 7d6e 92bb d1b7 b1bd c1fd 1abe 84ff 7cbd
00000140: b533 48bd ef90 4bbd f0ab d83d 1400 a53d
00000150: 7bb4 5e3d e036 04bd 927b 2d3d 3a4a 25bd
00000160: 9372 8b3d 53d5 3bbd ada5 173d 7d3b 6dbd
00000170: e1a6 d5bc 540f d8bb b40e 44bd 5058 953c
00000180: aa2f 9d3d 91d0 6c3d 1355 3fbd 9e55 b83b
00000190: c386 76bc f92e c13d 4f93 b9bd 8408 4bbe
000001a0: d053 093d bf5d 8b3d a9d1 a03d 6313 8f3d
000001b0: e8bf 953d d8b9 20be e449 5f3c 2bd6 58bd
000001c0: 8718 943c 18dc c93d fc75 02bd 1282 94bc
000001d0: 67c2 01bc c748 093e af39 e7bc e647 813a
000001e0: b467 40bd f676 b3bc 90f6 ed3c a458 c53c
000001f0: 76e6 8fbd 8bd9 d9bd 5858 dfbd 346d 4b3d
00000200: 25a5 073c 8627 7d3c 9b56 093e d7be ecbc
00000210: 88d1 a7bd 01d2 ab3c 0beb afbd ce5d 443d
00000220: 759b 3d3e e495 8a3d 944a a13c 0052 05bd
00000230: 4ba9 6d3d fa9e 043c c1a8 5e3d 6769 c9bd
00000240: 887f 153c eecf 3a3c b8ef d83b d4c3 17bd
00000250: 61ae 9abd 2bcb 58be 68d2 8fbc 4b98 cbbb
00000260: ba0d 0f3e 0989 c03b b18e 04bc 485b 4d3d
00000270: 5f39 423d 7fb1 8bbd 7999 0a3c 3095 28bd
00000280: 31a8 393d 64aa 36bc 8219 d53d d956 613d
00000290: d57a 22bb 4b78 383d 673a 9fba 4228 97bd
000002a0: c5ea b1bd 8efc f13d e36d d6bd 1acd e33b
000002b0: 0916 6cbe 074d d43c fa13 063c f7fa c83d
000002c0: 23a0 833d 2235 c23d 99a1 91bc 92f0 1cbd
000002d0: c8e1 90bd 8a7d 8ebd d099 253d 3701 7f3c
000002e0: 965d 3b3d fc49 4c3d 27a9 adbd 8619 2f3d
000002f0: c1f5 27bd 5ff8 0bbe 3059 64bd 602c 833d
00000300: e985 e23d 3218 a73d 559b 0abe f882 50bd
00000310: 9d18 f23d 7dd4 493c ba2d 723a 9e74 48bd
00000320: 8d86 e7bc 7691 0d3d 330f 463d eeea 21bd
00000330: e69d 0dbd 7188 0e3e 9301 903d cfeb 27be
00000340: 959d ed3c 71ed db3d 3d88 c83b c2c0 933d
00000350: ab7c 22bd 0ff9 0abe bda7 82bd ed4d c23c
00000360: e18e 75bd 1c82 c6bc dd74 253c 3e80 123e
00000370: f4ac 20bd 8f2b 44be ff28 853d 30f8 3fbd
00000380: ddd3 843d b82f b13c 75ec 23bd 44d6 a13d
00000390: 4bf0 54bd 9fb1 d63d 56cc b53c 0b64 36bc
000003a0: fdef b73c 9906 4e3d e2b3 333e b6a9 ac3d
000003b0: 80f8 edbd f853 a4bd a092 c43d 6474 c73b
000003c0: 3341 bbbd cf26 0bbe 0934 0ebd 99d1 1bbd
000003d0: 7bd6 dabc e1e1 823c ae97 093e 327f fdba
000003e0: 88d5 5b3c 99a3 8cbd 27d9 26bc b862 4b3d
000003f0: 5b7e 49bb ddbc 1f3d dd62 c83d 06a8 a03d

cnn.block1.3.weight f4 [32]
1.6167473 0.8821299 1.1565784 1.7875146 0.56501544 1.4952856 2.4203384 1.78378
0.8054182 0.9482918 1.2952615 0.68360054 1.0242201 0.80960435 0.64514667 1.0510908
0.52310467 0.9773946 1.7283564 2.1571262 0.8922773 2.2159865 2.0903754 2.6676748
2.640649 2.0471938 1.5355676 0.85417867 1.7209288 1.7915596 0.98171383 0.36674708
00000000: 93f1 ce3f 44d3 613f c30a 943f 47cd e43f
00000010: daa4 103f 8565 bf3f d3e6 1a40 e752 e43f
00000020: e32f 4e3f 40c3 723f 21cb a53f 7200 2f3f
00000030: a519 833f 3b42 4f3f 5528 253f 258a 863f
00000040: 30ea 053f 8836 7a3f c83a dd3f 5b0e 0a40
00000050: 496c 643f b9d2 0d40 b6c8 0540 2fbb 2a40
00000060: 6500 2940 3905 0340 7b8d c43f 74ab 5a3f
00000070: 6547 dc3f d351 e53f 9951 7b3f 46c6 bb3e

cnn.block1.3.bias f4 [32]
-0.55391794 -0.1543166 -0.051536098 -0.678396 -0.031239593 -0.3649657 -0.7052576 -0.87814283
-0.12386575 -0.037052024 -0.28717673 -0.07187461 -0.23054583 -0.049150776 -0.021431778 -0.22631438
-0.00061036553 -0.1391441 -0.7640069 -0.7558802 -0.09015591 -0.745558 -0.6366797 -0.7617426
-0.85617435 -0.60776764 -0.8643779 -0.22435464 -0.3867158 -0.80496705 -0.1182169 0.06908655
00000000: 91cd 0dbf 2c05 1ebe 8417 53bd 5cab 2dbf
00000010: 2dea ffbc c9dc babe c38b 34bf f8cd 60bf
00000020: 54ad fdbd ddc3 17bd d408 93be ff32 93bd
00000030: 3514 6cbe 5352 49bd b291 afbc f5be 67be
00000040: f000 20ba ca7b 0ebe f595 43bf 5d81 41bf
00000050: a9a3 b8bd e4dc 3ebf 71fd 22bf 9001 43bf
00000060: 3e2e 5bbf a996 1bbf df47 5dbf 39bd 65be
00000070: 9dff c5be 5212 4ebf b41b f2bd 407d 8d3d

cnn.block1.3.running_mean f4 [32]
-4.396782e-05 -0.0014666775 0.001177912 -7.945044e-05 0.0009006981 -2.0223228e-05 -5.6949604e-05 -4.334828e-05
-0.001373208 -0.00022466171 -0.00083975017 -0.0007471371 0.00026333067 -0.0005758761 -0.0002928823 0.0028099555
-0.0013451023 6.654814e-05 -0.00022753632 0.00035646273 0.0005679045 0.0001879392 -0.0007139743 -0.00021391198
-0.00024581942 9.218543e-05 -0.006299321 -0.0061078696 0.00038612908 0.0005702371 -0.00026165988 -0.00066068716
00000000: 166a 38b8 883d c0ba 2b64 9a3a a19e a6b8
00000010: d41c 6c3a 0da5 a9b7 2cdd 6eb8 dcd0 35b8
00000020: 37fd b3ba 2b93 6bb9 ae22 5cba 86db 43ba
00000030: a50f 8a39 64f6 16ba ff8d 99b9 3b27 383b
00000040: 254e b0ba c38f 8b38 d196 6eb9 9ee3 ba39
00000050: 6ddf 143a 8b11 4539 012a 3bba 8f4d 60b9
00000060: 53e1 80b9 ad53 c138 896a cebb 8624 c8bb
00000070: 5e71 ca39 f77b 153a 652f 89b9 f731 2dba

cnn.block1.3.running_var f4 [32]
0.03128754 0.0425415 0.31994274 0.085736685 0.0023955933 0.0027481648 0.1003725 0.06435101
0.007841531 0.0065261605 0.034815114 0.016640235 0.014090608 0.0751533 0.0044892086 0.008764838
0.009749197 0.0070182686 0.041757382 0.03767997 0.3943299 0.028201982 0.07718017 0.03275524
0.037421577 0.05873221 0.060409807 0.052345593 0.029948067 0.034412064 0.0019754276 0.0004882014
00000000: 5d27 003d ff3f 2e3d 89cf a33e b796 af3d
00000010: 63ff 1c3b 8e1a 343b 1990 cd3d 76ca 833d
00000020: c479 003c 67d9 d53b 4b9a 0e3d 1a51 883c
00000030: 4bdc 663c f9e9 993d 361a 933b 659a 0f3c
00000040: 19bb 1f3c 81f9 e53b ca09 2b3d 5056 1a3d
00000050: 9ce5 c93e d807 e73c a310 9e3d 5c2a 063d
00000060: 5e47 193d 3091 703d 4670 773d 5568 563d
00000070: a655 f53c aaf3 0c3d 2d76 013b 48f5 ff39
