models/2a_LOSO/model_4.pth (torch, 985978 bytes, 93 tensors)

fusion_proj f4 [48, 48]
000000 6b da 54 3e 54 b9 a2 3f ba 87 58 bf 0b c8 14 bd
       0.20786445 1.2712808 -0.845821 -0.03632359
000010 b3 c7 4c 3e 8c a9 64 3f b8 1f 8c 3e 1b c1 c4 bf
       0.19998054 0.8932121 0.2736795 -1.5371431
000020 e1 1b a9 3e 83 1a 46 3f a7 76 e7 3f 31 de 8f 3f
       0.33029082 0.77384204 1.8083085 1.1239682
000030 31 89 06 3f a5 58 1b bf 83 93 e9 3f 11 df 5e be
       0.5255309 -0.60682136 1.8248142 -0.2176478
000040 58 0d c3 3f d2 62 b7 be 93 8a 62 be 73 28 fb be
       1.5238447 -0.3581758 -0.22123174 -0.49054298
000050 22 32 43 3f 6d 35 f0 be 61 f1 d1 bf 39 e4 bf bf
       0.7624837 -0.4691576 -1.6401788 -1.4991523
000060 e7 1d 9d 3e 7e 8f 9c 3f b8 69 a9 3f 48 5f 71 bf
       0.30686876 1.223129 1.3235388 -0.9428601
000070 b9 e1 62 3f 64 69 bb bd 94 67 ba 3f 3c 4a 0a bf
       0.88625675 -0.09150961 1.456286 -0.5401952
000080 19 5e 91 be c7 38 95 3e a8 da d8 3e 92 f3 da be
       -0.28392103 0.2914488 0.4235432 -0.42763954
000090 7e 62 f3 bc ae 1c bc 3f 3c ef 5f be cc 04 87 3b
       -0.02971005 1.4696252 -0.21868604 0.004120445
0000a0 04 2c 04 3f 1c c3 49 3f ac a3 89 bc 47 21 25 be
       0.5162966 0.7881334 -0.016801678 -0.16125976
0000b0 aa 1f 9f bf 8b 3f 5d 3f 7b 82 25 3f 73 2b 1d 3e
       -1.2431538 0.86425084 0.6465222 0.15348606
0000c0 b3 bc 06 3f 27 da 0e bf 13 bb e9 3e 2e 5c 48 3e
       0.5263168 -0.55801624 0.4565054 0.19566414
0000d0 b4 3e 37 bf 13 57 44 3e 20 dd 83 3f 26 fa 14 40
       -0.7158005 0.19173841 1.0301857 2.3277678
0000e0 ba 9d 0a c0 70 6a 03 bf 91 38 90 3d 59 4f 46 be
       -2.1658769 -0.51334286 0.07042039 -0.19366206
0000f0 06 4f 08 3f 04 37 b7 bf 23 02 db 3e 5e e8 a1 3f
       0.5324558 -1.4313664 0.42775068 1.2649038
000100 f6 98 fe bf de 7e da be 46 02 af 3e a9 ab 5a bf
       -1.989043 -0.42674917 0.34181422 -0.8541818
000110 ae 4f 9e be 34 de ba 3f 51 84 87 3f 6b 66 ce bf
       -0.30920166 1.4599061 1.0587255 -1.6125005
000120 24 9b b9 3f 64 a3 4b bf 19 a9 6d bf 04 96 7e 3f
       1.450047 -0.7954619 -0.9283615 0.99447656
000130 c0 d2 e8 3d 7f 21 c6 3f 3c a5 a9 bf 76 30 14 c0
       0.11368322 1.5478972 -1.325355 -2.3154578
000140 e0 0e 3f bf cc d1 d7 3f 91 fd 3b 3e ba e5 57 3f
       -0.7463207 1.68609 0.18358447 0.8433491
000150 cc 90 17 3f f0 1c e7 be 06 af 93 be b3 d1 88 be
       0.5920532 -0.45139265 -0.2884447 -0.26722488
000160 63 7b 14 3f 00 30 92 3e 82 d3 8d bf 30 7c eb 3d
       0.58000773 0.28552246 -1.1080172 0.11498296
000170 dd 35 22 3e 9b 4b 81 3d 7a 64 c6 bf 68 d2 dc bf
       0.1584086 0.06313249 -1.5499413 -1.7251711
000180 8e 27 07 40 a9 a0 10 bd 5d 48 c3 3f 84 d0 08 bf
       2.1117892 -0.035309467 1.5256459 -0.5344317
000190 85 4e 02 3f 44 35 a9 be 6b 00 a8 3e 85 89 04 c0
       0.5090106 -0.3304845 0.3281282 -2.0708935
0001a0 54 11 ba be e3 fa 96 3f 2d 8e 1c 3d 48 1d 0f 3f
       -0.36341345 1.1795315 0.038221527 0.55904055
0001b0 b4 b3 61 bf 8d 2e ba 3e fc 93 66 bf b1 a1 2d 3e
       -0.8816483 0.3636364 -0.90069556 0.16956212
0001c0 c4 ab b8 3f 67 5a 2b 3f 9d d7 cf be a2 81 5a be
       1.4427419 0.6693482 -0.40594187 -0.21338513
0001d0 45 fd 7f bd bf d1 1a 40 74 57 f6 bf 5d 46 e7 be
       -0.062497396 2.419052 -1.9245439 -0.4517087
0001e0 c5 71 b7 3f 63 d9 f6 bf 43 da 5b 3f 7c ce 2c bf
       1.4331595 -1.9285091 0.85879916 -0.6750257
0001f0 f3 5b 59 3f 5a b5 04 c0 4f 83 f6 3c 9d 19 a3 3f
       0.8490593 -2.0735688 0.03009191 1.2742192
000200 37 8f 1f 3f 25 5f fc bf 73 b7 ad 3f c2 87 15 3f
       0.62327904 -1.9716536 1.3571609 0.58410275
000210 80 e0 21 be 91 f7 94 3e 63 3b b3 3e 6e b4 09 bf
       -0.15808296 0.29095128 0.35006246 -0.5379094
000220 7d 6a 23 3f cd 35 fb be 56 36 d7 3c 11 7d 39 3e
       0.63834363 -0.49064484 0.026271027 0.18114115
000230 a4 a8 79 bf de 9e 16 be 91 c9 2d 3e d3 1a 01 bf
       -0.9752295 -0.1470904 0.16971423 -0.50431556
000240 be c3 27 3f c5 6f cf bf 32 92 c0 bf 9f 9e b7 3d
       0.65533054 -1.6205984 -1.5044615 0.089658014
000250 7d df 80 3f 55 3e b1 be db e9 2a bf 6e 62 a9 3f
       1.0068203 -0.34617868 -0.66763085 1.3233163
000260 9d da 40 3e 80 a8 35 bd cd fc 97 bd bf e9 db 3e
       0.18833394 -0.044350147 -0.07421265 0.42951772
000270 c2 e3 10 3f aa e8 a6 3e f4 8a c3 bf e6 6a d7 3f
       0.5659753 0.32599384 -1.527678 1.6829498
000280 7b 24 cd bf 3f f0 18 3d c8 ac 2f 3f 4e 62 e7 3f
       -1.6026758 0.03733849 0.6862302 1.8076875
000290 2e 41 8e 3d 26 12 b9 3d 80 93 ea 3e bd 66 55 3e
       0.06946026 0.09036665 0.4581566 0.20839973
0002a0 ef d5 a0 bf 3b a6 a6 bd 90 de f6 bd 27 e7 55 bf
       -1.2565287 -0.08137175 -0.12054169 -0.83555835
0002b0 6b 34 13 bf b9 1d ac 3f 82 ca 29 bf 03 c0 85 3e
       -0.5750186 1.3446571 -0.6632463 0.26123056
0002c0 df 0e 31 bf 19 c5 10 3f 39 94 a0 bd c2 14 3a be
       -0.69163316 0.5655075 -0.07840771 -0.18171981
0002d0 b9 3e d7 bf 6a 98 8a bf a6 21 e6 3f d2 85 dd bf
       -1.6816016 -1.0827763 1.7979019 -1.7306464
0002e0 6d 74 27 40 02 d1 c2 3e 1a 9a 44 3e 36 7c 90 bf
       2.616481 0.38050085 0.1919941 -1.1287906
0002f0 d4 b2 67 bf 1c 79 74 3e 85 02 14 3f d6 f7 43 3e
       -0.90507245 0.23874325 0.57816344 0.1913751
000300 16 c7 36 3f ac 9c 10 3f 67 35 ce 3f 1c f8 20 bf
       0.7139753 0.5648906 1.6110047 -0.62878585
000310 2b 5c 88 bd 54 27 b7 3d 17 38 6c bf 39 42 1f bf
       -0.06658205 0.08943048 -0.92273086 -0.6221042
000320 ee 33 e8 3f 03 04 26 40 b7 1f 14 3e 48 ac 69 be
       1.8140848 2.5939949 0.14465223 -0.22819626
000330 7c f2 9b be d8 bb 5f be 99 db 2c 3f 30 e2 9e 3e
       -0.30458438 -0.21849 0.6752258 0.31031942
000340 9f e6 58 3f 4e 5d 79 3f 2b 4d 1b bf 8b ad 2a bf
       0.847269 0.97407997 -0.60664624 -0.66671056
000350 09 ba cc 3d 6d fd 99 be c3 fb c8 3f a5 72 80 bf
       0.09996421 -0.3007616 1.5701832 -1.0034987
000360 96 c0 ba bf 25 ea 54 bf 01 94 49 bf d3 2d 79 be
       -1.4590023 -0.83169776 -0.7874146 -0.24333887
000370 7f 0b 26 3f 7c 52 ed bf ee 8a 88 bf 95 42 98 be
       0.6486129 -1.8540797 -1.0667398 -0.29738298
000380 9c ba 83 3f 19 d2 3e be e8 64 e0 3d 1a de 3d bd
       1.0291324 -0.18634833 0.10956746 -0.04635439
000390 8f 42 ed be 3f 2c a8 be db 0d 54 3f 32 38 4c bf
       -0.46339843 -0.32846257 0.8283364 -0.7977325
0003a0 9c 0e 18 be bd c7 6d 3f b1 f4 88 bf 2d 5b 9f bf
       -0.14849323 0.928829 -1.0699674 -1.24497
0003b0 75 96 8b 3d c3 8f 04 3e 35 28 ab bc 35 2d ea 3f
       0.06815807 0.12945466 -0.020893196 1.8295046
0003c0 c8 8f d5 3f ca 7a 4f 3f 70 fc 02 3e 78 5a 72 bf
       1.6684504 0.81046736 0.1279161 -0.94669294
0003d0 58 46 9c 3e f8 1a 2d bf 2c 8a 24 bc fb 32 d8 be
       0.30522418 -0.67619276 -0.010042708 -0.42226395
0003e0 fc 7b 50 bf c7 75 e3 bf 8a 32 a4 bd 81 7d 1c 3e
       -0.81439185 -1.7770318 -0.08017452 0.15282251
0003f0 83 d4 40 3f d4 30 ea 3f af 7b ee be fc 87 b7 3d
       0.7532427 1.8296151 -0.46578738 0.08961484

pos_enc f4 [1, 500, 48]
000000 51 ba 5c bf 9d b7 3f 3f a0 50 75 bf 3d 49 19 bf
       -0.86221796 0.74889547 -0.9582615 -0.5987738
000010 fc 8d 29 3f 7e 11 4d 3e a5 5c e2 3e e8 44 0b 3f
       0.66232276 0.20026204 0.44211307 0.5440202
000020 25 61 70 bf a1 ba c4 be f9 8d 87 3f b0 45 36 3e
       -0.9389823 -0.38423637 1.0590202 0.17800021
000030 c4 43 1b bf 76 f7 29 be ed 09 ac 3e 67 25 04 3f
       -0.6065028 -0.16598305 0.33601323 0.5161957
000040 a8 a4 b1 3f e3 12 33 bf 4d 2f 93 be 0f 1c 35 3d
       1.3878374 -0.69950694 -0.28747025 0.044216212
000050 40 45 bd be fb 2e 3e 3f d9 45 dc be 4c 06 50 3f
       -0.36966896 0.74290437 -0.4302204 0.8125961
000060 70 cf 45 3f 5f 69 e0 be ad 7d 8d bd 73 03 33 bf
       0.7726965 -0.43830392 -0.069087364 -0.6992714
000070 9e 8d b8 3f 3d 9b 44 3f 2f 96 32 3f c5 b6 ae bf
       1.4418218 0.76799375 0.6976041 -1.3649527
000080 e3 f6 0e 3e 85 18 05 c0 4c f9 00 c0 41 0d b5 be
       0.13961367 -2.0796216 -2.0152159 -0.35361674
000090 27 7b aa bf 6f 8b 6a bf 37 50 5a 3f 97 02 30 3c
       -1.3318833 -0.9161901 0.8527865 0.010742805
0000a0 f8 57 21 bf e7 91 62 be 81 12 4b 3e 91 36 4b bf
       -0.63024855 -0.2212597 0.19831277 -0.79380137
0000b0 0b 25 dc be e7 10 61 3f ea 42 a5 3e 3d 6b 14 3f
       -0.42997012 0.87916416 0.32277614 0.5797613
0000c0 6c e4 b5 3f 12 56 07 c0 65 9c 3d bf b3 fd 42 bf
       1.4210334 -2.1146283 -0.74066764 -0.76168364
0000d0 1f b5 c0 be 80 31 21 c0 46 e0 b9 bf fc fd 42 40
       -0.37638184 -2.5186462 -1.4521568 3.046752
0000e0 53 41 93 40 d3 36 ac bf 3f cb 17 3f ec 7c 04 c0
       4.601724 -1.3454231 0.59294504 -2.0701246
0000f0 c4 88 aa 3f d8 e1 15 bf 42 71 a7 3e 29 bf e2 bf
       1.3322988 -0.58547735 0.32703596 -1.7714587
000100 75 82 b9 3f 49 f0 5b 40 c9 31 fb be 51 00 1c 3e
       1.4492937 3.4365408 -0.4906142 0.15234496
000110 35 df 91 be e0 bb b8 3f 7b 2b f6 bf 72 a5 3e 3e
       -0.28490606 1.4432335 -1.9232019 0.186178
000120 45 a4 f7 3e 48 2b b7 bf 15 f3 9e 3f f6 b0 20 40
       0.48367515 -1.4310083 1.2417933 2.5108008
000130 ea 44 2d bf fc a4 75 3f c9 17 71 be ba 99 53 3f
       -0.6768328 0.9595487 -0.2354423 0.82656443
000140 8d 41 5d bf 72 4a f9 3e b9 c1 0a 3e 08 61 d2 3f
       -0.8642815 0.4868961 0.13550462 1.6435862
000150 40 12 07 3f 86 0a d6 3f 19 22 d9 3e 24 4a 7c 3f
       0.5276222 1.6721961 0.42408827 0.9855063
000160 f7 65 e9 be c8 25 fe 3d 5e aa bf bf c8 23 ac bf
       -0.45585606 0.1240955 -1.4973867 -1.344842
000170 57 0c 83 c0 27 6e 3b 40 a3 9a ae 3e 4b c2 a2 3c
       -4.0952563 2.9285982 0.34102353 0.019868037
000180 5f a0 e8 bf 71 47 a3 be cf 7b cf 3f ae ec fc bf
       -1.8173941 -0.31890443 1.6209658 -1.9759729
000190 bb e5 38 3e 5a 92 2f be c2 38 77 bf 95 9a e3 3e
       0.18056385 -0.17145672 -0.9657098 0.44453874
0001a0 35 d7 24 c0 ca 24 dc bf 35 93 b7 3d 5e bf 34 be
       -2.5756352 -1.7198727 0.089636244 -0.17651126
0001b0 65 b8 f8 3f 3d 1a cd 3e 21 5f 19 40 0c 67 cf 3f
       1.9431273 0.4005908 2.3964312 1.6203322
0001c0 76 68 82 3e e5 ed ea bf da 77 56 3f e3 3b 32 40
       0.25470322 -1.835385 0.8377663 2.7849052
0001d0 de 26 e2 bf 7d a2 df 3f b1 d3 c3 bf 9a 0e 70 3f
       -1.7668111 1.7471462 -1.5298978 0.9377228
0001e0 93 d9 c5 bd 0b 9f 3f c0 28 b9 a2 bf e2 b6 33 3e
       -0.096606396 -2.9940822 -1.2712755 0.17550233
0001f0 20 2a bb bf 0b 83 1c c0 1b a5 e6 3e b5 c2 fd bf
       -1.462223 -2.4454982 0.4504784 -1.9825045
000200 2c 9c 50 3f 26 15 aa bf 31 5d 83 bf 3b 7b 07 bf
       0.814883 -1.3287704 -1.0262815 -0.5292241
000210 26 64 d6 3e f4 e5 0b be ce df c9 bf 98 9b dc be
       0.41873282 -0.13661939 -1.5771425 -0.4308746
000220 2f ba 62 3f cc 19 5b 3f 80 c5 f3 3d 81 59 81 bf
       0.88565344 0.8558624 0.119029045 -1.010544
000230 00 a7 93 bf 11 22 a7 3f d7 e6 e1 3f 74 c4 c4 be
       -1.1535339 1.3057271 1.7648572 -0.38431132
000240 6f 1a a8 3f 94 7e 67 3e cb be 19 3f 80 ec 46 c0
       1.3133067 0.2260688 0.6005675 -3.1081848
000250 e7 df 36 3f 9a 82 b6 3f 22 75 26 40 84 a5 e8 bf
       0.714354 1.4258606 2.6008992 -1.8175511
000260 03 af 0a 40 72 05 66 3f 03 7e 36 bf 53 13 06 bf
       2.1669319 0.8985206 -0.7128603 -0.52373236
000270 94 5f a9 3f 35 d9 c4 3e 01 f0 32 be ae 03 4b bf
       1.3232293 0.38446966 -0.17474367 -0.7930249
000280 74 6f 08 c0 5c 2e 58 bf 26 a2 06 40 ac d8 12 c0
       -2.1318026 -0.8444574 2.1036468 -2.2944746
000290 91 d3 94 be 3e a5 c1 bf d6 47 ba 3c a9 01 5f 3f
       -0.29067662 -1.5128553 0.022739332 0.8711191
0002a0 ab 3a 8b 3d b0 94 c9 bc c7 e0 dd be da b1 29 c0
       0.067982994 -0.024607033 -0.43335554 -2.6514802
0002b0 9b dd 3d bf 13 10 a8 bd 53 e5 84 3e e4 5c 25 c0
       -0.7416627 -0.08206191 0.2595621 -2.5837946
0002c0 c6 33 07 c0 4d e9 1d 3e 2f 84 98 c0 78 03 54 be
       -2.112535 0.15421028 -4.7661357 -0.20704448
0002d0 07 e3 2a c0 9c e5 f7 3e 85 3c 93 bf d5 33 20 3f
       -2.6701066 0.48417366 -1.1502844 0.6257909
0002e0 44 b3 f4 3c c0 26 11 40 7e 87 20 bf 36 31 03 bd
       0.029870637 2.26799 -0.62706745 -0.032029353
0002f0 e1 f9 fc 3f cd 7a 60 3f 7c 3f 4c 40 7f 40 b8 3f
       1.9763757 0.8768738 3.1913748 1.4394683
000300 73 08 fa be 1e 5f 85 3e 2c 32 bd bf 9c 41 49 bf
       -0.4883457 0.2604913 -1.4780936 -0.78615737
000310 9a 9a b4 3f e8 3b b8 3f 08 94 aa 3f 40 77 b4 3f
       1.4109681 1.4393282 1.3326426 1.4098892
000320 99 98 5a 3f e5 1d 2f 40 62 b8 e3 be 1e 3b 6b 3f
       0.85389096 2.7361996 -0.4447661 0.9188708
000330 31 8c 8a 3f ff 05 1e bf 77 3e 9d bf 28 c2 82 bf
       1.0824033 -0.617279 -1.2284688 -1.0215502
000340 9c ec dd 3e 45 63 a0 bf 2b 8d c3 bf 8d dc a3 3e
       0.4334458 -1.2530295 -1.5277456 0.32004204
000350 0b 2c 5b 3f 52 47 82 3f 4e 6b c6 3d 5c 39 2f 40
       0.8561408 1.0178015 0.096884355 2.737876
000360 29 86 9b 3e 17 0e 90 3d 33 c3 8c b9 ab 89 ba 3e
       0.30375794 0.070339374 -0.00026848316 0.36433157
000370 b5 38 66 3f 97 78 9e be 2a 8b c8 bf 82 f8 07 c0
       0.8993028 -0.30951378 -1.566747 -2.1245427
000380 e3 c8 20 c0 b6 dd 57 bf 56 1d d8 3d c1 35 42 bd
       -2.5122612 -0.8432268 0.105524704 -0.047414545
000390 3a 61 86 3e f3 3b 0d bf a6 ad 28 3f 65 b7 42 3e
       0.26246053 -0.551696 0.65889966 0.19015272
0003a0 88 95 2a 3e 11 d7 4f 3f 56 32 38 bf c5 fa 08 40
       0.16658604 0.8118754 -0.71951807 2.1403058
0003b0 e2 9c c0 3d 6e 82 3e 3e c0 8e 85 bf 65 cd a8 be
       0.09404923 0.18604442 -1.0434189 -0.32969204
0003c0 53 f5 c6 3e f4 bf 8a 3f 83 cc 3f 3e 36 24 3f bd
       0.38859043 1.083983 0.18730359 -0.046665393
0003d0 3d ae e7 3f 81 63 3a 3f 1c d6 e6 bf 80 34 1f bf
       1.8100048 0.7280808 -1.8034091 -0.62189484
0003e0 af e4 04 40 fe 83 80 be 24 c5 83 bf c3 d2 fa 3f
       2.0764577 -0.25100702 -1.0294538 1.9595569
0003f0 8b 0f cc bf 14 b2 b4 3e ad 58 4a 3f 6a 05 c7 bf
       -1.5942243 0.35292113 0.7904156 -1.5548527

riemannian.proj.0.weight f4 [256, 253]
000000 b5 de e0 be 5b a6 54 bc 8f b6 88 bd 59 5a 9c 3d
       -0.43919912 -0.012979115 -0.06675445 0.0763442
000010 ab 04 43 3d 3c 52 9c bc d0 f7 cf bd 60 0f 9a 3a
       0.047611874 -0.019082181 -0.10154688 0.001175385
000020 e7 20 7d bc b6 9b 3a bc 57 65 74 bd e2 59 cd 3d
       -0.015449739 -0.011389663 -0.059666958 0.100269094
000030 e0 42 19 3c b0 e6 9f 3c 05 ce 0f 3d 41 3a ad 3d
       0.009354323 0.01951918 0.035108585 0.08458377
000040 f6 bd e7 bd 13 d5 f9 3c 27 ee ea bc 75 a7 1d 3c
       -0.11315529 0.03049711 -0.028678013 0.009622444
000050 be ec d1 3d 5a 05 d2 3c 21 4f 1c 3e 8e 13 ad bc
       0.10250233 0.025637317 0.1526456 -0.021127488
000060 66 02 75 3c 66 11 55 3d 7b bf eb bc ee 31 3c 3b
       0.014954185 0.052018546 -0.028777828 0.0028716284
000070 71 65 51 bd c4 23 7a 3d 6e 2c 82 bd fc 13 23 bd
       -0.051122133 0.061069265 -0.063561305 -0.03981398
000080 2b 64 12 3d 4f f7 d1 3d 2b 7b 0a bc 3c 5f 3c 3d
       0.03574006 0.102522485 -0.008452217 0.04598926
000090 bb 31 80 bd 33 fc a5 3d 6b c2 04 bd 32 d8 ba bd
       -0.06259485 0.08104744 -0.032411974 -0.09123267
0000a0 ef 07 af 3c 15 21 a2 3d 5c dc 27 3d 22 f5 24 bd
       0.021366088 0.07916466 0.040981635 -0.04027284
0000b0 74 95 db bc 30 df 5e bd 3c 29 4d 3c 11 b6 53 bd
       -0.026804663 -0.054412067 0.012522038 -0.051687304
0000c0 ba 9e 2a bd b2 45 a5 bd db 68 47 3d 42 e4 35 3d
       -0.04165528 -0.08069934 0.048683982 0.044407137
0000d0 ea 62 ef bd 4f 06 fe bc 7c b9 5c bd c0 3c a6 bc
       -0.11688788 -0.031008868 -0.05388783 -0.02029264
0000e0 65 ef 0f 3d 22 4b 46 bd e7 0c df bc b1 5d 1c 3e
       0.035140414 -0.048411496 -0.027227832 0.15270115
0000f0 ca 43 1f 3d 2f c4 84 3c 53 41 1a 3d 83 06 7a 3d
       0.038883008 0.016206829 0.037659954 0.061041366
000100 49 3e 3f 3d f5 ca 06 be b8 88 9b 3b 63 38 89 3b
       0.04669026 -0.1316336 0.0047465228 0.00418763
000110 18 7b 05 bc 09 07 c9 bc e7 cd fc 3d e4 ab 23 bc
       -0.008147024 -0.024539487 0.1234396 -0.009989712
000120 44 c2 2e bc 21 bb 79 3d d7 f9 1f 3d e7 08 54 bc
       -0.010666434 0.060969476 0.039056625 -0.012941576
000130 9f f9 87 bd 30 46 0a 3d 19 77 0e be 68 33 36 3d
       -0.06639408 0.033758342 -0.1391262 0.04448262
000140 4d 3d 8a 3b f1 ab 32 bd 96 b4 c6 3d bd 92 0c be
       0.0042187334 -0.043621007 0.09702413 -0.13727851
000150 a6 66 95 bc 0e 17 2c be 96 d5 14 bd cb 93 45 bd
       -0.018237423 -0.1680567 -0.036336504 -0.04823665
000160 e9 7c a4 bd 16 93 f6 bc 8d 79 3e bc f7 ea 04 3c
       -0.08031637 -0.030099433 -0.01162566 0.008112661
000170 37 b4 ee bd 74 7b 82 bd 83 a3 46 bd bb e4 c0 3d
       -0.11655467 -0.06371203 -0.04849578 0.09418627
000180 9c 31 a2 bd 76 52 4e bd a9 f7 de 3c 8e 20 4d bd
       -0.079196185 -0.05037161 0.027217703 -0.050079875
000190 37 43 f0 b9 44 96 7c bc ae 0d 3a bd 57 50 9b 3d
       -0.00045826446 -0.0154166855 -0.045423202 0.07583683
0001a0 ca 19 5c 3d 36 03 10 3e 1d 25 18 bd 47 4f 52 3c
       0.053735532 0.14063725 -0.03714477 0.012836284
0001b0 ed cb 42 bd 08 2d a5 3c 51 3d 73 bd 48 91 2e 3d
       -0.04755776 0.020163074 -0.059384648 0.04261902
0001c0 a9 4c 25 3d 8c 0e a1 bc 57 0b b4 bd 14 24 bc bd
       0.040356312 -0.019660257 -0.087912254 -0.09186569
0001d0 de 34 c5 3c ef f3 23 3d 36 62 e3 3b 6a 1c 79 bd
       0.02407306 0.040027555 0.006939198 -0.060818113
0001e0 88 da 7e bd 39 c0 05 be 5d 84 34 3d 50 55 0f 3b
       -0.062220126 -0.13061608 0.044071544 0.0021870919
0001f0 1e 3e aa 3c 5a 54 87 bd 08 38 2c bd cc b0 8d 3d
       0.020781573 -0.06607886 -0.042045623 0.06918487
000200 1a a4 db bd 25 1c a4 bc 64 57 56 3d 67 0f ac 3d
       -0.10724659 -0.020032952 0.052329436 0.08401375
000210 20 bf 46 bd 7f 98 b0 bc dd 61 c8 3d 09 cd 57 3d
       -0.048522115 -0.02155709 0.09784291 0.05268577
000220 9d fe 1d bd da 8c c5 3b a4 60 b4 3c 15 f8 cb bc
       -0.038572896 0.0060287537 0.022018738 -0.024898568
000230 c4 e1 8a 3d e5 ee 99 ba 56 9c 61 bc 32 57 99 3d
       0.067813426 -0.001174417 -0.013770184 0.07487334
000240 c6 a2 0f bd f1 f8 d9 bd ee b5 a7 bc ff 87 26 bd
       -0.035067342 -0.10643185 -0.020472493 -0.04065704
000250 7f 09 50 bd 12 e3 35 bd 47 42 0f be 0a 11 76 bc
       -0.050790306 -0.044406004 -0.13990127 -0.015018711
000260 82 94 a5 bc c0 50 ff 3b 57 16 e8 bb ac 8f 63 3d
       -0.020212416 0.0077916086 -0.0070827412 0.055556938
000270 80 6c 16 3e bb dd 74 bd 95 0c de bd 45 5f 31 be
       0.14689827 -0.05978177 -0.108422436 -0.17321499
000280 05 2a a7 3c c4 8b e5 bd ff 6e ec bc 3e 46 72 bc
       0.020405779 -0.11208299 -0.02886152 -0.014787255
000290 a6 d4 ff 3d f2 c0 19 bd 87 40 4d bd 68 c7 aa 3d
       0.12491731 -0.037537523 -0.050110366 0.08338815
0002a0 fa de 1f 3d 3f 38 5f 39 91 83 a9 3c 88 ce 9f 3d
       0.039031006 0.0002128789 0.020692619 0.078030646
0002b0 a1 11 81 bd f1 55 c6 bc 7e 50 0c bd 17 bf ae bb
       -0.063021906 -0.024210902 -0.03425645 -0.0053328383
0002c0 f1 68 f6 bd 53 fd 08 3d 28 35 51 bd 72 f6 9c 3d
       -0.12031735 0.033444714 -0.051076084 0.07664193
0002d0 09 c7 1f 3e f5 83 af 3d ff 0d 5c bd d5 fd d7 bc
       0.1560327 0.08570091 -0.053724285 -0.026366154
0002e0 0b 2e 73 3d fb 68 75 3d c2 93 8b bd fa d4 5e 3d
       0.059370082 0.05991457 -0.06815292 0.05440233
0002f0 d9 a2 60 bd 94 ce 39 3d 6f 9a 13 bd 6e 77 5e 3d
       -0.054842804 0.045363024 -0.03603595 0.054313116
000300 a2 99 d0 bc a4 46 2b be d0 bf 2f 3e 3c 81 2d bd
       -0.025463883 -0.16726166 0.17163014 -0.042359576
000310 0d cc 7c 3d 1e 97 31 3d 07 8b 3b bd 93 de a5 bb
       0.061718035 0.043357007 -0.045786884 -0.0050619333
000320 83 e2 74 3d e9 5d 92 3c a4 3e 98 3d 77 e8 50 bc
       0.05978633 0.017867045 0.07433823 -0.012750736
000330 37 42 71 3b a2 71 5f bd 2d 6e 3e bc 5f f2 8f bb
       0.0036813149 -0.054551728 -0.011622948 -0.0043929066
000340 a2 3a 27 3d fa ce 0e 3a 75 e4 ac b9 1d 34 96 bc
       0.0408274 0.0005447712 -0.0003297661 -0.018335396
000350 6e 74 65 3d ea 9b 3b bd 39 a8 aa 3d 89 af 52 3c
       0.05601924 -0.045802988 0.08332867 0.012859234
000360 ef d8 8d 3d 0d 31 77 bd 0f 31 cf 3d 5f d7 90 bd
       0.069261424 -0.060349513 0.10116779 -0.07072329
000370 c3 52 92 bd d4 d8 cf 3d f6 cf b5 3b 1c ac 95 3c
       -0.07144692 0.101487786 0.0055484725 0.018270545
000380 b6 2f 36 bd bb 61 a5 3c 71 12 4a 3e 0d 2f 8a bd
       -0.044479094 0.020188203 0.19733597 -0.067472555
000390 1a 68 60 3c 7e d9 a5 bd 3b c2 d6 bc 55 f1 46 bd
       0.013696695 -0.08098124 -0.026215663 -0.048569996
0003a0 67 be d7 3c 93 4f aa 3c 82 98 44 3c d0 67 de bc
       0.026335908 0.020789897 0.011999251 -0.027149111
0003b0 ff 4d c6 3c f9 fa 42 bd c3 e7 07 bc 46 0c 38 3d
       0.024207113 -0.047602627 -0.008295002 0.04493358
0003c0 15 6d f6 3c ba 92 89 bd 8d 1a 0f be a2 95 7f be
       0.030081311 -0.06717439 -0.13974972 -0.24959424
0003d0 b5 31 e6 3d e9 40 93 3b 49 bc 34 3d 2b 25 dc bd
       0.112399496 0.004493822 0.044124875 -0.10749277
0003e0 81 37 cf bc e8 2e 4a bd 16 82 95 3d a6 12 94 3d
       -0.025295021 -0.04936114 0.073002025 0.072301194
0003f0 68 5a dd bc fa a1 74 bd 29 ff f5 bd 21 fb 4f bd
       -0.027020648 -0.059724785 -0.120115586 -0.050776605

riemannian.proj.0.bias f4 [256]
000000 41 1a 31 3b 22 86 15 3c 75 c2 4a 3c f6 98 91 3c
       0.0027023705 0.009126218 0.012375464 0.017773133
000010 bc 3b 82 3b 40 5a 19 3a 2a 09 00 3d db 28 9c 3c
       0.003974406 0.0005849935 0.03125874 0.01906245
000020 67 33 37 3d e4 d1 0a 3b 17 2e 1f 3c 5e 0c 3a 3c
       0.044726755 0.0021182233 0.0097155785 0.011355488
000030 1d a5 b2 bb a2 d5 bf 39 6a bc 33 bb 06 f7 0d bc
       -0.005451812 0.00036589528 -0.0027425536 -0.008664852
000040 10 a8 03 bd ed 64 23 3d e9 42 36 bb c0 ea 72 3b
       -0.0321427 0.039891172 -0.0027810878 0.0037066191
000050 52 66 f9 ba 2a 0b 19 3d cb 5d 57 bd 96 c4 91 bc
       -0.0019027686 0.037364163 -0.052579682 -0.017793935
000060 08 82 1d bc a7 01 1c 3b e9 9f da bc 88 04 d4 3b
       -0.009613521 0.0023804696 -0.02668758 0.0064702667
000070 e2 9b 22 bc 88 6b e0 3c a8 1a d2 3b ba 57 c9 bc
       -0.009924861 0.027395025 0.006411869 -0.024577964
000080 a6 63 7d 3c a1 cc d9 bc 8d fa 42 3c 7e ce 99 3c
       0.015465653 -0.026586832 0.011900556 0.018775221
000090 21 3b 95 bb 8a bc d8 ba ad d6 46 bc 78 b3 49 bc
       -0.004554168 -0.0016535681 -0.012136144 -0.012310855
0000a0 ab c1 25 bc 72 80 03 bd f3 dc b5 bc 0a c5 24 3c
       -0.010116975 -0.032104917 -0.022200083 0.010056743
0000b0 76 a8 79 bc 6b c8 0d bc a1 85 1e bc c6 1e d4 3c
       -0.015237918 -0.00865374 -0.009675414 0.02589358
0000c0 30 c3 dc bb 4b c8 00 3c 60 02 97 3b e1 db 1d bb
       -0.0067371354 0.007860254 0.0046084374 -0.0024087357
0000d0 05 70 20 ba c9 7c 0a bd f6 d8 31 3c 43 73 77 bc
       -0.0006120208 -0.03381041 0.01085495 -0.015103164
0000e0 29 a3 15 3c 6b 71 95 bc 0c 10 52 bc 2d 1c 99 ba
       0.009133139 -0.018242558 -0.012821209 -0.0011681371
0000f0 74 2d de 3b dd 4b e0 bc 66 cc b1 bc b7 bb 77 bc
       0.006780321 -0.027379924 -0.02170391 -0.015120438
000100 98 70 b0 bb 6d 57 2b bd ca f7 f8 bb 1b 79 b1 bc
       -0.005384516 -0.041831423 -0.007597898 -0.021664193
000110 31 ea 23 3a 51 4d 4c bc 6d ab 4a bc f9 d1 9d 3a
       0.0006252854 -0.012469606 -0.012369973 0.0012040726
000120 55 be 0d 3c 7f f3 a3 bb 9d 98 2c 3c fc 82 fe bc
       0.008651336 -0.005003392 0.010534433 -0.031068318
000130 99 f4 20 3c bc d7 81 bb ed 47 33 bc d9 fa 43 3c
       0.009823942 -0.003962485 -0.010942441 0.011961662
000140 79 77 f5 bc 19 22 16 3c 16 1e be 3b 4a 3b a1 3c
       -0.029964196 0.009163403 0.0058019264 0.019681592
000150 85 cc dc 3c 3b de ad b9 7e dd 9c 3c 13 09 d2 3c
       0.026952991 -0.00033162706 0.019148584 0.025639093
000160 1c c1 52 bc 1b 27 00 bc 94 dd a6 bd e5 0a 58 3c
       -0.012863424 -0.0078218235 -0.081477314 0.013186191
000170 bb 9b df bb fc 77 ec 3c ac 6b 8b bb 93 ad d2 3c
       -0.0068239844 0.028865807 -0.004254779 0.025717532
000180 79 0a 0a bb 9d 68 1a bc 3b 68 29 bc 50 f3 44 bc
       -0.002106337 -0.009424356 -0.010339792 -0.012020901
000190 2b 62 9e 3b df f9 02 3c 5a 0e 5c 3c 5d c7 3a bc
       0.00483348 0.007994144 0.013431156 -0.011400071
0001a0 54 26 47 3c 55 ae 0b bd 35 a7 1d b8 99 bc 9b bc
       0.012155134 -0.034101803 -3.758744e-05 -0.019010829
0001b0 77 cd ae 3a ef a6 29 3c b4 58 8b bc 95 5a 38 bd
       0.001333638 0.0103547415 -0.01701007 -0.04500826
0001c0 ca f2 ff 3c fa 4e 55 3a 32 d1 9c 3b 93 b0 3c 3b
       0.0312437 0.00081370736 0.00478568 0.002879177
0001d0 68 56 ab 3b 47 9d bb bc c5 ca 27 bc 49 80 86 3b
       0.0052288063 -0.022902144 -0.010241215 0.0041046483
0001e0 8a f4 21 3c 77 0f 19 3c f7 af e8 bc 60 dd 71 bc
       0.009884963 0.009342066 -0.02840422 -0.014762253
0001f0 74 5b b4 bc 80 c0 09 bc 01 00 a7 ba 7c f1 82 bb
       -0.022016264 -0.008407712 -0.001274109 -0.0039960723
000200 3a 08 05 3d c9 6d ba bd 9f f7 9f 3c f6 25 a8 bc
       0.03247855 -0.09102971 0.019527255 -0.020525914
000210 dd 9f 4e 3c 01 e9 7d 3c dd 4c 7a bb f6 41 c8 bc
       0.012611357 0.015497447 -0.0038192787 -0.024445515
000220 cb 7c c0 3c b2 80 01 bd c6 c3 eb bc f9 9a 91 3a
       0.023497006 -0.031616874 -0.028779875 0.0011108808
000230 d8 e7 81 bc e5 67 c1 3c 64 ab 68 bb ff 27 8b ba
       -0.015857622 0.023609111 -0.0035502547 -0.0010616778
000240 3a 74 c4 bc dc 16 22 bc 64 81 13 bd ef f7 cc 3c
       -0.023981202 -0.009893145 -0.03601207 0.025020568
000250 5a 61 ed bc e1 97 f8 bc 75 f3 f6 3b 19 99 59 bc
       -0.028977085 -0.030345859 0.0075363466 -0.01328113
000260 d4 b2 48 bd 0c cd 75 bc 22 c1 be 3a bb 52 9e bb
       -0.04899867 -0.0150025 0.0014553408 -0.0048316396
000270 ee 8d 26 bc 29 ab 95 3c 5e bc c8 3c b6 b6 aa 3c
       -0.010165675 0.018270092 0.024503883 0.020839076
000280 26 20 c3 bc d9 74 fb 3b ff a5 81 3b 7d 66 48 bc
       -0.02381904 0.0076738414 0.003956556 -0.012231466
000290 6d d1 a8 3c 4a d7 a7 3b 8e 9c 18 3d 43 23 be bc
       0.020607674 0.0051221 0.037258677 -0.023210173
0002a0 85 bd 0b b9 b1 f3 e7 bc 72 e4 3c bd 77 45 8b 3c
       -0.00013326675 -0.028314443 -0.0461163 0.017000897
0002b0 9a fe df bc 33 1c f2 bb 2f ba 0a 3c 98 36 45 3a
       -0.027343083 -0.0073886155 0.008467241 0.0007523089
0002c0 6a ad 1c bd 9d f8 09 bb 83 83 0b 3c 3f 0b d9 bc
       -0.038251318 -0.0021052726 0.008515242 -0.02649462
0002d0 93 e6 39 bc 6f 3f e1 bc 48 6b 0e 3d e4 d3 cf bc
       -0.011346477 -0.027496068 0.03477028 -0.025369592
0002e0 5a 9e c3 bc a0 78 15 3d 99 5a fb bc 0c 09 86 3b
       -0.023879219 0.03649199 -0.030682849 0.004090434
0002f0 bd 10 39 3c 11 7f cc 3b 7b 2f 7f bd 37 a0 1c 3c
       0.011295495 0.0062407334 -0.06230114 0.009559683
000300 c4 d6 dd 3b 3b 6a 42 3b 33 cf 94 3c e6 5b b4 bc
       0.006769987 0.002966537 0.018165207 -0.022016477
000310 65 60 d2 ba 9f 0a 5d bc 59 2c 16 3d 9a 69 8a bc
       -0.0016050456 -0.013491302 0.036663387 -0.016896058
000320 df dc 67 3b 98 4a 1a 3c 5a 7b ba bc af 35 9b bc
       0.0035379452 0.009417199 -0.022763897 -0.018946497
000330 88 07 ba 3b dc 88 5d bc 9f b1 8c ba e0 18 9a bc
       0.0056771673 -0.013521399 -0.0010734088 -0.01881069
000340 a8 78 c9 3c 14 25 9f 3c 3c 2a 8d bb 39 26 a9 bc
       0.024593666 0.01942686 -0.0043080132 -0.020648109
000350 aa 74 b4 bb b3 6e da 39 51 27 b3 3c 25 57 ea bb
       -0.0055070715 0.00041662678 0.021869333 -0.0071515017
000360 f4 f4 fc bc da 35 92 3c 83 de 0a bd d4 46 4e 3b
       -0.030878522 0.017847944 -0.03390361 0.0031475322
000370 a8 99 01 bc fd 69 38 3c 71 01 94 3c af 17 2a bd
       -0.00791017 0.011255738 0.018067094 -0.041526493
000380 6d e4 5c 3d df 7e 07 bd 2b 64 5f 3c fd 6b 5f bc
       0.05392878 -0.033079978 0.013634722 -0.013636586
000390 0e dc 2e bc 4c 37 d2 3c 7e 58 27 3c 43 24 13 bd
       -0.010672582 0.025661133 0.010213969 -0.035923254
0003a0 ea 66 f6 bc b8 23 10 3c a5 23 40 3b c6 2a 00 3c
       -0.03007837 0.0087975785 0.002931812 0.007822698
0003b0 f4 b2 8c bc be e6 a7 ba 54 ec 92 3a 08 83 42 bc
       -0.017175175 -0.0012809855 0.0011209347 -0.011872061
0003c0 e0 bd 15 bb 19 38 11 bc d3 c0 02 3b 66 cb 49 3b
       -0.002284877 -0.008863472 0.0019951358 0.00307914
0003d0 27 13 55 3c 9b 1f 49 bc c3 f8 cd 3c 2d e4 31 3b
       0.013005055 -0.012275602 0.025143033 0.002714406
0003e0 74 5c c8 3c 20 75 89 39 31 08 98 bb fa bc 2d 3c
       0.024458148 0.0002621794 -0.0046396484 0.010604138
0003f0 8f c4 4c 3b d7 76 53 bb d9 f1 55 3c 7f 64 f8 3c
       0.0031245088 -0.003226688 0.013058149 0.030321358

riemannian.proj.3.weight f4 [48, 256]
000000 f6 0f 85 3d e3 33 0a 3e 8e e1 8e 3d 78 f3 83 3c
       0.06497185 0.13496356 0.06976615 0.016107306
000010 7f 83 c4 3c b8 38 40 be cb d4 89 bb e2 ac 81 3d
       0.023988483 -0.18771636 -0.004206275 0.06331803
000020 25 13 11 3e ee b9 c4 3c 41 b6 6f bd f8 d9 89 3d
       0.1416746 0.02401444 -0.05852342 0.06731027
000030 69 5c 98 bd 52 0e 8d bd 24 b2 d9 3c 85 3c 11 bd
       -0.07439501 -0.06887497 0.026574202 -0.035458107
000040 21 ca fe 3d 8a c9 2b 3d c8 de 80 bb 6c 31 7f 3d
       0.12440897 0.04194025 -0.0039328076 0.06230299
000050 21 57 d0 3d 6b 57 1e bd 97 dd 12 be eb ec 5f 3d
       0.101728685 -0.038657587 -0.14342342 0.054669302
000060 12 cc a8 3d d1 15 b7 3d 23 9e e0 bc 62 58 2f bd
       0.08242048 0.08939708 -0.027419155 -0.042808898
000070 6e c9 d5 3d db e2 a3 bd 5c b5 9f 3d 3b 28 92 3d
       0.1043881 -0.080022536 0.077982634 0.071365796
000080 7e 13 c6 3d 93 43 93 bc 83 c2 2a bc 9c 85 80 3d
       0.096716866 -0.017976558 -0.010422352 0.06275484
000090 f6 fd e5 3c f1 90 60 bd 4f f7 88 3b 7d 29 5e bd
       0.0280752 -0.054825727 0.004179872 -0.054238785
0000a0 49 d3 1e 3d 1e f8 bb 3d 1e a0 c0 bd dd 9a 0f 3d
       0.038775716 0.09178184 -0.0940554 0.0350598
0000b0 2a a0 83 bd 39 a7 e2 bd d5 e1 0e bc f9 71 12 3d
       -0.06427033 -0.110670514 -0.008720835 0.035753224
0000c0 a7 d4 5a 3d 14 14 f5 3a 84 e4 7e bd dc 28 d9 bc
       0.053425457 0.0018698 -0.06222965 -0.026508741
0000d0 92 09 5b bb 52 ae 9c bd 2c 94 a2 bb 82 c0 96 3d
       -0.0033422452 -0.076504365 -0.004961511 0.07360937
0000e0 0d fa f5 3d 0a 48 b2 bd a4 7c f2 bd c3 ec ce 3d
       0.12010584 -0.087051466 -0.118401796 0.101037525
0000f0 4d 2b 91 bc 4f cb 42 bd e2 36 8b 3d 2b 16 92 3d
       -0.017720843 -0.04755717 0.067975774 0.071331345
000100 c1 3a 0a be 5b e5 05 bd 9b a4 36 bc cd 05 f1 3c
       -0.13498975 -0.032689434 -0.011147643 0.029421711
000110 73 4d dd 3d d7 4a 0b bd 86 a6 67 be da 6e cd bd
       0.10805788 -0.03400692 -0.22622117 -0.10030909
000120 e0 05 82 3c 80 d6 32 3c 8a 52 0f 3e 66 47 01 be
       0.015871942 0.010915399 0.1399633 -0.12624893
000130 ac 79 e6 bd 69 ab 3c bd 0b 8b 9c bd c2 09 3d be
       -0.11253676 -0.046061907 -0.07643708 -0.18460754
000140 d3 7c 28 bd 4a c4 9f bc 70 25 57 bd 85 cf d1 3d
       -0.041134667 -0.019502778 -0.052525938 0.10244659
000150 0b 06 bc 3a 7d 76 96 bd ef 27 ea 3d 72 ea e8 bd
       0.0014345063 -0.073468186 0.11433398 -0.11372842
000160 7d bf f1 bd 76 27 a0 3c 3a e1 69 bd e1 e3 0c be
       -0.118041016 0.019550066 -0.05709956 -0.13758804
000170 d1 66 b6 bc fd 44 4c 3d c6 70 b8 3c b5 57 3c be
       -0.022265824 0.04987048 0.022514712 -0.18392833
000180 13 6c 38 3d 31 53 0a 3e 35 96 3b 3e a7 0f 26 3e
       0.045024943 0.13508298 0.18319018 0.16216908
000190 5a 39 65 3d 9b d4 8f 3d 1a a8 36 3e 36 2f dd bd
       0.055962898 0.07022973 0.17837563 -0.108000204
0001a0 a6 7b 05 3e 7b 0c aa 3d 00 f7 60 bd 83 d7 f4 bd
       0.1303545 0.08303162 -0.054923058 -0.11955168
0001b0 d8 25 e1 bc ae 47 4c 3e ec 23 1c be 61 8c 1c bd
       -0.027483866 0.19949219 -0.15248078 -0.038219813
0001c0 95 56 dd 3d 93 15 4c be ad 27 ae 3d f5 7b de 3b
       0.1080753 -0.19930105 0.08503661 0.006789679
0001d0 9f fa 5b bc 11 a0 a4 bd 9e 10 37 3e 42 e4 01 be
       -0.013426452 -0.08038343 0.17877433 -0.1268473
0001e0 4f e1 b5 bd 93 82 1f 3e e0 ee f7 3c 67 36 3b 3d
       -0.08880865 0.15577154 0.030265272 0.04570618
0001f0 39 b5 84 bc 86 d5 a0 3d f2 52 9f 3d e1 81 97 3b
       -0.016199695 0.07853226 0.077794924 0.004623637
000200 67 c9 7a 3d 1b 20 06 be ad cd bc 3c 90 69 f2 bc
       0.06122723 -0.13098185 0.023047293 -0.029591352
000210 77 39 f9 3d 5f b4 34 be d3 86 16 3e b2 ff c9 3d
       0.12169164 -0.17646931 0.14699869 0.09863223
000220 cb b4 05 bd 7a 3e 2e be e1 39 9a bd 2e fb 62 bd
       -0.03264312 -0.1701602 -0.07530571 -0.055415325
000230 fb 8a 89 bc 1b ab cd bc 3f 37 4d bd c4 9d 47 3d
       -0.016789904 -0.025106004 -0.050101515 0.04873444
000240 a8 a9 9b bc a6 f1 3a 3e 24 95 23 3e b9 28 13 3d
       -0.019001797 0.18256244 0.15974861 0.035927508
000250 ee df 20 bc 7e 58 41 bd 4d 94 60 bd 60 f8 b4 3b
       -0.009819014 -0.047203533 -0.05482893 0.0055227727
000260 48 4e 01 be f1 21 02 be e3 ef a1 3b 98 e7 60 3e
       -0.12627518 -0.1270826 0.004941927 0.21963346
000270 d9 70 0b bd b8 f4 8d 3d e9 6e 87 3c 23 ce 48 be
       -0.034043167 0.06931442 0.016532378 -0.19609885
000280 a2 18 42 3e 86 6c f9 bc 49 d1 98 3d 84 7a c0 bd
       0.18954709 -0.030447256 0.07461793 -0.09398368
000290 a6 57 cf 3c 18 eb 99 3d 08 ad f7 bd 4a 0c 0e 3b
       0.025310349 0.07515544 -0.1209355 0.0021674805
0002a0 ef 5f 06 3d 73 ac a3 bd 80 d8 e2 3c d6 4f 00 3d
       0.032806333 -0.079918765 0.027691126 0.031326137
0002b0 26 8f 20 3e ef 69 1c bd 2b cc b3 3c 5c c8 66 bd
       0.15679607 -0.038186964 0.02194794 -0.05634342
0002c0 ef 32 d5 3d 58 6b b1 bd e0 2f 5f 3d 2d 61 8a bd
       0.104101054 -0.08663052 0.054489017 -0.06756816
0002d0 be 56 93 bd b4 2f ae bd 70 9a d1 3c af b7 3e bd
       -0.07194279 -0.085051924 0.025586337 -0.046561893
0002e0 5a 51 79 3d 02 ce f6 3b e9 bc 97 3d ff 66 d7 3d
       0.0608686 0.0075318823 0.07409079 0.10517692
0002f0 22 63 50 3d 1f cd b5 3d 2b b9 97 bd 9c 1f 5a bd
       0.05087579 0.08877014 -0.07408365 -0.0532528
000300 5f c0 5b bd ae 24 e9 3c f2 13 83 bd 9e a4 59 3d
       -0.053650256 0.028459873 -0.06400289 0.053135507
000310 dc dd dc bd f0 48 ec 3d 2b c2 03 3e d6 f2 3b 3d
       -0.10784504 0.11537349 0.12867038 0.045885883
000320 4b 39 10 3d 1f 7f 99 bd 6c 4b c3 3c 27 fb 12 bd
       0.03521089 -0.074949495 0.023839675 -0.03588405
000330 e6 48 91 3c e3 3c 3d 3e 78 bc 21 bd de 3f f6 3d
       0.017734956 0.18480258 -0.03948638 0.120239004
000340 b6 85 37 3e 16 e0 c8 3d a0 93 31 3d c7 3d f5 3a
       0.179221 0.09808366 0.043353677 0.0018710428
000350 4b 8a a4 bd 26 89 24 be 29 bd 05 3e ea 1c 8f bd
       -0.0803419 -0.16067943 0.1306044 -0.06987937
000360 c6 44 c2 3d 61 33 4a bd 0a c5 06 bd 57 f7 31 bd
       0.09485774 -0.049365405 -0.032902755 -0.043448772
000370 16 f6 5c 3d b5 4e a2 3d 55 ec bf bc ca 7c e0 bd
       0.053945623 0.079251684 -0.023428122 -0.109613016
000380 12 c5 d8 bb 32 25 26 3e c8 c9 22 3d bd 56 a5 3d
       -0.0066152895 0.16225126 0.039743215 0.08073185
000390 05 16 01 3e 5f 1b ec 3d 8a aa 4c 3e a3 b4 8e bd
       0.12606056 0.11528658 0.1998693 -0.069680475
0003a0 ce 17 08 be 9b 6b 18 3d 99 cb b0 3d 50 5a d5 bd
       -0.13290331 0.037211996 0.08632583 -0.10417616
0003b0 f9 2f b5 bd 71 3a b7 bd 4e f6 ee 3d ca 35 fc bc
       -0.08847041 -0.08946694 0.11668073 -0.030787367
0003c0 d6 50 1b 3d 58 b6 4a bd 8a fa 5f 3e 36 68 ed 3d
       0.037918888 -0.049490303 0.21872917 0.11592142
0003d0 2a b7 68 3d 7d e4 b5 3d 9e 07 18 3e 74 b8 98 3d
       0.056815304 0.08881471 0.14846656 0.07457057
0003e0 28 cf 04 bd bb 5b b9 3d 0f 56 83 3c df 83 3d 3c
       -0.032424122 0.09050699 0.016032247 0.011567085
0003f0 d8 de 4a bd 10 2b 0e be ce 1c bc 3c ba 50 10 be
       -0.049528927 -0.13883615 0.022962954 -0.14093295

riemannian.proj.3.bias f4 [48]
000000 d8 76 11 3d c1 97 ca bc 33 5b 1a 3e 84 4e b3 3c
       0.03551373 -0.024730565 0.15073852 0.021888025
000010 cc a0 16 3e 4c 11 86 bd 13 ff 58 3d 32 67 17 3c
       0.14709777 -0.06546268 0.052977633 0.009240912
000020 5d 6b 73 bd 5b f7 63 3d 36 e9 03 3d e6 f1 98 bd
       -0.05942856 0.05565582 0.03220483 -0.074680135
000030 08 a0 d0 bd fc 71 6a bd b0 08 63 3d d8 f0 ec 3d
       -0.101867735 -0.05723761 0.055428207 0.11569375
000040 0f 44 fa bc 9c 2b df 3d 42 a7 b8 3d 1e 78 2a bc
       -0.030550031 0.1089699 0.09016277 -0.010404615
000050 c9 1f 7f 3d b5 6b 5a 3d fb 1b 2e be 79 70 fd bb
       0.062286172 0.053325374 -0.17002861 -0.007734355
000060 76 b7 db bc 1a 58 ff bc dd 9d 24 b7 a3 9e 31 3d
       -0.02682088 -0.03116994 -9.811917e-06 0.04336418
000070 bb 9a d6 bc c8 91 be 3d 2b 59 0a be 3d ac c7 bb
       -0.026196828 0.09305149 -0.13510577 -0.0060935305
000080 e7 f6 2d 3c ca e9 04 3e 92 cf 65 3d 8a 88 97 3d
       0.010617948 0.12979808 0.056106158 0.0739909
000090 0c a4 6a 3d a4 ea b3 bd 11 93 64 3c 62 3e 34 bd
       0.057285354 -0.087849885 0.013951079 -0.044004805
0000a0 e5 5e 41 bb 54 c5 8f 3d 3e 3a 85 3b 20 8a 6f bc
       -0.0029506024 0.07020059 0.004065781 -0.014620334
0000b0 a5 77 48 3c cd c0 fe 3c 58 f6 72 bd d8 e8 cc 3d
       0.012235557 0.031097794 -0.059316963 0.10005349

cnn.block1.0.weight f4 [16, 1, 1, 64]
000000 b5 1d 52 3e e3 e1 2d 3d 8d a1 49 3d ca e8 d5 bc
       0.20519145 0.04245175 0.049226332 -0.026111979
000010 bd e1 d2 bc e0 31 2c 3d 74 1a 83 3d f7 a1 6f 3d
       -0.025742406 0.042039752 0.0640153 0.05850407
000020 09 30 4e 3d be c2 ec 3c 2f 25 fe bc 9b 2e 60 3d
       0.05033878 0.028901454 -0.03102359 0.054731946
000030 f5 c2 98 3d 14 43 1b bd 57 9f f3 3d c4 1c 8e 3c
       0.0745906 -0.037905768 0.11895626 0.0173477
000040 74 4c 26 3d 00 5e 7c bd bc 17 b6 bd 18 04 67 bc
       0.040600255 -0.061613083 -0.08891246 -0.014100097
000050 48 df 15 3e 20 6e c2 3d 37 55 cf 3d 79 4e ab bd
       0.14635956 0.09493661 0.10123675 -0.08364577
000060 53 b4 ea bc a0 96 30 3c a8 46 ab 3d 8f 8d cd 3d
       -0.028650438 0.010778099 0.08363086 0.10036766
000070 97 0b 8c bd ce d5 04 bd 0d ae 0f 3e 9b 0e 21 3e
       -0.06838148 -0.032430463 0.14031239 0.15728228
000080 e9 b4 35 3d 9e 9c b4 bd fa 35 86 3d 9d 7f 3c 3e
       0.044361982 -0.08818935 0.06553264 0.18408056
000090 29 24 02 3c 1d 33 13 bc f2 5e d5 bc 12 77 3b bd
       0.007943192 -0.008984354 -0.02604625 -0.04576785
0000a0 6f cd 41 3d 8d 5b 5b 3e 71 a3 97 3d e5 e7 44 bd
       0.047315057 0.21421643 0.07404221 -0.048072714
0000b0 5c 32 92 3c f2 e0 05 3e 31 f0 f8 3d a5 44 6b 3d
       0.017846279 0.13074091 0.12155188 0.05743851
0000c0 94 c1 7e bc fe f7 10 3e 13 84 5f bd 78 90 02 3e
       -0.015549082 0.14157102 -0.054569315 0.12750423
0000d0 a0 ff 65 3c dc 3b eb 3c 02 11 1e 3d a8 d2 63 3e
       0.0140379965 0.028715067 0.03859044 0.22248328
0000e0 b9 8d 0a 3e 00 24 b5 3d ca 43 0f be 61 7d d2 bd
       0.13530625 0.08844757 -0.13990703 -0.102778204
0000f0 f3 14 b1 3d 66 77 2f bd 37 3a b1 3b 97 68 ff 3d
       0.08646574 -0.042838477 0.005408551 0.12471121
000100 87 97 89 3c 4a 71 70 3d 48 2d 11 3d 4a 7b f5 bc
       0.016795887 0.05870179 0.035443574 -0.029966015
000110 96 17 8f bd 02 36 29 bd 98 87 11 bd e0 ea 86 3c
       -0.069869205 -0.04131127 -0.035529703 0.016469419
000120 fd f0 88 3c 90 52 b3 3b 01 da f9 3c bf 2e 67 bc
       0.016716475 0.0054724887 0.03049946 -0.014110266
000130 e0 5c 3e bc e4 d0 45 3c 3e ab 7b 3d db 9a d4 3d
       -0.011618823 0.012073729 0.061442606 0.10381099
000140 f7 4b 3a 3d f5 ae 84 bd 03 02 00 be c1 d8 41 be
       0.045482602 -0.06478683 -0.12500767 -0.18930341
000150 82 30 ce bd 8b 75 ab 3c 25 c8 19 3e b0 76 42 3e
       -0.10067846 0.020930072 0.15017755 0.18990588
000160 ad 99 5c 3e 6c 81 b0 3d 67 b2 b3 bd ee c8 68 be
       0.21542998 0.08618435 -0.08774262 -0.22732899
000170 b8 6d 74 be 01 96 21 be 47 d7 0d 3d b8 78 16 3e
       -0.2386998 -0.15779878 0.034629133 0.14694488
000180 b4 f6 51 3e 9a 6d 04 3e e6 d2 04 3d 6f b2 b7 bd
       0.20504266 0.12932435 0.03242769 -0.089695804
000190 c6 34 db bd 52 2f a2 bd 95 23 f4 3a 71 5c 65 3d
       -0.10703425 -0.07919182 0.0018626327 0.055996362
0001a0 de 51 05 3d 0a 94 ca 3c 1c fc 1f bd b4 89 0c bd
       0.032548778 0.024728794 -0.03905879 -0.03431101
0001b0 d3 f0 e7 bc ce 41 53 ba e9 e6 8c 3d 4f 2f a5 3d
       -0.028313076 -0.0008058817 0.0687998 0.08065664
0001c0 40 6c b3 3c ef fc 79 bb 04 c6 aa bd de 6f 94 bd
       0.021902204 -0.0038145145 -0.0833855 -0.072478995
0001d0 73 27 90 bd 45 4e a5 3c d7 63 9c 3d b3 78 56 3d
       -0.07038774 0.020178923 0.076362304 0.0523612
0001e0 91 22 33 3d 79 91 1c bd 34 d3 1a bd e6 d9 88 bd
       0.043734137 -0.03822467 -0.037799075 -0.06682186
0001f0 a7 1c 9d ba ce 2d 8d 3c cf 13 6f 3d 9a ba 52 3b
       -0.0011986688 0.017233755 0.0583685 0.003215468
000200 15 df 3b bd 34 f2 9b bd 5e f1 a8 bd c9 96 e3 bc
       -0.045867044 -0.07614556 -0.08249162 -0.02778186
000210 e1 3e 13 3d 02 fe 51 3d 31 78 13 3e 33 0d ec 3d
       0.035948638 0.05126763 0.14401318 0.11525955
000220 83 7b 23 3e 63 bc f4 3d bf a6 25 3c 57 4d 97 bd
       0.15965085 0.119499944 0.010110556 -0.07387798
000230 c4 f0 17 be 8d 5d d5 bd 37 9e 73 be 16 5b 3e be
       -0.14837939 -0.10418234 -0.23790823 -0.18589434
000240 fa c8 fd bd 2d 94 d9 ba 24 f1 dd 3d d0 72 36 3e
       -0.12391849 -0.0016599946 0.108370095 0.17817235
000250 a5 d5 2f 3e 52 12 66 3e 1b 98 3c 3e 55 e5 c2 3d
       0.17171343 0.22467926 0.18417399 0.09516398
000260 e4 8e cc bc d7 11 ee bd 5c 6c 1e be ac 6f 11 be
       -0.02497048 -0.116244964 -0.15471023 -0.14202756
000270 2c 8a b0 bd 3e bc ab bd 36 4d 6e bd df 39 99 3c
       -0.08620104 -0.08385514 -0.058179103 0.018704353
000280 8a 2c 1c 3d 17 b1 b2 3d 6d e4 11 3d 83 6a d7 3b
       0.038128413 0.087251835 0.035618234 0.0065739765
000290 49 d4 5b 3d 91 fb 54 3d 56 bf 02 bc bd 96 88 3c
       0.053669248 0.051997725 -0.007980188 0.01667344
0002a0 36 02 26 3b 4c 1a 4c 3d 9d 15 8c bc be 7b 4f bc
       0.0025330908 0.049829766 -0.01710015 -0.01266378
0002b0 60 20 5e bb 0a e9 37 bd e3 e7 13 bd ae 74 9b bd
       -0.0033893809 -0.044899978 -0.036109816 -0.07590614
0002c0 35 49 f0 bc c2 69 39 bd 3a 80 a8 bc ba 10 79 3d
       -0.029331783 -0.045266874 -0.020568956 0.060806967
0002d0 a2 87 fd 3b e7 d4 bb 3c df 04 ba 3c e0 2b a2 bb
       0.007737116 0.022928668 0.0227074 -0.004949078
0002e0 2b 27 b1 3c f6 a1 0a bd fe db fc bb 26 78 bb bb
       0.021625122 -0.033845864 -0.007716655 -0.00572111
0002f0 d5 a7 78 3c 7b e5 9b 3d 3f 20 47 3d f0 7d 6c bd
       0.015176733 0.07612129 0.048614737 -0.05773729
000300 0a 23 50 3d f4 38 29 3c 89 b8 35 38 25 d0 87 3d
       0.050814666 0.01032852 4.3325625e-05 0.06631497
000310 b2 3d 9d 3d d8 2d 84 3d 6d ab 05 3d fb ae 99 bc
       0.07677783 0.064540565 0.032634187 -0.018760195
000320 5f 7e b0 bd 86 8d 0e be fa 5e a9 bd 27 20 46 bc
       -0.086178534 -0.13921174 -0.082700685 -0.012092627
000330 b1 a7 24 3c f7 f5 a1 3b 28 00 0e 3c 54 e4 23 bd
       0.010049746 0.0049426514 0.008667029 -0.040012673
000340 ec 6f cc bd 5f 5c 21 be 5b b6 bd bc f3 ae 15 3e
       -0.09982285 -0.15757893 -0.023158243 0.14617519
000350 43 91 22 3e 6c 7a 3b 3e 0c a1 b6 3d c6 0b 2d bd
       0.15875725 0.18308419 0.08917436 -0.042247556
000360 28 aa 32 bd 7c 3a 2f 3d 4d 95 a0 3d b9 03 9f 3d
       -0.043619305 0.042780384 0.07840977 0.07764382
000370 31 e4 bf 3c b4 9a 82 bc c7 04 8b bd d8 6b 05 be
       0.02342424 -0.015942909 -0.067880206 -0.1302942
000380 df 6d 7b bd e0 51 1b bd cf b3 ed bc 5e 42 b0 bd
       -0.061384078 -0.03791988 -0.029016403 -0.086064085
000390 36 bf 17 be 39 d9 3f be 34 63 6f bd 3d 73 27 3d
       -0.14819035 -0.18735208 -0.058444217 0.040881384
0003a0 34 9f b7 3d 31 6e fe 3d 14 9d 01 3e 47 f1 d6 3d
       0.089659125 0.12423361 0.12657577 0.10495239
0003b0 a3 f0 9c 3d ad b3 fc 3b cf 6d 67 3d e6 ad e3 3d
       0.07663085 0.0077118487 0.056501206 0.11117153
0003c0 d5 f8 fe 3c 1d 45 7b bb c5 5a 4a bd 76 ee 88 bd
       0.031124512 -0.0038340755 -0.04940297 -0.06686108
0003d0 49 0e a7 bd b9 7c 5d bd fe 5f 4b 3a d6 23 28 3c
       -0.081570216 -0.054074023 0.00077581394 0.01026245
0003e0 94 db 11 bd 75 5d 1b bd 15 10 0b be 33 2d f5 bd
       -0.035609797 -0.037930924 -0.13580354 -0.11971512
0003f0 ff ce 70 bd 9f fd 23 bc 76 74 17 3e ef 78 85 3e
       -0.058791157 -0.010009198 0.1479052 0.26068828

cnn.block1.1.weight f4 [16]
000000 e9 65 01 3f 4f 3e 62 40 61 58 39 40 f8 16 77 40
       0.5054613 3.535053 2.8960192 3.860777
000010 4d 7a 24 3d 2b 6e 62 40 48 48 d1 3f 27 95 d5 3f
       0.040155698 3.537974 1.6350183 1.6686143
000020 55 d9 de 3e 35 e5 81 40 30 a8 69 40 29 05 84 40
       0.43525186 4.0592294 3.6508904 4.12563
000030 c8 7b 8b 3f d0 99 0f 40 cd 04 aa 3f b7 ed 2e 40
       1.089715 2.243763 1.3282715 2.733259

cnn.block1.1.bias f4 [16]
000000 67 46 1a 3d d1 6b 91 3c fe 61 4c 3c 46 6c 14 3d
       0.037664797 0.017751606 0.012474535 0.03623607
000010 05 41 b7 bd e6 cd 5c bb 61 00 39 bc 5e 3b 70 3c
       -0.08947948 -0.003369206 -0.011291594 0.014662592
000020 34 72 d4 3d 59 fe 07 bd 20 5b dd 3c f2 4b 60 3c
       0.10373345 -0.03320155 0.02702099 0.013689982
000030 d4 b1 79 bb 64 92 9b 3c df f1 f9 3c fd c5 b3 bb
       -0.0038100379 0.018990703 0.030510841 -0.0054862485

cnn.block1.1.running_mean f4 [16]
000000 e5 94 db ba 90 b5 05 37 79 00 0e b8 49 da 40 b8
       -0.0016752748 7.969691e-06 -3.385588e-05 -4.597966e-05
000010 6b 05 20 3b 7c 0d ba b8 4a 4b ac b7 7e c1 2a 3b
       0.0024417292 -8.871683e-05 -2.0539057e-05 0.0026055272
000020 6e e6 ca b6 8a 6d 28 b8 fd 0c 8d b8 1c 9f be b7
       -6.0468947e-06 -4.0156337e-05 -6.725823e-05 -2.2723856e-05
000030 58 ba 05 38 b5 13 de b7 ee 2f 02 ba 8c 9a cb b7
       3.1883217e-05 -2.6473639e-05 -0.00049662485 -2.4271452e-05

cnn.block1.1.running_var f4 [16]
000000 c8 97 a8 3f a0 11 8f 3e 3f c7 08 3f 5b 10 54 3f
       1.317132 0.27943134 0.53429025 0.82837456
000010 56 a7 1b 40 24 64 72 3f bb eb 5b 3f 75 5b 2f 40
       2.4320884 0.9468405 0.8590657 2.739957
000020 22 f0 1f 3f a2 df 49 3f b3 f9 93 3f 71 14 39 3f
       0.6247579 0.7885686 1.1560577 0.72296816
000030 e1 fa 06 3f 5b 74 7b 3f 4d 42 b2 3e 90 46 c4 3f
       0.5272656 0.9822442 0.34816208 1.5334034
