models/2a_LOSO/model_9.pth (torch, 985978 bytes, 93 tensors)

fusion_proj f4 [48, 48]
000000 ac 2a 2c bf 23 72 5b 3f 34 4e b3 3e c0 44 0f 3e
       -0.6725261 0.85721034 0.35020602 0.1399107
000010 40 fb 31 bf 92 98 90 bf 3a 21 91 3e 21 f6 50 bf
       -0.69524 -1.1296561 0.28345662 -0.8162556
000020 56 af 1a 3f 5a 7f ae 3f 7f ed 20 3f 03 5b 0f 40
       0.6042379 1.3632615 0.6286239 2.23993
000030 a0 16 83 3f ca 30 f0 be 03 35 62 3f fe f7 4f 3f
       1.024128 -0.46912223 0.8836214 0.8123778
000040 24 e6 af bd fe 73 f4 3f 3c 3d 8f 3f 41 ff a3 bf
       -0.08588818 1.9097898 1.1190562 -1.2812272
000050 8c d4 e1 3f 39 e4 2b bf 5c 93 be bf e6 2f c1 3e
       1.7642989 -0.67145115 -1.488872 0.37731856
000060 7b de a4 3f 1f 80 02 c0 94 c9 ee 3c ed e7 b4 3d
       1.2880396 -2.03907 0.029148854 0.08833299
000070 0a cd 52 bf 45 8b c3 3c 00 e3 6e bf c2 22 eb be
       -0.82344115 0.02387012 -0.93315125 -0.45924956
000080 ed 48 00 40 e8 f0 5b 3e 08 6d 40 bf c5 c3 7c bf
       2.004451 0.21478617 -0.7516637 -0.9873622
000090 78 5c af 3e 5f b1 d2 be 17 37 1f bf 6c 86 aa 3d
       0.34250236 -0.41150948 -0.62193435 0.0832642
0000a0 f3 ef ff 3d 50 45 71 3f 7f 07 4c bf 0f 05 3d bf
       0.124969386 0.9424639 -0.7969894 -0.73835844
0000b0 f1 2e a4 bf 10 f9 31 3e 7f b5 df be c0 28 42 3d
       -1.2826825 0.17380166 -0.43693158 0.047402143
0000c0 8b 7d 98 3f e6 4b c5 3f a3 08 27 3f 7a d1 45 bf
       1.1913313 1.5413787 0.65247554 -0.7727276
0000d0 05 e7 a9 bf 95 bf 20 40 5c bb 75 3f cd 6c 62 bf
       -1.3273627 2.5116932 0.9598901 -0.88447267
0000e0 79 06 a4 3f ac 54 84 3e 8d 4d 03 3f 1c dd ae be
       1.2814475 0.2584585 0.5129021 -0.34153068
0000f0 87 44 ad 3e ae 3b 13 be b7 c6 dd 3e 01 93 c1 bd
       0.33841345 -0.14378235 0.4331567 -0.09451867
000100 bb f2 3b 3f 55 09 53 be f4 a1 3c bf 25 84 b1 3e
       0.7341725 -0.20609029 -0.7368462 0.3467113
000110 0a 49 62 bf 83 9a bc be 2a 0f 29 bf 34 9f 79 3f
       -0.883927 -0.36836633 -0.66038764 0.9750855
000120 ad 00 f4 3f 1c 1f 27 be a4 aa af 3f 86 59 c4 3f
       1.9062706 -0.16320461 1.372395 1.533982
000130 f0 36 32 bf 10 b4 68 bf c5 bc 7b 3e 93 cf 53 3f
       -0.6961508 -0.90899754 0.24583729 0.8273861
000140 70 59 eb bd 6c 85 1a bf 7d 42 0f c0 fb 76 8c 3f
       -0.11491668 -0.60359836 -2.2384331 1.097381
000150 b2 99 17 40 c8 e3 a1 bf 43 0c 58 3f 18 41 bf 3f
       2.3687558 -1.2647638 0.8439371 1.494174
000160 d2 57 76 be 78 a7 ea 3d d0 cb f6 be 6c 39 16 c0
       -0.24056938 0.114577234 -0.48202372 -2.3472548
000170 34 8b a3 3f 5e 13 b5 3e fe 73 3b bf a9 84 b1 3f
       1.2776856 0.35366338 -0.73223865 1.386861
000180 3b 77 21 3d 04 d3 7a bf cb aa 8b be 36 e2 cc 3f
       0.039420348 -0.97978234 -0.27278742 1.6006534
000190 26 5d 56 be 5c b5 4a 3f c9 9b b4 bf 16 82 27 bf
       -0.20933971 0.7918298 -1.4110042 -0.6543287
0001a0 73 79 5a bf 94 ce 90 bf e6 bf 41 3f 7c 10 70 bf
       -0.85341567 -1.1313043 0.7568344 -0.93775153
0001b0 ee fe 14 bf 2f 4b dd 3e e4 f3 67 bf 4f 3c 38 bf
       -0.5820149 0.43221423 -0.9060652 -0.71967024
0001c0 06 f1 98 3d 47 6e 89 3f dd f2 47 bd 99 78 2a c0
       0.074678466 1.0736779 -0.048815597 -2.6636107
0001d0 51 12 c8 bf 44 a1 b1 bf 1f 82 84 3f 51 c5 f3 bf
       -1.563059 -1.3877339 1.035221 -1.9044591
0001e0 d5 60 be 3c 19 d2 63 3f 1b c3 bc bf 13 63 b9 bf
       0.023239532 0.8899246 -1.4747041 -1.448336
0001f0 9c d2 e2 be 4d 86 65 be 7d 3c 59 3f 7c 90 c1 bd
       -0.44301307 -0.22414513 0.8485792 -0.09451386
000200 93 9d 4d 3f 4a 32 5b bf aa 49 f8 3d 41 c4 75 bf
       0.80318564 -0.8562361 0.12123425 -0.96002585
000210 40 92 b9 bf c9 82 88 3e 5d 46 1a be 1a f9 e4 3e
       -1.4497757 0.2666228 -0.15065904 0.447213
000220 b9 8d be 3f f3 23 e2 bf a5 57 41 3f 3d 40 8d 3f
       1.4887 -1.7667221 0.7552436 1.1035229
000230 44 a5 0a bf 87 8b e5 3d 65 3c 97 3f a9 2a 8b bf
       -0.54158425 0.11208253 1.1815306 -1.0872394
000240 5e 7d 2f bc 5b d2 74 bf ff 55 18 bf 06 5e bf bf
       -0.010711042 -0.95633477 -0.5950622 -1.4950569
000250 1e ef 97 3f ab 71 d9 be 2c 39 3b 3f f7 88 07 3e
       1.1869848 -0.42469534 0.7313411 0.13235842
000260 7d 38 29 bf 8b e8 4e 3f 52 1a 31 bf 37 06 d7 3d
       -0.6610182 0.8082358 -0.69180787 0.10499232
000270 f4 a8 39 be f3 7b 78 3f 37 7a 18 bf c0 63 a2 bf
       -0.18130857 0.9706413 -0.59561485 -1.2686691
000280 57 70 a8 3e 62 21 a0 3f f4 79 5c 3e 34 74 7d 3f
       0.32898208 1.2510188 0.21530896 0.99005437
000290 51 65 ed be 87 0f a6 bf bf a2 94 bf 1a e8 46 3f
       -0.4636636 -1.2973489 -1.1612166 0.7769791
0002a0 9b 25 29 3f 45 36 95 be 39 e3 40 be 76 63 82 bf
       0.66073006 -0.29142967 -0.18836679 -1.0186603
0002b0 92 e4 68 3f 53 4f 90 3f c0 da 53 3e 75 9d a1 be
       0.9097377 1.1274208 0.20688915 -0.31565443
0002c0 c4 63 52 bf a0 10 95 3e bd 7e e8 bf f5 14 84 bf
       -0.8218348 0.29114246 -1.8163677 -1.0318896
0002d0 4d 0b 63 bf e6 5a bb 3f 5a 47 3b be c4 34 84 bf
       -0.8868912 1.4637115 -0.18288937 -1.0328603
0002e0 68 08 c4 3f d3 e6 b6 3e 15 f7 ac 3f 77 31 64 3f
       1.5315065 0.3572298 1.3512903 0.8913798
0002f0 94 24 47 bf a2 f5 8a 3f a5 d7 43 bf e2 78 59 bf
       -0.7779019 1.0856211 -0.7650092 -0.8495008
000300 6c 23 1c bf 08 34 76 bf a2 90 21 be a9 25 04 3f
       -0.6099155 -0.96173143 -0.1577783 0.51619965
000310 cd f5 a9 3f 8e 5e a1 be a1 d7 bf 3f 55 dc b5 bf
       1.3278137 -0.31517452 1.498768 -1.4207865
000320 22 56 80 bf c2 eb b9 bf 08 d7 11 bf 5c 4a cd bf
       -1.0026286 -1.4525073 -0.56968737 -1.6038318
000330 42 0a 3c 3f ef dc 8d 3f cb 55 15 40 ca 6b 00 bf
       0.7345315 1.1083049 2.3333614 -0.50164473
000340 9e c0 a1 bd 63 92 f8 3f 90 5a 8c 3f 1a 90 41 bf
       -0.07898067 1.9419674 1.0965137 -0.75610507
000350 84 14 5c be 1c c8 b0 bf cf f3 85 3e ff b4 53 be
       -0.21492201 -1.3811069 0.26162574 -0.20674513
000360 68 ef 0f bf 00 7d a0 be ea 1c a6 3d b2 3b a1 3f
       -0.5622468 -0.31345367 0.08110984 1.2596343
000370 85 f3 17 be 06 1d 66 3f db b9 24 bf 85 8d c3 bf
       -0.14838989 0.89888036 -0.6434609 -1.5277563
000380 86 e0 2c 3f 6f 95 63 bf 3a d5 59 3f 7e f2 11 bf
       0.67530096 -0.8889989 0.8509098 -0.5701064
000390 25 2c 57 be e3 fe 79 3c ae c2 a7 bd 08 b4 2e 40
       -0.21012934 0.015258524 -0.08191429 2.7297382
0003a0 97 be 9a 3f d5 77 dd bf c9 00 14 bf 9d 01 5e bd
       1.2089413 -1.7302195 -0.578137 -0.054200757
0003b0 65 f2 4c 3f 79 d4 d6 bd 07 21 1a 3d 18 a2 15 be
       0.80057365 -0.10489745 0.037629154 -0.14612615
0003c0 7f 70 ce bf 71 4a 43 3e 03 60 3c be 2d 05 86 3f
       -1.6128081 0.19071366 -0.18396 1.047033
0003d0 18 9b 0b 3f 74 59 a2 3e a5 4d a2 bf 98 c9 63 3e
       0.5453353 0.31708872 -1.2679945 0.2224487
0003e0 ab 42 1f be 45 fd 16 bf 2a a2 04 bf c7 79 fc bd
       -0.15552776 -0.5898021 -0.5180994 -0.12327915
0003f0 c7 c4 3e bc 21 e3 a0 be cc af 76 bf 3b 16 42 bf
       -0.011643595 -0.31423286 -0.96361995 -0.7581517

pos_enc f4 [1, 500, 48]
000000 f8 19 6a 3f 52 4f 20 40 3f d6 98 bf 1c 38 a6 bf
       0.91445875 2.5048413 -1.1940383 -1.2985873
000010 2b ee 24 40 f6 cc a9 3e f9 77 4d 3f 6b 34 9f 3f
       2.5770366 0.33164185 0.8026119 1.2437872
000020 ab 7d 14 3f c5 67 a9 be 15 e7 52 bf fa 68 14 3f
       0.58004254 -0.33086982 -0.82383853 0.5797268
000030 2d d3 05 3f ca b8 27 bf 01 6f 97 3e bf a7 76 bf
       0.52275354 -0.6551634 0.29576877 -0.9634971
000040 f6 df 3f bf 88 b1 e7 bf 54 76 b9 bf 49 f5 11 3f
       -0.7495111 -1.8101053 -1.4489236 0.570149
000050 73 23 8c bf d0 94 89 3f 47 27 4b 3e a4 35 54 bf
       -1.0948318 1.0748539 0.19839202 -0.8289435
000060 2d c7 5a bf 56 0d 0b be d0 9a 6b 3f c9 d7 0c 3f
       -0.8546017 -0.13579306 0.920331 0.5501676
000070 38 56 9d bf 9f db 24 3f 75 58 8d 3f 9c e3 40 3f
       -1.2291937 0.64397615 1.104262 0.75347304
000080 f0 d4 19 c0 85 b6 31 3e 0b ab 86 be 61 d6 10 bf
       -2.4036217 0.17354782 -0.2630237 -0.56577116
000090 2f a9 45 bf 01 1e 76 bd d7 3f d6 be 5a 8c 4b 3f
       -0.7721128 -0.060087208 -0.4184558 0.79511034
0000a0 8b e9 00 be 98 fe a2 3f e0 bb a4 3f 69 6f b9 bf
       -0.1258909 1.2733946 1.2869835 -1.4487125
0000b0 21 fb 17 c0 c3 58 5e 3f c1 c0 97 3f 91 b7 4e bd
       -2.3747027 0.8685419 1.1855699 -0.05046803
0000c0 d9 e6 38 40 68 d1 24 bf 6a 81 8c bd 38 7f 84 3f
       2.8890898 -0.6438203 -0.06860621 1.0351324
0000d0 a3 7c f7 3f fb d7 7b 40 ab 44 19 be 37 ca d4 3d
       1.9334911 3.9350574 -0.14967601 0.10390132
0000e0 fc 33 f9 bf c5 fc d7 bd 33 35 87 3e a1 46 f2 be
       -1.9468989 -0.10546259 0.26407775 -0.4731951
0000f0 6a b6 ef be 19 bb 64 bf d8 09 8c 3e 38 f6 cb 3f
       -0.46818858 -0.8934799 0.2735126 1.5934515
000100 fb 0e 33 bf 14 31 45 3f da bb 7b 3f 7a 63 1d bf
       -0.69944733 0.7702801 0.98333514 -0.61479914
000110 a3 44 3e 3f 3d 61 da bf b6 4c c5 bf 4a bf 3b 3e
       0.7432348 -1.7060925 -1.5414035 0.1833469
000120 23 f2 4d bf 06 d1 8d bc 73 b4 89 3f 8e 6e 09 bf
       -0.80447596 -0.017311584 1.0758194 -0.5368432
000130 23 e5 44 c0 41 1e 9c bf 3f 7e dc 3f 26 de c2 3f
       -3.0764854 -1.2196733 1.7226027 1.5224044
000140 8c 35 2c c0 46 92 a5 3e fc ef 4e bf b5 fe 92 40
       -2.6907682 0.3233816 -0.8083494 4.593592
000150 42 bc 4e 3f b6 37 b3 be f0 01 ca bf 49 67 2e bd
       0.8075601 -0.35003442 -1.5781841 -0.04257897
000160 dd 77 ee bf 04 ba 04 40 0f 16 81 be f6 cb 40 40
       -1.8630329 2.0738535 -0.25212142 3.0124488
000170 7b d6 fc be e1 8d d6 3f 94 4a 80 3f 64 32 ca bf
       -0.49382386 1.6762048 1.002276 -1.5796628
000180 a5 fc 17 c0 a2 18 5f 3e c1 49 59 c0 34 c8 5a bf
       -2.3747952 0.2178674 -3.3951266 -0.85461736
000190 9a a0 e4 3f b7 37 b3 3f ca 8f 94 3f 35 85 00 bf
       1.7861512 1.4001378 1.1606381 -0.5020326
0001a0 02 a7 f9 bf dd 16 d9 bf d4 3c 84 3f d5 bf ff bf
       -1.9504092 -1.6960102 1.0331063 -1.9980417
0001b0 c3 f6 01 40 06 29 07 40 e9 06 a0 3f 6e 01 5d bf
       2.0306861 2.1118789 1.2502109 -0.86330307
0001c0 1c 34 86 3f 0e d9 d5 3e cc 21 42 c0 da dc a2 3f
       1.0484653 0.41767162 -3.0333128 1.2723649
0001d0 4c 78 94 bf e3 2d a8 3f 95 d6 39 c0 ef 23 53 3f
       -1.1599212 1.3139004 -2.903722 0.82476705
0001e0 c5 46 5d 3c 45 d2 90 3f 5c a1 e7 3e 0e 6e 9e 3f
       0.013505642 1.1314169 0.45240295 1.2377336
0001f0 96 14 93 be cb 83 b6 be 24 10 fa bd 02 13 81 3f
       -0.28726643 -0.35647425 -0.1221011 1.0083926
000200 21 44 13 40 4e 4f e4 bf 9f 5e 45 bf 16 92 9b 3f
       2.3010333 -1.7836702 -0.77097505 1.2153957
000210 30 a5 5c bf fb 27 3b bf 76 49 d4 3e c5 3f e5 be
       -0.86189556 -0.7310788 0.41462296 -0.44775215
000220 5f 15 39 bf 0e 7a d8 3f 68 39 86 3e 9a d7 02 be
       -0.72298235 1.6912248 0.26215672 -0.12777558
000230 a5 79 d8 3e c2 df 97 bd 99 22 19 3f ec a9 ce bf
       0.42280307 -0.07415725 0.59818417 -1.6145606
000240 8c cf 15 3e d5 6b ff 3f 4c 90 6a 3f b2 c1 34 bf
       0.14629954 1.9954783 0.9162643 -0.70608056
000250 32 19 f1 bf fd 9e d0 be 77 b6 09 c0 24 63 29 40
       -1.8835814 -0.40746298 -2.1517618 2.646676
000260 40 a8 82 3f 8d b4 cb 3e 85 f6 8b be 0a 6f 02 3f
       1.0207596 0.39786187 -0.27336517 0.5095068
000270 86 d3 a0 3f b6 c6 c0 bf ad 16 50 3f bd b4 b4 3f
       1.2564552 -1.5060642 0.812846 1.4117657
000280 eb 0c 49 40 c3 bd b7 3f 32 fc 3c 3e f9 ba 09 3e
       3.1414135 1.4354786 0.1845558 0.1345023
000290 13 38 b9 bf 07 23 72 40 5f 58 3f be 3e b8 93 3f
       -1.4470237 3.783388 -0.18686055 1.1540601
0002a0 e7 ad 19 c0 4d 71 9d 3f 2f ad d8 bc ff 2c 0e 3f
       -2.4012392 1.2300202 -0.026449768 0.5553741
0002b0 f7 79 1b c0 83 85 d9 3f 8e 7c 2b 3f 18 c7 1e c0
       -2.4293191 1.699387 0.6698693 -2.4809017
0002c0 5f 10 ee 3f f1 69 13 40 f6 08 e6 3f 2c d1 01 40
       1.8598746 2.3033412 1.7971485 2.0283918
0002d0 ff 83 24 c0 30 6b 77 3f cb 27 ad bf 66 33 d5 3f
       -2.5705564 0.9664793 -1.3527769 1.665631
0002e0 65 b9 cd 3f a9 5f a2 bd 0d a0 26 c0 02 9b 30 c0
       1.6072203 -0.07928402 -2.6035187 -2.759461
0002f0 dc 06 e7 bf 6f ec 9f bf 2b 09 e3 bf c4 0b 95 bf
       -1.8048968 -1.2494029 -1.7737173 -1.1644216
000300 6c 52 5d 3f 99 03 57 c0 6a 56 21 40 0e b9 b2 3e
       0.8645389 -3.3595946 2.5208993 0.3490681
000310 04 0e 0a bf 84 2e 32 c0 1d b6 d1 bf fe ba e1 3f
       -0.53927636 -2.784089 -1.6383702 1.763519
000320 06 c4 81 3f 24 de f2 3d 93 d2 cd be 03 7f 7b 3f
       1.0137947 0.11858776 -0.40199718 0.9824068
000330 8b 27 fc be 90 7f 8d be 55 c3 8c 3f f6 ca 53 bf
       -0.4924892 -0.27636385 1.0997111 -0.8273157
000340 f4 0a 66 3f df bc 39 c0 2e 42 10 bf d8 24 f2 be
       0.89860463 -2.9021528 -0.5635098 -0.47293735
000350 46 2b 00 c0 1a 06 90 3f af f2 e2 3f 34 83 0c 40
       -2.0026412 1.1251862 1.7730311 2.195508
000360 00 af 13 bf 0a 07 dc 3e 53 d2 2c bf 63 8e 6f bf
       -0.57688904 0.4297412 -0.6750843 -0.9357664
000370 50 e1 95 3f 46 28 55 bf 5c a0 00 c0 8d b4 a0 be
       1.1709385 -0.8326458 -2.0097876 -0.3138775
000380 7f 2d 30 40 b3 45 ef 3f 4f 52 59 bf 1c a7 2e 3e
       2.7527769 1.8693146 -0.8489122 0.17055935
000390 67 e1 1e bf df 2a c2 bf 36 03 c9 bf 68 c3 90 bf
       -0.62062687 -1.5169333 -1.5704105 -1.1309633
0003a0 91 9f 37 3f 3f 67 85 bf 5c 2c 86 bf 89 3f 6e 40
       0.71727854 -1.0422133 -1.0482287 3.7226279
0003b0 63 cc af 3f 27 82 10 3e 46 9d 52 bf 2a 47 2b 40
       1.3734249 0.14112149 -0.8227123 2.6762185
0003c0 5a 1a 6d bf 5a 4f 94 bf a7 f5 9a 3e 40 78 3e 3f
       -0.92618334 -1.1586716 0.30265543 0.74402237
0003d0 a2 b1 df bf cb b7 1b 3b 86 e4 a0 be e1 8a 04 40
       -1.7476084 0.0023760672 -0.3142435 2.0709765
0003e0 27 24 c6 3f 4b 24 8d 3c 10 e9 5a bf 1f 7b 99 3e
       1.5479783 0.01722922 -0.85511875 0.29976746
0003f0 19 71 62 3f 9d 9d 46 3e 95 50 d3 3c bd db fa 3e
       0.88453823 0.19396062 0.02579526 0.48995772

riemannian.proj.0.weight f4 [256, 253]
000000 f3 c9 0d bd b7 b1 54 3d 16 1b 15 3d d9 bb 5c 3d
       -0.034616422 0.051927295 0.036402784 0.053890083
000010 1b 4e 04 3b e7 28 84 bd 58 3d 24 bc 86 d4 b4 3d
       0.0020188156 -0.06453114 -0.010024391 0.08829598
000020 0e 13 2f 3b fa 41 77 bc 1b dd b8 b9 e4 89 8d 3d
       0.0026714238 -0.015091414 -0.0003525995 0.06911066
000030 b6 d5 02 3c ef ec e6 bd b8 70 85 bd 41 d5 98 bc
       0.007985523 -0.1127566 -0.0651564 -0.018656375
000040 1f 2e be bc ff c4 37 3d a8 00 0f 3d fe a5 1f 3c
       -0.023215352 0.044865604 0.034912735 0.009744165
000050 98 4d 54 3d 64 ab ce 3b ed 02 73 bd d9 c6 c9 bc
       0.05183181 0.0063070524 -0.059328962 -0.02463095
000060 4f af c9 3c 57 54 66 bc 14 91 84 bd 55 d8 0f bd
       0.024619726 -0.014058194 -0.06472984 -0.03511842
000070 b0 db c6 bd 53 b8 9b bd 42 57 8e 3d 85 c8 88 bc
       -0.09709871 -0.076035164 0.06950237 -0.016697178
000080 59 27 89 bd cd 54 19 be 04 c6 4c bd 7c 93 96 bd
       -0.06696958 -0.14973755 -0.04999353 -0.07352349
000090 61 2c af 3d 2d f0 bb 3c 79 d0 ec bc 31 67 98 bc
       0.085533865 0.022941673 -0.028908001 -0.018603893
0000a0 4a 8d 9f 3c d8 61 a9 3d cb 19 ae bd 86 da c3 bd
       0.019476552 0.08270615 -0.08501013 -0.095631644
0000b0 a9 23 f3 3c 84 09 c4 3c 55 44 b2 3d a7 89 00 3d
       0.02968009 0.023930319 0.087044396 0.031381276
0000c0 3a fe 9a bd b2 9e 03 3d 5c 37 b3 3b 1b 48 18 bd
       -0.07568021 0.032133766 0.005469246 -0.03717814
0000d0 2f 7a 4f bd 18 8c 17 3d 53 09 08 3d 21 84 28 3d
       -0.050653633 0.03699884 0.033212017 0.041141633
0000e0 09 50 61 bd 47 bf a4 3c 5b 84 6c 3d 95 03 fd 3c
       -0.055007968 0.02011074 0.05774341 0.030885497
0000f0 00 52 7f bd 66 6e e9 3d 68 87 9b bd d6 01 35 3d
       -0.06233406 0.1139801 -0.07594186 0.044191204
000100 18 f8 c3 3d cd bb 10 bc df 79 75 bb 19 68 02 3c
       0.095688045 -0.008833838 -0.0037456674 0.007959389
000110 87 19 f5 bd ad 9c 2c bc d3 59 79 bd c6 85 af 3d
       -0.119677596 -0.010535401 -0.06087668 0.08570437
000120 28 88 86 bd a0 6a c2 bd 51 c2 a7 3d d1 d5 ef 3a
       -0.065689385 -0.09492993 0.0819136 0.0018297975
000130 aa 17 a0 bb ff 6a 79 bc 9a 2a 8c 3d 01 f1 02 3c
       -0.0048856335 -0.015223264 0.06844063 0.00799203
000140 de 47 4d bd 97 b7 b6 bc 22 fd e4 3d ec cb 11 be
       -0.050117366 -0.02230434 0.11181094 -0.14237946
000150 81 74 20 be f3 61 fe bc 52 f6 d5 3d 41 0c c7 3b
       -0.15669443 -0.031052565 0.104473725 0.006074459
000160 17 e9 bf 3d 1e 11 6f 3d 2f c4 f3 bc d5 df 13 3d
       0.0937063 0.058365934 -0.029756634 0.036102135
000170 22 de b9 bc 28 31 26 be 06 85 35 3c 0a c7 0f bd
       -0.022688929 -0.16229689 0.011079079 -0.035101928
000180 84 ce e0 bb de 72 7f bc 4a 23 94 3c 83 ee 42 bd
       -0.006860556 -0.015591351 0.018083233 -0.047590744
000190 e8 cd ff ba e9 d1 92 3d aa 09 d0 3c bc 5b 2b 3d
       -0.0019516321 0.071689434 0.025395233 0.04183553
0001a0 a9 1c 4c 3c e9 69 58 bd 18 a0 12 3c cd 8a a1 3c
       0.012458005 -0.05283538 0.008949302 0.019719506
0001b0 a3 bc cd bc e5 e3 01 be 96 cf 23 3d a1 98 bd bd
       -0.025114363 -0.12684591 0.03999289 -0.09257627
0001c0 dc f4 d8 bd fe d3 0b bc 3d 1f 06 bd 97 b7 24 3c
       -0.10593578 -0.00853443 -0.032744635 0.010053537
0001d0 43 05 eb 3b 98 0e ea bd 4b 12 0a bd 5f 30 6d 3d
       0.007172258 -0.11428565 -0.03370885 0.05790746
0001e0 70 ba 7b bd c2 f7 e9 3c 82 bd 17 3c df 8d 6c bd
       -0.061457098 0.028560523 0.009261491 -0.057752486
0001f0 cb 71 54 bd a6 13 31 bd b8 89 17 bd c3 bd 84 3c
       -0.051866334 -0.04323163 -0.036996573 0.016203767
000200 d0 32 f0 3c 1d 34 bc bd ce 8f 45 3d dd 2f 86 3c
       0.029321104 -0.09189627 0.048232846 0.016380245
000210 db 4e 6a 3d 62 6b d8 3c 9f d6 ec 3c e4 d2 80 3c
       0.05720411 0.026418392 0.028910933 0.01572556
000220 39 d0 c1 bc 97 bb 6e bd 0a 5e 90 3d 83 58 4b 3d
       -0.023658859 -0.05828437 0.070491865 0.04964496
000230 cc 99 02 3e 07 cf e0 bd 4e 91 23 bd 21 a6 a1 3d
       0.12753981 -0.10976987 -0.039933495 0.07893015
000240 05 30 db bc 4f 14 de 3d 2c 2f a1 bc 3c 86 00 3c
       -0.026756296 0.10843717 -0.019675814 0.007844504
000250 7d 56 08 be 39 99 58 bc 6a fc 35 bd db 07 98 bd
       -0.13314243 -0.013220125 -0.044430174 -0.07423373
000260 cc b1 4c 3d cf 61 64 bd e5 38 0d 3d db 14 07 bd
       0.049974248 -0.05575734 0.034478087 -0.032978874
000270 38 af 01 3e 0a 2a 8c bc 00 be d4 bd ea 98 5e 3b
       0.12664497 -0.01710989 -0.10387802 0.0033965656
000280 40 6d 67 3d 03 40 47 ba 00 90 30 3d 93 95 36 bd
       0.056500673 -0.0007600786 0.04310608 -0.04457624
000290 03 a6 2c 3d 30 99 39 bd 69 47 96 3c 0a 38 47 3d
       0.04215051 -0.045312107 0.018344598 0.048637427
0002a0 3f 5e 39 bd 65 b2 a1 bd 50 e7 b3 bd 64 68 ae bc
       -0.045255896 -0.07895354 -0.08784354 -0.021290012
0002b0 3e 0e dc bc e4 2f b9 bd d0 7b 8c bc f1 d6 a7 3d
       -0.02686226 -0.090423375 -0.017148882 0.08195294
0002c0 23 c5 05 be 05 2b 4f 3d 28 22 0c 3d 27 1f 62 bd
       -0.13063483 0.050578136 0.03421226 -0.05520549
0002d0 05 da c6 bd dd 94 13 be a0 27 00 3d 50 df 4a bc
       -0.09709553 -0.14412256 0.03128779 -0.012382343
0002e0 98 a3 2f 3d 0d b3 6f 3d 48 bf 04 3e 9c 59 59 bc
       0.042880625 0.058520366 0.12963593 -0.013265993
0002f0 10 be 06 3d fa 32 94 bd 57 ea 31 3c 11 ab 89 bc
       0.0328961 -0.072362855 0.010859094 -0.016805204
000300 7b c2 41 bd a5 e6 82 bd af 32 ef bc f0 8f 84 3d
       -0.04730461 -0.06391648 -0.029198973 0.064727664
000310 f5 7b d6 3d 6e f0 4d 3b 76 6c bc bc 48 ee 47 3c
       0.10472862 0.0031423825 -0.023000937 0.012202807
000320 f7 85 a0 bb 9e 55 90 bc 37 b6 9c bd b6 1d 6d 3c
       -0.0048987824 -0.01761895 -0.07651942 0.014472416
000330 d5 0c dd bd 11 2d f6 ba e6 5c 1a bb 7f 85 c9 3d
       -0.10793463 -0.0018781741 -0.0023553907 0.098399155
000340 d2 7b 1d bc de 29 47 bd 5a bf b4 bd 03 79 bd bc
       -0.009612041 -0.048623912 -0.0882556 -0.023128992
000350 73 4c 8e bd d5 d3 b7 3d f8 89 ec 3b c3 f7 40 3d
       -0.06948175 0.08975951 0.0072185956 0.047111284
000360 a9 c7 1d 3d 25 b7 c4 bd ed ea dc 3d 76 87 69 3d
       0.03852049 -0.096052445 0.10786996 0.05701395
000370 8e 84 1b bd 78 ae 9e bd bb 27 31 bc fc 88 a0 3c
       -0.03796821 -0.07748121 -0.010812695 0.01959657
000380 75 47 90 3d c8 65 8a 3d 0f 38 07 3c fb cf 5e 3c
       0.07044879 0.067576945 0.0082531115 0.013599391
000390 0b 84 d8 bc c7 54 89 3d cc 50 ad 3d 83 6c 02 3d
       -0.02643015 0.06705623 0.084626764 0.031841766
0003a0 5c f5 90 3c a6 92 10 bc fa 5b f2 3d ff ef 16 3d
       0.017695121 -0.008824026 0.118339494 0.03684997
0003b0 e9 4d 44 3d df a2 35 bd ea 58 72 bc 52 01 81 3d
       0.047925863 -0.04434478 -0.014791707 0.0629908
0003c0 6a bd a9 3b 79 62 66 bd 42 96 27 3d 56 1e c8 3c
       0.0051800506 -0.056246255 0.04091478 0.024428528
0003d0 1c eb 94 3c 85 11 85 3d 37 f0 2d 3c 99 fd c3 3d
       0.018178515 0.06497482 0.010616354 0.09569854
0003e0 e6 ec 19 3c 38 c0 00 3c 21 f3 bd 3d 70 b6 2e 3c
       0.00939486 0.0078583285 0.09274889 0.010663614
0003f0 96 f3 64 bd d6 44 65 3e c6 c8 41 3e 93 ae 46 3d
       -0.055896364 0.2238954 0.18924245 0.04850633

riemannian.proj.0.bias f4 [256]
000000 01 61 ba 3a d5 e9 0f 3c 1f ea d7 3c e6 c3 f0 bc
       0.0014219583 0.008783777 0.026356755 -0.029390287
000010 38 d0 19 3c 0c 94 27 bb 9e ba 25 3c db 54 39 3d
       0.009388022 -0.002557042 0.010115294 0.04524694
000020 96 f1 92 3c 2b a9 ec 3c d1 e3 29 bc ac 6b 07 3c
       0.017937463 0.02888926 -0.010369257 0.008265417
000030 05 ba c9 3c 0d 2d 32 bb 89 a3 3d bc 47 73 2e bd
       0.024624834 -0.0027187497 -0.011574634 -0.042590406
000040 aa 4d 3e bb c0 16 8a 3c 05 0d 73 bb 9b b6 c5 bc
       -0.002903799 0.016856551 -0.0037086618 -0.024134925
000050 c5 9b e6 bb e3 b0 b7 3c 42 ba a8 3a 86 8c bd bb
       -0.007037612 0.022423213 0.0012872892 -0.005784574
000060 8d a4 b7 39 96 91 1c 3d dd 8d eb bc 57 b7 bb 3b
       0.0003502708 0.03822478 -0.02875417 0.005728643
000070 82 11 9d 3c b0 3a cf 3c 51 a7 22 bd 4b 28 ae 3c
       0.019173387 0.025296539 -0.039710347 0.021259448
000080 e4 7f 30 3c 87 23 e6 bb 31 79 13 bd c1 8b db bb
       0.010772679 -0.007023278 -0.03600425 -0.0067000096
000090 ec 05 23 bc ce 70 d3 3c c1 a0 ae bc 63 1a 09 3d
       -0.009950142 0.025810625 -0.021316888 0.03347243
0000a0 4e da b7 3c 54 ec d2 bb 6b 2f 7e 3c 3f ee 72 3b
       0.022442963 -0.006436864 0.015514235 0.0037068275
0000b0 b8 eb 15 bd dd c6 cd 3c 73 9c b1 3c 6f 57 b7 bb
       -0.036601752 0.02511924 0.021681046 -0.0055951397
0000c0 b2 b1 97 bb 8d 68 06 bc 87 84 e5 bc 2f 53 a0 ba
       -0.004629337 -0.008203638 -0.028017296 -0.0012231822
0000d0 34 7d 81 bb 2b 87 67 3c ed e9 2d 3d 68 77 57 3c
       -0.003951693 0.014131348 0.042459417 0.013151027
0000e0 7c d1 ca 3c 84 e4 89 bc cb e7 37 3d 24 35 00 3d
       0.024758093 -0.016832598 0.04489879 0.03130068
0000f0 e8 89 b5 bc 8c c4 ab 3c c4 01 8f bb e9 b1 d1 3c
       -0.022160485 0.020967744 -0.004364224 0.02559753
000100 94 49 1d bd 9b 17 ac bb 15 72 98 3c 73 19 13 3d
       -0.038400248 -0.0052518374 0.018609086 0.035912942
000110 51 95 48 3c 48 7d 11 bc 67 7e 8d bb 83 51 ea 3c
       0.012242631 -0.008879967 -0.004318047 0.028603321
000120 84 c2 1c 3b 6c e7 6b bb 0b 13 e9 3a 6b eb ae 3a
       0.0023919651 -0.0035996092 0.0017782165 0.0013345307
000130 81 fe 7c 3a 27 86 75 bb 2c bb 01 3d a3 26 3c bc
       0.0009650961 -0.0037463994 0.03167264 -0.011483821
000140 f2 c4 92 bc 0b 81 8c 3c b1 c7 d5 bc 22 8b 97 3c
       -0.017916176 0.017151376 -0.026096197 0.01849896
000150 bb cc a7 3c ac 23 e5 3c e0 1d 86 3b 2f 95 9e ba
       0.020483365 0.027971111 0.004092917 -0.0012098904
000160 ac c2 fc bb 5b 92 b6 ba a1 41 87 bc 37 53 19 bc
       -0.0077136364 -0.0013929115 -0.016510786 -0.009358219
000170 30 d8 b3 bc 44 6f bd 3c 16 54 a8 3c 10 37 3e bd
       -0.021953672 0.023124345 0.020547908 -0.04643923
000180 fe 12 17 3d 80 a0 ef bc 05 06 06 3d 4c 87 e7 bc
       0.036883347 -0.029251337 0.032720584 -0.028262757
000190 97 aa fa bc 4c 85 75 bc da aa 23 3c bd da 40 bb
       -0.030598922 -0.014985394 0.009989465 -0.0029427253
0001a0 17 c4 97 3c 2a 54 71 3c 08 36 22 3d a7 7f d8 bc
       0.01852612 0.014729539 0.03960231 -0.026428057
0001b0 f1 d3 89 bc a3 65 7d bc 06 54 b6 bc b2 99 30 3d
       -0.016824694 -0.015466127 -0.022256862 0.043115325
0001c0 96 da 9e bc 6f b7 d3 3c a4 9a e9 3c 85 06 91 3c
       -0.01939134 0.025844304 0.028516121 0.017703304
0001d0 97 7b 59 3b 52 01 07 3c 22 34 f8 ba 9c 65 12 bc
       0.0033185238 0.008240061 -0.0018936435 -0.008935358
0001e0 9f 79 db 3a d6 68 b4 3b 93 2c 24 3b b7 2b 1a 3b
       0.001674462 0.0055056615 0.0025050982 0.0023524591
0001f0 96 34 70 3c 09 7d 20 bd ec 31 66 bc f6 01 87 bc
       0.014660975 -0.039181743 -0.014049988 -0.016480427
000200 1c b4 2f bd 68 a9 bc bc 26 24 cf 38 e1 c3 d3 b9
       -0.042896375 -0.023029998 9.877262e-05 -0.00040390997
000210 8c 36 c4 3c 92 63 81 3c 2d 18 67 3c 58 2b 62 bc
       0.023951791 0.01579455 0.014104885 -0.013804279
000220 dc 07 25 bb ec 89 28 bd 75 33 21 bc b8 a1 6a bc
       -0.0025181687 -0.041147158 -0.0098389285 -0.014320783
000230 68 6f 0a 3c d0 29 01 3d e9 f2 6f bc b8 ba e5 bb
       0.008449413 0.031534016 -0.014645317 -0.007010784
000240 68 ba de 3c 9e 6e 9f bb 6d 77 86 bb fc 25 91 3b
       0.027188495 -0.0048654815 -0.004103592 0.004429577
000250 b8 21 15 bc 32 34 c3 3c 9d a9 60 3d 87 0b a0 3b
       -0.009102277 0.0238286 0.054849256 0.0048841867
000260 b7 87 5b 3c 10 65 98 bc ec 81 6b 3c 1f 35 a9 bc
       0.013399056 -0.018602878 0.0143742375 -0.020655213
000270 ae 4f 29 3c d7 5e 6e bc 17 d2 8f bc b1 40 37 3b
       0.0103339385 -0.014548979 -0.017556233 0.0027962143
000280 ad b2 d4 3c 84 31 4b 3c 05 14 0b 3c 0e 35 32 3c
       0.025964106 0.012401942 0.00848866 0.010876907
000290 72 db 0e bb 5a 7b 8a 3c 92 33 0d bd 3d fc b8 3c
       -0.002179828 0.016904522 -0.03447301 0.022581214
0002a0 dc d4 b3 bc 4b cd 9a 3c aa c9 71 ba 30 8e 0c bb
       -0.021952085 0.01889672 -0.00092234707 -0.0021447055
0002b0 1f 3b 95 3c f0 be 38 bc 39 94 3b bc 5f a5 ba 3c
       0.018216668 -0.011275992 -0.011448913 0.022783933
0002c0 9b 5b 13 ba fc d3 f2 bc b2 53 99 3a 56 bd f9 3c
       -0.0005621255 -0.029642098 0.0011697917 0.03048579
0002d0 fd 1c 02 3d 0a 7d 1e 3c 44 7b 0c 3d 2f 78 75 3c
       0.031765927 0.009673366 0.034297243 0.014982267
0002e0 18 d3 b0 bb 7b b1 4e 39 ec 39 9b bb 31 f0 2c 3c
       -0.005396258 0.00019711808 -0.0047371294 0.010555313
0002f0 8d 59 c4 bc 39 72 a9 3c df d6 b6 bb 1f 18 db bc
       -0.023968482 0.020684348 -0.005579814 -0.0267449
000300 3a a0 38 bc 23 02 5c bc 6e f1 1a 3c 0e 7b d4 3b
       -0.01126867 -0.013428244 0.009456975 0.006484396
000310 88 79 d1 bc 74 45 11 bd 30 41 d2 ba 5c b9 5c 3d
       -0.025570646 -0.035466626 -0.0016041156 0.05388771
000320 d3 b8 ea 3c 4e 5d b6 3b b5 cb 3d bc 04 f4 8e bb
       0.028652584 0.005565322 -0.011584212 -0.004362585
000330 8a 59 a9 3c fc 2f 15 bd b6 d6 47 bc 46 a7 5b bc
       0.020672578 -0.036422715 -0.012197187 -0.01340658
000340 67 03 9d bc 6d 83 58 3c 74 bd 40 3c fb e1 22 bc
       -0.019166661 0.013214928 0.011763919 -0.009941573
000350 cc e6 a2 3c 32 ed 8a 3b 9e 6d 65 3c 6a da 9c 3c
       0.019885443 0.0042397017 0.014003186 0.019147117
000360 1b 32 19 3d 90 b3 aa bb 9a ba 8c bc 6e 04 ae 3c
       0.0374013 -0.005209394 -0.017178822 0.021242347
000370 50 ad 98 3c f5 2e 0a 3c 8d 1c d2 b9 d5 90 de bc
       0.01863733 0.008434047 -0.00040075593 -0.02716867
000380 7c 27 82 3b f6 fd b7 3c 6b 0f 19 bc cf cc a6 bc
       0.003971992 0.022459965 -0.009342055 -0.020361332
000390 1b 23 11 bd 69 1a 59 bc a2 f6 47 3c 8d 4e c2 ba
       -0.03543387 -0.013250926 0.012204798 -0.0014824435
0003a0 3d a8 33 3c f9 ef 50 bc be bf a2 bc 69 2c 1c 3d
       0.010965404 -0.012752526 -0.01986682 0.03812829
0003b0 82 70 8a 3c 90 2c 52 3c bd 41 6e 3c 45 67 f7 3b
       0.016899351 0.012828007 0.01454204 0.0075501525
0003c0 47 20 71 bc e4 e4 54 3c b8 2c 32 3c 5c ed bd bc
       -0.014717168 0.012994025 0.01087492 -0.02318447
0003d0 42 e8 6f 3a 80 99 e3 3b 36 ab 56 3d a0 b2 a6 bb
       0.00091517356 0.006945789 0.052409373 -0.0050872117
0003e0 95 34 a6 bc 8a 42 aa 3b 69 2d fa 3c bf 83 c4 3b
       -0.020288745 0.0051959204 0.030539231 0.0059971507
0003f0 05 57 b7 3b a8 52 f8 bb 97 30 9c ba 0b c5 8f 3c
       0.0055950903 -0.007578213 -0.0011916336 0.017550012

riemannian.proj.3.weight f4 [48, 256]
000000 83 2b 66 3d 04 08 ff bd 81 05 d8 3d 47 ae 1b be
       0.05619384 -0.12452701 0.10547925 -0.152032
000010 d8 f7 2a 3e dd 46 f7 bd e7 12 36 bd f6 ea 3e 39
       0.16696107 -0.12074063 -0.04445162 0.00018207342
000020 44 fe 91 3d 3a bb d3 bd 86 db dc 3d 9d 3c 2a bd
       0.071285754 -0.10338445 0.10784058 -0.04156171
000030 e1 bc d9 bd 82 37 cf bd ed 4c d8 bd 99 dd 21 be
       -0.10631729 -0.10118009 -0.105615474 -0.15807189
000040 42 ff 45 be 63 2c 2b 3e 3c c7 ad 3d 36 10 88 3d
       -0.19335654 0.16716151 0.084852666 0.06643717
000050 45 19 d8 bd bc 15 2a bd 45 07 27 be 29 ab d6 bd
       -0.10551695 -0.041524634 -0.16311367 -0.10481865
000060 ba 6c 55 bd 4e e6 f8 3d dd 8f 04 3d 43 a4 a0 ba
       -0.052105643 0.12153302 0.03236376 -0.0012255985
000070 7e 6b a4 bd 99 50 bb 3c fd 87 9c 3d 75 1e d3 3d
       -0.08028315 0.02286558 0.07643125 0.103085436
000080 a1 90 42 3d e6 ed 35 bd 68 fa 0c 3d f0 39 79 bd
       0.04750121 -0.04441633 0.034418494 -0.06084627
000090 fb ee 3f be 68 ed 28 3b c4 4a c5 bd f8 ee 69 3c
       -0.18743508 0.002577627 -0.09633401 0.014278166
0000a0 05 f1 5d 3d 30 dc 56 be 3c bd 81 3c 5b 9e 4a be
       0.054184932 -0.20982432 0.015837304 -0.1978697
0000b0 09 6c d2 bd e9 8e d9 3c 96 5e b4 bd 08 1f aa bd
       -0.10274512 0.026557403 -0.08807103 -0.083067
0000c0 8d 32 62 3d f4 79 e1 3d 0e c9 01 3e 8b c2 3c be
       0.05522399 0.11009589 0.12674353 -0.18433587
0000d0 b1 c0 b7 bd c9 fc d0 bd 88 06 0f be ca 5e eb 3d
       -0.089723 -0.10204465 -0.13967335 0.11492689
0000e0 c1 6f 0a 3e 3e 8a c8 3c 0f d0 31 bd 2a bf 93 bd
       0.13519193 0.024479982 -0.04341131 -0.07214196
0000f0 5f 0b 18 be 8c 89 03 3e 36 b8 94 3d e9 c0 35 be
       -0.14848088 0.12845439 0.07261698 -0.1774937
000100 33 e2 9b 3d 09 86 94 bd 2a 49 03 3e c1 43 25 be
       0.076115035 -0.07252128 0.12820879 -0.16139127
000110 6e 31 9d bd c0 80 09 be 33 71 ef bb c3 aa 33 3d
       -0.076754436 -0.1342802 -0.0073071956 0.043864023
000120 b4 5c 96 3d 1a 71 8a 3c bc c5 1e be de c4 01 3d
       0.073419005 0.016899634 -0.15505117 0.031681888
000130 7d c5 37 bd 79 ff 1b 3d 87 cd 4c 3e ae c9 6e 3c
       -0.044866074 0.038085435 0.20000277 0.014574451
000140 fb ea 97 be 71 71 07 3e 11 94 49 be b7 41 7b bd
       -0.29671463 0.13226868 -0.19685389 -0.061341967
000150 ea 71 90 bd fa 88 6a 3d 9e a8 1f be df fd 06 3e
       -0.070529774 0.057259537 -0.15591666 0.13182782
000160 86 f3 b3 3c ab 90 c6 bd 82 42 68 3e 6b 9b 1e 3c
       0.021966707 -0.09695562 0.2268162 0.009680609
000170 d4 24 cc bd ec b2 9a bd 8b ce c0 bd 58 5f 57 bd
       -0.09967962 -0.07553658 -0.09414395 -0.05258116
000180 ca 75 64 3d 93 a6 dd bd 2f 31 a2 3c 5b a2 a2 3d
       0.055776395 -0.10822787 0.019798843 0.07941123
000190 c9 f0 dc bd c1 2c e5 bc 9e 70 1f be 5d e0 a2 3d
       -0.107881136 -0.027975442 -0.15570304 0.0795295
0001a0 32 ec 87 b9 fd a8 53 3d b9 2f d2 bd ad 37 56 3d
       -0.00025925186 0.05167483 -0.102630086 0.05229919
0001b0 e2 8d 23 3d fa da 53 bd cf bb 9c bc 5a 43 11 3c
       0.039930232 -0.051722504 -0.019132523 0.0088661555
0001c0 16 a7 14 bd 3e 3a a9 3d 0e 32 c9 bb c5 e0 c4 bd
       -0.036292158 0.08263062 -0.00614 -0.09613184
0001d0 b7 52 18 3e c0 6a 02 3e 45 d1 0d 3d b2 35 42 be
       0.14875303 0.12736034 0.034623403 -0.18965796
0001e0 3d 87 3e be ab 3d b0 bb 85 df b7 bc b2 97 e6 3d
       -0.18606277 -0.005378445 -0.02244545 0.11259402
0001f0 f3 cb 07 bd 74 9f 6c 3d b5 94 89 3d a6 f5 0c 3d
       -0.033153486 0.057769254 0.06717817 0.034413956
000200 e9 ca 3d 3d 6b e0 f5 bd ed c7 87 bd 77 56 d4 bd
       0.04633609 -0.12005695 -0.0662993 -0.10368054
000210 3a 74 5d 3d c6 dd 13 3d 67 89 68 bd 9e 74 72 bd
       0.05406592 0.03610017 -0.056771662 -0.059193246
000220 29 ef 33 3d 0c 42 3d be a1 ba ee bc 69 2f 80 bd
       0.043929253 -0.18482226 -0.029141726 -0.06259043
000230 44 3f ce 3a 0b 78 b6 bb 1d 5f 07 3e 92 93 d5 3d
       0.0015735407 -0.0055685095 0.13219877 0.104285374
000240 e6 62 af 39 ae 08 22 bd 2f 5c 83 3d f9 7a 17 3e
       0.00033452286 -0.03955906 0.06414067 0.14793004
000250 1e d3 bc 3b 5c 54 9e 3c 71 57 7b 3d b4 fc 9e be
       0.005762472 0.019327335 0.061362687 -0.31052172
000260 54 50 31 be c6 f3 0f be e1 a0 bd bb d6 7b f2 bd
       -0.17315799 -0.14057836 -0.0057870005 -0.11840026
000270 db 34 b7 bd 9d ff 8c bc 56 97 38 bd 3a c5 f9 bb
       -0.08945628 -0.01721173 -0.0450662 -0.007622388
000280 cc 63 3e 3e 6d 7f 3e 3d 95 7b 5b be cc 40 27 3d
       0.18592757 0.04650824 -0.21433862 0.04083328
000290 43 00 0f be e9 e8 95 3c 95 35 9f bd 4a c3 a8 3d
       -0.13964944 0.018299537 -0.07773892 0.082403734
0002a0 22 08 86 3d 59 7e 1a be a1 c2 28 3e d6 08 94 3d
       0.0654452 -0.1508726 0.16480495 0.07228248
0002b0 07 f8 8c 3c b7 31 77 3d d6 94 b9 bb 9d c6 d8 bd
       0.017208112 0.060350146 -0.0056634946 -0.105847575
0002c0 7b eb 1b 3e 11 7f cb bd f2 07 1b be bd 10 22 be
       0.15226547 -0.09936345 -0.1513975 -0.15826698
0002d0 5a d1 b2 3d af 76 17 3d 91 4f ca 3d b5 a4 05 3d
       0.08731337 0.03697842 0.09878457 0.03262778
0002e0 ac d9 d5 3c fb 5c 11 3d a3 45 20 be 19 3f 59 3d
       0.02610477 0.035489064 -0.15651564 0.05303869
0002f0 d7 77 e4 bd 0e 1d 83 bd 3e c9 39 be 8c 6f ac bd
       -0.1115567 -0.06402026 -0.18143174 -0.084197134
000300 ba 28 0f 3d f2 95 bd 3b aa 24 d2 bd e8 b8 5f bd
       0.03495095 0.005785697 -0.10260899 -0.0546197
000310 ad 83 85 bd 9d 82 93 3c 38 d6 bb bc 66 fe b7 bd
       -0.06519256 0.018006617 -0.022929296 -0.089840695
000320 c0 54 ec bd 92 80 83 bd ec 6e 13 3d 7f 3a ce bd
       -0.11539602 -0.06421007 0.035994455 -0.10069751
000330 4d f9 1c 3d 1a 97 c5 bb 6e 63 1d bd 9e 62 30 ba
       0.03832369 -0.0060299756 -0.0384249 -0.00067285623
000340 5e eb 1b bd 3d e6 9d 3d 1e 2c 8c 3d 06 74 8c bd
       -0.03806626 0.0770993 0.06844352 -0.06858067
000350 05 c2 00 be 64 23 f2 3d f6 d6 96 bc fa aa 09 be
       -0.12574013 0.118231565 -0.018413048 -0.13444129
000360 45 d8 3b be 2c 24 b5 bd 55 5c 3d 3c ce 76 57 3e
       -0.18344219 -0.0884479 0.011557658 0.21041414
000370 15 cf 1c 3e a9 61 19 be 5e 18 15 3e a9 49 9b bd
       0.1531337 -0.1497866 0.14560077 -0.07582409
000380 56 03 81 be 71 da d8 bb 83 44 c5 bc 06 8a 4d 3d
       -0.25197858 -0.006617837 -0.02408052 0.050180458
000390 5b 0b e3 3d db 5f 25 be b0 50 f0 3d bc 7c 07 3d
       0.1108615 -0.16149847 0.1173414 0.03307794
0003a0 94 33 38 be 82 e9 3c 3d a2 52 3e 3d 73 be e1 3d
       -0.17988425 0.046121128 0.046465524 0.110226534
0003b0 9c 34 09 be 53 94 3c be 05 26 66 3c 1e d4 12 3d
       -0.13398975 -0.18415956 0.0140471505 0.035846822
0003c0 57 3c 79 bd e1 f3 bf 3c eb f4 d8 3d 1b 58 1b bc
       -0.06084856 0.02343172 0.105935894 -0.009481455
0003d0 d4 5d ed bc 57 f1 72 3d 1e c5 57 3d 17 b0 5c bc
       -0.028975405 0.05931219 0.05267822 -0.013469717
0003e0 38 f8 87 bc 8a b4 2d bd 0c 38 11 3e d3 7b 13 3e
       -0.016597852 -0.042408504 0.14181536 0.14402704
0003f0 ee 43 42 3e 08 a6 a1 bd 9e d3 57 bd 1c 02 17 bc
       0.18971226 -0.07892996 -0.05269205 -0.0092168115

riemannian.proj.3.bias f4 [48]
000000 1d 3f 11 3e 84 73 5c 3d 2a 9a 39 be 3d 36 8b bc
       0.14184232 0.0538211 -0.18125215 -0.016993636
000010 77 b8 5d 3d 6c 2f 8e bd fe e5 90 3d 93 b4 fa 3d
       0.054130998 -0.06942639 0.070751175 0.12241473
000020 97 cd 2a 3d 94 3e 9f bd 37 0a a8 bc 78 95 c9 bb
       0.041699972 -0.07775608 -0.020512683 -0.0061518513
000030 94 d5 e7 3b 5f f1 1d 3e 1b 52 df bd e5 73 f4 bc
       0.007075021 0.15424107 -0.10904332 -0.02984042
000040 2e 18 8e ba 3b d4 2e 3b 37 60 d5 bc 88 99 bf bd
       -0.0010840946 0.0026676792 -0.026046855 -0.09355456
000050 30 70 5c 3c 08 fb 78 bc 02 ab 56 bd 29 62 37 bb
       0.013454482 -0.015196569 -0.05240918 -0.0027982092
000060 4d 4e a7 bd e0 d1 1f bc f4 a7 a3 3c 3b f2 36 bd
       -0.081692316 -0.009754628 0.019977547 -0.044664603
000070 b3 fc 40 bc f1 a8 91 bd a6 3f 3a be 1f de 10 3e
       -0.011778998 -0.07112301 -0.18188342 0.14147232
000080 0a f2 7e bc a6 a2 90 bd 53 d3 99 b9 67 b2 28 bd
       -0.015560636 -0.07062273 -0.00029339883 -0.041185763
000090 87 8f 85 bc 15 52 cf 3d ff da 10 bc bb d5 b0 3b
       -0.01630379 0.10123078 -0.008841275 0.0053965724
0000a0 9f 55 87 bd 89 f7 60 3d b6 a1 57 be d6 2a 0c 3d
       -0.06608128 0.054923568 -0.21057782 0.03422054
0000b0 47 f7 0b 3e 16 32 9a 3d 76 2a 96 3d bc 6c 87 3d
       0.13668548 0.075290844 0.073323175 0.06612536

cnn.block1.0.weight f4 [16, 1, 1, 64]
000000 b2 75 16 3e 47 ca 34 3e b6 66 13 3d 98 8c f2 3d
       0.14693335 0.17655288 0.035986625 0.118432224
000010 fd a3 00 3d 6d a7 dc bc 08 a9 25 3d 5d e1 85 bc
       0.03140639 -0.026935304 0.040444404 -0.016342813
000020 17 98 0d bc 2b f4 bd 3d 44 4d 13 3e 87 01 1b 3e
       -0.008642218 0.09275087 0.14384943 0.15137301
000030 80 ce 0b 3e 29 e4 ac 3a d6 23 b1 3d 44 cc 70 3d
       0.13652992 0.0013190556 0.08649413 0.058788553
000040 60 15 b8 3d 86 bd 41 3d b8 7e c1 3d 78 70 1f 3e
       0.08988452 0.047299884 0.09447998 0.15570247
000050 1a 68 1a 3e 21 98 55 3e 4f 0d 05 3e 1c 66 80 3d
       0.15078774 0.20858814 0.12993358 0.06269476
000060 bb 48 1e 3c a7 de 89 3d 52 2a 79 3d 8a 5c 31 3e
       0.009660895 0.06731921 0.060831375 0.17320457
000070 b8 a5 18 3d 41 be 0a 3e 75 a5 a9 3d ff e9 f6 3d
       0.037267417 0.13549139 0.082835115 0.1205635
000080 98 7d ab 3d 69 fb be 3d cf 6f b5 3d 72 c7 37 3e
       0.083735645 0.093252964 0.088592164 0.17947176
000090 86 b6 da 3d e9 74 52 39 e0 29 36 3d aa 19 a0 3c
       0.10679345 0.00020070713 0.04447353 0.019543488
0000a0 d1 05 be 3d d0 3c 27 3e 09 8e a0 3d 48 09 94 3d
       0.09278453 0.16331792 0.07839591 0.07228333
0000b0 4a f0 56 bc 16 9d ac 3d 6f 3a 97 3d 28 9b f9 3d
       -0.013118813 0.08428399 0.07384192 0.12187797
0000c0 6c 54 b3 3d e1 05 ef 3d 2e 40 0f 3d 39 29 64 3d
       0.087563366 0.11671043 0.034973316 0.055703375
0000d0 a9 45 47 3d ee 75 7e 3d a0 02 87 3d 4b 60 4d 3d
       0.048650417 0.062124185 0.065922976 0.05014066
0000e0 17 bf a8 3d 9a 71 b0 3c 31 96 c4 bc 47 4e ae bc
       0.082395725 0.021538544 -0.023997398 -0.02127756
0000f0 db 56 df 3c b2 ff b7 3d c5 b2 eb 3d ce 7f 99 bc
       0.027263096 0.08984317 0.11508707 -0.0187377
000100 cc c1 7f be e5 60 47 be 14 1b 50 bd bc bd 93 3d
       -0.24976271 -0.19470556 -0.050807074 0.07213923
000110 32 fa ca 3d a6 db 30 3d 27 16 3c bd 0b f4 d1 bd
       0.09911002 0.043178223 -0.045919564 -0.102516256
000120 17 7e 72 3c ad f7 df bc b8 db 11 be e2 e1 f1 bd
       0.01480057 -0.02733978 -0.14243972 -0.11810662
000130 cf 23 d3 bd f5 f2 a7 bd 03 0b 65 bd 68 07 00 bc
       -0.10309564 -0.08200637 -0.055918705 -0.007814266
000140 89 2e 12 3d d0 ed 9c bc 33 0c 01 be d2 b4 49 be
       0.03568891 -0.019156367 -0.1260231 -0.19697884
000150 30 81 cc bd c3 01 21 be 42 8d 44 be 95 cc ad bd
       -0.09985578 -0.15723328 -0.1919451 -0.084862866
000160 4b 64 21 3d 6f eb 28 3d d3 2b 27 bd 1a 9b a6 bd
       0.039402287 0.041240152 -0.04081328 -0.08135052
000170 ed 26 43 be 44 c6 ad bd ab fe 03 be b5 ba ad bd
       -0.19057818 -0.08485082 -0.12890117 -0.08482877
000180 27 61 06 bd 62 e3 b9 bd 69 f4 bf bc 7f bf 8c 3c
       -0.032807495 -0.09076573 -0.023431974 0.017181156
000190 7a 63 23 3d b2 36 32 3d 99 bb 24 be 66 f1 63 be
       0.03988979 0.043509193 -0.16087188 -0.22260055
0001a0 a5 c7 1d be 00 5d 95 bd cf 38 da bd c3 75 12 bc
       -0.1540819 -0.07293129 -0.10655367 -0.008939209
0001b0 6d 3d e4 bc c7 8b 7d 3d 0d 1c e2 bc 0d bf 16 3d
       -0.027861321 0.06190088 -0.027601266 0.036803294
0001c0 c0 97 93 bd 07 0d bc bd de 28 86 bd 4e 52 2a 3d
       -0.072066784 -0.09182172 -0.065507635 0.041582398
0001d0 6c 62 5b 3b 4e c3 8d bd 5a ba 53 bd 9b 64 01 3c
       0.0033475412 -0.06922017 -0.05169139 0.007897521
0001e0 49 9a ac 3d aa 6c 1f bc fd 9e 76 bd b9 d8 93 bd
       0.08427865 -0.009730497 -0.060210217 -0.07219071
0001f0 63 31 0b 39 ef 0f 35 bd c3 da 7a bd 83 3a 93 bd
       0.00013274471 -0.04420465 -0.061243784 -0.071888946
000200 94 ef 94 be 0e 0d 23 be 4d e4 91 ba fb 84 0b bd
       -0.29089034 -0.15922949 -0.0011130661 -0.034062367
000210 fd 5b 2a bd 21 0a ae bd d2 3d 81 bd 5e 67 42 3c
       -0.041591633 -0.08498026 -0.063106194 0.011865465
000220 94 7d 18 bd 77 0b 85 bd 3e b0 0f bc 13 e8 57 bd
       -0.037229136 -0.06496327 -0.008770047 -0.052711558
000230 c7 c1 c2 bc 71 af b2 bd 5f b2 ac bd 0c de d0 bd
       -0.02377404 -0.08724869 -0.08432459 -0.10198602
000240 76 25 85 bd 6d 39 4c bd d2 1d ae 3c 79 44 35 bd
       -0.06501286 -0.049859453 0.021254454 -0.044254754
000250 54 59 ac bd fd ca 99 bd 76 d8 04 be 92 13 18 bd
       -0.084154755 -0.0750942 -0.12973198 -0.03712804
000260 e9 ea 89 bc c0 21 33 ba 91 5e 8f b8 d7 06 3d bd
       -0.016835647 -0.0006833337 -6.836386e-05 -0.0461491
000270 65 14 83 bd 7e 2d f4 bd a6 d3 8b bd f8 f0 90 bd
       -0.06400374 -0.119227394 -0.06827478 -0.07077211
000280 03 d6 52 bd e4 23 e9 bc ef 2b b2 bc 5b fe 15 bd
       -0.05147363 -0.028459497 -0.021749465 -0.036619525
000290 3f ab 28 bd b0 d0 f0 bd 4c a2 e1 bd ca 15 ed bc
       -0.041178938 -0.11758554 -0.11017284 -0.028941054
0002a0 8a 55 0b bd ba 40 90 bd aa b8 a9 bd 13 28 ca bc
       -0.034017123 -0.070435956 -0.08287175 -0.024677312
0002b0 59 70 53 bd a5 f0 93 bc cf 3f f8 bd 37 5e 35 bd
       -0.051620815 -0.018059084 -0.121215455 -0.044279303
0002c0 23 f4 d4 bd a0 0b b0 bd 55 f5 34 bd b5 98 aa bd
       -0.10398128 -0.08595967 -0.04417928 -0.08329908
0002d0 24 de b6 bd 6d 2e 24 be 76 53 38 be ef 7b ee bd
       -0.08929089 -0.16033335 -0.18000588 -0.11644732
0002e0 ae eb 43 bd 52 27 68 bd cd be 8f 3d 87 11 84 bc
       -0.047832184 -0.056678124 0.07018814 -0.016121639
0002f0 4a 69 4f bd ab 83 19 be a8 6d 4c be fb 82 83 be
       -0.05063752 -0.14991634 -0.19963706 -0.25685868
000300 89 8f a0 bd 6c e1 de ba 71 87 38 3d d8 3d 90 3d
       -0.07839877 -0.0017004437 0.045051042 0.07043046
000310 e7 f6 a4 3d 52 32 c5 3c d7 19 a3 bd 82 ef 17 be
       0.080549054 0.024071846 -0.07963913 -0.14837459
000320 4d 06 10 be 3b 1f 50 bd 55 46 82 3d 6a de 29 3e
       -0.14064904 -0.050811034 0.06361071 0.1658875
000330 c6 7b 2a 3e c0 f4 e3 3d af ff 87 3c e6 cd 3a bd
       0.16648778 0.11130667 0.016601412 -0.045606516
000340 87 42 f0 bd bb e5 c2 bd 2b 00 a1 bd b0 8e 3b 3b
       -0.11731439 -0.09516474 -0.0786136 0.0028618984
000350 40 90 24 3d ac de cc 3c 11 c2 e8 bc 94 dd 43 bd
       0.04017663 0.025008522 -0.02841285 -0.047818735
000360 34 6e f7 bb 7b 88 7a 3d 3c 34 fe 3d 35 c3 ae 3d
       -0.007550979 0.061165314 0.12412307 0.085333265
000370 55 6b 65 bb a2 53 f4 bd 8e 32 13 be 3e db 24 be
       -0.0035006602 -0.11930014 -0.14374754 -0.1609926
000380 4f 2c 69 bd cf 84 85 3d 4f 90 38 3e 6a 86 81 3e
       -0.05692702 0.06519472 0.180238 0.25297862
000390 c3 39 2d 3e 35 0b 66 3c 89 57 1a be 41 ec 65 be
       0.16916566 0.014040758 -0.15072455 -0.22453405
0003a0 a0 5c 1a be 1a 91 98 bc 61 ca 86 3d 3e 81 fb 3d
       -0.15074396 -0.018623877 0.065815695 0.1228051
0003b0 c5 f4 c9 3d ea 0f 63 3d ae 7a 41 bd 00 10 ea bd
       0.09861139 0.0554351 -0.047236137 -0.11428833
0003c0 fa d6 f6 bd cb 4e 56 bd fd 97 cf 3c e0 e1 90 3d
       -0.12052722 -0.052321237 0.025341028 0.07074332
0003d0 0d 1c 92 3d 7f a4 a8 3c 30 9f 86 bc 6a 82 b0 bc
       0.071342565 0.02058625 -0.016433328 -0.021546561
0003e0 29 6f 02 bc 6e cb 28 3c 09 76 ea 3c 58 01 7c 3d
       -0.007961073 0.010302408 0.028620737 0.06152472
0003f0 f5 cd 44 3d e2 cd 8e 3b 93 b6 74 bd 87 e2 ae bd
       0.04804798 0.0043580392 -0.05974443 -0.085393004

cnn.block1.1.weight f4 [16]
000000 a4 de 0a 3f 9e cb c6 3f 73 a0 39 3f 53 e9 55 40
       0.5424597 1.5530889 0.7251045 3.342366
000010 20 83 01 3f 0d ea 5f 40 87 9f ad 3f 9d 1d ed 3f
       0.50590706 3.4986603 1.3564309 1.8524662
000020 e8 64 2c 40 ee 01 0f 40 ed b6 d2 3e 23 f7 81 40
       2.6936588 2.2344928 0.41155186 4.061418
000030 30 8e 79 40 69 44 80 3e 92 dc 6e 3e a6 4b c7 3f
       3.8993034 0.25052193 0.23326328 1.5569961

cnn.block1.1.bias f4 [16]
000000 73 e3 b8 3c fc 84 e2 bc 79 a2 dc 3c 09 60 c2 3c
       0.022569394 -0.027651303 0.026932942 0.023727434
000010 7d 59 7a bd 12 e1 17 bc 87 7f 82 3b 78 c4 dd 3c
       -0.0611205 -0.00926997 0.0039824876 0.027071223
000020 62 e4 33 bc 55 4a a0 3b 84 af 9d 3d c5 d8 92 3c
       -0.010979744 0.0048916736 0.076994926 0.01792563
000030 10 76 8f 3b 3c 66 77 bc 27 cc 8a bc c8 9c a8 bd
       0.004378088 -0.015100058 -0.01694305 -0.08233029

cnn.block1.1.running_mean f4 [16]
000000 12 09 b3 3c a5 0d 84 bc cb b5 9f bc fc a2 fd b7
       0.021854911 -0.016119787 -0.019495865 -3.0235846e-05
000010 ce 86 00 3a 59 28 95 b9 22 7c 99 3c ba b8 61 39
       0.00049029 -0.00028449556 0.018735949 0.00021526488
000020 7d ea 10 b9 9d a8 93 3c 5d af 9d 3a 17 11 61 b9
       -0.00013820264 0.018024737 0.0012030412 -0.00021464039
000030 c0 e6 7a 39 69 e1 8f 3c a0 db 89 3b df ad 12 bb
       0.00023927819 0.017563539 0.0042070895 -0.0022381467

cnn.block1.1.running_var f4 [16]
000000 b7 2b b2 40 90 79 4d 40 9f 7d 82 40 1c 17 d9 3e
       5.5678363 3.2105446 4.0778346 0.42400444
000010 31 56 cc 3f fc a0 f7 3f f1 29 8f 40 d0 5c 2c 3f
       1.5963804 1.9346004 4.47387 0.6732912
000020 02 b2 49 40 7d e2 98 40 83 ba 43 3f 1a ea 1c 40
       3.1514897 4.7776475 0.7645647 2.4517884
000030 48 d1 52 3f 1e 66 67 40 33 7e 34 3f 67 bb f1 3e
       0.8235059 3.6156077 0.70505065 0.4721329
