models/2a_LOSO/model_5.pth (torch, 985978 bytes, 93 tensors)

fusion_proj f4 [48, 48]
00000000: e948 97bf 8120 47bf eda5 7fbf 4533 0ac0
00000010: b8a0 0a3f 49e3 bebf 0df1 4c3f fbda cabe
00000020: fed5 8c3e e46d dd3e 8696 09bf 4cfb 15be
00000030: 227a 923f 519b df3e f90c a13e 2ea4 d13d
00000040: b0ea 993e ed7d a1be 14dc 03be eaa1 b5bf
00000050: deda a2bf 5910 8ebf 5007 cf3e 6b06 5dbe
00000060: b067 31bf 07b9 01c0 e403 79be c399 1bbe
00000070: b075 01c0 2bc7 873f c823 fd3e de00 6c3f
00000080: 2ab7 0f3e 79d2 c0bc c62d 67bf dbc3 233f
00000090: 3281 adbe 7b18 6ebe 1ead febf b87f d9be
000000a0: 5889 eabe eecb 42bf b662 483e 0032 5ebe
000000b0: 4b95 b1bd 79b9 00bd 74c2 0cbf b111 843f
000000c0: ffd2 31bf aa1c 3bbf ed94 993f 7bd4 96be
000000d0: 1523 36bf d34b 8a3f b605 09c0 f077 de3e
000000e0: 2d49 a5bf 51b6 81bf d6eb d3bf ee5d a73e
000000f0: d0eb d5bc 84f6 9a3f 67d5 0640 9279 97be
00000100: ba86 8fbb a4c4 c43e 8fa6 95be 7a61 c3bf
00000110: adb6 86be d6db 70be cd16 d5bf 9038 d23e
00000120: 3ba9 d7bd 3846 d8be a61a 753f 3d7e aabf
00000130: 037d 053f bd02 77bf 9df2 f4bf 3810 35be
00000140: 23d9 9ebe 8bd8 c13e 5e45 4a3f e201 f2bf
00000150: ef7a 0cbf 9a2b 33bf 8dce 72bf c86c 053f
00000160: e450 a63f 7f8a 44bf 16ac 09bf ba79 0c3e
00000170: 3813 24c0 f1c9 163f 0802 863f cbd1 2ebd
00000180: f7ed 8fbf 8177 a2bf 7f7b a0bf d49d 593e
00000190: c272 953f 502f 1c3f 6f04 b73e 438c 493f
000001a0: a046 38bf fe4c c73d 4171 36bf 39c6 5b3e
000001b0: 1ef2 9cbd c13d a93e abb4 763f 5e63 f23f
000001c0: 8c72 803f b057 b73e 60e6 823f 3891 8fbe
000001d0: 505e 773e fe49 323e d84a 31c0 e137 e3bf
000001e0: b6ca a6be 545f ef3f 43d4 963f aa25 5a3f
000001f0: 221a e2be 43d4 b53f 4158 0fbf 11cf 393f
00000200: 5696 d33f d158 a73e b004 e33e 8922 683f
00000210: 1920 2a3f 0a79 6ebd f479 8fbf 8e4e 733d
00000220: ff7a 1ebf fdb2 1dbf 0e22 afbf 4806 4e3f
00000230: 8995 d53e 1be0 d0be 9807 403e 2656 28bf
00000240: 56d8 d7bf 4ddf 7e3f 07a9 8abf 2c0d 06bf
00000250: 76a2 113f 3d04 d0be ee09 4d3f 8bbe 7b3f
00000260: 7be6 e23d 91e3 a4be 191b c33c e831 443f
00000270: 5c94 573f cfa8 dcbf bfe7 163f c1ed 59bf
00000280: cafe 04c0 5383 0840 e38e 96be e4ba fabd
00000290: d181 623f 0ba1 d7bd dd5b f73e 06c1 753f
000002a0: ca56 3abe 460a 403e ec38 11be d889 053e
000002b0: 4629 753f be85 823f 445e 06be ff79 043e
000002c0: f0dc 463f 665e 733f 7462 573f 9ffa 19bf
000002d0: 6e5c 073f 59e6 0dbf f928 67bf 154c 3bbf
000002e0: 1dfc 61bd c626 7a3f 72d3 c93f b565 8b3e
000002f0: c8fd dfbd 4e7e 5ebf 73e0 08c0 9e75 42bf
00000300: 4011 aebd 7bfe b3be 63d8 dabe 733a 61bf
00000310: b22b 02bf fa9f bebe 7ef6 2bbe a26f 54be
00000320: 8306 97bf 099c 43bf 14bf dfbf 741e 603f
00000330: 4aa0 55bf 5f09 f3bf bcc2 b03e 0852 173f
00000340: 4bc0 4c3c 60e2 adbf 7042 c93f b9f4 c6bb
00000350: e3c7 b2bf 73ce 0abf d0c3 bcbe c5fc 763f
00000360: 524a 7dbf 3cb6 d8be 66e7 103f 76a0 c1be
00000370: 4ec8 59bf e3eb 10bf b628 e7bf 34a9 843d
00000380: d066 aabd 7654 ad3f 7468 3ebf 5977 d23e
00000390: 1e31 f8bf 7ba2 8cbf 1a03 693f 9cd1 bb3e
000003a0: c361 d43e 5610 2fc0 22c3 6fbd 21f6 9c3a
000003b0: 825c 3cbf 7f68 973f 5eff 1ebf 25c1 bf3f
000003c0: 1f2f 9f3e a2bc 34be aa95 16bf fd63 97bf
000003d0: 0fc9 203f 9b96 27bf f89b febe bdc2 79be
000003e0: 2c68 a03f 2431 073e 397f afbd 2091 93bd
000003f0: cf12 633f 6538 d8bf d71d 943f 117a ea3e
-1.1819125 -0.7778397 -0.9986256 -2.1593792 0.5415149 -1.4913112 0.80055314 -0.39620194
0.27507013 0.43247902 -0.53745306 -0.14646643 1.1443522 0.43673185 0.3145521 0.10236393
0.30061865 -0.31541386 -0.12876922 -1.4190037 -1.2723043 -1.1098739 0.40435266 -0.2158448
-0.6929884 -2.0269182 -0.2431789 -0.15195374 -2.022808 1.0607656 0.4944136 0.92188823
0.14034715 -0.023537861 -0.9030422 0.63970727 -0.3388763 -0.23251526 -1.9896581 -0.42480254
-0.4580791 -0.7609242 0.19568905 -0.21698761 -0.086710535 -0.03142688 -0.5498421 1.0317899
-0.6946258 -0.7309061 1.1998574 -0.29458985 -0.7114728 1.080439 -2.1409736 0.4345088
-1.2912956 -1.0133764 -1.6556346 0.3268885 -0.02611342 1.2106481 2.106775 -0.29584938
-0.0043800743 0.38431275 -0.29228637 -1.5264122 -0.26311246 -0.23521361 -1.6647583 0.4105878
-0.10530325 -0.42241073 0.9574379 -1.3319775 0.5214388 -0.96488553 -1.913654 -0.17681968
-0.31025037 0.37860522 0.79012096 -1.8906825 -0.5487508 -0.69988406 -0.9484642 0.5211911
1.2993436 -0.7677383 -0.5377821 0.1371831 -2.563673 0.5890189 1.046937 -0.042680543
-1.1244496 -1.269272 -1.2537688 0.21251613 1.1675646 0.61009693 0.3574557 0.7872965
-0.71982765 0.09731482 -0.7126656 0.21462335 -0.07663368 0.33054927 0.9636943 1.8936574
1.0034957 0.35809088 1.0226555 -0.2804048 0.24157071 0.17411038 -2.770193 -1.7751428
-0.3257653 1.8700967 1.1783527 0.8521372 -0.44160563 1.4205402 -0.5599404 0.72581583
1.6530254 0.3268495 0.44339514 0.90677696 0.6645523 -0.0582209 -1.1209092 0.059401087
-0.6190643 -0.6160124 -1.3682268 0.80478334 0.4171565 -0.4079598 0.18752897 -0.6575645
-1.6862895 0.9955948 -1.0832833 -0.5236385 0.5688852 -0.40628234 0.80093277 0.9833762
0.11079117 -0.3220487 0.023816632 0.7663865 0.84210753 -1.7239016 0.58947366 -0.8512841
-2.078051 2.1330154 -0.2940589 -0.12242678 0.88479334 -0.105287634 0.48312274 0.95997655
-0.1819717 0.18753919 -0.1418187 0.13040864 0.95766103 1.0197065 -0.13121897 0.12937163
0.77680874 0.95065916 0.841346 -0.6014804 0.5287541 -0.5542961 -0.90296894 -0.73162967
-0.055172075 0.97715414 1.5767653 0.27226034 -0.10937077 -0.86911476 -2.1386993 -0.7596072
-0.08499384 -0.3515509 -0.42743215 -0.8797981 -0.50847924 -0.37231427 -0.16793248 -0.2074571
-1.1798862 -0.76409966 -1.7480187 0.8754647 -0.83447707 -1.8987235 0.3452357 0.59109545
0.012497018 -1.3584709 1.57234 -0.0060716537 -1.396725 -0.54221267 -0.36868143 0.96479446
-0.9894153 -0.42326534 0.56603086 -0.37817734 -0.85071266 -0.56609935 -1.8059299 0.064775854
-0.08320391 1.35414 -0.7437813 0.4110668 -1.9389989 -1.0987085 0.9102036 0.36683357
0.41480836 -2.735372 -0.058535703 0.0011975208 -0.73578656 1.1828765 -0.6210841 1.4980818
0.31090638 -0.17650083 -0.5882212 -1.1827389 0.6280679 -0.6546418 -0.4972837 -0.24390693
1.2531791 0.1320234 -0.08569188 -0.07205415 0.88700575 -1.689221 1.1571606 0.45796254

pos_enc f4 [1, 500, 48]
00000000: b4c8 b1be e003 74bf 793c 4c3f 9460 b8bd
00000010: 97f0 a43f aa92 44bf 57e1 b23f 0f90 6b3f
00000020: 0ff7 80be b35f 173f dcd3 26c0 533c 683f
00000030: e6fb b73e 94d7 3ebe 750a 2740 47a0 7cbd
00000040: 0af9 94bd f4ca 00c0 8dae 02bf e980 863e
00000050: 3e6e 3e3f 5b6f 0b3f 6df1 36bf 98aa 06be
00000060: aee4 0a40 c957 fdbe f071 84be 8e3d 0f3f
00000070: 2e8b f9be 525b c9be fe44 67bd 4d92 75bf
00000080: 7121 9fbe fc22 cabf e802 0140 c1c3 55bf
00000090: 80fd c5bf 0b3b 78bf 6e64 45bf 7057 abbf
000000a0: 7559 57be 418a f4be 3f66 8e3e ce88 a63f
000000b0: 7bf9 76bf 2f68 07c0 a205 b1be 69e3 1bbf
000000c0: 15ab a8be 44c6 fcbd 5e6b f4bf 0d21 0440
000000d0: 7e22 90bc aec6 2a3e b6d2 423f 8628 853f
000000e0: d8ba e83d 268b e03f e3a2 103f 711e aabf
000000f0: 2593 f7bf 2384 a13f 681b 15bf eeeb 0840
00000100: 9706 bd3f 0646 8c3f cda3 f83e d3a8 62be
00000110: 4688 5bbf 2bff 253f 8c81 b8be 5e75 07be
00000120: ebfe adbf 3ef9 e7be c88f a8bf 2c19 af3f
00000130: 88b3 8c3f 70df 5ebe 1c23 76bf f505 24bf
00000140: bfcb ecbd 10f1 86bf 91f4 7b40 ddc4 20bf
00000150: 22f4 5ebf 0711 f43f 8470 1f3f dc5b 2840
00000160: 75e9 13c0 6d06 1a3e 8a51 e73f 466a 013f
00000170: b18a 1dc0 c55e 653f 5190 26be 6354 60bf
00000180: aa99 943f 6c56 38bf f78f 1e40 9dd0 aabf
00000190: cca3 5f3e 9611 d8bd 602e 633f c4fc 1abe
000001a0: 728f 81bf b247 19c0 9b2e 15c0 3498 5040
000001b0: 7fc7 8d3f 65bd 2d40 a9b1 5d3f f9a5 7fbe
000001c0: a877 b0bf 1b14 9e3d 4cf4 c13e 2a47 71bf
000001d0: 1058 0cbe 85ac 663f 3d2e bf3f dd67 39c0
000001e0: 56b0 b9bf 226e 3ec0 11fd 8c3e 7a57 6a3e
000001f0: d7bd 0fc0 041f f93e 2c6a 90be 6e87 9c3f
00000200: 9447 273d d72e 0e40 aa26 793f 94f6 14bf
00000210: a7bd ee3f cc0c 133e 31bd a0be f6e1 d53f
00000220: 8b51 b53f a901 4c3f 927f 4340 c990 72bf
00000230: 7611 103f 20be f9bf cd68 bebf 33c8 a0bf
00000240: a47a db3f 4f7d 1940 40df debe 9dcf dbbf
00000250: 8933 72bf cfbc a03e 0cf5 14c0 2b99 e83f
00000260: 0ea6 b7bf 41a2 acbf a350 12bf 1c40 753f
00000270: 8e30 ae3e f316 123f 85e2 3abf b5ab fd3e
00000280: c3d6 38bf ee68 15c0 c87a a53f 2c80 afbe
00000290: 6911 503f 67e7 bc3e f269 25c0 3629 d33f
000002a0: fcb9 6c3f 15e5 99bf 514f 46bf c434 18c0
000002b0: 311c 1bbf 6cb9 4940 a0c6 27bf ca0e 0440
000002c0: 22db 3abe f445 1b3f 21b9 e8be b3bc 3b3f
000002d0: 3909 e43f c1c1 013f b60e 953e 8e27 1ac0
000002e0: b4ca e33f 0a9f 4940 5512 a3be 346d 46bd
000002f0: ae71 bebf 99ad f0be 9c34 96be 995d 9a3f
00000300: 3e9b 08c0 a5ef 163f 26de bebf e477 10bf
00000310: 37b3 973f a72c e63f b511 4abe 8285 143f
00000320: 0ec1 933d a353 193f b778 f43f 8089 f9be
00000330: 64c2 1840 c355 223f 0e7c 6dbf fc3d 783e
00000340: 52b1 17bc 3d99 56bf e896 543f 7ba5 1040
00000350: 8a42 debe d2b7 4b3f 0045 76bf 6253 823f
00000360: 06ba 633f 98b8 f43f 19e6 d8bf 21f0 8abf
00000370: 0cb4 cfbf 4e04 f33c e516 6c3e fc27 29be
00000380: 8d22 483f c9f8 d3bf 9479 25c0 8dbd edbf
00000390: bfcf 54bf 2dd0 90bf fe71 1b40 1e8f 6dc0
000003a0: 7537 70c0 c574 fa3f 20d2 1cbf 0e06 c6bf
000003b0: 9956 cebf 17e5 983d b067 023d 7f8e 403f
000003c0: 4242 01c0 1215 163f d8d0 ec3e 6258 e43e
000003d0: 798d 613e 246c 9e3f 113a 6b3f 5741 3d3f
000003e0: d345 d73e 2c33 c13f e1fb 9c3f cae7 c23e
000003f0: afb6 3f3f a233 26bf f83e 853d 88be 3bbf
-0.34723437 -0.9531841 0.79779774 -0.09002796 1.2885922 -0.7678629 1.3975018 0.9201669
-0.2518849 0.591304 -2.6066809 0.9071705 0.3593437 -0.18636924 2.6100132 -0.06167629
-0.07274063 -2.0123873 -0.51047593 0.26270226 0.74386966 0.5446679 -0.71462137 -0.13151014
2.1702075 -0.49481037 -0.25868177 0.559533 -0.48738998 -0.39327484 -0.05646228 -0.9592636
-0.310802 -1.5791926 2.0158024 -0.8350182 -1.5467987 -0.9696509 -0.7710637 -1.3386059
-0.21030219 -0.4776173 0.27812383 1.30105 -0.96474427 -2.1157339 -0.3457461 -0.60893875
-0.32943025 -0.12342504 -1.9095266 2.0645173 -0.017594572 0.16677353 0.7610277 1.0402992
0.113637626 1.7542465 0.56498545 -1.329054 -1.934178 1.261845 -0.58244944 2.1394
1.4767636 1.095887 0.4856247 -0.22134714 -0.8575481 0.6484248 -0.36036336 -0.13228366
-1.359342 -0.45307344 -1.3168879 1.3679557 1.0992289 -0.21764922 -0.9614732 -0.6407159
-0.11562299 -1.0542316 3.9368021 -0.6280039 -0.8709127 1.9067696 0.6228106 2.6306067
-2.311124 0.15041514 1.8071759 0.50552785 -2.46159 0.8959773 -0.1626599 -0.87628764
1.1609395 -0.7200687 2.477537 -1.3344914 0.21839827 -0.10550229 0.8874264 -0.15135485
-1.0121901 -2.395001 -2.3309696 3.2592897 1.1076506 2.7146847 0.8659921 -0.24965657
-1.3786516 0.077186786 0.37881696 -0.9424921 -0.13705468 0.90106994 1.4935986 -2.8969643
-1.4506938 -2.975472 0.27536824 0.22884932 -2.245962 0.48656476 -0.28206003 1.222883
0.040839747 2.2216089 0.9732462 -0.5818875 1.8651627 0.1436035 -0.31394342 1.6709583
1.416551 0.79690033 3.0546613 -0.94752175 0.56276643 -1.9511147 -1.4875733 -1.2561096
1.7146802 2.3982732 -0.435297 -1.7172734 -0.94609886 0.3139405 -2.3274565 1.8171743
-1.4347551 -1.3487016 -0.5715429 0.9580095 0.3402142 0.5706627 -0.7300189 0.49545065
-0.722027 -2.3345294 1.2928095 -0.34277475 0.81276566 0.36895296 -2.5845914 1.6496952
0.9247129 -1.2023035 -0.7746478 -2.3782206 -0.6058989 3.1519423 -0.6553745 2.0634027
-0.18247655 0.60653615 -0.45453742 0.7333481 1.7815315 0.5068627 0.29112786 -2.4086642
1.7796235 3.150332 -0.31849924 -0.048443988 -1.4878442 -0.47007445 -0.29337013 1.2059814
-2.1344752 0.5895942 -1.4911544 -0.5643294 1.1851567 1.7982377 -0.19733317 0.58016217
0.07214557 0.59893245 1.9099339 -0.48737717 2.3868647 0.6341211 -0.9276742 0.24242395
-0.009258585 -0.83827573 0.83042765 2.2601001 -0.4341014 0.7957736 -0.96199036 1.0181696
0.88955724 1.9118834 -1.694522 -1.0854532 -1.6226821 0.029665139 0.23055609 -0.16519159
0.7817772 -1.6560298 -2.5855455 -1.8573471 -0.83129495 -1.131353 2.4288325 -3.7118602
-3.7533848 1.9566885 -0.61258125 -1.5470598 -1.6120178 0.074655704 0.031837165 0.7521743
-2.019669 0.586259 0.46253085 0.4459868 0.22026624 1.2376752 0.9188548 0.73927826
0.4204546 1.5093741 1.2264367 0.38067466 0.7488813 -0.64922535 0.06506151 -0.733376

riemannian.proj.0.weight f4 [256, 253]
00000000: 0d7f 903e b997 90bc 6ef3 c13d 5649 f13d
00000010: 81d8 94bd f62b 273c be46 223e 4d44 9cbc
00000020: 4d93 5b3d 3a91 a63d 8003 2a3d 3774 363d
00000030: 1941 803c 1a54 633d f101 cabd 3698 0cbd
00000040: 1d41 84bd f5d5 8c3b 1488 60bd eaeb 80bd
00000050: 0375 1bbc 940a 223b 0caf 073e 7542 60bd
00000060: 6ca1 1d3c b8fb c03c 8fae 103d d2e3 e23d
00000070: 32c8 0c3d 6273 4b3c f752 a8bc f237 d9bb
00000080: 759c bdbc 989c 6d3d 1e27 3f3c 088a a43d
00000090: fa6c d13d 6cea c8bd ee49 17bb d2c7 ffbc
000000a0: 6986 ffbd 3587 c5bd 6e7f a73b f780 a2bc
000000b0: 93ab 163d f6b1 c1bc d994 08bc b07b 3b3c
000000c0: 3308 ce3c d20a 81bd f679 443d f128 99bd
000000d0: f255 ecbd 1d06 913c 5b8f b43c 9754 8cbd
000000e0: a04b 89bd e48a 583d 1ae3 683d de6a 33bd
000000f0: a9b9 eabc cfca eb3c c3d9 2e3d 52ad 85bb
00000100: 2a8f c93d f8e1 20bd c03b 89bc f014 883d
00000110: 2ebe acbd 1cad 4abc 42d3 7f3c c16e 34bc
00000120: 2721 d3bc 4ce7 1d3c ff3d 083d 2539 b7bc
00000130: 50b6 4c3d daf5 023d eff9 2dbe e462 a8bc
00000140: 47e4 c4bd e605 9dbd eaf2 85bd 7035 383d
00000150: fb81 89bd 0451 da3a cdf1 983d a724 ff3d
00000160: 5ca4 093d 480f 57bd 2a56 0cbd de05 55bc
00000170: adb7 02be 2b3b b8bc befe f6bd c843 603a
00000180: 584d 103d 7afb 13bd b039 b8ba 2866 533d
00000190: 78f3 28bd 572d 973d 3c5c 773c db8f ef3b
000001a0: 0b7c b6bc a4dd a13d 5340 773d 797c c93d
000001b0: 7b77 85bd 5514 083e 4c76 16bc 66d2 bebc
000001c0: fa1b 42bd 3d59 17bd ab9c 3c3d ac57 02bc
000001d0: d62d 953d 40ac 94bd 799f c03d 3b44 04bd
000001e0: 0740 a7bc e790 38bd 308a 08be 4647 74bc
000001f0: 6338 ae3d 0554 a4bc 9db2 543d 79e2 5b3d
00000200: 7c29 483d 2522 5bbd 33db ebbd 4474 b9bc
00000210: ccfc e93c 5e50 613c 49f6 ac3d ca22 2fbd
00000220: fda4 bfb9 842e 1a3d db84 3e3c f488 033d
00000230: 1082 d33d 61aa 9cbb e98a 00bc 2fa4 f23c
00000240: ce71 46bd e5ee 9ebd ed6e 56bc 03d9 5d3d
00000250: 6922 0b3d 4fc0 95bc 7f96 3cbd 4876 a23d
00000260: 8c36 f0bb a34d 31bc 2e9a 49bd 62cd f3bb
00000270: d945 88bd 6879 15bd 1a4f ca3b 774f a5bd
00000280: ce24 8d3d 7ce1 cb3d bbb7 9a3b 5a24 ec3c
00000290: 022f 853d 0df6 3e3d 8ac2 15be 9638 aabd
000002a0: 8537 77bc 3250 aa3d 0fd6 313c 15f1 3b3d
000002b0: 0e37 58bd 8e02 b73c 09ce b2bd a170 82bc
000002c0: 762e 8f3b 1b46 c0bd e505 cb3d 97b4 0e3d
000002d0: ea3c d43d b625 f3bd ae3b 46bd 227a 713d
000002e0: a3dd ddbc 7407 523d 2919 213d 7bd8 bb3d
000002f0: c6ea 413d 5af3 3ebd 927e 283e 4fd0 0a3c
00000300: 8275 5cbd 7d3f 793c 5b77 993d 6872 e33c
00000310: 5fa2 edb9 6044 4cbd bd78 193c a9a2 e7ba
00000320: 9c05 23bd b7fc bfbc 452d 903d 6e66 df3d
00000330: 844d af3d 2aca b6bd 2ba1 0dbe 39e9 b63d
00000340: bcfd e83c e8df b43d 8ba0 a93a 349c 853d
00000350: 9f94 d0bc 259d c7bd 9809 6dbd 24b8 02bd
00000360: b593 1ebd 213c 8bbc ef0e a6bd a5cc e53c
00000370: 86a2 43bd ad62 363c 6bbf f43c 9fe3 613d
00000380: 3232 d6b9 ab12 743d 230b 0a3d ac8d ab3c
00000390: 4ce3 80bd 3ef6 a73c b831 803d 0652 ec3d
000003a0: 6a12 6cbd 401f 0d3c afa3 873c 6931 893d
000003b0: 5b2e b43d 92d6 8abd 95ae f13d 7f4a a5bb
000003c0: 9591 4f3d d3ee b43c 7353 433d 58c1 9c3c
000003d0: 85f2 ef3c 739f 0cbd 8ffd 7abc 6e81 b63d
000003e0: 0402 e5bc ee42 eb3d 3acc 6bbd 981f cc3a
000003f0: 9e37 0f3e ffd3 553e 3fe3 9cbd 4d92 803d
0.28221932 -0.017650472 0.09470259 0.11781566 -0.07267857 0.010203352 0.15847299 -0.019075537
0.053607274 0.081331685 0.041507244 0.044544425 0.015656041 0.055500127 -0.098636515 -0.034324847
-0.06457732 0.0042979666 -0.054817274 -0.06294997 -0.009488347 0.0024725543 0.13250369 -0.05475088
0.0096210055 0.023557529 0.035322722 0.110786095 0.03437061 0.012417646 -0.020547373 -0.0066289837
-0.023145894 0.058010668 0.011667041 0.0803414 0.10225864 -0.098103374 -0.0023084837 -0.031223211
-0.124768086 -0.09644929 0.0051116263 -0.019836886 0.03678472 -0.023644429 -0.008336269 0.011443064
0.025150394 -0.06300892 0.047967874 -0.07478512 -0.1153983 0.01770311 0.022041013 -0.06852072
-0.067038774 0.05286683 0.056857206 -0.04380309 -0.028652983 0.02878323 0.042688143 -0.0040794993
0.098417595 -0.039278 -0.016752124 0.066446185 -0.084347114 -0.012370374 0.015614333 -0.011012734
-0.025772644 0.009637665 0.03326225 -0.022366116 0.049978554 0.031972744 -0.16989873 -0.020554967
-0.09613853 -0.07667141 -0.06540473 0.044972837 -0.06714245 0.0016656225 0.07467995 0.12458163
0.03360401 -0.052504808 -0.03426186 -0.013001887 -0.12765379 -0.022489151 -0.12060307 0.0008555022
0.03523001 -0.0361285 -0.0014055278 0.051611096 -0.041247815 0.07381695 0.015097674 0.00731085
-0.022275945 0.07903603 0.06036408 0.098381944 -0.0651693 0.13289006 -0.009183478 -0.023293685
-0.04738996 -0.03695034 0.046047848 -0.007955473 0.07284133 -0.072594166 0.09405417 -0.032291632
-0.020416273 -0.045060065 -0.13333964 -0.014909571 0.08506849 -0.020059595 0.05192815 0.053682778
0.048867688 -0.05349936 -0.11516418 -0.022638448 0.028562926 0.013752071 0.08445413 -0.042757787
-0.00036553285 0.037642017 0.011628355 0.03211303 0.10327542 -0.004781053 -0.007845619 0.029619304
-0.048448376 -0.07760409 -0.01308797 0.054162037 0.033968363 -0.018280176 -0.04604196 0.079327166
-0.0073307212 -0.010821733 -0.049219303 -0.007440255 -0.066539474 -0.036492735 0.0061739804 -0.08071797
0.068917856 0.09955117 0.0047216094 0.028825928 0.06503107 0.04662137 -0.14624992 -0.08311574
-0.0150889205 0.08316077 0.010854258 0.04588421 -0.05278688 0.022340085 -0.08730704 -0.015922846
0.0043695522 -0.093883716 0.09913234 0.034840193 0.10363181 -0.11872427 -0.04839676 0.058954366
-0.027083224 0.05127664 0.039330635 0.0917215 0.047343038 -0.046618797 0.16454533 0.008472516
-0.053823 0.015212891 0.074934684 0.027764514 -0.00045325138 -0.049869895 0.009367165 -0.0017672378
-0.03980027 -0.023435934 0.070398845 0.10908209 0.08559707 -0.089252785 -0.13831012 0.089312024
0.028441302 0.08831769 0.0012941522 0.06523934 -0.025461493 -0.0974677 -0.057870477 -0.03191389
-0.038715083 -0.016996445 -0.08108317 0.028051684 -0.047762416 0.011131925 0.029876431 0.055148717
-0.0004085466 0.059588116 0.033702027 0.020941578 -0.062933534 0.02050316 0.06259483 0.11539082
-0.05763475 0.008613408 0.016557543 0.06698877 0.08797904 -0.06779207 0.11800877 -0.005044281
0.050675947 0.022086537 0.047687005 0.019135162 0.029290447 -0.03433175 -0.015319242 0.089114055
-0.027955063 0.11487375 -0.057567813 0.001557338 0.1398606 0.20881651 -0.07660531 0.06277905

riemannian.proj.0.bias f4 [256]
00000000: 678c 963c f9c8 dc3c 9b9c 7abc d7de a6bc
00000010: 757c 0d3b b2b9 853c 64c6 7fbc 7f61 3ebb
00000020: 9319 81bc 20fa b4bb c30b c5b9 a753 fcbb
00000030: eae5 bfbc 07b6 193c aa87 a03c 62aa 81bc
00000040: 962f a5bc 63dd 863c b200 bc3a 008a 03bd
00000050: 523b a13b dca3 e0bb 3b8c dbbb 4751 1d3c
00000060: 310c 81bb 9b09 dcbc 67b0 54bc c8ca 74bc
00000070: bf8c b03b a848 0c3c dc48 4b3c c68e f13b
00000080: 7e4f a63c e09b 69bc 57d3 bb3b 3927 c9bc
00000090: 333c 513c feb4 d03a f890 8dbb ea41 48b9
000000a0: 971f 003d fe3a cf39 2f8a 85bb 8b31 ce3c
000000b0: 77a6 ea3c f5cd 15bc fb42 d1bb 2afa fc3c
000000c0: f9bf a6bb 20a8 733c 8795 cfbc 76b8 013d
000000d0: 8ade 453c 11e7 3cbc 1e61 5c3c 7504 333c
000000e0: 1803 a9bb c162 9abc 5758 83bc 479b 2fbc
000000f0: 5513 9bbb 8b55 5f3c 3858 f639 3938 983b
00000100: ec0f 5c3b 4006 f13c e956 e7bb 2d9c 523c
00000110: dc85 c8bc 5ad4 573c ec6e ad3c 0fe5 5bbc
00000120: 2ce7 62bc 0add c5bc 7a85 50bc 718f 01bc
00000130: d4af e9bb 4635 543b e008 803c ee95 d0bb
00000140: 1b75 55bb 19f9 173c dad3 e9bc fd01 5ebc
00000150: c6bf c5bc b637 d83b 6095 26bc 8e5e 5a3c
00000160: 8cd2 73ba 697b ecbc 6948 3aba 193e 33bb
00000170: cc9b ec39 484a 233d 76fe c2ba 8063 4d3d
00000180: be65 08bc 57e8 823c 1a15 e83b d818 a93a
00000190: a79c 4f3c 3761 69bc 34e8 67bc 0f6f a4bb
000001a0: 7d98 e3ba b4d2 fc3c 1e72 8c3c 1697 d63b
000001b0: 5eaf 893c f178 c2bb a23b 14bc e198 df3b
000001c0: 2bb4 a9bc bca0 e5bc 81be b9bb 4e1a ee3b
000001d0: 8477 01bc 8d6b 273c 3986 93bc a721 07b9
000001e0: daab 6bbc 08d7 eabc c22f c43c 9a88 59bc
000001f0: aa9b abbc 0459 81b9 6dd5 51bc 61ae 98ba
00000200: 82e9 70bc 6922 f5bc 271c a3bc e24e 033c
00000210: abc2 863c 6121 d9b8 083e b4bc acc3 1ebd
00000220: 489a 41bc a4e8 353b ffc3 3bb9 e1d1 75bb
00000230: a5a2 0ebd e8e0 14bc 485a 923b 838c e3ba
00000240: 9143 753c 9a2b f93a 0e8a 983c 1f9d 46bb
00000250: 9c07 c8bb f58c 8aba ca6d 41bc 54c8 403c
00000260: 3c27 72bc 17e8 5dbc 1f63 04bb 697e 1fbd
00000270: 53f8 8bbc 7ade 083c 296b dc3c 2092 443c
00000280: 9426 133c 590e b53b 80f7 3c3c 2c32 39bc
00000290: 71b9 8fbb fadb 96bc 9e2b fa3a 9db4 98bc
000002a0: 86d7 dbbb 0999 103c 5e24 25bb 4715 e03c
000002b0: ed79 94bb 49a8 1e3c 9333 94bc 6305 e6bc
000002c0: 3b4f 47bc 1ace 8fbc 0118 8dbc c1f1 b1bb
000002d0: 04e0 c8bb c39d 993b 0b58 18bd 52ba e63c
000002e0: d8dd 6c3c 9f28 1cbc 7902 1cbc bd8b 5dbc
000002f0: 8e57 8b3c 49d7 1e3c c82e 01bc 9d47 67bc
00000300: 7aba a23c b13d bebc 9d91 c7ba 15d0 8f3a
00000310: e3db 303c 45a6 6b3b 0313 653c 491b 823c
00000320: 3cba 3ebb bb29 0c3c 3399 c4bb fb31 0d3b
00000330: 673c fcba 6d70 323c 7c34 61bc 3f4b 7dbc
00000340: decd 9fbc f426 21bd 5d4b fcbb e3bd 213d
00000350: c12c 503b 7c51 943c 0992 e3bc d7be 2c3c
00000360: ef73 a8ba 68b1 8bbc b1bf c0bb 0255 18bc
00000370: 37cd d83b d4a3 9dbb 2d93 71bc 60fb 553b
00000380: 2dc3 e1bc 0c9a 98bc 687e 84ba b706 ab3c
00000390: 7c31 07bc 855f f4bb ba28 65bc ec26 37bc
000003a0: 1643 60bc 97f9 fdbc e950 223d 2f44 08bb
000003b0: 3cb2 acbb 4380 e2bc 492e b2bc 959a 46bb
000003c0: 1511 4dbb c436 6a3c 2337 1c3b 1f9d 833b
000003d0: eaec cd3c 7d9f 1e3b b5ac 7f3b 964e bd3c
000003e0: 28ad b9bc 76ad 67bc d245 a23b b732 8abc
000003f0: 3b84 a33c 101f bd3c 57c4 ce3c f4a5 b2bc
0.018377496 0.0269513 -0.015296127 -0.02036993 0.0021589075 0.016323898 -0.015611265 -0.0029049811
-0.015759265 -0.0055229813 -0.0003758353 -0.007700402 -0.023425061 0.009381778 0.01959594 -0.015828315
-0.020164292 0.016462987 0.0014343469 -0.03211403 0.0049204016 -0.006855471 -0.0067000664 0.009601898
-0.003938221 -0.026860049 -0.012981511 -0.014940925 0.005387872 0.0085622445 0.012407508 0.0073717562
0.020301577 -0.014258355 0.005731981 -0.024554836 0.0127707 0.001592308 -0.00432026 -0.00019098041
0.031280126 0.0003952607 -0.0040753107 0.025170108 0.02864383 -0.009143342 -0.0063861585 0.030881006
-0.005088803 0.014871627 -0.025339855 0.031670056 0.012076983 -0.0115297 0.013450889 0.010926356
-0.0051578395 -0.018845918 -0.016033335 -0.010718173 -0.004732529 0.013631235 0.00046986504 0.004645374
0.0033578826 0.029421926 -0.007059921 0.012854618 -0.024477892 0.013173187 0.021171056 -0.013421311
-0.013849061 -0.024153251 -0.012727136 -0.007907734 -0.007131556 0.0032380386 0.015629232 -0.0063655293
-0.003257102 0.009275698 -0.028543402 -0.013550279 -0.024139296 0.006598438 -0.01016745 0.013328208
-0.0009301088 -0.02886744 -0.0007106127 -0.0027350246 0.00045129505 0.039865762 -0.0014876861 0.05014372
-0.0083250385 0.015979929 0.0070825936 0.0012901081 0.012671626 -0.014244369 -0.014154483 -0.005018122
-0.0017364171 0.03086219 0.017144259 0.0065487726 0.016807254 -0.0059348275 -0.009047421 0.0068236445
-0.020715794 -0.028030746 -0.005668462 0.0072663194 -0.00790203 0.010218513 -0.018008338 -0.0001288714
-0.014384234 -0.028666988 0.023948554 -0.013277197 -0.02094825 -0.0002467112 -0.012807232 -0.0011648649
-0.01470411 -0.029923635 -0.019910885 0.008014413 0.016450247 -0.00010353584 -0.022002235 -0.038760826
-0.011816569 0.0027757073 -0.00017906724 -0.003750913 -0.03482308 -0.009086825 0.004466329 -0.0017360601
0.014969722 0.0019010187 0.018620517 -0.0030306054 -0.0061044227 -0.0010570573 -0.011805961 0.011766512
-0.014779862 -0.013544104 -0.0020200682 -0.038938913 -0.017086184 0.008353824 0.026906567 0.01199773
0.008981366 0.005525392 0.011533618 -0.011303466 -0.00438612 -0.01841544 0.0019086485 -0.01864081
-0.006709042 0.008825549 -0.0025198678 0.027353896 -0.0045311362 0.009683677 -0.018090999 -0.02807874
-0.012164886 -0.017554332 -0.01722336 -0.0054304306 -0.0061302204 0.004687996 -0.03719334 0.028165016
0.014457189 -0.009531169 -0.009522074 -0.013522086 0.017009523 0.009694883 -0.007884689 -0.014116195
0.01986431 -0.023222776 -0.0015225891 0.0010972047 0.010794613 0.0035957259 0.0139815835 0.015882151
-0.0029102704 0.008554871 -0.005999708 0.0021544683 -0.0019244076 0.010891062 -0.013745423 -0.015459835
-0.019507345 -0.03934379 -0.0076994137 0.03948773 0.0031764957 0.018105261 -0.027779596 0.010543547
-0.0012851934 -0.017052367 -0.0058822264 -0.009297611 0.0066162604 -0.0048107896 -0.014744562 0.0032651052
-0.027558887 -0.018628143 -0.0010108473 0.020877225 -0.008251544 -0.007457676 -0.013986761 -0.011178713
-0.0136878695 -0.031002803 0.039627943 -0.0020792594 -0.0052702706 -0.02764905 -0.021750586 -0.003030454
-0.00312907 0.014295284 0.0023836575 0.004016533 0.025137383 0.002420395 0.0039012854 0.023108762
-0.022665575 -0.014140477 0.004952171 -0.016869886 0.019960513 0.0230861 0.025240107 -0.021807648

riemannian.proj.3.weight f4 [48, 256]
00000000: 4650 503d 3fa6 a73b 8e56 c13d 1946 733c
00000010: 404a b73d a5dc b6bd 674f 1c3d 2faf eabd
00000020: d6b5 c5bb 1f1d ad3d 9483 73bd 3099 18bd
00000030: f42e eebd 72b3 053e 4e8e 8c3c 245b a6bd
00000040: 8dec 09bc cc04 a9bd a674 c5bd fc26 663d
00000050: ed2c 953d 2a46 2fbe 1c48 10be 1d8f 08bc
00000060: 6e90 9cbd 14f4 12bd 05e3 0ebc 2eef c13d
00000070: b172 f83d 9992 fcbd 76db a2bd 0e4b 68bd
00000080: 2feb 6e3d f302 d1bd 3b7c c9bd 867f 323c
00000090: d767 d2bd f513 083d 6afd 0cbd 50c0 9bbd
000000a0: ba08 0bbc 2b25 84bb 0db9 26bd 4af1 0bbe
000000b0: fb6b 1ebe bdbf 0c3e 9e60 a7bd a604 0dbd
000000c0: 9014 cc3d 2906 a9bd 4cad 15be 59b8 113d
000000d0: 5fff 3d3e 5296 da3d 0a44 263e 926d 083d
000000e0: 370d d2bd d21a 56bd c8d6 8abd 2d61 a1bd
000000f0: cb0b 9cbc 99de 45be 6c78 55be e72e 963b
00000100: 8537 ec3d 9eea 423d 2170 14be 1606 0b3e
00000110: d7ea b5bd 79ee f4bd c549 1b3c 6d5d f5bd
00000120: 6508 7bbd ddd3 48bd ec0f 7f3d c04d 773d
00000130: 14f7 a5bd 37b1 75bd 841f 32bd 3d33 e83d
00000140: 75eb 69bd e30d 5abc 91be 973c 3646 cdbd
00000150: 6ac5 4f3b d4cd da3d 2dd8 e73d b318 6a3d
00000160: d1fc a2bd 5312 1bbb f43d 643c df19 943c
00000170: 835e e43d f1f1 58bd 38e4 103d aeb7 913c
00000180: d4da 91bd d725 10bd d4ff 87bd 95ae 613d
00000190: 764d c53d e1ca d4bd 10f9 3e3e 2715 073d
000001a0: 97ac f63d c481 17bd d9b3 2a3d 90a1 7b3d
000001b0: 215f f33c 598b 13be 3387 cebd ed85 923c
000001c0: 8634 173e ab1d b13d 93c3 0fbd 6798 eabd
000001d0: 6930 5a3d ceb6 643d ba92 813d 3293 20be
000001e0: 2605 fcbd d132 af3d 49fb 12bd a06c 8bbc
000001f0: 28b7 813d e78c 193d 8500 6c3d 5598 91bd
00000200: e84d b83d d4cc 863d c100 2fbd b4a1 11be
00000210: 14d7 673d 3d2c 213d 23ee 82bd 8c4d 223c
00000220: 3b4c bebb e499 0fbe b513 2fbe ff15 8ebc
00000230: d290 86bd b6e8 d03c e274 a53d 6192 4c3e
00000240: fcd4 15be 6946 75bd 708a 15be 0ba9 fb3d
00000250: 38d2 7fbd 14bd 803d 3fc6 01bd 7004 5bbd
00000260: 7f0b 69bd 9e36 63bd 9df5 01be 2caa 3abd
00000270: ca88 633c 88c1 833d 6b2b 0b3d baf7 2abd
00000280: bb12 19bd 72a1 17bb 980d 84bd d8a0 d03d
00000290: 97e9 07bc 19cb 10bd 3b07 a23b b20f cb3d
000002a0: 4a2e 1b3e ee90 fa3c 5b9b b13c eb43 2bbd
000002b0: eb1f e4bc 390e 113e fe8b cebd 0983 d43c
000002c0: 0236 1cbe f9ca 66bd e42d 7e3d b1f0 cbbc
000002d0: 0403 e5b8 1173 ffbd 9c6b debd 2ffc 68bd
000002e0: 541d 14bd ed02 4bbe 0f6e 9a3d 7683 4bbe
000002f0: 007d 0c3d 6281 88bd ca6e 17be 3d55 71bd
00000300: 37a5 58bd a76e 52bd 0035 ad3b 8b65 1bbc
00000310: 9a52 7abd efbd 9e3d c1a5 ca3d da23 48b9
00000320: fdc9 2fbe 3c07 903d ede9 013b eba5 513c
00000330: 17d3 c7bd 171f 1f3d e1d9 00be e6e8 303d
00000340: 5f31 f33c 993b 173e 8549 76bc cdfb 93bd
00000350: 24fc c23c d6df 5a3d f842 abbd 2ef7 7e3d
00000360: 69b6 65bc 8aa7 383e d47b 143e b830 683e
00000370: 9cd0 38bd 3605 cd3c 667d 133e cce2 ec3d
00000380: f50c 49bd f7f4 e8bd 24aa 6cbb bfbd 0c3d
00000390: 8b26 ce3d efee b53b 7cfd b4bd 4383 1b3d
000003a0: 7ca1 823d c7bd 43bc cf77 943d 3368 b43d
000003b0: aeb0 a0bd d44c 453c 2bde f4bd dabc cf3d
000003c0: 3c1e 6e3c 089c 09be c820 7a3a c35a a63d
000003d0: 81c2 933c c735 b33b 29a3 ef3d 61d9 18be
000003e0: aacd 703b 0905 0d3e 91c6 eb3d 9a0a 0d3d
000003f0: 5186 c23a cfef d5bd 6829 3fbc ae60 40bd
0.050857805 0.0051162536 0.09440337 0.014848256 0.08949709 -0.08928803 0.03816166 -0.11459195
-0.0060336394 0.0845282 -0.059451655 -0.037255466 -0.11630049 0.13056734 0.0171577 -0.081228524
-0.0084182145 -0.08252868 -0.096413895 0.056189522 0.072839595 -0.17116609 -0.14090008 -0.008334902
-0.07644735 -0.035877302 -0.008721118 0.09469448 0.12131251 -0.12332649 -0.07952015 -0.056712203
0.058329757 -0.10205641 -0.09838148 0.010894662 -0.10273712 0.033222158 -0.034421362 -0.0760504
-0.008485967 -0.004032751 -0.040703822 -0.13666263 -0.15470879 0.13745017 -0.08172725 -0.03442826
0.099648595 -0.08253128 -0.14616889 0.0355762 0.18554448 0.106732026 0.16236892 0.03330762
-0.10256427 -0.05227167 -0.067792475 -0.07879863 -0.019048592 -0.19323196 -0.20846719 0.004583228
0.11534027 0.04758703 -0.14495899 0.1357654 -0.08882683 -0.119595475 0.009478037 -0.1198071
-0.061287303 -0.049030174 0.062271044 0.060376883 -0.08103767 -0.05998346 -0.043487087 0.11337898
-0.057109315 -0.013308975 0.018523486 -0.10023157 0.0031703361 0.1068379 0.11320529 0.05715246
-0.07958377 -0.0023662045 0.013930786 0.018078743 0.11150839 -0.05296511 0.035373896 0.01778778
-0.07121816 -0.035192337 -0.06640592 0.055098135 0.09633915 -0.103902586 0.18649697 0.032979157
0.12044638 -0.03698899 0.041675422 0.061433375 0.029708447 -0.14408626 -0.10084381 0.017886126
0.1476613 0.08648237 -0.035098623 -0.1145485 0.053268824 0.0558384 0.06326814 -0.1568115
-0.123056695 0.08554614 -0.035884175 -0.01701957 0.063337624 0.03748789 0.057617683 -0.07109133
0.089992344 0.065820366 -0.04272533 -0.14221841 0.0566016 0.03934883 -0.06393077 0.009906184
-0.005807427 -0.14023548 -0.17097361 -0.017344473 -0.06570591 0.02550159 0.08078934 0.19977714
-0.14632028 -0.0598816 -0.14603591 0.12288102 -0.06245634 0.06286064 -0.031683203 -0.05347103
-0.05689573 -0.05547201 -0.1269135 -0.045572445 0.0138875935 0.064333975 0.033976953 -0.041740157
-0.03737138 -0.0023137 -0.06447905 0.101869285 -0.008295438 -0.03534994 0.0049447096 0.09915103
0.15154377 0.030586686 0.021680525 -0.04181282 -0.02784725 0.14165582 -0.10085295 0.025941389
-0.15254977 -0.056345914 0.062055483 -0.024895044 -0.000109201326 -0.12473119 -0.108603686 -0.056881126
-0.036160782 -0.19825335 0.07540523 -0.19874367 0.034298897 -0.06665303 -0.14788356 -0.05891918
-0.052891936 -0.051375058 0.005285859 -0.009484659 -0.06111393 0.07751071 0.09894896 -0.00019086842
-0.17166896 0.0703263 0.0019823269 0.012795906 -0.09757059 0.03884801 -0.12583114 0.04319086
0.029686628 0.14768828 -0.015032177 -0.072257616 0.02380187 0.053436123 -0.08362383 0.062247448
-0.014020541 0.18032661 0.14500362 0.22674835 -0.04512082 0.025026899 0.14403304 0.115666956
-0.049084622 -0.11374848 -0.0036112154 0.034360643 0.10065945 0.0055521647 -0.08837411 0.037966978
0.06378457 -0.011947102 0.07249414 0.08808937 -0.07846199 0.012042243 -0.11956438 0.101434425
0.014533576 -0.13438427 0.0009541628 0.0812278 0.018037083 0.0054690572 0.11701042 -0.14926673
0.003674368 0.13771452 0.11512483 0.03443394 0.0014841055 -0.104461305 -0.011667587 -0.0469672

riemannian.proj.3.bias f4 [48]
00000000: 22e4 68bd 6177 d7bc 4759 8f3d c7a0 02be
00000010: 031f f7bc 81eb 77bd eb6f f4bc 70be 4c3d
00000020: c5b4 c6bc 8c6b 2d3c 0564 973d 4c0e 173d
00000030: 2364 8f3c 24c0 283d ad61 79bd 6010 c43b
00000040: 45d2 58bc 95b7 2fbe 456c 183d 2609 e9bc
00000050: 097a a1bb 0877 57bd 65c9 303d 5fce 0c3c
00000060: 806c 63bd 4291 35bd 7812 f03c a7cc 0e3d
00000070: f8f9 10bd a61e 593c 5aec 83bd 14e5 ba3d
00000080: 8696 eb3a a16d a9bd 0829 4bbc ecae 59bc
00000090: b509 493d d2c5 d8bd 0bda 06ba a8e2 a13b
000000a0: b217 23be 54c8 d2bb 7676 de3c 5bea ecba
000000b0: f0cb 0ebd 25f3 91bd 711c 2c3c 6756 063d
-0.05685819 -0.026302041 0.0699945 -0.12756644 -0.030166155 -0.06052733 -0.029838523 0.049986303
-0.02425612 0.010584723 0.07392124 0.03687887 0.017503804 0.041198865 -0.060884167 0.0059833974
-0.013233726 -0.17159875 0.03721263 -0.028446745 -0.004927878 -0.05260375 0.043160815 0.008594125
-0.055523396 -0.04432798 0.029305682 0.03486314 -0.03539464 0.013251936 -0.06441565 0.091257244
0.0017973937 -0.08272863 -0.012399919 -0.0132863335 0.049081523 -0.10584606 -0.0005144185 0.0049403496
-0.15927008 -0.0064325724 0.027156096 -0.0018075214 -0.03486246 -0.07126454 0.010504828 0.032797243

cnn.block1.0.weight f4 [16, 1, 1, 64]
00000000: 1430 a33d e180 fa3c 79b5 773c 7d32 3a3c
00000010: f93b 37bc 2f89 f33c 9d19 0b3d 8b0d 033e
00000020: 4ba7 5cbc a208 cdbc 08e9 38bd 4b41 e5bc
00000030: f5c3 ccbd 50f9 573b 9214 ff3d 7a3a 1e3c
00000040: d0ef 0f3c 0f71 16bd db51 90bd e3ae 1cbd
00000050: f9a8 eabd 3370 cb3c 3e05 4fbc 0bcd cdbd
00000060: 70c2 02be b010 7cbd fc14 12bd b275 8fbd
00000070: 4518 61bd 7df1 6fbc c49e cebd 5f98 1abe
00000080: 883b 04be 2084 2c3c 52ef b33d 3513 01bd
00000090: eba5 22bd dff6 18be 9562 82bd 0da9 babd
000000a0: 57b7 e13d a894 df3d e892 003e cbc4 abbc
000000b0: ffd5 56bd 90aa 29bd 5a38 cc3d 3636 d73d
000000c0: 291d 0e3e 20c3 3a3d 1e3f db3b a28a 343d
000000d0: 025a cc3d 3e19 0f3d db14 2d3e 2de2 233e
000000e0: 9cd8 843d 1889 f83b 8902 b23c edb0 aa3c
000000f0: d273 b33c 125b 963d a27f af3d c2e0 b03d
00000100: 6094 2d3d 992a b83d 6e25 ce3d fa27 343d
00000110: eaa8 1e3d b4f7 33bd 8298 d1bd af2a 01be
00000120: 77ae 1ebe 1f06 21be 344e 1ebe abdc c5bd
00000130: d650 2f3d ad5d 813d 10dd 233e 6da7 583e
00000140: 8b41 2e3e b887 223e c332 ee3d 8552 693d
00000150: 6f0a 2fbc c5c4 89bd c496 cebd 3488 f3bd
00000160: 1d04 07be 7ce5 d5bd 1972 a2bd 24e5 fcbc
00000170: 00a1 b8bc b88a 043d 8999 5e3d d33a a43d
00000180: c37b c13d 2791 a43d e3f1 423d 9532 063d
00000190: f1e0 97bc 6d61 52ba fa87 23bc 7702 11bc
000001a0: 7107 7cbd 4495 ffbc afe3 25bd da71 473c
000001b0: b397 f6bc 613f a83c b66e aebc 30f0 01bc
000001c0: c786 ccbc 6c59 8b3a d8cc 08bc 9ca8 fc39
000001d0: 5e29 10ba a90a 1b3d b4a3 183c ee57 743d
000001e0: b6eb 2b3d 70f7 183d 8f5b 2b3b cdc1 783c
000001f0: a76a 4abc 9ccc f3bc 678c 8abd 4418 d6bd
00000200: fd33 8fbd 9c5b c6bd 926e 50bb a95b f73c
00000210: 6a90 013d 1f58 cabc ac8d 9fbb 5d80 b93c
00000220: d5ba d9bc 6c0f 8fbd 6496 0fbd 9db5 08bc
00000230: 905f 87bc 68a2 723c 4578 2f3d 7ab8 523d
00000240: 0aad 20bc 34dc 903d 083a 05bd ffc3 acbd
00000250: f672 ebbb 8016 213d b730 9a3c e758 133d
00000260: 7aaa 213d 383c 22bc cd3c 223d f57d 003d
00000270: 146d 15bd 2c7c a13c 51f9 133b 99ff c93c
00000280: c63d 403d beec d9bc 4f02 663d 587a 123c
00000290: f8fe a4bd e201 b33c f23b f1bd a104 9b3d
000002a0: e4ec b2bc 3fa6 d93d 7eb2 893d fb37 ecbb
000002b0: e9a7 cfbd db6f dfbd 6b33 07be 5058 81bd
000002c0: 6f0f 14be a68a 41bd 716a 243e 802d 793d
000002d0: 1f44 5b3c 283d 2bbe 7d84 79be 7c8f 0abe
000002e0: df54 21be 18cd d5bd e7b3 913d 4509 b03d
000002f0: db59 683d e0fe 0cbc b57c 49be f176 a4be
00000300: 377d 2dbd 4a6c 933b 46ac ab3b add2 113b
00000310: c8b1 2d3c 3015 013c 2bcc 563b 430c 0abc
00000320: 1a1a 0ebd 45e2 06bc 2b5c 1ebc 7c8e c03c
00000330: 0ee3 5d3d 1fba 2bbc 205a a43c 8f4f 8abc
00000340: 25b2 29bc 79cb 77bd 301c 9dbd 4d42 2bbd
00000350: 0534 10bb 9134 893c 7305 4d3d 422d 6e3c
00000360: b151 6c3d fabd 3a3d c3b8 4f3d e5e4 28ba
00000370: a674 53bd 29d5 a5bb feb5 b4bc 213a fcbc
00000380: 32bf ccbd 7c83 d4bd 380a cdbc 11f3 003d
00000390: 9c83 a13d d8e5 fd3d bebf 1f3e 3070 083e
000003a0: c34c b33d f84c 09bd 2d65 f6bd 8d43 6ebe
000003b0: ca2d 69be 55fe 34be 7fee 40bd e736 bd3d
000003c0: fe5d 1d3e 3a2b 603e bcc7 273e 7a50 e83d
000003d0: f1ae 833c bea2 d0bd cd05 2cbe 9d5e 24be
000003e0: 9af7 bfbd 77ae cfbc 2047 a9ba 07ce d03d
000003f0: bfe8 603d 7a73 ba3d c9c2 efbb ea3b 43bd
0.079681545 0.030579032 0.01511895 0.011364576 -0.011183732 0.0297285 0.033959974 0.12798135
-0.01346762 -0.02502853 -0.04514411 -0.027985236 -0.09998313 0.0032954998 0.12455095 0.009657497
0.008785203 -0.036728915 -0.07046863 -0.038252722 -0.1145801 0.024833774 -0.012635527 -0.100488745
-0.12769485 -0.061539352 -0.035664544 -0.070048705 -0.054954786 -0.014644978 -0.10088876 -0.15097187
-0.12913334 0.010529548 0.08785881 -0.031512458 -0.039709013 -0.14937924 -0.06366459 -0.09114275
0.110212974 0.10917026 0.1255604 -0.020967862 -0.052450176 -0.041422427 0.09971686 0.10508387
0.13878311 0.045596242 0.0066908738 0.044077523 0.09978105 0.034936182 0.16902487 0.16004248
0.064866275 0.007584702 0.021729724 0.020836318 0.021905813 0.07341589 0.08569266 0.08636619
0.04237783 0.089925 0.10065733 0.043983437 0.038735308 -0.0439374 -0.10234167 -0.12613939
-0.1549624 -0.15724991 -0.1545952 -0.0966123 0.0428017 0.06316695 0.16002297 0.21157618
0.1701719 0.15872085 0.11630776 0.056963462 -0.01068364 -0.06726984 -0.1008735 -0.11891213
-0.13185163 -0.10444161 -0.07931919 -0.030870982 -0.022537708 0.032358855 0.05434564 0.08019032
0.09447434 0.08035498 0.047593962 0.032763083 -0.018539878 -0.0008025382 -0.00998115 -0.008850685
-0.061530534 -0.031199105 -0.04050034 0.01217314 -0.030101633 0.020538034 -0.021293025 -0.0079308
-0.02496661 0.0010631508 -0.00834962 0.0004819081 -0.0005499328 0.037851963 0.009316374 0.05965417
0.04197284 0.03734535 0.0026147102 0.015182924 -0.012354529 -0.029760651 -0.06765061 -0.10453847
-0.06992338 -0.09685442 -0.0031804186 0.030195074 0.031631865 -0.024700223 -0.0048691835 0.022644216
-0.026578346 -0.06985363 -0.035055533 -0.008344081 -0.01652506 0.0148092285 0.042839307 0.05144546
-0.009806881 0.070732504 -0.032526046 -0.08435821 -0.0071853353 0.0393281 0.018822057 0.035973456
0.03946922 -0.009902053 0.039608765 0.031370122 -0.036480978 0.01971253 0.0022579024 0.024658011
0.04693391 -0.026602145 0.056154545 0.008940302 -0.08056444 0.021851484 -0.11779012 0.07569242
-0.021841474 0.10627412 0.06723498 -0.007208822 -0.10139448 -0.109100066 -0.13203208 -0.063156724
-0.14459012 -0.047251366 0.16056229 0.060834408 0.013382941 -0.16722548 -0.24366947 -0.13531297
-0.15755032 -0.10439509 0.07114392 0.08595518 0.056726318 -0.008605689 -0.19676478 -0.32121995
-0.042355742 0.004498993 0.0052390425 0.0022250817 0.010601468 0.007878587 0.0032775502 -0.008425775
-0.03469286 -0.008232658 -0.009665529 0.023505442 0.054171614 -0.010481386 0.020062506 -0.01688364
-0.010357414 -0.06049678 -0.07671392 -0.041811276 -0.0022003662 0.016748698 0.050054025 0.0145371575
0.057695094 0.045591332 0.050713312 -0.00064427993 -0.051624916 -0.005060811 -0.022059437 -0.030789437
-0.09997405 -0.10376641 -0.025029287 0.031481806 0.078864306 0.12397355 0.15600488 0.13324046
0.087548755 -0.03352067 -0.120310165 -0.23267956 -0.22771373 -0.17675145 -0.047102448 0.092389874
0.15367886 0.2189149 0.16384786 0.11343475 0.01607463 -0.101872906 -0.16799088 -0.16051717
-0.09373398 -0.025351746 -0.0012914874 0.101955466 0.054909464 0.09104057 -0.0073169214 -0.04766456

cnn.block1.1.weight f4 [16]
00000000: de97 bd3f f788 4740 7927 293f 37d0 5240
00000010: 67d6 7f3f 1d9a 9a3e 4cd5 1540 fbe5 b43f
00000020: 08c0 af3f e151 2f40 84e3 0340 816b 813f
00000030: 575c 5840 c4d9 1240 e478 6940 b2fe 5a40
1.4811971 3.1177347 0.66075855 3.2939584 0.99936527 0.30195704 2.3411436 1.4132684
1.3730478 2.7393725 2.0607615 1.0110933 3.380636 2.2945414 3.6480036 3.4217954

cnn.block1.1.bias f4 [16]
00000000: 262f 023d 043c dbbc 422a 13bd 6f76 053d
00000010: f5a5 85bc 10b6 0b3b 28b4 103c 9e8d 97bc
00000020: 77ef 233c 1d6c 87bc cd57 81bc b0fb 1dba
00000030: 1d84 02bd a0ed 353c 74a7 c73c 7a87 2b3b
0.031783246 -0.026762016 -0.035928972 0.03258365 -0.016314486 0.0021318235 0.008832015 -0.018500146
0.010005823 -0.016531045 -0.015788937 -0.0006026579 -0.031864274 0.0111040175 0.02437184 0.002617328

cnn.block1.1.running_mean f4 [16]
00000000: aeda 0b3a 4315 3938 a16e 19bb 7bfd 47b9
00000010: b81e c6bb 6f08 3a3b 0898 3f39 60b7 a63b
00000020: fc03 d6ba 3edd 2239 95a5 f037 8c55 9cb7
00000030: 68e8 6039 266e 21b6 465d 0939 869e 74b9
0.0005335015 4.412724e-05 -0.0023411887 -0.00019072548 -0.0060461424 0.0028386374 0.00018271815 0.005087778
-0.0016328092 0.00015531943 2.8687335e-05 -1.8636485e-05 0.00021448883 -2.4054984e-06 0.00013100085 -0.00023328708

cnn.block1.1.running_var f4 [16]
00000000: a0f0 623f adfd 0e3f 63e6 503f 3268 e13e
00000010: 01ca fd3f 3d9a 1b3f f6d0 583f 58b8 0840
00000020: 441e 853f 00a1 293f e524 603f 7c6b ef3e
00000030: 7651 ee3e 7f37 8f3f 03ba 923f 66ea 023f
0.88648415 0.5585583 0.8160154 0.44024807 1.9827272 0.60782224 0.8469385 2.1362514
1.0399861 0.6626129 0.87556297 0.46761692 0.46546525 1.1188811 1.1463016 0.51138914

cnn.block1.2.weight f4 [32, 1, 22, 1]
00000000: 9306 12bd 8ca2 bb3c 3a0e 4b3d dd14 cc3c
00000010: 0d52 c2bc 21e2 223c adcc de3d ac98 32bd
00000020: 595d 13bd ec25 98bc 29a5 893c d3ad 03bc
00000030: 1f4a 80bc 223f 87bd ce6a 45bd 838a 043e
00000040: c250 323d 196b 54bd b146 62be dc4b 2e3d
00000050: 5dff e2bd 9047 a13e a9c5 643c c09d 9cbd
00000060: a02b 373d 1823 87bd bf41 103e 6501 953d
00000070: fa04 e83c 3089 c13d 26c9 5cbd 1fe3 42be
00000080: 4a2a de3d 2068 663d 9e44 2fbe 20db 153e
00000090: 17b8 52bd b53a 56be d59b 82bb 8ab1 173d
000000a0: cd56 b8bc 5ea9 e33d 5b15 823d 4161 31bc
000000b0: d96d a23d 6553 693c 709c a7bc 8e3b e23c
000000c0: 4759 92bb b699 983c b1b3 223d 61d5 a1be
000000d0: b7f7 f4bd fb6f cabc cd81 9d3c d8e1 de3d
000000e0: 4beb 56bd 31da 5c3d 1c17 bb3d 703f ab3d
000000f0: a580 2f3d cbd6 c6bd b8e0 c23d 1ed2 423d
00000100: 485c 0fbe 2c89 3dbc 0206 7e3c 88ca 27bd
00000110: 72cc 9dbc 3915 203c 95e0 863c bd96 d3bb
00000120: 53fb b9bd ad85 cf3d 722f ccbd ca42 e3bd
00000130: 197d e93c 101e 8abc 2bbd a539 2470 1e3e
00000140: 1def 7a3e 5a43 4fbc b3d1 d93c 160d a2bc
00000150: 9407 02be 3927 efbd 74eb 933d df1f 383c
00000160: d264 35bc 33dd bdbd e3cd 34bd 53a3 a33c
00000170: 06f4 303d c8b4 823d 7d56 273c 67a7 aebd
00000180: f6b9 74bd bf19 1bbb 9fc7 b23d 3fff a83c
00000190: ccb4 983d 5e62 dd3d 8833 cc3d ee84 c53c
000001a0: e76c ddbd 4b54 21be 6007 f23d 1f6b b33b
000001b0: 1a9e 21be 8d2a 2f3d cee3 323d 8c51 bc3c
000001c0: f7fa 893d ed68 a83d 33bb b53c 2792 0cbe
000001d0: 7ccd 8e3d 6df3 c8bd 99a4 733d ca79 283e
000001e0: c9d8 55be 944e f7bd 59b7 ce3d 9147 8fbd
000001f0: d1be 1ebd 399c d7bb 21a4 febd 6eec 003e
00000200: e98e 69bd 5969 10bc b990 963d 4238 d83d
00000210: 6360 5dbc dc75 c93d 4350 373d 04ba 373d
00000220: e3f5 a4bd 7962 533d 4aae f33d 8dcc a6be
00000230: 148a dfbd abd1 fc3d b87e 6bb9 775f 25bd
00000240: 66b3 2a38 c490 313d 7247 713c ed30 d6bb
00000250: dfcb fb3b 80b2 f53b 2e16 fe3c 63fa cabc
00000260: f351 963b 5c64 9f3b 4306 8f3c 1a8f 8cbd
00000270: 67f3 d43b c968 96bd 814c a8bc 1659 10b9
00000280: d361 cdbc 36f3 193e 7f1a 3f3e 4324 373e
00000290: 5430 bb3b cb70 983b 6e09 82bb 02ca 1ebe
000002a0: 3ce0 30be 5384 3cbd 2fd0 06be bf21 9a3d
000002b0: ae07 853c e2e2 813d b4de 8fbd 3275 7e3d
000002c0: 0834 46be decd b03c 526e 96bb 5472 9b3d
000002d0: 68bb 453d 41f4 843d 9e10 803d b095 983d
000002e0: 440e f4bd 20a3 70bd 1145 9e3c 5508 dc3d
000002f0: 6b1e b63d 6a25 7b3d f0a5 74bc b3a7 c8bd
00000300: b68a 44bd 503f 41be 1041 013c 760d 92bb
00000310: f1b0 a2bd 4c27 243e 94f0 4b3c 8d4d 953d
00000320: 2c1f 44bd 51ab adbd b65d 17bd 2db8 d63d
00000330: e228 3cbd 054e 26bd ecd1 6fbd ef42 2bbe
00000340: 11ac 9c3c 12ba 063e 9988 e13d 5ea4 39bb
00000350: 90aa 4abd 7806 43bc 7b37 1f3d 8228 7c3d
00000360: 5b82 45bd 9ca9 0abe 0efc 303c 8b9c 493e
00000370: d308 723b 2671 d5bc d22a 24bd 71b9 50bd
00000380: 6470 d53c 5d57 a43d 4ae9 5d3d 3c5f 51be
00000390: 20fd 17bd 1696 513e 13b2 0ebc cd0b 88bd
000003a0: 5e8e 033d ef21 90bd 9571 5a3c dffa 183e
000003b0: 07e7 983d 2107 9abd b6ce a23d 681b 59bc
000003c0: bcef 97bd 442a bdbd c0ea 13bc 782c 0b3d
000003d0: d0dc 453b 35ea 5ebd 64a9 a6bd 192e 5abd
000003e0: 563a 283d c429 f13d 5a64 af3d feba c2bc
000003f0: dd4d 1fbd 476d 023e 7a7f 8b3c 53ec 31bd
-0.0356508 0.022904657 0.049574114 0.024912292 -0.023720765 0.009941609 0.108788826 -0.04360263
-0.035977695 -0.01857277 0.016802387 -0.008037048 -0.015660344 -0.066038385 -0.04819756 0.12943463
0.043534048 -0.05185995 -0.22097279 0.042552814 -0.11083863 0.3149991 0.0139631415 -0.07647276
0.04471934 -0.065984905 0.1408758 0.072756566 0.028322686 0.094499946 -0.053902768 -0.19031952
0.1084791 0.056251645 -0.17116019 0.14634371 -0.051445093 -0.20920832 -0.003985862 0.03703455
-0.022502327 0.111162886 0.063517295 -0.01082641 0.07931108 0.014241074 -0.020460337 0.027616289
-0.004466209 0.018627983 0.03972215 -0.31608108 -0.1196131 -0.0247116 0.019226933 0.1088292
-0.052470487 0.05391902 0.09135267 0.08361709 0.042847294 -0.09708937 0.09515518 0.047563665
-0.14000046 -0.011568349 0.015504362 -0.040964633 -0.019262526 0.009770685 0.016464511 -0.0064571784
-0.090811394 0.101329185 -0.09969987 -0.110967234 0.028502034 -0.016860038 0.00031612194 0.15472466
0.24505277 -0.012650335 0.02658925 -0.01978163 -0.12698203 -0.11677403 0.072226435 0.011238067
-0.011071401 -0.09270706 -0.04414166 0.01997534 0.04320147 0.063821375 0.0102134915 -0.08528023
-0.05974766 -0.002366647 0.08729481 0.020629523 0.07456359 0.10809778 0.09970766 0.024111237
-0.10811787 -0.15754811 0.11817813 0.0054754163 -0.15782967 0.04276519 0.043674283 0.022988103
0.06737321 0.08223138 0.02218399 -0.13727628 0.06972787 -0.09812055 0.059483144 0.16452709
-0.20883478 -0.120755345 0.100935645 -0.06996072 -0.038756195 -0.0065799025 -0.12433649 0.12590191
-0.057021055 -0.008814179 0.073518224 0.10557605 -0.01351175 0.09836933 0.044754278 0.044855133
-0.08054712 0.051607583 0.118984774 -0.32577935 -0.10915008 0.123446785 -0.00022458553 -0.040374245
4.0698236e-05 0.04335095 0.014726507 -0.006536594 0.0076842154 0.0074980855 0.031016435 -0.024777597
0.004587406 0.0048642587 0.01745904 -0.06863232 0.0064987424 -0.07344205 -0.020544292 -0.00013766097
-0.02507106 0.15034184 0.18662451 0.17884926 0.0057125483 0.004652118 -0.0039684093 -0.15506747
-0.17273039 -0.04602463 -0.13165353 0.07525968 0.016239014 0.063421026 -0.07024899 0.062123485
-0.19355786 0.02158254 -0.004590788 0.07590166 0.048274428 0.064919 0.062531695 0.074504256
-0.119167835 -0.058749318 0.019320043 0.10743777 0.088925205 0.061314978 -0.014932141 -0.09797611
-0.047983848 -0.18871808 0.007889047 -0.004457171 -0.07943905 0.16030616 0.012447495 0.07290182
-0.04788129 -0.08479942 -0.036954604 0.104843475 -0.045937426 -0.04060175 -0.058549806 -0.16724752
0.019125016 0.13156918 0.11012382 -0.002832673 -0.049479067 -0.011903398 0.03887127 0.06156207
-0.04822002 -0.13541263 0.010802282 0.19688623 0.003693153 -0.02605493 -0.0400799 -0.0509581
0.026054569 0.08024476 0.05417756 -0.20446485 -0.037106633 0.2046741 -0.008709448 -0.06642876
0.032118194 -0.07037722 0.013332744 0.1493945 0.0746594 -0.07520891 0.07949583 -0.013251163
-0.074187726 -0.09236577 -0.009028137 0.033977956 0.003019143 -0.054422576 -0.081377774 -0.05326662
0.04107126 0.11775544 0.085640624 -0.023770805 -0.038892616 0.12736998 0.017028559 -0.043438267

cnn.block1.3.weight f4 [32]
00000000: 9cf1 743f 18e2 e53f 68a2 343f c4bd 6640
00000010: ba56 553f e771 733e 33f5 4440 69a9 2940
00000020: 259e 173e 2106 eb3f f875 383f 86b7 d53e
00000030: f4dc 2f40 56d8 d93f 87f0 b73f 7c06 4b3f
00000040: 178a d63f d7f4 733f 5df3 4240 8f75 f43f
00000050: 8dd1 1b3f 6711 0f40 d9c6 123f 8916 8e3f
00000060: b41a 7540 194b 1340 d5db 3240 6b0a 033f
00000070: 2830 7940 d177 3b40 92b5 6740 ac0e 3c40
0.95681167 1.7959623 0.7056031 3.6053324 0.8333546 0.23773919 3.0774658 2.650965
0.14806421 1.8361245 0.72055006 0.4174158 2.747861 1.7019145 1.4370278 0.7930677
1.6760892 0.9529547 3.0461037 1.9098376 0.60866624 2.2354372 0.5733467 1.1100627
3.8297548 2.3014586 2.7946675 0.5118777 3.8935642 2.929188 3.6204572 2.9383955

cnn.block1.3.bias f4 [32]
00000000: b19f 61be 0d8f 24bf d228 9fbd f892 b4bf
00000010: 27e5 06be 3bf8 b9bc 2c7e 85bf 625c 6fbf
00000020: 0cd1 1dbc b5ed 2dbf b22d e4bd f674 f8bc
00000030: 867b 6ebf 7921 58bf 532e cdbe 6797 41bd
00000040: 38f3 92be 61a1 2dbe 1ef6 aabf f8cb 42bf
00000050: 6b6e 3ebd b655 11bf 57a1 1fbd 1789 a7be
00000060: 5732 a9bf 5fde 54bf e954 a2bf 444b d0bc
00000070: f021 f3bf e90a 5dbf 2532 91bf 17e4 d6bf
-0.22033574 -0.6428078 -0.07771458 -1.4107351 -0.13173352 -0.022701373 -1.042913 -0.9350034
-0.00963236 -0.6794084 -0.11141528 -0.030329209 -0.9315723 -0.84426075 -0.40074405 -0.04726353
-0.28701186 -0.16956092 -1.3356359 -0.7609248 -0.04649202 -0.5677141 -0.038972225 -0.3272178
-1.3218488 -0.8315181 -1.2682163 -0.025426514 -1.8994732 -0.8634477 -1.1343428 -1.6788357

cnn.block1.3.running_mean f4 [32]
00000000: 7692 453b fdb7 9d3a 2379 d53a b8ff c9b9
00000010: ca54 17ba 54b8 ebba fbd0 ad37 d1b3 553a
00000020: 29ba 01bb 6fe8 37ba 3f14 04b9 f441 5139
00000030: 20fb ae38 f162 043a 0ea9 d8ba 9844 eb3a
00000040: dca2 303a 3d28 c338 654d a238 9df7 e339
00000050: ee3a 9039 60ca 9c3a e572 8bb8 fe9b 9138
00000060: 0c4b cb39 cf06 a6ba d961 1cba e614 493a
00000070: 4350 2838 3863 8eba 139d 3eb9 0b68 1eb9
0.0030147112 0.0012032982 0.0016286712 -0.00038528233 -0.00057728274 -0.0017984011 2.0720521e-05 0.00081521
-0.0019794798 -0.00070155313 -0.00012596043 0.00019956363 8.343742e-05 0.0005050144 -0.0016529874 0.001794952
0.0006738135 9.3058195e-05 7.739178e-05 0.000434813 0.00027509726 0.0011962168 -6.649437e-05 6.9431946e-05
0.00038775092 -0.0012666824 -0.0005965508 0.00076706556 4.012907e-05 -0.001086331 -0.00018178327 -0.00015106813

cnn.block1.3.running_var f4 [32]
00000000: 849b bb3c d43f c33c 4daf 483e 5310 c43d
00000010: a7d0 6a3b f4bd 923b 38fe 9f3d cfa7 893d
00000020: 816f a43c 1e30 373d 77e0 9b3a 63c2 a23a
00000030: e3c5 cc3d acba f03d 426f b53c 1117 2d3d
00000040: 4cc1 2f3d 8927 c53c 7962 c93d 4ec3 e33d
00000050: 2d2a ed3c 17a9 3a3d 5f65 d23c 3787 773c
00000060: 31ef 003e 9296 103e d8ce a03d 9cb9 313d
00000070: 57c6 7c3d 623d 8c3e 1b1f 093e 8334 023d
0.022901304 0.023834147 0.19598122 0.09573426 0.0035829933 0.0044782106 0.0781216 0.0672146
0.0200727 0.044723623 0.0011892457 0.0012417551 0.099986814 0.11754355 0.022147778 0.042258326
0.04290895 0.024066703 0.09833235 0.11121236 0.028950775 0.045571413 0.025683103 0.015107921
0.12591244 0.14119938 0.07851952 0.0433899 0.06171259 0.2739058 0.13390772 0.03178836
