models/2a_LOSO/model_3.pth (torch, 985978 bytes, 93 tensors)

fusion_proj f4 [48, 48]
000000 bf 2e ca be 30 e3 15 bf 43 7f 50 be ab 65 44 bf
       -0.3948879 -0.58549786 -0.20361046 -0.76717633
000010 17 c6 23 3f 46 47 c1 3e 09 a4 86 be 1b 34 38 3f
       0.63974136 0.3774969 -0.26297024 0.71954507
000020 56 39 2f bd ac 82 d0 3f 0c c5 7d bf b2 bb 59 3f
       -0.04277929 1.6289878 -0.99128795 0.85052025
000030 55 0d b4 bf 34 1c b7 3f 58 ea 1c 3f 58 22 87 3e
       -1.4066569 1.4305482 0.6129508 0.2639339
000040 67 68 cc 3d e4 39 89 bd 35 88 0d bf c9 8a 31 3e
       0.09980851 -0.06700495 -0.5528596 0.17338099
000050 3a d3 ce 3e 90 26 dc 3f 94 77 6b 3f 5c b2 1f 3e
       0.40395528 1.7199268 0.91979337 0.15595382
000060 a0 1e 29 be 2b cc 0b bf e4 57 45 3f 44 7a a7 bf
       -0.16515589 -0.5460841 0.77087235 -1.3084188
000070 80 38 0e bf 74 d4 33 3f fc 35 eb be 56 51 c7 3f
       -0.5555496 0.7024605 -0.45939624 1.5571697
000080 cc 5b 51 be 29 da 67 3f 57 fb d7 bd cb e7 25 3f
       -0.20445174 0.9056726 -0.10545986 0.64806813
000090 f7 4e b6 be 05 58 e7 be d6 aa 60 3f 30 b2 27 c0
       -0.3560712 -0.4518434 0.87760675 -2.6202507
0000a0 5c 6b 0f be 25 45 5d bd b8 39 ef 3e 7c f5 5f bf
       -0.14005798 -0.05402102 0.46723723 -0.87483954
0000b0 b8 90 d9 3e 53 bd eb 3f d5 a2 bd 3e f8 b8 e1 3f
       0.42493224 1.8417152 0.37038293 1.7634573
0000c0 c2 54 00 bf 8e 81 ba 3e 07 90 68 3f 2a bd a3 3e
       -0.5012933 0.36426967 0.9084477 0.31980258
0000d0 56 ea e6 bd cd 19 0e 3e 86 5e 31 3f 00 2b 4f 3f
       -0.11275165 0.1387703 0.69284856 0.8092499
0000e0 bf c8 56 40 71 48 5b 3d 00 56 83 bc cd b2 7a bf
       3.3560026 0.053535882 -0.016032219 -0.9792908
0000f0 1c 8b 73 3f 63 b6 3c 3f 71 c9 4a 3e b7 3d 0a bf
       0.9513414 0.737158 0.19803406 -0.5400042
000100 91 97 94 bf df f5 13 40 c4 90 eb be f5 3a 22 bd
       -1.1608754 2.3118818 -0.46008885 -0.039607007
000110 64 1f 0b be 06 9d 8d be 99 60 89 3e e7 71 13 3f
       -0.13586193 -0.27658862 0.2683151 0.57595676
000120 23 34 20 3f 09 f0 94 3f 27 7f 2d 3f 91 92 1d 3d
       0.62579554 1.1635753 0.67772144 0.038469855
000130 b2 83 26 3f 69 e9 2a 3f 34 c7 8e bf 1e 02 f3 3e
       0.650447 0.66762406 -1.1154542 0.47462553
000140 53 44 9a 3f e5 93 c4 3f d3 8a 38 bf 7d 62 9f 3e
       1.2052101 1.5357634 -0.7208683 0.31129828
000150 9b d5 31 3f 8c 1b f4 3e 05 88 72 bf e8 9b 8d be
       0.6946656 0.47677267 -0.947388 -0.2765801
000160 de 0b 5a 3f e6 e8 f1 bf 47 14 62 3f 7a 00 94 bf
       0.8517436 -1.88992 0.8831219 -1.1562645
000170 d0 fa d1 be b9 6d 86 3f 83 de d2 3f 28 4e 39 3f
       -0.41011667 1.0502235 1.6474155 0.7238488
000180 4a b9 f1 be a8 e6 f1 be d6 2a 9c 3f c0 70 3a 3f
       -0.47211677 -0.4724629 1.2200572 0.7282829
000190 57 59 36 3f a8 22 b2 bf 7c c1 a6 be a1 c2 e5 bf
       0.7123007 -1.3916826 -0.32569492 -1.7950021
0001a0 71 19 58 3e a0 de d8 bf 58 4c 2f 3f 3e b0 6e bf
       0.21103455 -1.694294 0.68475866 -0.93237674
0001b0 9a 17 1b 3f de 79 98 3f ec f5 f9 3e 03 35 a4 3e
       0.6058289 1.1912191 0.48820436 0.32071695
0001c0 83 87 60 bf 28 a2 15 3e 72 fc ba 3f 33 70 59 3f
       -0.87706774 0.14612639 1.460829 0.8493683
0001d0 e4 66 12 bf fc b0 2b be 31 9b 12 bf 6d bd 15 bf
       -0.5718825 -0.16766733 -0.57268053 -0.58492166
0001e0 8f e9 c4 be 05 8d 09 be 8b a8 d3 be 8f 3e 64 bf
       -0.3845944 -0.13432701 -0.41339526 -0.89157957
0001f0 4c 0a 3a 3f 49 6e 87 3f 3b 1f 0d c0 b7 20 9d 3f
       0.7267196 1.0580531 -2.2050312 1.2275609
000200 d0 5c 48 bf 1b dc 90 3e 1c 30 5d be 2e f6 de 3e
       -0.7826662 0.28292927 -0.21600384 0.43547195
000210 4c 13 9e 3f 60 90 e6 3f 08 65 89 3e 4e 1d 35 bf
       1.2349639 1.801281 0.26834893 -0.7074784
000220 6a fb f7 3e de 75 46 bf 1b 4e 5c bf 20 6f 83 bf
       0.48434 -0.775236 -0.8605668 -1.0268288
000230 f6 55 03 bf eb 65 b5 bf c1 85 88 3f 0e 0d 9b 3d
       -0.5130304 -1.4171728 1.0665818 0.07570849
000240 b0 a7 0b 3e 7b e3 b1 bd 92 05 0a bd fb d4 9e bd
       0.13638186 -0.086859666 -0.03369672 -0.077554666
000250 77 bd 4c 3d ab df ba 3e b7 31 40 bd 18 76 2e bf
       0.049985375 0.3649877 -0.04692241 -0.68148947
000260 82 58 4d bd 15 e0 27 bd 5e 54 06 be ca bc 7e 3e
       -0.050133236 -0.040985186 -0.13118121 0.24876705
000270 0d c0 09 3f a5 e3 86 3f 8f d1 9e 3f 98 c4 10 bf
       0.5380867 1.0538222 1.2407702 -0.5654998
000280 18 6f 4e bf 66 66 93 3d bf 7c 38 3d 20 3a e7 3e
       -0.80638266 0.07197265 0.045040842 0.45161533
000290 ce 61 37 3f 31 dc e1 be fc 3f 8e bf bb 7a 2a be
       0.71633613 -0.44113305 -1.1113276 -0.1664838
0002a0 1a 7b ac 3f 59 fb ea 3e f6 8f 3c bf b6 e2 ba bf
       1.3475068 0.45894888 -0.73657167 -1.4600437
0002b0 74 a8 a9 3f 8c e3 ca 3e 47 6e de bd 7a f9 9b 3f
       1.3254533 0.3962673 -0.108608775 1.2185509
0002c0 2d cc 8b be 33 e6 1c bf 41 1e c8 3e 87 d4 c3 3e
       -0.2730421 -0.61288756 0.39085582 0.38248083
0002d0 25 71 8a 3f c9 d9 39 bf 2d e4 7a 3f 27 e7 ed be
       1.0815779 -0.7259794 0.9800442 -0.46465418
0002e0 00 cc e2 3e 32 aa b5 3e 5a ce f4 bd 17 b1 dc be
       0.44296265 0.3548141 -0.11953421 -0.4310386
0002f0 b2 ef 4a 3f 7c 8e d4 bf 43 93 16 40 a1 a2 ce be
       0.79271996 -1.6605983 2.3527381 -0.4035845
000300 56 ef 30 bf 13 29 cd bf f5 5c 0c 3f e8 02 f6 3e
       -0.691152 -1.602816 0.5482934 0.48049092
000310 85 ed 18 bf f8 da fd be 04 9f 06 c0 d3 d0 19 bf
       -0.59737426 -0.49581122 -2.1034555 -0.60084265
000320 98 4d 15 be 27 5b df be be 9a c2 3f 67 03 e0 3e
       -0.14580381 -0.4362423 1.5203474 0.43752596
000330 4e 19 82 3e 30 0f 1e 3f 3b ff 90 3e d4 01 1d bf
       0.2540993 0.61741924 0.28319725 -0.61330914
000340 95 f4 5e be c1 4e 7e 3e 9b 0a a5 3e e3 c3 4b 3f
       -0.21772988 0.2483473 0.32234654 0.79595774
000350 d6 66 f2 be 97 41 81 bd db 43 1a 40 de f1 ab bf
       -0.47344083 -0.063113384 2.4103916 -1.3433187
000360 0c 2f d7 3f 64 77 90 3f ae 68 50 3c 45 c6 b2 bf
       1.6811233 1.1286435 0.01272027 -1.3966757
000370 2c 0b a2 3f 6d 03 a3 bf 36 48 dd be 15 c6 6b bf
       1.2659659 -1.273542 -0.43219155 -0.92099124
000380 5e f5 dd 3e 03 40 83 3f cf 56 55 3f dd ef e5 bd
       0.43351263 1.025391 0.83335584 -0.11227391
000390 c0 8f a8 3e c4 25 81 bf 39 22 ed bd 2b a0 40 bf
       0.32922173 -1.008965 -0.11578793 -0.75244397
0003a0 9c a1 b7 3f ce 97 46 40 9f ff e0 be 14 8c 0a c0
       1.4346194 3.1030154 -0.43945023 -2.1647997
0003b0 e5 56 f9 3e d7 b5 09 3f 22 4a 8b 3f 1c c9 fd bf
       0.48699108 0.5379309 1.0881999 -1.9826999
0003c0 25 a7 2c 3f 48 9c ca bf 27 3d 8c 3e f1 6a e0 3f
       0.6744254 -1.5828943 0.27390406 1.7532636
0003d0 79 dd 92 3e b7 8d ff 3c 90 59 d9 bf 42 58 7e bf
       0.28684595 0.031195505 -1.6980457 -0.9935342
0003e0 19 d4 82 3f b6 cf a0 3d fb 96 5b bf c8 0c 95 3f
       1.0220977 0.07852118 -0.8577725 1.1644526
0003f0 32 6c e0 3f 79 6c 11 bf 87 27 a7 3d 6f b3 9c bf
       1.7533019 -0.5680614 0.08161836 -1.2242259

pos_enc f4 [1, 500, 48]
000000 5e 6a 68 bf b6 9f c8 bf 32 68 56 3f 3b d0 3b 3e
       -0.90787303 -1.567374 0.8375274 0.18341152
000010 1e 31 b7 be c7 92 8c 3e d5 0e 66 bf c7 25 e3 bd
       -0.3577966 0.27455732 -0.8986638 -0.1109119
000020 35 fd 31 3e 23 26 6a be b8 13 ac bf 29 10 a0 3d
       0.17381747 -0.2286611 -1.3443518 0.07815582
000030 6f 5c ba be 25 ee 15 c0 cd 8e 25 3f 5b d2 af 3f
       -0.36398646 -2.3426602 0.6467102 1.373607
000040 c8 ed 40 3f 42 40 92 bf 17 ad 39 bf 70 53 1f 3f
       0.75362825 -1.142586 -0.7252974 0.6223669
000050 d8 7c e4 3f 9a 0c c3 be 08 cb 99 be c9 1c fd 3c
       1.7850599 -0.38095552 -0.30037713 0.030897515
000060 36 42 3a 3f 54 fe 7a be 05 0f 82 bf 73 8e e2 3b
       0.7275728 -0.24511081 -1.0160834 0.006913954
000070 da 64 1b 40 8b 5e 71 3f bb 34 1b 3f 08 67 85 3f
       2.4280305 0.94284886 0.60627335 1.0422068
000080 53 ed 06 bf ff 14 04 3e 48 e1 c1 bf 90 a0 9e 3f
       -0.5270588 0.12898634 -1.5146875 1.239275
000090 51 dc c7 be 85 79 a2 bf a4 1f 4b bd 2c 97 85 3e
       -0.39035276 -1.2693335 -0.04959072 0.26091897
0000a0 e6 d5 8c 3e 2d 01 0c 3e 93 bc 1c 3e 56 41 3a be
       0.27506942 0.13672324 0.1530631 -0.18188986
0000b0 49 f0 d0 be 14 c6 02 3f 59 32 2f be d5 85 df 3d
       -0.40808323 0.51083493 -0.1710905 0.10914198
0000c0 57 e2 0e 3e e9 86 0c 40 d2 b9 be bf f8 af d8 bf
       0.1395353 2.1957343 -1.4900458 -1.6928701
0000d0 82 22 49 40 15 67 57 c0 45 85 2d 3e 14 a7 54 bf
       3.1427312 -3.3656666 0.1694537 -0.8306744
0000e0 95 86 3d 3f 90 6b 03 3e 63 0b 58 be 90 07 09 40
       0.7403348 0.12834 -0.21098094 2.1410866
0000f0 f3 f0 e7 3e 7a ca 4f bf 00 27 bc 3f ec 03 dd be
       0.45301017 -0.8116833 1.4699402 -0.43167055
000100 57 c2 03 bf a1 73 c7 bf 2c 8b 65 bf 30 71 87 3e
       -0.51468414 -1.5582162 -0.89665484 0.26453543
000110 53 ac 85 be 7d 58 bb 3e 2c a9 4e 3f 21 a7 3c c0
       -0.26108035 0.3659095 0.80726886 -2.9477007
000120 19 51 a2 be a9 a6 59 bf 03 78 49 3e 12 7a fe 3f
       -0.31702498 -0.8501993 0.19674687 1.9881003
000130 66 dd 9a 3f f5 42 68 be fb 6e 40 c0 d7 63 b6 bf
       1.2098815 -0.22681792 -3.0067737 -1.4249219
000140 00 6b 68 c0 d6 90 73 3e 99 33 82 3e 97 58 da 3f
       -3.6315308 0.2378572 0.2542999 1.7058285
000150 2b b0 87 3f eb b3 00 c0 38 31 e6 3f 0b 76 cf bf
       1.0600637 -2.0109813 1.798377 -1.6207899
000160 5a 2a d7 bb 18 e6 ac bf 68 57 e6 3e 50 0f ab 3f
       -0.006566328 -1.3507719 0.4498856 1.3364048
000170 12 59 cd bf 8d c3 9e 3f f8 c7 ca bd ee 64 8e c0
       -1.6042807 1.2403427 -0.09901422 -4.4498205
000180 53 7a a7 3e 69 18 0d 40 8b cc 7a bf 1c d2 f3 be
       0.32710513 2.2046149 -0.9796836 -0.47621238
000190 c8 b0 3f 40 20 58 9a 3f af 4a a2 40 38 f2 ce 3e
       2.9951649 1.2058144 5.0716166 0.40419173
0001a0 5f e2 e8 bf fe 8d dc 3e f3 23 3a bf ff 8d 4a 40
       -1.8194083 0.4307708 -0.72711104 3.1649168
0001b0 05 e5 46 3f 3a 35 2a 3f ca 34 e4 bd 27 83 9b 3f
       0.77693206 0.6648747 -0.11142881 1.21494
0001c0 61 57 32 3f 69 10 1b 40 35 ad 2b 40 ed 0a c4 3f
       0.6966458 2.4228766 2.6824467 1.5315834
0001d0 8e 0d e0 bf 65 c8 0d c0 ca f0 e5 bf c6 72 25 c0
       -1.7504137 -2.215356 -1.7964108 -2.5851302
0001e0 88 aa a6 be 48 b8 89 3f 92 9e a3 3e 1c 30 e7 3e
       -0.3255198 1.0759363 0.31956917 0.45153892
0001f0 40 43 38 c0 63 48 df be 33 96 7f c0 b1 a0 10 3f
       -2.8791046 -0.43609914 -3.9935424 0.56495196
000200 9a 82 58 40 f8 13 f3 bf ca 58 21 3f ab 69 81 bf
       3.3829713 -1.8990469 0.63026106 -1.0110372
000210 a5 54 90 3f 31 f4 9f be f0 a7 8f 3f 9d 79 13 c0
       1.1275831 -0.3124099 1.1223125 -2.3042977
000220 d6 fd 85 3e fb 01 3c be 9a 9c d5 3f a9 f3 8f bf
       0.26170224 -0.1836013 1.6688416 -1.1246234
000230 c2 58 72 3e 64 7a d1 3f df 9d ca bf 5c 12 2f c0
       0.23666671 1.6365476 -1.5829428 -2.7354956
000240 30 88 d6 bf 00 77 d2 3e cd 2a 12 bf ba a1 02 bf
       -1.6760311 0.41106415 -0.5709656 -0.51028025
000250 56 c6 5a 3f f5 72 bb 3f 3f 4a ce 3f 6b ab 4c c0
       0.85458887 1.4644457 1.6116408 -3.1979625
000260 3a 61 f9 bf f4 eb 8d c0 f3 2a a0 bf 0b 19 45 bf
       -1.9482796 -4.435053 -1.2513107 -0.7699134
000270 27 e1 1f 40 b7 9b a7 be 4c 87 8a bf e4 15 0e 40
       2.4981172 -0.32735988 -1.0822539 2.220086
000280 fb 76 fa bf 6d 9d 8b bf 62 fd 09 40 5d 3b 2c c0
       -1.956756 -1.0907418 2.1560903 -2.6911232
000290 fd 2f e4 3f 5c eb 8b bf 79 df e8 3f d9 e0 2d 40
       1.7827145 -1.0931201 1.8193198 2.7168486
0002a0 40 06 ea be 77 40 82 bf ad 8c 54 bf f8 d7 3c c0
       -0.45707893 -1.0175923 -0.83027154 -2.9506817
0002b0 d1 44 5d bf 0c 7c c0 be 1e 8e 09 40 76 fc 06 40
       -0.8643313 -0.3759464 2.1492991 2.109159
0002c0 15 53 50 40 16 1e 85 3f 7d 30 86 3f 1b a3 d3 bf
       3.255071 1.0399806 1.0483547 -1.6534151
0002d0 3a 79 38 c0 b4 ac f5 bf 18 64 b0 3f 86 83 14 40
       -2.882399 -1.919333 1.3780546 2.3205276
0002e0 eb ee b3 3f df 0a cb 3f 79 4b 62 c0 4c fc b3 3f
       1.4057287 1.5862693 -3.5358565 1.406137
0002f0 d3 d8 03 3f e5 2e 31 40 a5 fd 3f 3f a7 1c 07 40
       0.5150272 2.7684872 0.74996406 2.1111238
000300 b4 0d 1e 3e 67 b1 80 3f e5 fa 25 40 09 f1 d0 3e
       0.15434915 1.0054139 2.5934384 0.40808895
000310 08 46 53 3f b6 26 f3 3e 5b 2c 82 bf 6c 48 dc bf
       0.82528734 0.47490472 -1.0169786 -1.7209601
000320 a9 c7 b3 3e 90 2f 7b be 38 dc 81 be 63 71 41 c0
       0.35113266 -0.24529862 -0.25363326 -3.0225456
000330 aa ab de 3f ba 04 a1 bf 43 02 e1 bf 97 60 8a 3f
       1.7396138 -1.2579567 -1.7578815 1.0810727
000340 32 47 21 bf b1 8f f7 bf 3c 73 ec bf 21 3b 5f c0
       -0.6299926 -1.9340726 -1.8472667 -3.487984
000350 88 a3 46 40 d2 b5 8b 3f e7 9a 81 3f 2d df bc 3e
       3.1037312 1.0914862 1.0125397 0.3688902
000360 04 3b c0 3f 56 8a 8a 3f 21 9e 71 c0 cb b8 13 be
       1.501801 1.0823467 -3.7752764 -0.14425962
000370 4f db 13 40 b6 d6 8c bf 2b 4f 2e 40 9b 3e 62 3f
       2.3102605 -1.1003025 2.723582 0.8837678
000380 e2 47 0e bf 60 4a 91 bf 19 0e 1d 40 09 a6 1d 40
       -0.55578434 -1.1350822 2.4539855 2.463259
000390 3e 43 08 c0 e4 cf 04 40 16 16 38 c0 d0 e1 9e 3f
       -2.1291041 2.0751886 -2.876348 1.2412663
0003a0 e6 81 f4 bf 68 ae c6 bd d8 d5 e3 bf 15 c8 9c 3f
       -1.9102142 -0.09701234 -1.7799635 1.224856
0003b0 13 54 fb 3f 76 c0 81 40 92 2e e8 3f 4f b2 c9 3e
       1.9635032 4.054744 1.8139212 0.3939385
0003c0 08 59 67 3f 76 3e db 3b 6e f7 26 40 e5 ab 69 3f
       0.90370226 0.0066907955 2.608852 0.91277915
0003d0 bb 6e 45 bf e6 3b 1a 3f 84 48 22 c0 60 bd 8d 3d
       -0.77122086 0.6024765 -2.535676 0.06920886
0003e0 6b 9b 9f be f7 e6 ac 3f 60 56 30 3f 3f 9d fe bf
       -0.31173262 1.3507985 0.688818 -1.9891738
0003f0 74 1c 92 3e c0 96 89 bf 6b bc e6 bf 13 a9 51 bf
       0.28537333 -1.074913 -1.8026251 -0.8189861

riemannian.proj.0.weight f4 [256, 253]
000000 77 83 af 3c 14 be cc 3d 86 d0 2a bd 6f e7 1d 3d
       0.021424992 0.09997192 -0.04170277 0.03855079
000010 54 ff 9d bc c2 d2 42 bd 5c cb d3 3c 22 17 6b 3c
       -0.019286789 -0.047564276 0.025853805 0.014348777
000020 5a 5b 85 bc 8b 48 b9 3c 34 1b a8 3d 75 88 ec bc
       -0.016278911 0.022617599 0.082083136 -0.028873662
000030 b0 c0 6e 3d bb c6 45 3c 77 18 4e bd 1a 9a 92 3d
       0.05828923 0.012071307 -0.0503163 0.07158299
000040 00 2c 21 3a bd 43 d2 3c 1f fd 81 3d 96 1f 58 bc
       0.0006148219 0.025667066 0.06347107 -0.013191124
000050 a6 20 a6 bd 94 53 03 bd 6d 88 5a be 11 25 e8 3d
       -0.08111696 -0.03206213 -0.21341105 0.11335195
000060 5b f9 40 bd 5b bc ec bc 99 00 21 bc 97 b1 56 3d
       -0.047112804 -0.028898409 -0.009826803 0.052415457
000070 7e d3 82 bd bf 1c 48 3d 2a 16 11 be da 43 c3 3d
       -0.06387995 0.04885554 -0.14168611 0.09534426
000080 bf 77 04 3e 7a a6 d3 3c 80 77 31 3c ad 88 dc 3c
       0.12936305 0.025836218 0.010831714 0.02692064
000090 38 04 84 3d 95 b9 77 bc 35 65 85 3d 69 d8 f7 bc
       0.06446117 -0.01511993 0.06513444 -0.03025456
0000a0 c2 b2 4f 3d 33 88 a7 3c 1f 6b c2 3c 1f 7f 96 3d
       0.050707586 0.020450687 0.02373272 0.07348465
0000b0 43 09 de bc 03 2a 3f bd 02 7b 15 bd 41 36 d5 bc
       -0.027104026 -0.046670925 -0.036494263 -0.026026847
0000c0 c6 c2 1a 3d 97 41 8e 3d 87 0e c1 3d 77 39 8d 3d
       0.037783407 0.06946104 0.09426599 0.06895726
0000d0 6a d4 8d 3d 0d b0 2e 3d 91 0c 5a 3d 33 cc bf bd
       0.069252804 0.042648364 0.05323464 -0.0936512
0000e0 37 f8 44 3d 49 da 25 3c b8 54 f3 bc 49 5e cd 3c
       0.04808828 0.010122844 -0.029703483 0.025069373
0000f0 32 63 e9 3d 58 64 fd bc f6 33 93 3d 90 43 60 bd
       0.11395873 -0.030931637 0.07187645 -0.054751933
000100 f2 dd 5e 3b 01 78 8c 3c cc 45 92 3d e1 e8 45 3d
       0.0034006801 0.017147066 0.07142219 0.048317794
000110 2a e1 26 3d 3d 4e 54 3d b7 b3 20 bd 05 dd ed bc
       0.040742077 0.051832426 -0.03923389 -0.029036054
000120 64 51 20 be 4f b7 0d 3d 73 65 f4 bc a3 9a 39 bc
       -0.15656048 0.034598645 -0.029833531 -0.011328372
000130 69 4d f1 bd 90 b5 23 bd ff d7 39 3d f4 28 8a 3d
       -0.11782343 -0.039968073 0.045372006 0.067460924
000140 a6 b8 d4 bd 89 6f d1 3c 9e 47 cf 3d fe df af bb
       -0.103867814 0.02556588 0.10121082 -0.005367278
000150 4d 23 c4 bd 10 e1 20 3e 7d ad 24 bd 5c 92 c2 bb
       -0.095770456 0.15710855 -0.040204514 -0.0059378576
000160 4d 11 20 3e 97 ac 16 be 19 32 90 bc 42 15 be 3d
       0.156316 -0.14714275 -0.017602013 0.09281398
000170 17 9a db bd 9f cf 8f 3d 43 dc 0b 3e 1b 61 2a bd
       -0.1072275 0.070220225 0.13658242 -0.041596513
000180 82 73 fa 3c f2 90 3b bd cc 52 1b bc 86 c8 0f 3c
       0.030572657 -0.045792527 -0.0094801895 0.008775836
000190 b3 7d 1d 3d 3a bb c6 bc 27 06 1f bd 43 fc c7 3d
       0.038449954 -0.024259198 -0.038824227 0.09764912
0001a0 fb 94 aa ba 45 48 51 bb 25 77 9b bd b7 2e 6c 3d
       -0.001301437 -0.0031933945 -0.075910844 0.05766174
0001b0 1b ad 12 3d d5 c3 85 3d 62 ac ab bc 4e f8 9d 3c
       0.035809617 0.065314926 -0.020956222 0.01928344
0001c0 10 d4 22 3c 7e 2b 22 3d bb ed a3 bc 27 e8 89 bc
       0.009938255 0.03959226 -0.02001082 -0.016834332
0001d0 be 76 61 3c a0 c3 26 be da 0c 99 bd 77 38 2f 3d
       0.0137612205 -0.16285563 -0.07473154 0.04277846
0001e0 7a 75 dc 3a 3d 00 9c bc cb de 18 bd 82 d6 83 3b
       0.0016819679 -0.019043082 -0.037321847 0.004023374
0001f0 12 53 7d 3d 59 6a ae bc a6 de 18 bc fd 17 96 bc
       0.0618468 -0.021290945 -0.009330427 -0.018321985
000200 d3 d2 26 3c 5e 83 ef bc e4 d0 68 3b f6 a1 fd bc
       0.0101821 -0.029237445 0.00355249 -0.030961018
000210 b9 7d d3 bd a8 f5 0d 3d 8f 24 f5 bc 63 15 f6 3d
       -0.10326714 0.034658104 -0.029924659 0.12015798
000220 f8 51 60 bd dc b7 14 bc e2 47 47 3c 3d a9 63 bd
       -0.05476567 -0.009077039 0.012163134 -0.05558132
000230 80 40 ec bd 7e e1 3f 3c 7d ab 93 bd 04 47 a0 bd
       -0.1153574 0.011711476 -0.07210443 -0.07826045
000240 03 d5 af 3c 17 96 65 ba 24 4f 97 bc 2b c5 9e 3c
       0.021463877 -0.0008758022 -0.018470354 0.019381126
000250 29 5c 4c 3d 97 c2 c9 39 33 4c a0 bd ed 40 67 39
       0.04989258 0.00038482688 -0.07827034 0.00022054063
000260 31 9c 40 bd bb 76 b9 3d 56 95 06 3d 08 c6 0f bc
       -0.047023956 0.09055849 0.03285726 -0.008775242
000270 c4 76 79 bd 99 13 b1 3d ac 33 15 3d 0c 69 bf 3d
       -0.06090428 0.08646316 0.03642623 0.09346208
000280 82 b3 ea bc 47 f0 b5 3c bb 3b 8a 3d 18 c9 7a 3d
       -0.02865005 0.0222093 0.06749674 0.061226934
000290 c2 9f 7b 3c ad 64 92 bc 13 03 c9 bc 5d e8 af bd
       0.015357913 -0.017870272 -0.024537599 -0.08589242
0002a0 32 fc cf bd bd ac 3c bc 30 0a 8c bc 47 3b 07 be
       -0.10155524 -0.011515793 -0.017094702 -0.13206206
0002b0 eb 12 85 bd d6 d3 ab 3b 21 be 03 bc 1d eb c8 3c
       -0.06497749 0.0052437587 -0.008040936 0.024526173
0002c0 9c 27 3b bd 09 ef 04 3e b2 6c 5c 3d dd 63 74 3d
       -0.04569207 0.1298181 0.053814597 0.05966555
0002d0 94 bb a3 bb 62 50 94 bd 77 b9 cc 3c 33 20 95 bc
       -0.0049967263 -0.07241894 0.02499078 -0.01820383
0002e0 13 5c fa bc 7f 78 d0 bb 13 84 bd 3b e4 df 12 3c
       -0.030561483 -0.0063620205 0.0057835667 0.0089645125
0002f0 e6 1c 25 3d 80 83 11 3d de 78 24 be cc 13 b3 3d
       0.040310763 0.0355258 -0.16061732 0.0874401
000300 74 6f b5 bc e7 a0 5a 3d e4 55 20 bc b4 6b a8 bd
       -0.022147872 0.053376105 -0.009786103 -0.08223668
000310 0a 2e 4b bd 93 a8 5b 3d 10 eb 0e 3c a5 48 68 3d
       -0.049604453 0.05362756 0.008723035 0.056709904
000320 f6 cb 3e 3c 88 de 67 bd 78 e4 89 bb 0e c6 f3 3c
       0.011645308 -0.056608707 -0.004208144 0.029757526
000330 c1 11 ef bc 73 cf 96 bc 7d f8 3a 3d 23 39 b5 3c
       -0.02918327 -0.018409466 0.045647133 0.022121971
000340 df c7 6e 3c 72 f8 38 3b d8 20 83 3b bf 3c c4 bd
       0.01457402 0.0028224257 0.004001718 -0.09581899
000350 75 15 0c bc 69 38 ad bd 03 a1 1a 3d 20 c0 98 bd
       -0.008550038 -0.08458025 0.03775121 -0.0745852
000360 3d ed af bd be 97 06 bb 28 1d 92 bd c0 08 78 36
       -0.085901715 -0.0020537223 -0.07134467 3.6959973e-06
000370 dd 26 0f 3e fe 8b 2a 3b 01 34 6c 3d 96 bd 19 3d
       0.13979669 0.0026023383 0.057666782 0.03753432
000380 4c 3e 63 3c 85 80 8f bd da c6 8c 3d 22 0a 1d 3d
       0.013869833 -0.07006935 0.068738654 0.03833974
000390 40 b6 ba bd 57 63 a1 bd 6f ee 09 bd 6d fc 0b be
       -0.09116793 -0.07880276 -0.033674654 -0.13670512
0003a0 88 b6 28 bd 81 5b 29 bc c6 51 b5 bc 1c 55 a8 3c
       -0.0411897 -0.010336758 -0.02213372 0.020548396
0003b0 0f e9 81 bc 15 ef 8d 3d 17 cd 47 3d 8b 34 9d 3c
       -0.015858201 0.06930367 0.048779573 0.019190094
0003c0 ff 04 be 3d 1d 33 3e bd 6a 26 02 bd 0f 0d 03 be
       0.09278297 -0.046435464 -0.031774916 -0.1279795
0003d0 8d 9c 8b bc e6 4f 88 3d 95 e7 fe bc 3e 99 cc 3c
       -0.017042423 0.066558644 -0.031116286 0.024975415
0003e0 c3 b4 eb 3c 10 0d 6d bd 5d 84 44 3e a6 3a b4 3d
       0.028772717 -0.057873785 0.19191118 0.08800249
0003f0 7b 74 96 3d ba 72 1f 3c c8 15 85 bd ba 71 a8 bc
       0.07346436 0.009731943 -0.06498295 -0.020562042

riemannian.proj.0.bias f4 [256]
000000 34 44 39 bc fe 04 89 3c b0 62 82 3d 8b 35 2d bd
       -0.011307765 0.016726013 0.063664794 -0.04228739
000010 9c a0 78 3b 3e 7a af bc af b4 4a bc 46 46 85 3c
       0.0037937528 -0.021420594 -0.01237218 0.01626886
000020 4c 1d df 3a b0 c1 e8 bc ae 86 07 bc fb 96 08 bc
       0.0017022281 -0.02841267 -0.008271856 -0.008336778
000030 73 58 7e 3c 07 2f 8c 3c 30 31 37 3c 89 8d 58 bd
       0.015524018 0.017112268 0.011181161 -0.052869353
000040 64 90 ac 3b 2c 27 92 bc c2 54 36 bc 74 f4 9a 3b
       0.005266236 -0.017840944 -0.011128606 0.004728848
000050 08 42 58 bc 78 38 00 3c f1 0f af 3c 78 85 55 3c
       -0.013199337 0.007825963 0.021369906 0.01303231
000060 be fc 15 bd a9 06 50 3a d8 eb 21 bb 00 d0 1b 3b
       -0.036617987 0.0007935563 -0.0024707224 0.00237751
000070 f3 f4 bc 3b 5a 40 d6 bc 68 26 77 3b 31 fc fc bc
       0.005766505 -0.026153732 0.00377121 -0.030881973
000080 9f a6 77 bc 8f 7f f6 3c 88 27 bf 3c 44 41 a9 3c
       -0.015115409 0.030090122 0.02333428 0.020661004
000090 8f aa c3 3c 4f cc db 3c 06 6c 1b bc bb 07 cc bc
       0.02388504 0.02683082 -0.009486204 -0.02490603
0000a0 64 bb 28 3c fa 07 29 3c be db 54 3a 8a 1c ba 3c
       0.010298584 0.010316843 0.00081199023 0.022718687
0000b0 da 89 db bc b0 e0 b7 3b 3e 60 16 bd 3f 77 66 bc
       -0.026799131 0.0056115016 -0.036712877 -0.014066516
0000c0 5e f3 2c bd d1 c7 5c bd 9c 81 b2 bc 6f 33 4d bd
       -0.04222428 -0.053901497 -0.021790318 -0.05009788
0000d0 10 f6 c3 bb 5d 80 06 3c 49 4c 0e bc e7 d9 02 3a
       -0.0059802607 0.008209315 -0.00868518 0.00049915764
0000e0 32 60 4f 3c 61 84 d4 bb 1a 93 81 3c 9a 72 94 bb
       0.012657212 -0.0064855074 0.015817214 -0.004530263
0000f0 a6 a0 2b 3d f7 ed c9 3c 0a e4 ac 3c 33 1c a7 3b
       0.041901253 0.024649603 0.021104831 0.005099797
000100 2d bc 64 bc db 7b f5 3c 8f 19 a4 3c 9d 01 1d 3c
       -0.01396088 0.029966285 0.020031719 0.009582904
000110 c2 e4 5a 3b 22 0b 8d 3c 0f c1 e7 bb 49 e8 98 bc
       0.003340051 0.017217223 -0.007072575 -0.01866545
000120 68 f9 e5 3c 79 e8 d4 bb 22 d2 e6 3c 98 52 23 3c
       0.028073028 -0.0064974395 0.028176371 0.009968422
000130 a7 03 ce 3a 2d d0 bf 3c 9a 11 ba bc c7 2b 2c 3d
       0.0015717641 0.023414696 -0.022713471 0.042033937
000140 dd b4 a1 bc cf 42 16 3c 88 43 8b bc b7 0c be b9
       -0.019739563 0.009171202 -0.016999975 -0.00036249097
000150 f3 bf 3d 3c 32 5f ae 3b 86 03 17 3c 22 53 35 3d
       0.011581409 0.0053214068 0.009217149 0.044268735
000160 62 40 e5 3b 25 72 53 bc b3 54 9f 3c 17 20 d8 3b
       0.0069962004 -0.012905632 0.019449567 0.0065956223
000170 eb c3 34 bc 0e 2a 35 3c 2b 3a 83 3b 2f f4 03 3d
       -0.011033039 0.01105739 0.004004737 0.032215293
000180 e1 3d cc bc 17 88 b2 3c c5 a4 08 3d d4 8d 05 bd
       -0.02493185 0.021793408 0.03336026 -0.03260596
000190 28 48 fe 3c ff c1 c1 ba 2b a7 b4 bc 6d bf 53 3c
       0.031040266 -0.0014782547 -0.022052368 0.012924057
0001a0 f4 6e 2c bc ac 41 3a bc 19 db 23 bc b4 8d 47 bd
       -0.0105245 -0.011368196 -0.010000967 -0.048719123
0001b0 b8 09 80 3c 85 f7 d8 bc 06 99 12 bb 93 ea 54 3d
       0.015629634 -0.026485214 -0.002236904 0.05198152
0001c0 3f 03 b9 3c be 38 49 3c ce 7c 28 bd 9c 7e 9a 3c
       0.022584556 0.012281595 -0.041134648 0.0188592
0001d0 7b 1e 98 3c b5 b5 82 3b ab bf 1b 3b c9 02 b9 3c
       0.018569222 0.0039889463 0.0023765366 0.022584336
0001e0 dc 29 a8 3c 39 32 d0 bb f2 c2 ad bc e8 d3 34 bc
       0.020527773 -0.0063536433 -0.021211121 -0.0110368505
0001f0 25 95 15 3d b0 4e 05 3d 37 78 80 bb e9 62 ee 3c
       0.03651919 0.032545745 -0.0039205807 0.029099898
000200 8b ff 90 3b ab 21 26 bc 01 d2 11 bd 0d 46 6b 3c
       0.0044249943 -0.010139863 -0.035600666 0.014359963
000210 79 c6 c6 bc 2e 1e 08 bd 09 f2 2b bd d5 ad bf 3c
       -0.024264561 -0.033231907 -0.04197887 0.02339832
000220 fd 12 e6 bb 86 c9 9a 3b b8 66 ce bc 6b 73 bc bc
       -0.0070213065 0.0047237305 -0.025195464 -0.023004254
000230 8e dc 27 bc d4 53 37 bd dc 6f 58 bc 23 4c f6 bc
       -0.010245455 -0.04475768 -0.013210263 -0.030065602
000240 b8 8c b3 bc 69 b5 dc 3c 2c 80 1c bd 7f 09 aa bb
       -0.021917686 0.026941972 -0.03820817 -0.0051891203
000250 14 41 4b 3d 9a 49 db bc 90 39 79 3d b8 5f 46 3d
       0.04962261 -0.026768494 0.06084591 0.04843113
000260 b6 69 a9 ba 14 a0 74 bc 72 2a 5e 3c 39 19 92 3c
       -0.0012925181 -0.014930744 0.013559924 0.017834293
000270 03 61 28 bd 56 e7 85 bc c6 3f fc bb 64 f6 9e bc
       -0.041108143 -0.016345661 -0.007698032 -0.019404598
000280 7e 52 b0 3c 0f 25 3d bc d2 d5 86 bc a8 77 23 bc
       0.02152371 -0.01154448 -0.01645938 -0.009977259
000290 f9 f0 02 3d e1 5a 22 3c b7 fd 79 3c bc 5d 15 bc
       0.03196809 0.0099093625 0.015258244 -0.009116586
0002a0 cf 7f 2f bd b3 8e 4b bc 2b b4 98 3c 79 b9 1b 3c
       -0.042846497 -0.012424159 0.018640598 0.009504669
0002b0 9d 44 18 bb 5f b0 92 bc 7a f9 bd 3c dd c6 7f 3c
       -0.0023234256 -0.017906366 0.023190249 0.015611378
0002c0 68 3b 06 3d 43 80 cc 3c d8 73 6d bc 05 20 92 bb
       0.032771498 0.024963504 -0.014492951 -0.0044593834
0002d0 57 e0 b0 3b 79 1b e1 3b 73 30 fd bc d4 a1 18 3d
       0.005397837 0.00686973 -0.030906891 0.037263706
0002e0 34 ab 38 3b 40 c3 2d 3c b1 31 a4 bc 42 e0 a6 bb
       0.0028178217 0.010605633 -0.020043226 -0.0050926516
0002f0 28 84 3e bd 21 94 24 bd c0 52 a5 bc 43 66 18 bd
       -0.046512753 -0.04018033 -0.02018106 -0.0372069
000300 78 01 a3 bb ed 9d d9 bc 63 a7 e6 bc 68 12 2d 3c
       -0.0049745403 -0.026564563 -0.028155988 0.01056347
000310 0f 7b 10 3d 3e 3c 16 bc a0 35 b4 ba aa d4 98 ba
       0.035273608 -0.009169636 -0.0013748892 -0.0011660059
000320 8a ed 20 bc ec 12 03 bc b1 75 aa bc 6c fa 26 3b
       -0.009822259 -0.008000117 -0.020808073 0.0025478853
000330 8a fb b4 bc b0 f3 e5 bc 2c ea 06 3c 81 dc 30 bd
       -0.0220926 -0.0280703 0.008234542 -0.04317904
000340 1f 6b 9c 3c 61 56 b0 bb a9 29 96 bc 50 98 d0 bc
       0.019094048 -0.005381391 -0.018330412 -0.025463253
000350 c9 9d 16 3d c3 a3 0d 3d 06 78 94 bc 7d ec 4a bc
       0.03677157 0.034580003 -0.018123638 -0.012385485
000360 2d fd 95 ba 91 9f 6f bc 8c df 90 bb af 64 af 3b
       -0.001144325 -0.014625446 -0.00442118 0.0053525786
000370 f8 e4 f9 bb 82 cc e6 3c 36 72 0d 3d f2 f4 d3 bc
       -0.007626172 0.028173689 0.03453275 -0.025873635
000380 15 ea da 3c 04 86 32 3d 3a 80 05 bc eb 3d 45 bc
       0.026722947 0.04358484 -0.008148247 -0.012038688
000390 57 7b 94 3c 25 df b2 bc 3b 09 0e 3d e2 4c be 3c
       0.01812522 -0.02183492 0.03467677 0.02323002
0003a0 70 5e d3 3b 2a fb fb 3c 35 91 26 3d 26 f5 44 bd
       0.006450467 0.030759413 0.040665824 -0.048085354
0003b0 6f 64 f1 3c 82 75 0c 3d 26 1a f0 3c f1 1e 01 bc
       0.029466836 0.03429175 0.029309344 -0.007880912
0003c0 3f 27 34 3d 8b 9f 24 3c dd 3b cd 38 49 8d a8 bc
       0.04398274 0.010047804 9.786312e-05 -0.020575183
0003d0 70 76 7e 3c 74 ba 02 3d c8 02 85 3b bf 53 84 3a
       0.015531167 0.031916097 0.0040591694 0.0010095759
0003e0 f5 de 05 3d d9 d7 d4 bc ec 63 55 3d e0 8b 92 3c
       0.03268333 -0.02598183 0.052097246 0.017888963
0003f0 e1 fb b3 bc d2 d9 56 bc b2 19 0d 3d aa ee 74 bb
       -0.021970691 -0.013113456 0.034448333 -0.00373737

riemannian.proj.3.weight f4 [48, 256]
000000 97 ed ba 3d 03 e4 3c 3d 0d 6e 32 bd 5a f8 68 3c
       0.09127348 0.046115886 -0.043561984 0.014219368
000010 5b 9b 17 3e 39 19 1e be e2 c5 1b 3d 9b 7d 09 3e
       0.14805357 -0.15439309 0.038030513 0.13426821
000020 97 0e 10 3d 04 36 cf 3d 5b a3 eb 3d 07 71 0f bb
       0.035170164 0.101177245 0.11505767 -0.0021887438
000030 23 8d 33 3d 8b 81 9d 3d d7 5a 63 be 1a d6 3d 3e
       0.04383577 0.07690724 -0.22202621 0.18538705
000040 cd 2c eb bd 29 b2 62 3d 40 0d 32 be ec d6 a3 3d
       -0.114831544 0.055345688 -0.17387867 0.079999775
000050 46 6e 52 bc c9 54 e3 3d 6f 8f 16 3d bb 77 19 3e
       -0.012843674 0.11100156 0.036757883 0.1498708
000060 4d 71 f8 bc fc 19 28 bd 5b 1a 69 3c 4d ce 5d 3d
       -0.030327464 -0.041040406 0.014227475 0.054151822
000070 05 f7 22 3d f1 1b 4e bb da d3 49 3d 3c 71 3b 3e
       0.039786357 -0.003144976 0.049274303 0.18304914
000080 95 98 88 3c c1 e0 e3 3c aa 62 32 3a 72 68 1a 3d
       0.01667432 0.027817132 0.0006804863 0.037697263
000090 ef d6 bc bc 78 77 8d 3d df 82 09 bd c9 0b 55 3e
       -0.023051707 0.069075525 -0.033572074 0.20805277
0000a0 fb a1 36 3e 57 b3 ff 3d 1d cb 19 3e 85 fb 35 bb
       0.17835228 0.12485378 0.15018888 -0.0027768326
0000b0 12 41 6e 3c c6 0e 3b bd f3 c1 10 be 89 f2 8e bc
       0.014541881 -0.045668386 -0.14136486 -0.017449634
0000c0 e9 21 5e bd 64 02 64 3e 13 7b 55 be d4 69 6e 3d
       -0.054231558 0.22266537 -0.2084773 0.058206394
0000d0 b7 62 ac bd d8 2e d8 3b a1 10 4c bd 96 2a 9b 3e
       -0.08417266 0.006597381 -0.049820546 0.30305928
0000e0 66 a0 c0 3b 28 c7 7d bb ee 82 db bd f3 47 46 3e
       0.005878496 -0.0038723443 -0.10718332 0.19363384
0000f0 60 b5 c2 bd 4b 78 f4 bd c7 9e e3 3c e2 ce 0c 3e
       -0.09507251 -0.119370066 0.027785672 0.13750795
000100 2f b5 a4 bd f1 f0 e5 bc 57 b8 be 3d 10 24 49 3b
       -0.080423705 -0.028068991 0.09312504 0.003069166
000110 86 4a 65 bc 43 15 ae bd 36 46 12 3e f2 14 1b 3c
       -0.013994819 -0.08500149 0.14284596 0.009465443
000120 09 9a ce 3b ec ec 7b bc ce 30 4d be 67 22 a2 3d
       0.0063049835 -0.015376311 -0.20038149 0.07916718
000130 7d ca 19 3e 82 89 f2 3d f2 d5 63 3e 0f fd 30 3e
       0.1501865 0.11842634 0.22249582 0.17284034
000140 a7 d0 e5 3c 63 8c 70 3e 48 18 40 3d b0 95 47 bd
       0.028053595 0.23491053 0.046898156 -0.048726737
000150 6c 8d a0 bd 4d df 3d be ad 31 80 3d 30 27 14 bd
       -0.07839474 -0.18542214 0.06259475 -0.036170185
000160 b9 52 9b 3d 32 d6 f0 bb 30 12 38 be fd e4 8e 3b
       0.075841375 -0.007349753 -0.17975688 0.0043607936
000170 62 6f 79 bc 9d 7e e5 3c a3 d1 90 3d 09 07 ed 3d
       -0.01522431 0.028014475 0.07071235 0.115736075
000180 97 d4 ec 3c df 72 a3 bd 54 06 1a 3e 55 8a df 3d
       0.028909964 -0.07980894 0.15041476 0.109150566
000190 7d e4 23 3e dc fb c0 bd 03 06 72 bc 15 ce fa 3d
       0.1600513 -0.09423038 -0.014771941 0.12246338
0001a0 a0 ee 94 bc 24 4f 8c 3d 75 a0 b0 3d db 58 b7 3d
       -0.018180192 0.068510324 0.08624355 0.08952495
0001b0 2b ce 03 bd 33 60 c6 3c 8c 3a a3 3d b6 a4 19 3d
       -0.03217904 0.024215793 0.07970151 0.037510596
0001c0 f6 41 d2 bc 9b 00 0e 3d f7 84 19 bd f6 79 91 bd
       -0.025666218 0.034668546 -0.03748032 -0.0710334
0001d0 03 2c 0e 3e 65 52 d6 3c 47 bf d7 bc 7f 74 18 bd
       0.13883977 0.026162336 -0.026336325 -0.037220474
0001e0 17 09 a4 bd 83 4b 85 3e 1b 73 b1 39 20 f3 66 bd
       -0.08009546 0.26034173 0.0003384583 -0.056384206
0001f0 56 54 83 3c 78 07 17 3d 13 43 82 bc a2 18 d7 3d
       0.016031425 0.036872357 -0.015901124 0.10502745
000200 3b ac ac 3d 22 77 93 3b ea 1f f8 3d 36 51 56 bd
       0.08431288 0.0045002857 0.12115462 -0.052323543
000210 9e cf 02 be bd d7 da bd 17 39 b4 ba ad 98 cc 3d
       -0.12774512 -0.1068568 -0.0013749924 0.09990058
000220 48 3c 38 3e 1a c1 5d 3e 98 d4 d5 3d 0b 33 da bd
       0.17991745 0.21655694 0.1044094 -0.10654267
000230 9b c0 04 be 97 a8 ad 3d 63 48 0d bd 29 cf 11 bd
       -0.12964098 0.084794216 -0.03449286 -0.035597954
000240 c9 cd fb 3d 8d ea d3 3b 4e 21 a4 3d 2d d9 b2 3d
       0.1229511 0.0064671696 0.08014165 0.08732829
000250 19 71 7e 3d b0 5c d2 bd 47 13 ea bd 2c 0c 07 bd
       0.062119577 -0.10271585 -0.11429458 -0.032970592
000260 cf 2c 0c be ce 26 50 bd 14 02 58 bd 79 ae 03 3e
       -0.13688968 -0.050818257 -0.052736357 0.12859525
000270 6f 67 65 3d 91 7d 74 3e 58 32 98 bd b9 88 5f 3e
       0.056006845 0.23876025 -0.07431477 0.218295
000280 9c 64 25 3d 16 53 8b bd df f8 de 3c 41 29 af bd
       0.04037915 -0.06802957 0.02721828 -0.085527904
000290 bd fc c2 3d a6 45 08 bc 1c 91 62 bd a6 15 f6 bc
       0.09520862 -0.008317387 -0.05531417 -0.03003962
0002a0 ac f2 1b bd d3 e9 0c 3e 56 12 c5 bd 13 0b 05 3e
       -0.038073227 0.13761072 -0.09622638 0.12992506
0002b0 4d 8a 74 3d 21 4b 9a bd b4 f0 39 3d 1f ba ff 3c
       0.059702206 -0.07533861 0.045395568 0.03121668
0002c0 f1 d5 b0 3d 77 5e ef bb d7 ba 0d 3e c6 cf 39 3e
       0.08634556 -0.0073049623 0.13840805 0.18145666
0002d0 ed 22 8f bc e7 78 2a bd 60 b4 70 bc 31 8b 17 3e
       -0.017472709 -0.041619208 -0.014691442 0.14799191
0002e0 12 56 ac bd d5 4b 8f 3d 87 a9 fa bd f4 b1 91 3d
       -0.08414854 0.06996886 -0.12239366 0.0711402
0002f0 cc 12 ff 3c 25 08 41 3e de 18 a8 3d 67 47 8d ba
       0.031136893 0.18850763 0.08207868 -0.0010778726
000300 b0 18 04 3d 3b c9 8c 3d f2 79 06 3d f3 84 af bd
       0.032250106 0.06874319 0.03283114 -0.0857028
000310 71 0d 2d bd b9 37 1d bd c3 b9 c8 bc f6 40 40 3d
       -0.042249147 -0.03838322 -0.02450264 0.04693695
000320 1f 56 2e 3d 99 64 c4 bd c3 6c 04 be 3b 0b 9f 3e
       0.0425626 -0.095895 -0.12932114 0.31063256
000330 f6 df 58 3d 65 80 b1 bb 59 34 a3 bd 45 67 8a bc
       0.05294796 -0.005416917 -0.07968969 -0.016894946
000340 b0 f5 21 3e fd f0 a9 3d c3 2e ad bd 85 2d bc 3d
       0.15816379 0.08297918 -0.08456185 0.0918837
000350 cd b5 1e 3e 64 e3 75 3e ff 47 e4 bd 1d 1e cf b9
       0.15499039 0.24012524 -0.11146545 -0.00039504553
000360 49 96 10 3e bb 33 d0 bd 9e 48 45 3c a5 07 79 3e
       0.14119829 -0.10166117 0.012041239 0.24319322
000370 99 7a f7 bd 20 57 05 3e 52 1d a2 3d 56 88 56 bd
       -0.120839305 0.13021517 0.07915749 -0.052376114
000380 d2 a2 2d 3e 74 27 43 be 5d 39 cc 3c a9 07 81 3d
       0.16956642 -0.19058019 0.024929697 0.06300289
000390 2e aa 34 3e 2d b5 52 3d f6 4e 6b bb 8e dc 6b 3e
       0.17643043 0.051442314 -0.0035905219 0.23033354
0003a0 9d 91 a9 3d 68 91 f6 3d 6e e0 0b 3d 8d d8 1a be
       0.08279727 0.12039453 0.03414958 -0.1512167
0003b0 16 2f 04 3d 1f 75 f4 3c 05 34 d5 bd 89 33 c5 bc
       0.032271467 0.029841004 -0.104103126 -0.024072425
0003c0 00 54 cc 3d 6f 53 cc 3d 40 3f 36 3b 00 4c ce 3d
       0.09976959 0.09976851 0.0027808696 0.100730896
0003d0 0d f8 04 be cd 60 c6 bd c3 72 19 3e 49 82 6b 3d
       -0.12985249 -0.09686432 0.14985184 0.057497296
0003e0 7b 32 56 3d 0b f1 42 3e 66 54 e7 3c d4 bf de 3c
       0.052294236 0.19037263 0.028238486 0.02719108
0003f0 6d 8a be bc 59 fd 3b 3e 2e 9d 95 3d b8 6d 4e bd
       -0.023259366 0.18358363 0.0730537 -0.050397605

riemannian.proj.3.bias f4 [48]
000000 c1 58 83 bd 4b 22 1b 3e 1c fb 56 3e 88 d6 ba 3c
       -0.06413413 0.151498 0.20994228 0.022807375
000010 3d 8c 64 bd f0 33 80 3e 13 fe 22 3d 50 01 09 3d
       -0.055797804 0.25039625 0.039793085 0.033448517
000020 6e 9e 19 be 9f 8f 25 bd 3d 09 d2 bd 56 57 fb 3d
       -0.15001842 -0.04042017 -0.10255668 0.122725174
000030 79 10 05 3e fe 08 1d bd da 3c 04 3e 7d 88 e8 bc
       0.12994565 -0.038338654 0.12913838 -0.028385395
000040 b6 13 d4 bd f5 31 8d bd c4 d4 04 3e 93 14 10 be
       -0.10355322 -0.06894294 0.12971789 -0.14070348
000050 e2 61 e0 bd 58 6b c6 bd de 35 43 3e 2c 2c 00 3d
       -0.1095617 -0.09688443 0.19063517 0.031292126
000060 f7 09 12 be b8 07 e7 3c b7 f2 0a 3e ae ec fd bd
       -0.14261614 0.028201923 0.13569151 -0.12398659
000070 46 78 97 3c e6 e7 11 be d3 01 6d bd a9 9f cc 3d
       0.018489968 -0.14248618 -0.057863068 0.0999139
000080 99 6d 7e bd 59 12 a5 bd 82 82 85 3e eb 27 d0 bb
       -0.06211624 -0.0806014 0.26076132 -0.006352415
000090 b0 ec 9c 3d 9f b5 fa bc 8c d1 12 3e 99 77 1e be
       0.07662332 -0.030604182 0.14337748 -0.1547531
0000a0 5f d3 87 be d3 29 4e 3d 5d 03 78 3d f4 57 b3 bd
       -0.2652845 0.050332855 0.060550082 -0.0875701
0000b0 0b 1c 23 3e 80 fb 2b 3d b1 7b b1 bd 0a 01 a7 bc
       0.15928666 0.041987896 -0.086661704 -0.020386238

cnn.block1.0.weight f4 [16, 1, 1, 64]
000000 12 13 33 bc f7 2f fa 3b 13 6c 29 3e e4 96 f2 3d
       -0.01092984 0.0076351124 0.16545133 0.11845186
000010 ab 4f ce 3c 35 82 08 3d ac 1d cf bd 6a 2e 82 be
       0.025184473 0.0333273 -0.10113081 -0.25426036
000020 6a 81 04 be a3 fa d5 bd f3 2c ae bc d9 52 d8 bd
       -0.12939993 -0.10448196 -0.021261668 -0.10562677
000030 33 e9 5c 3d a1 37 72 bd 03 f7 29 3d cd 63 15 3d
       0.053933334 -0.059135083 0.041495334 0.03647213
000040 eb dc 62 3d 4d a9 1d 3d 52 68 10 3e e9 f4 35 3d
       0.055386465 0.038491536 0.14102295 0.044423018
000050 3c e3 f5 3d f3 66 a6 bb a6 97 8e 3d 52 90 82 3d
       0.12006232 -0.0050781905 0.069625184 0.06375183
000060 8b a5 4c 3d ad cd e4 3c f2 d8 af 3b 1c 7c 83 bc
       0.04996256 0.027930105 0.005366438 -0.01605039
000070 da 24 cb bd e1 69 17 be 77 5e 3d be 97 a2 70 be
       -0.09919138 -0.14786483 -0.18493067 -0.23499523
000080 d1 b2 ec bd 35 63 bf bd 43 00 90 3c 81 f7 5b 3d
       -0.11557544 -0.09345094 0.01757825 0.053702835
000090 d9 53 09 3e 34 48 fe 3c 9e ba d0 3d 6c d2 83 3d
       0.13410892 0.031040289 0.101918444 0.06436619
0000a0 67 dd b6 3d b8 1b b9 3b 15 11 58 3d a2 68 80 3d
       0.08928948 0.0056490563 0.052750666 0.06269957
0000b0 02 02 41 3d 95 ad 03 3e 6e fb 10 3d be d1 7b 3d
       0.047121055 0.12859185 0.035396032 0.061479323
0000c0 7c 9b dd 3d 21 2a 54 bd f8 44 0f be 5c d7 67 be
       0.10820672 -0.05179799 -0.13991153 -0.22640747
0000d0 6a bb a3 be 0f eb 6a be 9f 0a 0f be f3 40 f4 bd
       -0.31978923 -0.2294123 -0.13968895 -0.119264506
0000e0 76 f5 5c 3d 7b 81 63 3e 40 64 b2 3e 7f 26 42 3e
       0.053945027 0.22217362 0.3484211 0.18959998
0000f0 52 25 5e 3e 7c 24 a5 bd a4 f0 83 bd ce 62 25 be
       0.21693924 -0.080635995 -0.06442383 -0.16150972
000100 4f 01 00 3f af 91 c3 3d 69 f2 9c 3c d7 a7 b8 bd
       0.50001997 0.09549271 0.019158559 -0.09016388
000110 d1 16 c6 3d a0 15 2e 3c 8c d9 9a 3d c7 34 ce 3d
       0.09672321 0.010625273 0.07561025 0.1006866
000120 5c 34 d2 bc 3c c1 2d bd 9e d0 e1 3d 23 ca 93 bd
       -0.025659733 -0.04242061 0.11026119 -0.07216289
000130 00 bd 94 3c 0a b3 1b be 3f 38 3b be c7 c4 32 bd
       0.018156528 -0.15205017 -0.18283175 -0.043644693
000140 f5 93 45 3d 1a 96 11 3c bb 10 17 be e5 9a 65 bd
       0.048236806 0.008885885 -0.14752476 -0.056055922
000150 c9 cf b1 bc 40 8b 8b bd 1a 02 51 be 04 5d b2 be
       -0.021705525 -0.06813669 -0.20410958 -0.3483659
000160 00 cb de bd e5 19 d1 bd 16 36 0a 3e 92 98 20 3d
       -0.10878563 -0.10210017 0.13497195 0.039208002
000170 a6 e6 0c be c0 cc 3a be 4e a5 c5 bd b1 57 62 3d
       -0.1375986 -0.18242168 -0.0965067 0.05525941
000180 0c dc 6c 3d 6c ca 95 3b a9 16 83 bd 80 ee 0a 3d
       0.05782704 0.0045712497 -0.064008065 0.033918858
000190 17 21 d6 3d 4e 7f 0f 3e 84 2d 09 bd d4 af 00 3e
       0.1045553 0.14013407 -0.033490673 0.12567073
0001a0 c3 3f 3a 3d c1 6a 26 3d ee c1 ef 3d 46 2c 55 3e
       0.045470964 0.040629152 0.11706911 0.2081767
0001b0 1b bc 16 3d 8f be 46 3e 04 fe 90 3e cb d4 d0 3d
       0.036800485 0.1940863 0.283188 0.10196837
0001c0 1b 79 65 bd a9 de 5d bc 90 bf 44 3d 7c a4 07 3e
       -0.0560237 -0.013541856 0.04803425 0.1324634
0001d0 0d 9c 9d bd 38 b2 84 bc 43 d3 99 3d 54 75 8c 3c
       -0.0769578 -0.016198263 0.07510998 0.01714579
0001e0 3a 8f 1d 3c 75 ea 8a 3d 06 0e a1 3b 3f a9 44 be
       0.009616667 0.067830004 0.004915002 -0.19205187
0001f0 5f c6 0e be c9 79 53 bd 59 fb 93 bd 98 4f 97 3c
       -0.1394286 -0.051629815 -0.07225675 0.01847057
000200 45 97 e1 be e0 46 42 be b3 e5 e4 bd ad bf ae 3c
       -0.44060722 -0.18972349 -0.11176624 0.021331633
000210 71 d0 25 3d b6 56 06 bd f6 8e 65 3d 5c dc fe bc
       0.04048199 -0.032797538 0.05604454 -0.031110935
000220 cd 68 93 bd 1e aa fa bc ed 91 fa bd 3b 3b 17 be
       -0.071977235 -0.030598696 -0.122348644 -0.14768688
000230 06 aa 89 bd 24 17 fc bb 4b 4a 00 bd c0 af fd bc
       -0.067218825 -0.0076931883 -0.03132085 -0.030967593
000240 88 e2 a9 bd 6b a2 c4 bd 24 9e 9a bd f9 3a 20 be
       -0.082951605 -0.09601291 -0.07549694 -0.15647496
000250 66 b4 94 bd c2 81 9a bd ec 79 9b bd a5 c5 fb 3c
       -0.07260971 -0.075442806 -0.07591614 0.030733893
000260 05 f2 36 bd a1 f9 67 3d b8 ea 7d bc f0 65 89 bd
       -0.0446644 0.05663455 -0.015497856 -0.06708896
000270 1f 84 b0 bd 53 d0 ad bd a4 b4 00 bd 41 bc 33 bd
       -0.0861895 -0.08487 -0.031422272 -0.043880705
000280 20 37 7c bd 24 9c 04 bd 2d 7b 23 be b1 18 fe bc
       -0.06157601 -0.03237547 -0.15964957 -0.031017633
000290 d4 fb 84 bd ed bf fb bc 0a 89 19 bd 20 22 85 bd
       -0.06493345 -0.030731166 -0.037484206 -0.065006495
0002a0 a6 26 01 bc 9e 3d 84 bc 98 e5 c6 3b c0 74 86 bd
       -0.00788275 -0.016142663 0.00606985 -0.06565237
0002b0 1f 27 40 be 84 bc f7 bd a2 ce bc bd 3d 24 5b 3d
       -0.18764924 -0.120965034 -0.092190996 0.053501356
0002c0 57 6c ca bd 84 a1 81 bc 92 99 43 3c 15 f9 bc bd
       -0.098839454 -0.015824087 0.0119384695 -0.09227196
0002d0 eb 7b ee bc 37 35 e3 bd 72 57 41 bd 8c f7 ae bd
       -0.029111823 -0.11094134 -0.047202535 -0.085433096
0002e0 16 f7 8c bd fd ae 4f 3d 93 2c 72 bc 4a 06 03 3e
       -0.068830654 0.05070399 -0.014781135 0.12795368
0002f0 29 3c 72 bd b7 4f 86 bd 75 96 76 be b1 31 0a bf
       -0.059139404 -0.06558173 -0.24080832 -0.53982073
000300 dd 7d 88 3c 73 b8 83 3d 15 7b 13 3d a7 31 6c bb
       0.016661579 0.06431665 0.036006052 -0.0036040337
000310 db f7 87 bc 2c 3c 01 bd 7c 8b 91 bc 7c 53 46 3d
       -0.016597679 -0.031551525 -0.017766707 0.04841946
000320 79 87 eb 3d 49 4d e2 3d f8 74 a2 3d f0 96 45 3d
       0.11500449 0.11049897 0.07932466 0.04823965
000330 40 85 06 bd 17 64 07 be 3f 20 53 be c2 9b 81 be
       -0.03284192 -0.13221775 -0.2061777 -0.25314146
000340 c9 69 6d be e5 78 45 be 0d b0 e2 bd c9 be 4b bc
       -0.23184885 -0.19284399 -0.11068735 -0.012435623
000350 c6 ff 9b 3d 50 17 2b 3e 97 bc 56 3e 28 35 60 3e
       0.07617144 0.16708112 0.20970379 0.21895278
000360 7c d9 12 3e d7 b1 a0 3c 33 b5 dd bd 4b fa 1a be
       0.14340776 0.01961605 -0.10825577 -0.15134542
000370 96 73 f4 bd 6a 53 9d bd b4 77 08 bd 5b 79 02 3d
       -0.11936109 -0.076819256 -0.033317283 0.031854015
000380 40 93 de 3d c8 e3 3d 3e 1c 54 69 3e b9 5c 33 3e
       0.108679295 0.18543923 0.22785991 0.1751584
000390 90 5e a7 3d 49 dd 0e bd b7 71 dd bd 6d cf 38 be
       0.08172333 -0.034879003 -0.10812705 -0.18047877
0003a0 b3 46 67 be 2d 9e 56 be 8e 96 20 be 29 06 a7 bd
       -0.22585563 -0.20958777 -0.15682432 -0.08155472
0003b0 f7 52 6e 3c 23 d3 9c 3d 42 7f a5 3d 85 47 b8 3d
       0.014546148 0.07657459 0.08080913 0.08998016
0003c0 99 98 ca 3d 40 52 f1 3d 82 fa 9b 3d 05 06 0b 3c
       0.09892387 0.11783266 0.0761614 0.008485322
0003d0 86 73 fe bc 45 62 ba bb 94 f7 4a 3d d9 2f d7 3d
       -0.031060945 -0.005687984 0.049552515 0.10507173
0003e0 08 d9 16 3e f8 0e 1b 3e a5 74 29 3e 9d 06 e1 3d
       0.14731228 0.15142429 0.16548403 0.109875895
0003f0 2e cb 4b 3d ad 27 83 bd 43 f5 03 be 9f 97 47 be
       0.049754314 -0.06404052 -0.12886529 -0.19491433

cnn.block1.1.weight f4 [16]
000000 08 5d 9e 40 67 c5 1a 3f 2e 8b af 3f 70 a7 92 40
       4.9488564 0.6045746 1.3714349 4.582939
000010 a5 4a a7 40 86 05 9f 3f fd dd 97 3f 66 4f 79 3e
       5.227862 1.2423561 1.186462 0.24346694
000020 7a aa 43 3f de e7 87 40 02 8e 13 40 a8 9a 4f 40
       0.76432 4.247054 2.3055425 3.2438145
000030 b9 54 9b 40 42 17 ae 40 47 cd c5 3f d3 a0 99 40
       4.854092 5.440339 1.5453271 4.800882

cnn.block1.1.bias f4 [16]
000000 f1 e8 ac 3c a9 81 e3 3d 51 57 5f bc 66 e7 d8 bb
       0.021107169 0.11108715 -0.013631658 -0.0066193817
000010 96 91 16 3d 5f 2e 20 3c 0a ce 91 bc e1 73 8d 3c
       0.036759935 0.009776681 -0.017798442 0.01726717
000020 d6 e4 51 3d 6c 88 ff 3c f1 20 70 bd 63 0f d0 ba
       0.051243626 0.03119298 -0.058625165 -0.0015873726
000030 95 77 fe 3b a0 35 c2 bb 62 29 11 3d 8d 29 19 3d
       0.00776572 -0.0059268028 0.035439856 0.03739314

cnn.block1.1.running_mean f4 [16]
000000 5b 77 72 39 b8 7e e7 ba db f0 95 3c 59 3b c7 ba
       0.00023123382 -0.0017661666 0.018303325 -0.0015200182
000010 46 62 d1 b8 d2 6e bc bc be a2 2d bc c8 ee e5 3a
       -9.9842015e-05 -0.023002062 -0.010597883 0.0017542476
000020 7c d0 2c 3c bb d9 66 3a 20 71 16 3c 70 ff 31 ba
       0.010547753 0.0008806248 0.009182245 -0.00067900773
000030 b9 6a a3 b9 1a c9 85 39 4e 92 9f bc f6 06 80 b8
       -0.00031169297 0.0002551757 -0.019478943 -6.104812e-05

cnn.block1.1.running_var f4 [16]
000000 eb 81 ec 3f 7b a2 d9 3f 09 c9 58 40 ce 47 fa 3f
       1.8477148 1.700271 3.3872702 1.9553163
000010 2d 1b 06 40 c2 9e f0 40 36 ab c8 3f 28 3b d6 3f
       2.0954087 7.5193796 1.567725 1.6736803
000020 98 40 c7 3f f5 71 01 40 c3 91 65 40 2e c7 38 3f
       1.5566587 2.0225804 3.5870216 0.72178924
000030 49 e3 31 40 7c 68 12 40 57 a9 90 40 37 61 4d 3f
       2.7794974 2.2876272 4.5206714 0.80226463
