models/2a_LOSO/model_2.pth (torch, 985978 bytes, 93 tensors)

fusion_proj f4 [48, 48]
000000 f0 96 95 bf d2 96 35 bf 9c 0e 9e bd 9d 42 c7 3e
       -1.1686687 -0.7093326 -0.0771763 0.3891801
000010 5a 31 41 3f 0d a7 2e bc cc 1d 4e be 11 c8 95 3f
       0.7546593 -0.010659945 -0.20128554 1.170168
000020 34 56 a4 bf 9c 69 c9 bf 54 d1 b3 be 30 80 4c 3e
       -1.2838807 -1.5735354 -0.35120642 0.19970775
000030 a3 9b 76 bf 1f 6b 49 bf 84 5a e8 3e ae 33 53 bf
       -0.9633123 -0.7867908 0.45381558 -0.8250073
000040 6a 2a d0 be e5 e8 d3 3f f1 13 31 bf 65 35 89 bf
       -0.4065736 1.6555449 -0.69171053 -1.071942
000050 ea b1 ad bf fa d5 82 be 98 ce 41 bd 5b 43 10 40
       -1.356992 -0.25553876 -0.047316164 2.254111
000060 b1 95 16 3f 6c 63 9e 3f 95 00 2f 3f f4 ff bc be
       0.5882216 1.2374091 0.68360263 -0.36914027
000070 ab bd 8b 3f 71 00 ce 3e 90 ec cb 3d b6 1b f9 3e
       1.0917257 0.40234712 0.0995723 0.48653954
000080 9a 82 18 3e 15 64 a1 bd eb c9 b5 3f 56 64 4e 3f
       0.1489357 -0.07880417 1.4202245 0.8062185
000090 7f 95 c7 bf 7d d4 92 3f 8b f0 c5 3d 6c 4b 1f bf
       -1.5592498 1.1471096 0.096650206 -0.6222446
0000a0 0f 49 58 3f b6 e0 97 bf e7 86 4f bf af 37 fe 3d
       0.8448648 -1.1865451 -0.8106522 0.124129646
0000b0 d5 bb 40 be 2a 0e 56 3f 78 45 db bf c2 50 0b 3f
       -0.18821652 0.8361536 -1.7130575 0.544201
0000c0 de e1 9e bb 8a 79 97 3e 0d 70 14 3f 8c 9d b3 3f
       -0.004848703 0.29584914 0.57983476 1.4032454
0000d0 bf 66 71 bf fd 66 56 3d af f2 ca 3d 75 72 0a 3f
       -0.94297403 0.05234431 0.099095695 0.540809
0000e0 2b c1 81 bf 74 50 a7 be 28 cb 7b 3d 62 a4 87 bf
       -1.0137075 -0.32678568 0.06147304 -1.0597041
0000f0 15 8e 22 3f c2 00 3d 3f 71 11 ad 3d 1a 56 44 3f
       0.6349805 0.7382928 0.08450592 0.7669388
000100 64 a5 db be 81 f8 b8 3d 67 b2 ea 3e 22 3a 0c be
       -0.4289962 0.09031773 0.45839235 -0.13694051
000110 3a f9 89 3e 09 80 81 3f a2 db e6 be 81 48 08 c0
       0.26947957 1.0117198 -0.45089442 -2.1294253
000120 df 36 2c 3f 58 c4 93 3f e3 a3 8a bf 2f 30 cf bf
       0.67271227 1.1544294 -1.0831264 -1.618658
000130 c0 90 ad 3d 86 ae 8c 3e b9 79 2f 3f 5f 37 49 3f
       0.084748745 0.274769 0.6854511 0.78600115
000140 83 61 19 bf 04 47 17 3f 65 23 05 3f fc 4a 63 bf
       -0.59914416 0.59092736 0.5200713 -0.8878629
000150 4e 2d 5d 3e 38 8f 5b bf 88 ea 3a bf 21 d2 57 be
       0.21599314 -0.8576541 -0.73014116 -0.21076252
000160 c3 6d 44 3f b5 82 fb be e8 be 14 3e 90 45 48 40
       0.76729983 -0.4912316 0.1452595 3.1292458
000170 7d ee 5c bf 36 65 a2 bd 3a 53 08 3f 5b 15 b7 be
       -0.86301404 -0.07929461 0.53251994 -0.3575848
000180 c5 70 3b 3f 0f a7 e1 bd fe 35 06 bf ee 69 12 40
       0.7321895 -0.11018192 -0.52426136 2.2877154
000190 0d 58 13 bd db 48 2d bf 34 8f 9f be c3 a8 14 3f
       -0.035972644 -0.67689294 -0.31163943 0.5807001
0001a0 9e 68 e3 bd 13 6d ee bf d9 c3 46 3f ea 31 6b 3f
       -0.111039385 -1.8627037 0.7764259 0.9187304
0001b0 91 82 2b 3f ee a4 3e 3f 5c 66 b7 be fc 9f a8 3f
       0.66996104 0.7447041 -0.35820282 1.3173823
0001c0 b3 28 c7 bf 78 7f 97 bf 1d a6 e7 3d 91 7b 00 40
       -1.5559295 -1.1835775 0.113109805 2.007542
0001d0 e8 5d c5 3e 19 ad ef be 20 18 2d bf 40 87 64 3f
       0.38548207 -0.4681175 -0.67614937 0.89268875
0001e0 97 f4 b8 bf 7d df 81 bf d1 01 44 bf d5 df 7a be
       -1.4449643 -1.0146328 -0.7656527 -0.24499448
0001f0 b0 a7 8b 3e 1a 0e b6 3f 08 01 89 be 2c 4e da be
       0.27276373 1.4223053 -0.267586 -0.42637765
000200 1a 78 35 3f 1a 09 33 bf 4c fe 11 3f 66 1c 2f 3e
       0.70886385 -0.6993576 0.5702865 0.17100677
000210 83 d2 16 c0 74 70 cf be 81 ed 92 3f 16 4d 12 3f
       -2.3565986 -0.40515482 1.147873 0.57148874
000220 d1 56 95 3d e1 78 a3 bf f0 a3 d5 3c 5b a1 47 bf
       0.072919495 -1.2771264 0.026079148 -0.77980584
000230 1e 6b f0 3e 89 5e f4 3f 2d 76 61 be 49 b5 b8 bf
       0.46956724 1.909135 -0.22017737 -1.4430324
000240 e2 50 6e bf 45 d3 41 3f df d8 4d bf 83 c0 4e 3e
       -0.9309217 0.75712997 -0.80409044 0.20190625
000250 c0 fb 6b bf 59 4e b8 bf a1 5a 67 3f 2c 54 5e 3f
       -0.92181015 -1.439891 0.90372664 0.86847186
000260 e1 0a 43 bd dd e2 4b 3f 7b 58 a7 3f 88 20 bc 3f
       -0.047617797 0.7964304 1.3073877 1.4697428
000270 64 66 7c 3f 59 45 35 bf cb d5 7d bf 09 aa 3a 3e
       0.98593736 -0.7080894 -0.9915435 0.18228926
000280 05 95 ed 3f 66 a9 74 3f 1c 40 9f bf e5 12 cc bd
       1.8561102 0.9557098 -1.244144 -0.09964541
000290 df 62 c0 3d 41 cf c2 3f 88 9a 75 3f bc 60 ee be
       0.09393858 1.5219499 0.9593892 -0.46558177
0002a0 20 97 81 be 44 f8 5b bf 9b f8 1e 3f 7a 36 42 3f
       -0.25310612 -0.859257 0.6209809 0.75864375
0002b0 d6 b2 d1 bd 93 79 a3 bf 1a 95 cd 3e d3 cc 1d be
       -0.102391884 -1.2771477 0.40152818 -0.15410165
0002c0 16 a8 85 be be 3b c9 bd 81 4f 2d bf c5 d6 3c 3f
       -0.26104802 -0.09825848 -0.6769944 0.7376521
0002d0 b2 36 62 3f 29 49 d6 be 8d bd 06 3f 92 79 97 3e
       0.8836471 -0.41852692 0.5263298 0.29584938
0002e0 9c 55 0a bf 5d 2e 9b 3f 09 06 c7 3f 63 fd 68 3f
       -0.5403688 1.2123524 1.5548717 0.9101164
0002f0 32 b5 21 3f ae f9 a8 be 25 a5 09 3f 69 fd 1c 3f
       0.6316711 -0.3300299 0.53767616 0.61324173
000300 14 9e 98 bf db de e9 3f f5 10 f0 3f ce f1 51 bf
       -1.1923242 1.8271135 1.8755175 -0.8200959
000310 44 7a 18 3f f0 00 55 3c b0 60 bc bf 18 a1 98 3f
       0.5956156 0.013000712 -1.4717007 1.1924162
000320 4b 7c a5 be 1f 06 e5 be 58 d1 fc bf 51 10 c7 bc
       -0.3232139 -0.44731233 -1.9751387 -0.024299772
000330 ae e0 f2 3e e7 54 99 3f a2 3c d9 3e 17 aa 35 3f
       0.47437042 1.1979035 0.42429072 0.7096266
000340 5a c9 58 3f 67 92 ad be 45 8d a5 be ec 61 21 bf
       0.8468224 -0.3390076 -0.32334343 -0.6304004
000350 6b a5 c1 3e 6d d1 e7 be ad 8f 2d 3f b3 ec 8b 3f
       0.37821516 -0.45276967 0.67797357 1.093161
000360 57 96 56 3f 3a d9 3d 3e 03 6b b5 3f 39 d0 40 3f
       0.8382315 0.18539897 1.4173282 0.7531772
000370 13 2a da 3e 5a 6b 6e bd e5 92 b9 3c 32 41 3a 3f
       0.42610225 -0.058207847 0.022653053 0.7275573
000380 0c 69 09 bf 38 ad 2a 3e 7b e5 9f bf 74 15 10 be
       -0.53675914 0.1666764 -1.2491907 -0.14070684
000390 e0 6d 25 be b3 ba ad bf 30 d0 84 3f 0b 2f 08 3f
       -0.16155195 -1.3572601 1.0376034 0.5319678
0003a0 28 5a ab bf 7f 8f 6d 3e 6b f7 fd be d7 e4 67 bc
       -1.3386889 0.2319927 -0.49602827 -0.014153681
0003b0 c5 63 2e bf e9 dd f7 be db 61 ce 3c 1b 9b a0 3e
       -0.68120986 -0.48411492 0.025193145 0.31368336
0003c0 78 34 e1 3e 8c 67 24 3f f8 37 0f 3f 5b ed 0c 3f
       0.43985343 0.642205 0.55944777 0.55049676
0003d0 8b ca 70 bf 43 8e ca bf b0 3d a8 3f 48 cc e1 3e
       -0.94059056 -1.5824665 1.3143826 0.44101167
0003e0 de 01 95 be 1f fd b1 3d 0e dd af bf 0c d8 26 c0
       -0.29102987 0.08690857 -1.3739336 -2.6069365
0003f0 dd 52 80 3e 23 d3 99 3f 2b 3a 13 be be d6 2e bf
       0.2506322 1.2017559 -0.14377658 -0.6829642

pos_enc f4 [1, 500, 48]
000000 3a 9b 14 bf 00 99 d9 be f2 3c 06 40 ee 03 bb 3f
       -0.58049357 -0.42499542 2.0974698 1.4610574
000010 ad 1f fc 3e a3 c2 21 be ee 6a 81 3f 18 88 88 3f
       0.49242917 -0.15796904 1.0110757 1.0666533
000020 85 6c 6a be d3 1f 29 3e c1 fe 67 3f f3 48 b5 3e
       -0.2289296 0.16516046 0.906231 0.35407218
000030 f6 91 09 bd cf e3 e6 bc bc ad 97 3e f9 03 04 3f
       -0.033586465 -0.0281848 0.29624736 0.5156856
000040 ee 5e c8 3e be 4c 00 3f f1 e5 9f 3e 21 6d 49 be
       0.39134926 0.501171 0.3123012 -0.19670536
000050 ea 6e 9d bf 28 30 db 3e 63 90 aa 3e 35 ef 87 3f
       -1.2299473 0.42810178 0.33313283 1.0619875
000060 45 f1 41 3f 6b b7 05 bf 31 63 96 bf 90 b3 ee 3d
       0.75758773 -0.52233 -1.1749021 0.116553426
000070 95 ce d6 bf b3 43 99 bd d8 0f 14 3f 60 07 0b 3e
       -1.6781794 -0.07483616 0.57836676 0.13577032
000080 78 79 65 3f 44 bd b5 bf c1 47 01 bf a1 f1 3d be
       0.8963847 -1.4198384 -0.5050011 -0.18549205
000090 be 8c 8d bf bf 56 ce 3e a6 cf fa bf ea e2 b4 be
       -1.1058576 0.40300557 -1.9594619 -0.35329372
0000a0 dd b1 2c 3f 22 ad 87 bf 61 59 fa be c9 2b b2 3f
       0.674589 -1.0599711 -0.48896316 1.3919612
0000b0 e7 ad 4a 3f 2c 10 a4 be 46 32 23 bf 75 bc 4a be
       0.79171604 -0.32043588 -0.63748586 -0.19798453
0000c0 8a 36 d1 be e5 f5 79 bf c5 08 9e bf b3 f0 9a bf
       -0.40861923 -0.9764083 -1.2346426 -1.2104706
0000d0 d1 b0 1e bf ce f8 4b bf 18 4b 87 3f b1 ac b4 bf
       -0.6198855 -0.7967652 1.0569792 -1.4115201
0000e0 61 a6 32 3e 87 7f b3 3f a7 38 5a 3d a7 df 4a 3c
       0.17446281 1.4023293 0.053276684 0.012382424
0000f0 f7 f1 62 bf 4f 5c b3 bf 24 e8 66 bf ce 14 9f bf
       -0.8865046 -1.4012545 -0.9019797 -1.2428224
000100 99 31 98 bf 97 a9 9e bf 01 db 43 bf 8e 33 22 3f
       -1.1890136 -1.2395505 -0.7650605 0.63359916
000110 b1 a7 a2 3f 4e 64 17 3e 9b 07 09 3f af b2 21 3f
       1.2707425 0.14784357 0.5352723 0.63163275
000120 69 4d d0 3f e1 97 aa bd a9 14 2c bf e9 5e 9c 40
       1.6273624 -0.0832975 -0.67219025 4.8865857
000130 b8 8a d0 3f a9 96 57 3f 42 9a e0 3e 0e 9c 25 bd
       1.6292334 0.84214264 0.4386769 -0.04043203
000140 04 84 7b 3d ae 1f a8 c0 d3 9b 9d bf 59 02 7c bd
       0.061405197 -5.253867 -1.2313179 -0.061525676
000150 3f 7c bb bf 55 bd 50 40 b5 b9 d2 3f a5 f2 a6 3f
       -1.4647292 3.261556 1.6462923 1.3042799
000160 4e 40 1b c0 8b 3a d6 bf 8c 4b 16 bf 9a 24 21 40
       -2.4257998 -1.6736616 -0.58709025 2.517859
000170 27 c7 cf 3e 98 79 00 3f 51 60 02 40 80 9b e9 bf
       0.4058163 0.5018554 2.0371287 -1.825058
000180 cd 99 a4 3f e3 86 3a c0 9d dd 23 3e 54 8a 43 bf
       1.2859436 -2.9144828 0.16002508 -0.76382947
000190 a6 8a 0a c0 a0 bd a8 be 83 a8 9f bf fd 98 3e 3f
       -2.1647124 -0.32957172 -1.2473301 0.7445219
0001a0 65 7e c7 bf 43 36 a1 3f 97 89 03 40 0f f6 97 bf
       -1.5585448 1.2594684 2.0552728 -1.1871966
0001b0 46 53 25 bf 15 b0 5a bc 77 b9 38 40 a2 0b 04 40
       -0.6458019 -0.013347645 2.8863199 2.06321
0001c0 89 ea f3 3f 28 24 e3 bf 1a 6e ba 3f 8d 6e c2 bf
       1.905595 -1.7745409 1.456485 -1.5189987
0001d0 81 87 fc 3f 13 eb 1c 40 46 69 00 c0 a7 a1 8b 3f
       1.9728853 2.4518478 -2.0064254 1.0908707
0001e0 89 11 32 bf e9 29 5e c0 81 19 95 3f d6 34 64 3f
       -0.69558007 -3.471308 1.1648408 0.8914312
0001f0 12 03 fc 3f 49 5d 15 c0 98 b5 f8 bf 5d 3a cb bf
       1.9688437 -2.3338187 -1.9430418 -1.5877186
000200 56 c5 68 40 41 18 af bf 36 23 98 be 2d e2 a3 bf
       3.6370444 -1.3679277 -0.29714364 -1.2803398
000210 86 1b d1 bf c7 79 d1 be 03 d5 0f 3e 06 09 09 bf
       -1.6336524 -0.4091322 0.14046101 -0.53529394
000220 04 ad af 3f 76 54 7e bf 92 70 fc bf dc 97 71 3f
       1.3724675 -0.9934763 -1.9721854 0.94372344
000230 2d fe dd 3f b4 18 e2 be 47 22 d8 3e 54 1d 60 bf
       1.7343193 -0.44159472 0.42213652 -0.8754475
000240 65 95 18 bd 0c 41 cc bf bd 5d 7a 3f 86 1d b3 3f
       -0.03725185 -1.5957351 0.97799283 1.3993385
000250 5b 92 0f 40 2d 7a e0 bf cf c1 a1 3f e5 16 97 3e
       2.2433078 -1.7537285 1.2637271 0.29509655
000260 92 7d 07 3f ae 02 d7 bf 16 a0 57 40 98 2e f2 bf
       0.5292598 -1.6797693 3.3691459 -1.8920469
000270 c9 80 a7 3f 91 73 ed bf 1c 91 e3 3f cd 7c 01 be
       1.3086177 -1.8550893 1.7778659 -0.12645264
000280 c8 d2 f7 be db e6 3b bf 42 f9 62 3f 50 3e 04 3e
       -0.48403 -0.7339913 0.8866159 0.12914395
000290 b2 4e b8 bf 40 8e 0a bf 5e eb 68 3f 75 f9 c0 bf
       -1.4399016 -0.54123306 0.9098414 -1.5076128
0002a0 b3 00 7f 3f 72 56 8a be ac c3 b5 3f aa 87 9a be
       0.9961044 -0.27019078 1.4200339 -0.30181628
0002b0 26 d6 a9 be 64 cd 11 c0 1c 49 15 40 51 b8 0b bd
       -0.33171195 -2.278161 2.3325872 -0.034111325
0002c0 5c 54 c5 3f 63 cb 81 3f 49 80 08 40 1c 78 c9 be
       1.541637 1.0140194 2.13283 -0.3934945
0002d0 d0 13 31 c0 48 31 7a c0 a6 fa 0c 3f e1 3a f2 3f
       -2.7668343 -3.909258 0.5506996 1.8924218
0002e0 eb c7 3c 40 ce 45 8c be 69 ac da 3e 84 72 d1 bf
       2.949702 -0.27397007 0.42709664 -1.6363072
0002f0 bf 60 b4 bf 08 53 02 40 1f 16 10 40 cc 8b 3b bf
       -1.4092025 2.0363178 2.2513502 -0.7326019
000300 db f0 a0 bf 57 af 08 40 6e cb e6 bf bd c3 dd 3f
       -1.2573503 2.135702 -1.8030832 1.732536
000310 ea 40 a1 3f c8 2a 27 3f 5e 2c d3 bf a2 1a 78 3d
       1.2597935 0.65299654 -1.6497915 0.060572274
000320 2f 9e 44 40 b7 66 3e be ef 5f 0a c0 19 0b d9 3f
       3.0721548 -0.1859387 -2.1621053 1.6956512
000330 45 e1 58 bd 29 c0 8c 40 2b 47 f1 3f 59 2c 1b c0
       -0.05294921 4.398457 1.8849844 -2.4245818
000340 c8 4d 7c 3c 5d 3b f1 3f d6 fc 90 bf f7 b1 d0 3f
       0.015399404 1.8846241 -1.132716 1.630431
000350 1b 35 37 bf 13 4e 83 3f 22 ea f0 bf 5a ba b9 bf
       -0.7156541 1.0258201 -1.8821452 -1.4509995
000360 b8 e6 b9 bf 62 26 29 bf 06 85 2c bf cb d9 a0 be
       -1.4523535 -0.6607419 -0.6739048 -0.31416163
000370 74 a6 23 c0 45 74 a0 be b0 50 c2 bf 7e 5b bd 3e
       -2.5570345 -0.31338707 -1.5180874 0.36983865
000380 a8 b7 08 be f3 42 13 bf b0 88 5f bf d4 13 f5 3e
       -0.1335131 -0.5752403 -0.87317944 0.4786669
000390 a9 97 05 40 b5 33 50 c0 bd 63 8e bf f0 5f 96 bf
       2.0873816 -3.253156 -1.1124188 -1.1748028
0003a0 cd de 72 40 2c 67 ff 3d 21 b1 13 bf c2 d9 75 3d
       3.7948487 0.1247085 -0.5769215 0.060022123
0003b0 b3 99 56 bf 51 15 90 be b8 d0 40 3f 65 fb 6a 3f
       -0.83828276 -0.28141263 0.7531848 0.9178985
0003c0 84 97 9d bf c5 71 07 40 90 f6 6b 3f 14 48 0d 40
       -1.2311864 2.116319 0.921731 2.2075243
0003d0 38 fc bf bf 86 6e db bf 17 d6 08 be 5a 38 cc 3e
       -1.4998846 -1.7143104 -0.13362919 0.39886743
0003e0 9d 8e 9e 3f e3 5c aa bf 25 21 c4 bf 30 1c 46 bd
       1.2387272 -1.3309597 -1.5322615 -0.048366725
0003f0 17 65 62 3f 5e 2a f3 be 4a cd 5a 3e d9 82 25 c0
       0.884355 -0.4749326 0.21367374 -2.5861113

riemannian.proj.0.weight f4 [256, 253]
000000 76 df dc 3d 41 79 a6 b8 fa f7 5d 3d ae 99 1c bd
       0.10784809 -7.938082e-05 0.054191567 -0.038232498
000010 79 17 b9 3c c4 5e 2a 3c b2 c5 bf 3d 73 e5 b3 3b
       0.0225942 0.01039857 0.09363879 0.005489999
000020 30 de b6 3b 46 ff 56 bd 31 62 d7 3b d3 6e 8f bc
       0.005580686 -0.05248954 0.0065729846 -0.0175089
000030 e6 42 dd 3c d5 fe bf 3d 92 23 7b 3d 92 0a 3e bd
       0.027009439 0.09374777 0.06131322 -0.0463968
000040 1e 81 81 3c 86 44 0e bc 29 0a e6 bb 18 2f 6c bd
       0.015808638 -0.008683329 -0.007020254 -0.0576621
000050 60 b8 05 38 f5 f5 bb 3c 4c 7b cc 3e ae 3e 4d bd
       3.1881384e-05 0.02294443 0.39937818 -0.050108604
000060 20 79 30 bd 22 73 89 3d a2 65 35 bd 07 ba c4 3c
       -0.043084264 0.06711413 -0.044286378 0.024014486
000070 e0 c9 b6 3d fe e8 e8 3c d1 8d e9 3d cc 45 ae bd
       0.08925223 0.028431412 0.114040025 -0.085094064
000080 26 75 e3 bd 2c 8e f9 bd c8 e0 d0 bb 30 1a 8c 3d
       -0.11106329 -0.1218532 -0.0063744523 0.06840932
000090 09 a4 b4 bb 95 99 f4 3d c9 3e 36 3d 4e 5e cf 3c
       -0.0055127186 0.11943356 0.04449347 0.025313523
0000a0 3c f6 1a be a0 37 e5 bd 5c ae 54 bd d9 7f 87 b9
       -0.15132993 -0.1119225 -0.051924095 -0.0002584446
0000b0 d0 12 b9 3c 5d 38 64 bd 24 07 a7 bc 74 8a 41 bc
       0.022591978 -0.055717815 -0.020389147 -0.011812795
0000c0 e1 b4 84 bd 5d 64 a2 3c 1f e5 fc bc 25 97 c9 3c
       -0.064798124 0.019823248 -0.030870972 0.024608204
0000d0 0f be 45 3d 71 53 78 3d 92 73 20 bc ea c9 d8 bc
       0.048276957 0.06062645 -0.009793179 -0.026463468
0000e0 b6 18 a4 3d dc b9 c9 3c 51 0c 79 bc 5a c2 1a 3d
       0.08012526 0.024624757 -0.01520069 0.037783004
0000f0 f8 b0 86 bb ce 6f 22 3d e2 02 e3 39 81 f9 ba bd
       -0.004110452 0.039657407 0.00043298962 -0.0912962
000100 9c b0 11 3d 1a 0e 2e bd ef 4c d0 bc 40 da e8 3c
       0.03556882 -0.042493917 -0.02542731 0.028424382
000110 f6 6b 8c bd 5b 6c 6d bb df 52 40 3d 29 4f 04 bd
       -0.068565294 -0.0036227915 0.046954032 -0.032302056
000120 49 01 d0 3d 50 b1 31 3d b1 e3 9e bc c7 f5 88 3d
       0.10156495 0.04338199 -0.019395681 0.06687503
000130 d3 fb ba 3b 92 55 86 bc 95 2e b5 3d 87 7c 7f bb
       0.0057062893 -0.016398225 0.088467754 -0.0038984136
000140 73 bf 40 bd 0f 21 9a bd 93 e5 b8 bd 8c 49 d1 3c
       -0.04705758 -0.07525837 -0.09028163 0.025547765
000150 44 c1 9e 3c 22 e8 9c 3b 91 bc c2 bc 1b fb ec 3b
       0.019379266 0.0047884146 -0.023771556 0.0072320825
000160 60 5b b4 bd 23 2c c2 3d 0e a1 d3 3b fa ce 46 bd
       -0.08806491 0.09481075 0.006458408 -0.048537232
000170 ab 4c 66 3b 73 d0 71 3c 87 58 51 bd 79 45 49 bd
       0.0035140913 0.014759171 -0.051109817 -0.04913852
000180 a7 f5 38 3d fd ad 38 3d 4d 53 b6 3c 9e 28 9f 3d
       0.045156147 0.045087803 0.022256518 0.07771419
000190 71 8b 79 3c 55 4f e8 bd 09 ac 9d bd 67 3a a4 3b
       0.015230999 -0.113432564 -0.07698829 0.005011845
0001a0 87 96 a0 bc 8c 10 29 3d 54 a7 9d bc af 2a 95 bc
       -0.019603027 0.041275546 -0.019244827 -0.01820883
0001b0 f4 c5 c0 3d 00 35 14 3e a1 ee c4 bc 86 6f 70 bc
       0.094127566 0.14473343 -0.024039568 -0.014675027
0001c0 98 33 cf bc d8 3a 10 bb 5a 31 53 3d 87 a4 13 bd
       -0.025293157 -0.002200773 0.051560737 -0.036045577
0001d0 61 4a 48 3d 71 ec 79 3e 89 3b 86 bd 55 f9 35 bc
       0.04889906 0.24406601 -0.06554324 -0.011106809
0001e0 68 5f 8f 3d 8d b9 bf bd 92 a4 9b 3d b5 92 38 bd
       0.07000619 -0.09361563 0.07599749 -0.045061786
0001f0 0a 49 02 3c 20 e0 c1 bc b3 96 87 bc 20 68 cf bb
       0.007951984 -0.023666441 -0.016551351 -0.0063295513
000200 ce 5d f4 3d 27 97 5c bd a6 e3 e6 bc 9d 03 91 3d
       0.11931954 -0.053855088 -0.028184723 0.07080767
000210 da 1a 24 bd f6 1a 3d 3d 2e 2f 24 bb 28 20 b6 3d
       -0.04006467 0.04616829 -0.0025052535 0.08892852
000220 c6 2d f2 3d 46 e4 92 3d 26 c8 46 3d 3c 3a 7e bd
       0.11825137 0.07172446 0.04853072 -0.062067255
000230 1e c8 db bc 5a 80 2d 3c e4 db e8 bd c7 da 43 3d
       -0.026828822 0.010589683 -0.11370066 0.047816064
000240 33 47 da 3d ac b7 1f 3d 24 1d 92 3d 8e 98 e9 3b
       0.106581114 0.038993523 0.071344644 0.0071287816
000250 69 22 6f 3d 50 f1 ad 3d 8c 10 75 3d 05 15 5b 3d
       0.058382425 0.08493292 0.059830233 0.053486843
000260 ea 56 54 3d d3 11 85 bd 4c f1 cf bd 11 b4 44 bd
       0.0518407 -0.0649754 -0.101534456 -0.048023287
000270 e8 28 7b 3d ad f2 ac 3a 6e 77 a5 3d 8e 0e 35 3d
       0.061318308 0.0013194882 0.0807942 0.044203334
000280 5f 4f 4c 3c 36 fd ba 3b b1 e6 e2 bc 90 9e a3 bc
       0.012470095 0.0057064546 -0.027697893 -0.01997307
000290 5f 97 03 be ba 3e 0d bc 5a 33 c2 bd a4 48 4c 3d
       -0.12850712 -0.008620912 -0.09482451 0.049873963
0002a0 b6 56 d6 bd af 48 fe 3c 1f 65 b6 bd bc 89 92 bb
       -0.104657575 0.031040518 -0.08906006 -0.0044719856
0002b0 b5 1f 01 3e a6 22 d6 3b a7 f7 fb bd f1 37 cc 3c
       0.12609752 0.006534892 -0.12303095 0.024929019
0002c0 47 27 09 bd e3 28 8a bc ac c1 ff bc 53 de 9d bd
       -0.033484723 -0.0168652 -0.03122028 -0.077084206
0002d0 8d 8e 89 3d 97 d3 80 bd 05 26 27 bd 8f 7c 8c bd
       0.067166425 -0.062903576 -0.040807743 -0.06859695
0002e0 0c eb 5c 3c 9b 9b 94 3d eb 0c 98 bd 61 f8 88 bd
       0.013483774 0.07256242 -0.07424339 -0.066879995
0002f0 31 a9 05 bd 34 d6 bf 3d 36 38 37 bb 2d a6 3f 3d
       -0.032632057 0.09367028 -0.0027957088 0.046789337
000300 a3 89 1a 3c d1 61 d9 3b 85 47 dc bc ba cd 1b 3b
       0.009432229 0.006633975 -0.026889572 0.0023773746
000310 11 50 5c 3d ca d3 a8 3d 78 84 a2 3d 9c 79 df bc
       0.053787295 0.082435206 0.07935423 -0.027279668
000320 2d 11 60 bd f7 f0 64 bd 96 d5 5f bd 71 c7 93 bd
       -0.05470388 -0.055893864 -0.05464705 -0.07215775
000330 a4 16 9f 3d e1 ee c2 bd 09 3d 94 bc c5 f9 21 3e
       0.0776799 -0.09518219 -0.01809551 0.15817936
000340 18 dd 9f 3a 4f c6 76 bd 42 2c ad bc 7e 59 9c bc
       0.0012196628 -0.060247716 -0.021139268 -0.019085642
000350 33 17 2c 3d d2 0c 75 3b 97 a3 0e bd 5d 40 90 bd
       0.042014312 0.0037391675 -0.03482398 -0.07043526
000360 c1 0a 93 bd 5e 36 5b bd 0e 5f b1 3b 48 3b 05 3d
       -0.071797855 -0.053518645 0.0054129427 0.032527238
000370 ea 20 71 3c 65 77 88 bd e7 7a 6a bd 8d ff b5 bd
       0.01471732 -0.06663398 -0.057246115 -0.08886633
000380 9b 13 06 3e ff 0c 9b bd 8f 4d 6a bd 20 60 b4 bc
       0.13093416 -0.07570838 -0.057202872 -0.022018492
000390 1a a8 14 bc 3b bb da 3d a9 2d b3 bd 8c a2 51 3d
       -0.009073282 0.10680243 -0.08748943 0.051180407
0003a0 f5 4b 3c bd c8 e2 22 3d 9d 3c aa 3c 40 3b 37 3e
       -0.045970876 0.039767057 0.020780856 0.17893696
0003b0 98 12 04 bc f7 12 80 bd e4 95 77 bd 12 9d 4a 3b
       -0.008061074 -0.06253617 -0.06044568 0.0030916375
0003c0 f0 04 f6 3c 8f 75 48 bd 63 69 02 3e 05 91 0c bd
       0.030031651 -0.048940238 0.12735514 -0.03431799
0003d0 54 2e db bc bd db d2 bc 27 a8 ad bd a3 0e 21 3e
       -0.02675549 -0.025739545 -0.08479338 0.1572824
0003e0 bc 55 aa b9 05 f7 f0 bd 4a 67 02 be 26 88 5f 3d
       -0.00032488804 -0.11765865 -0.12734714 0.0545732
0003f0 b0 ec ab bc 66 fc 19 bd ab ac f9 3d d4 4a 0d 3d
       -0.020986885 -0.03759422 0.12191137 0.03449519

riemannian.proj.0.bias f4 [256]
000000 23 d9 01 3d 27 97 a6 ba 36 9f a9 3c 07 55 38 bb
       0.03170122 -0.0012709842 0.0207058 -0.0028126852
000010 d8 b4 4e 3c ab fa 05 3d 5b aa 83 bd dd 32 04 bb
       0.012616359 0.03270976 -0.06428977 -0.0020171918
000020 56 d1 75 3d f1 b3 e0 bc 5e 3a 05 3d 1a ee 31 3c
       0.06001409 -0.027429553 0.032526366 0.0108599905
000030 bd 67 ff bc 86 a5 8c bc 98 a0 31 3c 14 14 0b bd
       -0.031177396 -0.017168771 0.010841511 -0.033954695
000040 23 c6 7d bd 4d b2 b8 bc 2a f4 93 3c 42 e0 20 bc
       -0.061956536 -0.022545958 0.018060762 -0.009819092
000050 15 37 b6 3b ae 01 51 3c 41 87 0b 3c 28 9e 10 3c
       0.0055607655 0.012756748 0.008516134 0.00882677
000060 c6 9d 61 bc 76 b9 94 3c d9 b2 2d 3c f4 01 09 3c
       -0.013770526 0.01815484 0.010601723 0.008362282
000070 6e 28 54 bc a4 d9 25 3d d9 90 9f bc 2f d7 38 bd
       -0.012949092 0.04049076 -0.019478248 -0.04512709
000080 d5 cd 13 bd ae 14 06 bd 08 2b 8f bd e9 97 bd 3c
       -0.03608497 -0.032734565 -0.069906294 0.023143725
000090 97 1c 95 3c dc a2 14 3d 4c 45 01 3d 79 d3 4f 3c
       0.01820211 0.036288127 0.031560227 0.012684696
0000a0 27 07 a5 3c d1 c4 3f 3c 39 6b 94 bc 92 65 71 3c
       0.020145012 0.0117046395 -0.018117534 0.014733689
0000b0 72 4a a7 bc 88 48 66 bd 65 71 f7 3b 63 af 8f 3d
       -0.02042124 -0.056221515 0.0075513595 0.07015874
0000c0 b5 08 1a 3c 89 e3 81 bc 8a 5c d6 bc 08 98 33 38
       0.00940149 -0.015855568 -0.026167173 4.2818516e-05
0000d0 f5 e5 b1 3c e4 f9 0b 3c 28 41 0f bd 5a 64 a5 3c
       0.021716097 0.008543465 -0.034974247 0.020189453
0000e0 d4 fe af bc ea 66 21 3d 6d fe f2 3c 28 c6 4c 3c
       -0.021483816 0.039404787 0.029662335 0.012498416
0000f0 3f 57 6c bb 2a b2 e2 3c 49 90 cd 3c ac ac ee bb
       -0.0036062745 0.027672846 0.025093215 -0.0072837677
000100 a3 41 37 bd 03 77 88 3d b4 d1 19 bd 99 25 56 bc
       -0.04474033 0.06663325 -0.037553504 -0.013070487
000110 9e 8c 63 3c 42 d4 e0 3c 0a a0 84 bc 6c 8b 9b bc
       0.013888506 0.027444962 -0.016189594 -0.01898738
000120 fd 00 79 bd 6e 3d 28 3c 7d d8 d1 3c cd cf 79 bc
       -0.060791958 0.010268552 0.025615925 -0.0152472975
000130 0b b7 b0 3d 9e 62 1d bd 03 f8 e1 bc 3b 60 96 bb
       0.08628663 -0.038424127 -0.027584082 -0.0045891083
000140 d5 a2 0f 3b ad 76 19 3d 5d 42 6e 3d 5c f1 45 3d
       0.0021917124 0.037466694 0.058168758 0.04832588
000150 2b e3 cf bc 7b 17 3a bd 1e bb 55 bd d8 b9 6e bb
       -0.025376877 -0.04543255 -0.052180402 -0.003642669
000160 94 26 92 bb a8 fc 12 3d e3 34 85 3c 39 81 58 bc
       -0.0044601653 0.035885483 0.01626057 -0.013214403
000170 bd 63 27 3d 06 12 7a bd e1 9a 27 bd 09 ed c1 bc
       0.040866602 -0.061052345 -0.04091919 -0.023672597
000180 e9 2a 3e bd 1a 36 7d 3b ee f9 6c 3d 5d 3a 4a bd
       -0.04642764 0.0038636983 0.05785554 -0.049372066
000190 e6 8d 0c bc 0f 8e 2e 3d ab 95 1c bd 8e 06 8a 3c
       -0.008578753 0.042615946 -0.038228672 0.016848829
0001a0 a9 48 2c 3c f1 1c 81 3d 25 fd 30 3d 90 f9 83 3d
       0.01051537 0.06304348 0.043210167 0.06444085
0001b0 c2 f6 18 bd 8e 56 fc 3c 7d 56 95 3c 85 a9 80 3d
       -0.0373447 0.030802991 0.018229717 0.06282333
0001c0 4a 8e 11 3d 4c 20 b7 3c a1 e4 61 3d 7e 8a a8 3a
       0.035536088 0.022354268 0.05514968 0.0012858657
0001d0 5a 1f 73 3a 40 f9 f2 3c ea b2 e2 3c 73 ca fb 3c
       0.0009274386 0.029659867 0.027673203 0.030736184
0001e0 62 34 98 3b cf 66 c5 bb 50 87 01 bc 37 ce 70 3d
       0.0046449164 -0.0060242186 -0.007905796 0.05879041
0001f0 9e 82 43 3d 8c 9d 46 bd 6c 99 ca 3c 8a 3b cf bc
       0.047731988 -0.048490092 0.02473136 -0.025296945
000200 28 ef d0 3c b5 1d 66 bc d7 63 8c bc 13 06 5d 3d
       0.025504664 -0.014045169 -0.017137451 0.05396087
000210 58 08 3d 3c fa 8e 37 3d f3 d1 69 3d 3e 8d 8f bc
       0.011537634 0.044814087 0.05708499 -0.017523404
000220 33 72 bf bc 7a 68 15 3c 00 00 32 bd a8 99 3b bc
       -0.023369884 0.009119147 -0.04345703 -0.011450209
000230 6f 3b ff 39 cb 71 68 3c cc 7c b0 3d 62 76 0a 3d
       0.00048681672 0.014187287 0.08617553 0.033804305
000240 04 b2 96 3d 80 43 18 3d d0 85 e5 3c 18 fb 22 3d
       0.073581725 0.037173748 0.028017908 0.039790243
000250 18 77 f5 3b 3b 35 38 3c b5 41 1f 3d 5e c9 21 3c
       0.0074910037 0.01124316 0.038881022 0.00987467
000260 04 c2 64 bc 77 36 ff 3c d9 cf d8 3c 11 95 74 bd
       -0.013962273 0.0311539 0.026466297 -0.059712473
000270 5a a0 b2 bc c2 fc 47 3d aa 2f f4 bb 5f 36 51 3d
       -0.021804977 0.048825033 -0.007451971 0.051077243
000280 0c ab 1c 3d 48 81 96 bc 77 e9 4c 3d 63 ba 6c bb
       0.03824906 -0.018372193 0.050027337 -0.0036121837
000290 bf 06 5e 3d 75 b7 85 bb ab 0c 8b 3d 2a 1c f5 3c
       0.054205652 -0.0040807077 0.067895256 0.029920656
0002a0 01 c0 4d 3d 5a 9a 47 3c bf 8c 46 bc 7b 3c 16 bd
       0.050231937 0.012182796 -0.012118517 -0.036678772
0002b0 9a 2c b6 3a 32 6e 55 bc 42 31 91 3c 32 54 d1 3b
       0.001389879 -0.013026761 0.017723683 0.0063882107
0002c0 81 8f 79 bc 77 9e 13 3d 9a 15 2c 3c c5 f3 49 3d
       -0.015231968 0.036039796 0.010503197 0.049304742
0002d0 f2 ec 17 bc 53 b4 03 bd 65 01 43 3c f1 0f 83 bd
       -0.009272801 -0.032154392 0.011902188 -0.06399525
0002e0 21 35 f6 3c 21 e3 07 bc cc 6c 6c 3d e7 ca 88 3d
       0.03005463 -0.008293898 0.057720944 0.066793256
0002f0 1a f8 de bc 6f 06 9f 3c 9f e3 37 bd e5 2a 49 bd
       -0.027217913 0.019412247 -0.04489481 -0.049113173
000300 8e 7f ae 3c 77 fa dd ba 11 e2 b3 3b 5c bd e4 3c
       0.021301057 -0.0016935606 0.0054895957 0.027922325
000310 1d d7 a6 3b 04 a6 e8 bc b7 b9 b2 bb f2 df 2e 3c
       0.0050915615 -0.028399475 -0.005454268 0.01067351
000320 af 9d 43 bc 9b 26 52 3c 48 c2 5d bc d2 ca 66 3d
       -0.01193945 0.012826587 -0.01353509 0.05634577
000330 bf a8 6f 3c 49 95 f2 3c d6 6c 23 3d 1a 24 6c bd
       0.014627635 0.0296122 0.039898716 -0.057651617
000340 96 54 4a 3b 72 1c c6 3b 05 4e 95 3c 0f 27 1e 3d
       0.003087317 0.0060458714 0.01822568 0.038611468
000350 0a 0b ba 3a 31 f7 f1 3c 9c ed 07 bd 31 79 67 3d
       0.0014193964 0.029536815 -0.033185586 0.05651206
000360 ff b7 7b 3c 6d 35 c4 3c 5e 0f 32 bc fb e7 5d 3c
       0.015363692 0.023951257 -0.010867922 0.013544078
000370 07 63 99 bd 07 34 31 3d 8b fa f7 bb 2d 03 18 3d
       -0.07489591 0.043262508 -0.007567709 0.037112404
000380 c4 f1 0b bb 64 34 74 3b 08 ad b2 bb 3a 97 9c 3c
       -0.002135382 0.0037262673 -0.005452756 0.01911508
000390 6e c1 02 bd ea e4 42 bb 89 2a 81 bd 61 b6 0e bd
       -0.03192275 -0.0029738494 -0.06306941 -0.0348419
0003a0 38 75 86 3b 97 3a 36 bc 64 92 fb 3c e8 35 56 39
       0.004103329 -0.011122367 0.030709453 0.00020428712
0003b0 a9 0b 0c 3d ea 7f 4a bd e1 f6 51 3d 98 2c 4c 3c
       0.034190807 -0.049438395 0.051260833 0.012461804
0003c0 07 33 c7 3c 14 04 0f bd ec 6e c0 3b 61 40 3d 3c
       0.024316324 -0.034916 0.005872598 0.011550994
0003d0 85 f0 35 bd 33 34 55 3d e5 e4 0c 3d ce 01 26 bd
       -0.04441883 0.052051734 0.03439798 -0.040529065
0003e0 b6 57 9a bc c2 82 a9 bc a1 8f 38 39 08 07 51 bc
       -0.018840652 -0.020692233 0.00017601113 -0.012758024
0003f0 a7 d8 9b bc a0 7c 40 3d 18 e2 21 bd 3d e9 94 3c
       -0.019024206 0.04699385 -0.03952226 0.018177623

riemannian.proj.3.weight f4 [48, 256]
000000 4b cd 7c bd 00 22 7c bd b9 13 3e 3e b9 7a bb bd
       -0.06171922 -0.061555862 0.18562211 -0.09154267
000010 c9 88 7f bd 08 30 8f 3c 2a ab ae bc 05 cf 45 3e
       -0.062386308 0.017478958 -0.021321852 0.19317253
000020 a1 58 c2 3d 71 fa dc bd a1 3b cd bd 27 ab f7 bd
       0.09489561 -0.107899554 -0.10021139 -0.120931916
000030 38 1d 2e 3d ef bb 12 be bd a3 a2 bc d7 94 ff bd
       0.042508334 -0.14329503 -0.019853467 -0.12479561
000040 f6 c7 f8 b9 6a 93 21 bd 30 a6 86 bd f7 a1 8c bd
       -0.0004745123 -0.039447226 -0.065746665 -0.0686683
000050 40 a9 b7 bd e8 6b 58 3d 3b 4d 8f bd a6 97 d3 3c
       -0.08967829 0.052837282 -0.069971524 0.025829148
000060 9c 47 9b bd b4 d9 04 3e 38 d1 1e 3e 53 89 2b 3d
       -0.07582018 0.12973672 0.15509498 0.04187901
000070 53 98 fd bd a6 47 b8 3d 87 e5 73 be 38 30 1e be
       -0.12382569 0.08998041 -0.23818026 -0.15448081
000080 ec 91 f7 bd 92 04 31 3d 25 a6 a5 bd 6a 4f 8e bd
       -0.12088379 0.04321725 -0.0808833 -0.06948741
000090 1c 35 05 3e 4f 06 25 be b3 d1 64 3d de e8 02 3d
       0.13008541 -0.16115688 0.055864047 0.03196036
0000a0 95 69 1a be 02 84 32 3d 32 af 86 bc 70 cd 4e be
       -0.15079339 0.043582924 -0.016440962 -0.20195556
0000b0 ef 03 47 be f1 c4 bb 3c 84 71 a7 bd 24 63 98 bd
       -0.19435094 0.022921057 -0.08175948 -0.074407846
0000c0 f7 50 37 3d 2c 5b 3f bd 3e 2c 1e be 51 68 e2 3c
       0.04475495 -0.046717808 -0.15446565 0.027637633
0000d0 94 f6 b2 bd 5e e2 c8 3d 36 90 ad 3c b8 7b 14 bd
       -0.08738437 0.09808801 0.02118693 -0.0362508
0000e0 e7 b0 3b bd 65 b6 42 3b a3 7f a8 3d cb 23 ae bd
       -0.045823004 0.0029710766 0.0822747 -0.08502921
0000f0 41 e6 42 be 65 c1 24 bd e1 d9 44 be 62 3b 43 be
       -0.19033147 -0.040223498 -0.19223739 -0.19065621
000100 90 ba 73 be c5 0d de bc d6 fb 25 be 2e 7b 07 be
       -0.23801637 -0.027106175 -0.16209349 -0.13230583
000110 d3 8e 6b bd c6 6c 00 be ca 4d 80 bc 06 ad 8b bd
       -0.057509255 -0.12541494 -0.015662093 -0.06820111
000120 04 f7 66 3d 14 a0 12 be 93 a7 98 bd ed 5d c5 3c
       0.056387916 -0.14318877 -0.07453837 0.024092639
000130 26 1f ce 3c a2 1e e7 3d ff 79 00 3d b3 b3 75 bd
       0.025161337 0.112851396 0.031366345 -0.059985828
000140 40 39 31 bd 24 a8 52 3d 35 f2 30 3d eb d0 94 bd
       -0.04326749 0.051429883 0.043199737 -0.072664104
000150 06 f3 b6 bd 6b 83 11 3e 03 05 41 bd 84 19 45 bd
       -0.08933072 0.14210288 -0.04712392 -0.048120037
000160 44 b6 72 bd 01 f5 0c be 75 e1 51 be 07 d8 0c bd
       -0.059255853 -0.13765337 -0.20496161 -0.034385707
000170 36 dd 14 3d e3 db 11 bd 26 8d 66 bd b0 8b 85 bd
       0.036343776 -0.03561009 -0.056286953 -0.06520784
000180 41 a7 5b bc d0 01 11 3e 13 25 b7 bc 3d 20 34 be
       -0.013406576 0.14160848 -0.022356546 -0.17590423
000190 1b e4 92 bd 0c 67 c2 bb 41 1e a7 3c 44 98 f5 3c
       -0.07172414 -0.0059326943 0.020400168 0.029979832
0001a0 09 67 ac bd 99 7d ab 3c 28 61 47 3b 4e a7 1b be
       -0.0841809 0.020933913 0.00304229 -0.1520054
0001b0 eb 8f c1 bd 11 c9 de bc fb 42 c5 3c 47 15 b0 bc
       -0.09451278 -0.027195485 0.02407979 -0.02149452
0001c0 cd 55 d4 bc a0 6b 5c bc 50 38 ab 3c 2e 05 9d bc
       -0.02591982 -0.013453394 0.020900875 -0.019167509
0001d0 8e f1 f0 3d 6b 0d e9 3d 8a 2d cf 3c 5f 0e 0e 3e
       0.11764823 0.113795124 0.02529027 0.1387267
0001e0 3f ec 81 bd 78 09 98 be 49 b2 ac 3c 4e 42 0e 3d
       -0.063438885 -0.29694724 0.021081107 0.0347312
0001f0 e4 f3 14 3e 89 27 94 bd 4c 4f 66 3e 1d 25 b1 3d
       0.14546162 -0.07234103 0.22491187 0.08649657
000200 42 42 83 bd a4 66 29 3d 36 3c a2 bd 5b a1 2e 3d
       -0.06409122 0.04135765 -0.079216406 0.04263435
000210 65 90 0a 3e 3b 79 07 be a3 a5 5c bd d0 d4 c6 bd
       0.13531645 -0.1322984 -0.0538689 -0.097085595
000220 a9 24 e6 bd 32 0c ba bd a8 9b 5e 3b b7 b5 78 bd
       -0.11237461 -0.09084357 0.003396729 -0.06072017
000230 9e 50 3d 3e 73 b4 d1 3d a9 a0 ed 3d b5 2d 93 bb
       0.18487784 0.10239496 0.11602909 -0.0044915327
000240 b1 09 42 be 1e df b6 3d 9a a0 9c 3c 68 60 c6 bc
       -0.1894901 0.08929275 0.01911955 -0.024215892
000250 98 40 29 bd 18 45 6b 3d 51 cf 23 3d a1 9e b8 3d
       -0.041321367 0.05743894 0.039992634 0.09014631
000260 32 99 24 be 0c af dc bc ae d9 3d be 0b 3d 04 be
       -0.16074064 -0.026938938 -0.1854007 -0.12913911
000270 bd 62 e8 3d 40 9b b3 bd e9 4d e9 bd 6d cd 88 be
       0.11346958 -0.08769846 -0.11391813 -0.26719227
000280 72 f2 fb 3c 32 bd a2 bd a1 aa 43 3e 72 b8 23 bd
       0.030755255 -0.079462424 0.19108059 -0.039970823
000290 52 d2 a6 3c fa 11 0e 3d e7 fa e9 3c c5 09 ba 3d
       0.02036396 0.034685113 0.028562022 0.09083895
0002a0 12 09 e4 3d 01 45 37 be 3a 3e 36 3c a4 fd 30 3d
       0.111345425 -0.17897417 0.011123234 0.04321064
0002b0 a9 d6 55 be e5 a2 ac bd 24 e2 96 bd 2d b7 94 3c
       -0.20882668 -0.08429507 -0.07367352 0.018153751
0002c0 26 7f 55 3d 0a c0 0e bd 16 84 aa bd 00 28 fc bd
       0.05212321 -0.03485111 -0.08325975 -0.12312317
0002d0 4b df ad bd 91 0a 38 3e 7f 30 bb bd 1e 0a a4 be
       -0.084898554 0.17972781 -0.09140109 -0.3203897
0002e0 b4 f4 83 3c 9b 22 6c bd e8 0c 87 3d de 7e ca bd
       0.016107894 -0.05765019 0.065942585 -0.09887479
0002f0 1d 7a 13 bc a5 c1 98 bc 63 b0 6f bd 8b 40 6b bd
       -0.009001282 -0.018647024 -0.058517825 -0.0574346
000300 49 77 bf 3d 43 b7 eb bc e3 13 13 be 07 6e 00 3d
       0.09348924 -0.02877391 -0.14363055 0.03135493
000310 2b 55 35 bd 40 9c 4e 3d 2b 50 a2 bd 69 67 61 bd
       -0.044270676 0.05044198 -0.07925447 -0.05503026
000320 8d d7 48 be fd 9e 61 be be 79 4f bd f5 3d 43 bc
       -0.19613476 -0.22033305 -0.05065321 -0.011916627
000330 de e4 e7 bc 5a 26 b8 bd 13 ab 06 3e 6b 13 3e 3d
       -0.028307375 -0.0899169 0.13151197 0.046405237
000340 2a 61 c3 3d 1b ae 00 bd 05 0b 18 be 03 3f da 3d
       0.09540017 -0.03141604 -0.14847954 0.1065655
000350 ae e6 15 3d 37 a6 ac bd 75 f8 ce bd e4 d5 89 3d
       0.036596946 -0.084301405 -0.10105983 0.067302495
000360 e0 80 2f 3d 42 a5 91 3c c2 a0 22 3b 4a ec b5 bd
       0.042847514 0.017778996 0.0024815057 -0.08882959
000370 ed a3 0c bd 92 7d 91 3d a0 5a 92 bd b0 74 f7 3c
       -0.03433602 0.07104029 -0.071461916 0.030207008
000380 9b 77 53 bd 10 03 2a be a6 35 be bc 44 f7 37 bc
       -0.051627737 -0.16602731 -0.023218941 -0.011228386
000390 89 18 8d bd 5b b5 9c bd 25 27 2e 3e df 4e a2 bc
       -0.06889445 -0.07651778 0.1700712 -0.019813
0003a0 7e 9c 9a 3d fd 8b 32 be b4 90 96 bb 6f dd dd bc
       0.0754938 -0.17436214 -0.0045948867 -0.027083127
0003b0 d6 f4 97 bb 1c 94 09 bd f3 9d 12 3d 9e 8f ba 3c
       -0.004637341 -0.033588514 0.035795163 0.02277356
0003c0 f2 98 8d 3c 9a 1b 66 be 26 e2 22 be e9 0e 77 bd
       0.017284844 -0.22471467 -0.15906581 -0.060316954
0003d0 bf bf 81 bd 8f 1c c0 bc 91 27 4c be 48 99 51 3c
       -0.06335401 -0.023451118 -0.19936968 0.012792893
0003e0 fb ed c3 bd c8 47 42 3d f8 07 32 be 4a 84 14 3e
       -0.095668755 0.047431737 -0.17385852 0.1450359
0003f0 8c f8 16 3b 08 24 9b 3d b4 21 1e bd e8 56 12 3c
       0.002303633 0.07575232 -0.03860636 0.008931853

riemannian.proj.3.bias f4 [48]
000000 59 c6 52 3d e6 dc b1 bd ed fe c7 bd 96 85 e5 bb
       0.05145869 -0.08684711 -0.0976542 -0.00700445
000010 c8 4e 2a 3e f7 f5 03 3d b8 00 90 be 5b 2b 5a bd
       0.16631615 0.032216992 -0.28125548 -0.053264003
000020 e9 02 66 bd 6d bf 90 bd 36 b1 84 3d b6 ee 36 be
       -0.05615512 -0.070677616 0.06479113 -0.17864498
000030 45 4e 9d bd 6e 76 65 3c e6 73 0f 3e e9 11 87 be
       -0.07680944 0.014005287 0.14009055 -0.26380852
000040 ea f6 07 3d 3d 7f 85 be f6 a3 82 3d 49 b2 0b 3d
       0.03319446 -0.26073638 0.06378929 0.034105573
000050 b7 0e 34 3e 91 6f 01 be 0d ef 21 b9 56 12 d6 3d
       0.17583738 -0.12640215 -0.0001544321 0.10452716
000060 dc f7 9d bd e0 87 29 3e 69 d1 8a bc c6 79 ad bd
       -0.07713291 0.16555738 -0.016945558 -0.08470492
000070 5d 21 36 be 0f 06 cc 3c 47 ae 54 3e b5 d3 20 be
       -0.17786165 0.024905233 0.20769607 -0.1570576
000080 b3 db ea bd 40 fa 82 bd 81 93 0e 3e 50 92 2d be
       -0.114676856 -0.06395388 0.13923456 -0.16950345
000090 cf 8e 78 3d 93 20 f4 bd 4d c4 2f 3e 0d 8c ed 3d
       0.060683068 -0.119202755 0.17164727 0.11598978
0000a0 fc 38 c6 3d 27 d5 20 3d 8f 2d e2 bd ad 23 ca bd
       0.09678838 0.039265778 -0.11043846 -0.09870086
0000b0 13 18 a8 3c 34 62 07 3e ac 11 a7 bd 4a ec 7d bd
       0.020519292 0.13221055 -0.081576675 -0.06199292

cnn.block1.0.weight f4 [16, 1, 1, 64]
000000 ae 4f f7 be 91 60 a1 be b9 83 1c 3b 33 b9 48 3e
       -0.48302978 -0.31518987 0.0023882224 0.19601898
000010 a6 38 79 3d db 75 7b bd 10 28 a4 bb f1 95 cd bb
       0.06084504 -0.061391693 -0.0050096586 -0.006273978
000020 b1 c4 c7 3e 27 23 31 3e 46 a1 15 be a0 70 f3 bc
       0.3901725 0.17298566 -0.14612302 -0.02971679
000030 76 bc a0 3c b5 65 53 3e 0d e3 4c 3e 57 e5 d3 3d
       0.019621115 0.20644267 0.20008488 0.103464775
000040 47 29 45 3d 60 6f 28 3c f7 ad 85 bc 7b fe 18 3c
       0.04813507 0.01028046 -0.016318304 0.009338017
000050 57 9b c5 3d 76 4b b8 3d d1 dc f4 3c c4 04 77 3e
       0.09648769 0.08998768 0.02989045 0.24122912
000060 92 b7 52 bd 56 55 d6 bd 65 c6 08 be dc 87 81 be
       -0.051444598 -0.10465495 -0.13356932 -0.25298965
000070 75 d6 d7 3c 13 26 d5 3d aa 21 9b bc ce 6b 36 3d
       0.026347378 0.10407653 -0.01893695 0.044536404
000080 51 f7 13 be 24 96 72 3c 05 5c a0 3d 99 ab e2 bd
       -0.14449812 0.014806304 0.07830051 -0.11067886
000090 38 ce 09 be 97 9e 03 bd 9e f0 b8 bd 7f 67 4a 3c
       -0.13457572 -0.032133665 -0.09030269 0.012353777
0000a0 88 f3 78 bc e4 34 9f bd 28 65 42 bc 00 78 12 3e
       -0.015194781 -0.0777376 -0.011864938 0.14303589
0000b0 7c 4d 55 bd 8c f7 6c bd fb b6 21 be 14 ed 48 bd
       -0.052075848 -0.057853267 -0.15792458 -0.04905422
0000c0 00 1a 05 3e 8a 71 bb 3c d1 b2 c4 3d 2e c4 96 3d
       0.129982 0.022881288 0.09604419 0.07361637
0000d0 f8 01 b0 3d 4b b3 a2 bb 5e 0e 00 be e4 86 3a bc
       0.085941255 -0.004965221 -0.1250548 -0.0113846995
0000e0 f3 e1 0f 3e dd 49 b7 3d df cf 34 3e 1f 96 69 3e
       0.14051037 0.08949635 0.17657422 0.22811173
0000f0 d7 4b f9 3d 5d 5c 89 3c 7c 9e 82 3d b7 7f 16 3e
       0.121726684 0.016767675 0.06377885 0.14697157
000100 fe 31 69 3d bd cc 68 bd 1f 2f b1 bd a8 63 b1 bd
       0.056932442 -0.05683588 -0.08651566 -0.08661586
000110 f6 e4 1e bb 79 96 aa 3d 4a e3 ae 3d 55 d8 09 3d
       -0.0024245358 0.08329482 0.08539446 0.033653576
000120 22 1e 02 bd 76 ae e3 bc 84 52 94 3c f6 9c 8e 3d
       -0.03176702 -0.02779315 0.018105753 0.06963532
000130 cc 3e f4 3d 01 77 a5 3d f9 e5 5c 3c 77 c0 c1 bd
       0.1192604 0.08079339 0.013482564 -0.09460538
000140 b2 a7 5d be 3a 83 84 be 55 1b 33 be a3 7c 25 3d
       -0.21646002 -0.25881368 -0.17490895 0.040402066
000150 f0 68 6d 3e c6 bc ac 3e d0 2c 9b 3e d3 9e e3 3d
       0.23184562 0.33737773 0.30307627 0.11114278
000160 08 e3 02 be 48 18 8a be 68 ed 9c be c6 e3 82 be
       -0.12781918 -0.2697165 -0.30649877 -0.25564402
000170 b4 c5 ac bd 55 c6 00 3e c0 74 4c 3e 9f f1 02 3e
       -0.084361464 0.12575658 0.19966412 0.12787484
000180 33 70 32 3d d0 15 10 bd 61 32 62 bd 8d 71 f4 3b
       0.043564033 -0.035177052 -0.055223826 0.0074598254
000190 a7 72 da 3d c5 27 c6 3d 8f d2 27 3d 36 df 7d bd
       0.106663994 0.09675554 0.04097229 -0.06198045
0001a0 47 8d 03 be 37 63 1c be 3b a6 b9 bd 95 f6 6b 3c
       -0.12846862 -0.15272222 -0.09064909 0.014402051
0001b0 3f fa ed 3d b2 9f 32 3e 14 0f 06 3e 6e d6 c8 bb
       0.11619996 0.17443731 0.1309169 -0.0061290776
0001c0 e5 6b df bd 2e 41 1b be fb a2 ed bd 84 a8 a5 bc
       -0.10909251 -0.15161583 -0.11603352 -0.020221956
0001d0 05 b4 d5 3d 64 dd e3 3d 6e bf 9f 3d a6 08 e6 bc
       0.104347266 0.11126211 0.07800184 -0.028080296
0001e0 2e 5f af bd fd da ee bd d8 3c ac bd 06 f8 70 3c
       -0.08563076 -0.116628624 -0.084100425 0.014707571
0001f0 93 d3 a3 3d ca 37 ad 3d 92 f8 28 3d 89 ae b1 bc
       0.07999339 0.084579065 0.04125268 -0.02168967
000200 53 ae e4 3e 98 67 24 bd 42 8d 25 bd 03 3b 0b be
       0.4466425 -0.040137857 -0.040417917 -0.1359673
000210 27 1b ae 3d 4d b8 01 3d 90 ab 89 3d d3 e7 fe 3c
       0.08501273 0.031669904 0.06722176 0.031116402
000220 88 14 02 bd bf 28 ea bc a7 01 e7 bd 11 45 2e bd
       -0.03175786 -0.028583882 -0.11279612 -0.042546336
000230 8c 10 ff 3d 46 bc dd bb 7c 65 ef bd f8 ab 47 3c
       0.12454328 -0.0067668287 -0.116892785 0.012186997
000240 52 a5 b7 bd 11 29 4d 3e e8 2c 0c be 3c 21 24 3e
       -0.08967079 0.20035197 -0.13689005 0.16028303
000250 21 31 20 bd aa 21 6f 3e ed cd 76 bd ad d1 8d 3e
       -0.039109353 0.23352686 -0.06025498 0.27699032
000260 e2 bc 7f be d4 40 63 3e f9 41 8a 3d aa 0e 8f bd
       -0.24974397 0.22192699 0.067508645 -0.06985219
000270 a7 ec f0 3d 1f b5 e0 3b 3e 4d 3f be 74 1f e3 bd
       0.11763888 0.006857529 -0.1868181 -0.110899836
000280 c0 fe 18 bc 8d ff 0f be a6 78 88 3e fb ae df bc
       -0.009338081 -0.14062329 0.26654547 -0.027305117
000290 74 2a f7 bb f1 d4 81 3d 32 72 97 3d f7 42 e5 bd
       -0.0075429026 0.063394435 0.07394828 -0.11194413
0002a0 ce 51 6e bd 2a 0d c1 3d a4 c6 ab 3d 0c c1 5d 3e
       -0.058183484 0.09426339 0.08387497 0.21655673
0002b0 c6 73 31 bd f0 e3 43 3e b0 91 73 3e 82 96 11 be
       -0.0433233 0.1912992 0.23786044 -0.1421757
0002c0 6e 58 48 be 86 20 37 3d e2 a9 52 3d 21 c7 6a bd
       -0.19564983 0.04470875 0.051431544 -0.05731881
0002d0 b9 3a 92 bc 61 08 c0 bd 69 a0 e8 3c 8f 9a b8 bd
       -0.017850267 -0.09376598 0.028396802 -0.09013855
0002e0 36 31 ea 3d 79 fc 84 3c 5f 27 61 bd ef 28 0e bd
       0.114351675 0.01623367 -0.054969188 -0.034707006
0002f0 48 d7 bb bd 8d 63 b3 3d 31 de 6e 3d 60 a8 bc 3e
       -0.09171921 0.08759222 0.058317367 0.3684721
000300 0e 0b 53 3e 4f 36 f5 3d 16 30 2a bc 7c ed da bb
       0.20609686 0.11973249 -0.010387441 -0.0066811424
000310 f8 75 7a bc 9a 10 63 3c ae 55 7f 3d d9 aa d5 3c
       -0.015286915 0.013858939 0.06233757 0.026082443
000320 c5 d0 23 3d da 0a 9d 3d 6f 35 b6 3d 8c 9a bc 3c
       0.03999402 0.076680854 0.088969104 0.023022912
000330 77 ac 97 bc ef 20 92 bd 88 1d a3 3c b0 5a cd 3c
       -0.018514855 -0.07135188 0.019911543 0.025067657
000340 34 85 ed 3c 94 50 9f 3c 86 38 19 3d 41 f3 4f bd
       0.02899418 0.019447602 0.03740742 -0.050769094
000350 fd 54 60 bb e9 28 6e bd f8 07 9c bd ef 1e eb 3c
       -0.0034230344 -0.058144484 -0.076187074 0.028701274
000360 8e 6b 25 3d a3 b4 04 bd 63 9d 25 3c 4a 06 12 bc
       0.040385775 -0.03239883 0.010108325 -0.008912632
000370 7f ac ba bb d1 d6 8a 3b 94 4d a7 3c 57 ec 97 3c
       -0.0056968327 0.004237034 0.020422734 0.018545313
000380 7d 57 19 3c c2 31 1c 3d e5 fc c7 3d 43 89 fe 3d
       0.009359238 0.03813339 0.09765033 0.12428524
000390 d3 5e 7d 3c f6 07 39 3d b3 bc ea 3d c3 a0 cc 3d
       0.015464502 0.045173608 0.11461773 0.099916
0003a0 fe 16 01 3e ed f0 1f 3e e0 6f ef 3d 82 31 38 3e
       0.12606427 0.1561925 0.1169126 0.17987636
0003b0 52 9a 3e 3e 4a 52 56 3e 06 19 6c 3e 1c a6 21 3e
       0.18613556 0.20929828 0.2305642 0.15786022
0003c0 c5 f6 d1 3d b2 84 6d 3e 5a f5 62 3e 26 72 33 3e
       0.10252146 0.2319515 0.22163907 0.17524013
0003d0 d4 14 6a 3e 3f e6 a6 3e f8 f7 b6 3e c9 2a 98 3e
       0.22859508 0.3259754 0.3573606 0.29720142
0003e0 bf 80 bf 3d 79 0f 97 3b d1 6b 7c 3d f9 d7 93 3d
       0.09350728 0.004609999 0.06162626 0.07218928
0003f0 40 6d d6 3d 65 fb 5f 3e a0 ee a5 3e 4f b7 17 3f
       0.104700565 0.21873243 0.3240862 0.5926408

cnn.block1.1.weight f4 [16]
000000 42 68 db 3d 80 4a a9 40 55 5c 12 3f 9d b4 0e 40
       0.10713245 5.290344 0.5717214 2.2297738
000010 eb a6 dd 3d 37 4d 01 40 6f 25 8d 40 06 71 91 40
       0.10822853 2.0203378 4.4108195 4.545047
000020 80 7e 7d 40 75 8e a4 40 03 18 ce 3c b3 1b a9 3f
       3.960846 5.14239 0.025157934 1.3211578
000030 f1 0b ac 40 d5 c2 7d 40 d5 f7 9d 3f 52 85 ad 40
       5.3764577 3.9650166 1.2341257 5.4225245

cnn.block1.1.bias f4 [16]
000000 2a 49 ae bd 9d 01 a7 3c 01 23 16 bc f3 48 c0 3b
       -0.08510049 0.020386511 -0.009163619 0.005868071
000010 18 16 b6 3d 99 ae 6d 3a 2e ab 4f bd fb b6 ad 3c
       0.08890933 0.00090668496 -0.05070036 0.021205416
000020 69 45 47 bc a6 a4 60 3d 95 2b 50 3d 38 7f 7d bc
       -0.012162545 0.05484452 0.050822813 -0.015472226
000030 0e 1f 8c 3c a3 47 bc 3c ff d3 81 ba 44 5d 26 3b
       0.017104652 0.022983378 -0.0009905099 0.002538518

cnn.block1.1.running_mean f4 [16]
000000 8f fb de ba db f7 aa 38 ba 5d ec ba 30 40 19 bc
       -0.0017012226 8.1523984e-05 -0.0018033304 -0.009353682
000010 e4 79 22 3a 3c 3c 42 bb 2b 2c 32 38 33 91 8e b9
       0.00061979727 -0.0029637953 4.247964e-05 -0.00027192532
000020 f8 e9 45 3a 03 dd 35 b9 7c c7 02 bc 1b 27 89 bb
       0.00075498177 -0.00017343838 -0.007982131 -0.00418557
000030 53 67 b6 39 64 8e 6b b8 ef fe ee bb 84 28 2d 39
       0.00034790728 -5.6160978e-05 -0.007293574 0.00016513659

cnn.block1.1.running_var f4 [16]
000000 87 55 cd 3f 78 ef 71 3f 8a ff 86 3f ee 7a 06 41
       1.6041726 0.94506025 1.0546734 8.405012
000010 d8 33 a4 3f 2c c1 d4 3f 1d 30 a4 3f 2a d5 23 40
       1.2828321 1.6621451 1.2827183 2.5598855
000020 cf bd 26 40 5c 3c 38 40 ab 08 c3 40 ac d1 59 40
       2.605335 2.878684 6.094808 3.4034224
000030 80 84 d8 3f 59 8c 30 40 29 ab b5 40 4c f8 cc 3f
       1.6915436 2.7585661 5.6771436 1.6013274
