models/2a_LOSO/model_6.pth (torch, 985978 bytes, 93 tensors)

fusion_proj f4 [48, 48]
0	0xbe1c1b7b	-0.15244858
1	0xbec89e3c	-0.39183223
2	0x3ed78d2e	0.420999
3	0x3f5e9415	0.86944705
4	0xbfeeffd0	-1.8671818
5	0x3f1eeca1	0.6207982
6	0x3dbaf286	0.09128289
7	0x3eada8ab	0.33917746
8	0x3eae84ed	0.3408579
9	0x3d6a7c7b	0.05724762
10	0xbfd2cf22	-1.6469462
11	0xbf05da20	-0.5228596
12	0x3eea89e7	0.45808336
13	0xbf035bed	-0.5131214
14	0xbf18d3ef	-0.59698385
15	0xbdd02d9b	-0.101649486
16	0x3eb3a69c	0.3508805
17	0xbf106971	-0.5641089
18	0x4014083b	2.3130023
19	0xbe538d0e	-0.20659277
20	0xbfa37c72	-1.2772353
21	0xbea3c0a9	-0.31982926
22	0xbf2898d0	-0.65858173
23	0x3e54fe06	0.20800027
24	0x3ea180c3	0.3154355
25	0x3f6b3bb4	0.91887975
26	0xbfa4c657	-1.2873029
27	0x3fffedca	1.9994442
28	0x3edeaef9	0.4349287
29	0x3e7e2c5a	0.24821606
30	0x3fcc0ac7	1.5940789
31	0x3e8a6d09	0.27036312
32	0x3f0c5c21	0.5482808
33	0x3f03d158	0.5149131
34	0xbe9de505	-0.3083879
35	0xbd915e14	-0.07098022
36	0xbf417eba	-0.75583994
37	0xbf94aa17	-1.1614407
38	0x3dd69b7c	0.10478875
39	0x3f62e0e6	0.8862442
40	0x3f01ade7	0.5065598
41	0x3ea9cbbe	0.33163255
42	0x3f0e2c01	0.55535895
43	0x3d957e87	0.07299524
44	0x3fb1add1	1.388117
45	0x3e121643	0.14266305
46	0x3f790d5a	0.97286
47	0x3f8bade5	1.0912443
48	0x3f587b5f	0.8456325
49	0xbe2751c5	-0.16339786
50	0xbf6409b2	-0.89077294
51	0x3f4d73ca	0.80254805
52	0x402471a0	2.5694351
53	0x3f08313c	0.53200126
54	0xbf15a964	-0.58461595
55	0xbf8067ae	-1.003164
56	0xbebe519b	-0.37171635
57	0x3f11fb6d	0.5702427
58	0x3fcdce3c	1.6078563
59	0x3ff6b177	1.9272908
60	0xbe2ec565	-0.17067488
61	0x3f2a2a41	0.66470724
62	0x3ef3c760	0.4761305
63	0x3fc655fd	1.5494992
64	0x3e8bb7cd	0.27288666
65	0xbfc53071	-1.5405408
66	0x3ffd3fb6	1.9785068
67	0xbe4f94e5	-0.20271643
68	0xbfcf71ad	-1.6206566
69	0xbeea5815	-0.45770326
70	0x3bea60cd	0.007152653
71	0xbd444f48	-0.04792717
72	0xbfa3fe08	-1.2811899
73	0xbf3b9849	-0.73279244
74	0x3f827d75	1.0194536
75	0x3e90f05f	0.2830839
76	0x3f479b89	0.779717
77	0xbf7f42bc	-0.99711204
78	0xbe537cbc	-0.20653051
79	0x3e5ed614	0.21761352
80	0x3fe8ba8c	1.818193
81	0xbe526342	-0.20545676
82	0xbda69126	-0.081331536
83	0xbfc3025e	-1.5235097
84	0x3dc8a92c	0.09797892
85	0x3e79238f	0.24329971
86	0xbf44cb3b	-0.76872605
87	0x3e13eb0f	0.14445136
88	0x3f3b76bb	0.73228043
89	0xbe9bbe13	-0.30418453
90	0x3f0660a2	0.524912
91	0x3eeec397	0.46633598
92	0x3f071f48	0.52782106
93	0x3ee39238	0.44447494
94	0xbf06e553	-0.5269367
95	0x3e05e682	0.13076213
96	0x3e8f535d	0.2799329
97	0xbf2962aa	-0.66166174
98	0xbf0d1429	-0.55108887
99	0xbec84ff4	-0.391235
100	0xbdd4aa8d	-0.103840925
101	0xbe69e9d3	-0.22843103
102	0xbd3325c1	-0.043737177
103	0x3f8522fb	1.04013
104	0xbec5454d	-0.38529435
105	0xbeb9c662	-0.36284167
106	0x3f223b3b	0.6337163
107	0x3ebbd8e8	0.36688924
108	0xbf651a98	-0.89493704
109	0x3fa109ac	1.2581077
110	0x3f293714	0.6609967
111	0x3f452c85	0.77021056
112	0x3f02357e	0.5086287
113	0xbd098eba	-0.03358338
114	0x3f7ce10e	0.98780906
115	0x3f886b8e	1.0657823
116	0xbe915698	-0.28386378
117	0xbdfd48cf	-0.12367403
118	0xbbc7a36b	-0.006092479
119	0x3fbccda6	1.4750259
120	0xbd9477fe	-0.07249449
121	0xbf22adaf	-0.6354627
122	0xbf7404d9	-0.95319897
123	0xbfa80564	-1.3126645
124	0x3d981773	0.074263476
125	0x3f39d6b2	0.72593224
126	0x3ef5c887	0.48004553
127	0xbf48b370	-0.783988
128	0x3f973eb9	1.1816016
129	0x3e6d5d10	0.23180032
130	0xbee4d86c	-0.44696367
131	0xbef8b9f6	-0.48579377
132	0xbeb7576c	-0.35808885
133	0x3fa12767	1.259015
134	0x3f851490	1.03969
135	0xbd1e0f79	-0.038588975
136	0x3f8e1aa9	1.1101886
137	0x3fdca488	1.7237711
138	0x3ec1e06b	0.3786653
139	0xbf2abb41	-0.66691977
140	0xbf25f4c6	-0.6482662
141	0xbf763608	-0.96176195
142	0x3f3c9092	0.73658097
143	0xbf32d1a8	-0.6985116
144	0x3ddd3f8a	0.10803135
145	0xc0245892	-2.567906
146	0x3f63fcb4	0.8905747
147	0x3e8a9222	0.27064615
148	0xbee75022	-0.45178324
149	0xbf1b04a2	-0.60553944
150	0xbf37e3a3	-0.7183172
151	0x3e80f11f	0.2518396
152	0xbfa1ba33	-1.2634948
153	0xbf7c0663	-0.98447245
154	0xbe2d8bb5	-0.16947825
155	0x3f988a7d	1.1917263
156	0xbef94967	-0.48688814
157	0xbe901279	-0.28139094
158	0x3f3498c0	0.7054558
159	0xbf591fea	-0.8481432
160	0x3f8975b0	1.073904
161	0x3dbab6f7	0.09116929
162	0xbf08b5eb	-0.53402585
163	0x401f6087	2.4902666
164	0xbfb48157	-1.4101971
165	0xba7469a8	-0.00093236053
166	0xbd8c5787	-0.06852632
167	0x3fef7d76	1.8710163
168	0x3e946692	0.28984505
169	0x3f1823a9	0.59429413
170	0x3ef22136	0.47290963
171	0xc010e86d	-2.2641861
172	0xbf897449	-1.0738612
173	0x3f660e40	0.89865494
174	0x3e0ee47c	0.13954347
175	0xbe6fb357	-0.23408256
176	0xbf6f806b	-0.93555325
177	0xbf4df0df	-0.80445665
178	0xbf3a0112	-0.72657883
179	0xbf160255	-0.5859731
180	0xbf66572a	-0.8997675
181	0xbe95a1aa	-0.29224902
182	0xbf3aa5b6	-0.72909105
183	0x3ef03a2e	0.46919388
184	0x3e36ef4b	0.1786472
185	0xbc1a0177	-0.009399763
186	0x3f0f15b3	0.55892485
187	0x3f921003	1.1411136
188	0xbe04d41b	-0.12971537
189	0xbeebba76	-0.46040696
190	0xbf1a2406	-0.6021122
191	0x3f487c6a	0.7831484
192	0x3f4873cc	0.7830169
193	0xbe5ce8e5	-0.21573217
194	0x3ec677d9	0.38763312
195	0x3f8435f4	1.0328965
196	0xbded5149	-0.115877695
197	0xbe0fa11d	-0.14026304
198	0x40003f37	2.0038583
199	0x401c9166	2.4463744
200	0xbfb0a47f	-1.38002
201	0xbe54e00d	-0.20788594
202	0x3f671e99	0.90281063
203	0xbecb55f9	-0.3971403
204	0xbe37a009	-0.17932142
205	0xbf8ff768	-1.1247377
206	0x3f54eeee	0.8317708
207	0x3ea39c84	0.3195535
208	0x3d4c53d3	0.04988463
209	0xbf5d3527	-0.8640923
210	0xbeae9289	-0.34096172
211	0x3f873517	1.0563077
212	0x3f8b24e1	1.087063
213	0xbedbe944	-0.42951405
214	0xbea385ef	-0.3193812
215	0x4020884f	2.5083196
216	0x3ec636ae	0.38713592
217	0x3ff32659	1.8996078
218	0xbfa9385e	-1.3220327
219	0xbf4a120a	-0.78933775
220	0x3e810d35	0.2520539
221	0xbf0a78da	-0.54090655
222	0xbe99f6d7	-0.30071136
223	0x3f0c5e5a	0.5483147
224	0xbfcd3498	-1.6031675
225	0x3fba7a07	1.456849
226	0xbf8d7ed3	-1.1054329
227	0xbe1dc66e	-0.15407726
228	0xbeb1a61e	-0.3469705
229	0x3e997a2d	0.29976025
230	0x3f76f93a	0.9647404
231	0xbeeb099a	-0.45905763
232	0xbf73252f	-0.9497861
233	0x40000387	2.0002153
234	0xbf4be2db	-0.7964303
235	0x3e24df28	0.16100752
236	0x3fa4b89b	1.2868837
237	0x3f052dba	0.520229
238	0xbea11788	-0.31463265
239	0x3e35fc29	0.17771973
240	0x3ea57c01	0.3232117
241	0xbf0d94bc	-0.55305076
242	0xbeb0974d	-0.34490433
243	0xbfc21039	-1.5161201
244	0xc009294d	-2.1431458
245	0xbf092da1	-0.5358525
246	0x3fe31c47	1.7743005
247	0x3e97a717	0.29619667
248	0x3f499d66	0.78755796
249	0x3dfd529f	0.12369274
250	0xbffbc0e5	-1.9668242
251	0xbef9c202	-0.4878083
252	0xbec9b028	-0.3939221
253	0xbf8913a5	-1.070912
254	0x3f5764c2	0.8413812
255	0x3f9b33b5	1.2125155

pos_enc f4 [1, 500, 48]
0	0xbec901d2	-0.392592
1	0xbf86489e	-1.0490911
2	0xbf770f4f	-0.96507734
3	0xbf0b4af2	-0.5441123
4	0x3f0d5029	0.5520044
5	0xbd8b9991	-0.068164
6	0xbfc60dec	-1.5472999
7	0xbf15a15d	-0.58449346
8	0xbf717bc0	-0.9432945
9	0x3e16ef07	0.14739619
10	0xbf9cb0d5	-1.2241465
11	0xbfb63b56	-1.4236858
12	0x3fa68c33	1.3011535
13	0x3efffa68	0.49995732
14	0x3cb658db	0.022259166
15	0xbf9b3aa7	-1.2127274
16	0xbfe26fca	-1.7690365
17	0xbfb4a1cb	-1.4111875
18	0x3ec9c78e	0.3941006
19	0xbf860864	-1.0471311
20	0x3fda62a3	1.7061352
21	0xbef79ae1	-0.4836035
22	0xc0382574	-2.877286
23	0xbf0fcafd	-0.5616911
24	0x3faea260	1.3643303
25	0x3fa25842	1.2683184
26	0xbdd2e56e	-0.102976665
27	0xbe915fd9	-0.28393438
28	0xbe9e0d94	-0.30869734
29	0xbfb58cd3	-1.4183601
30	0x3f56169f	0.8362827
31	0xbecfadad	-0.40562192
32	0x3f193c43	0.5985758
33	0xbd94758a	-0.07248981
34	0xbf862c9f	-1.0482367
35	0x3e4358dc	0.19076866
36	0x3fe2570e	1.7682817
37	0xc007217b	-2.1114185
38	0xbffa2f0a	-1.9545605
39	0xbf428662	-0.759863
40	0x3ceea315	0.029130498
41	0x3eade5aa	0.33964282
42	0xbfa46fed	-1.2846657
43	0x3eb354b6	0.35025567
44	0x3e85acd7	0.2610843
45	0xbfe707bb	-1.8049234
46	0xbf9780d6	-1.1836193
47	0x3d869b6c	0.06572613
48	0xbec0c4b9	-0.37650087
49	0xbe40bea7	-0.18822728
50	0xbeee2e11	-0.4651952
51	0x400f7d95	2.24204
52	0xbefab712	-0.48967797
53	0xbef9c2a4	-0.48781312
54	0xbf36188c	-0.71131206
55	0x3e590056	0.21191534
56	0x3fa8c8b3	1.3186249
57	0x400c759a	2.1946778
58	0xbf4fdb1e	-0.8119372
59	0x3f7a6329	0.97807556
60	0xbe7c7751	-0.2465489
61	0xc02b56e0	-2.6771774
62	0xc01612be	-2.344894
63	0xbd7165ad	-0.058934856
64	0xbf1801c6	-0.59377706
65	0xbf03c2ec	-0.514693
66	0x3e6bc9db	0.2302622
67	0x401386ba	2.305098
68	0x3ff82a4c	1.9387908
69	0x3fc59305	1.5435492
70	0xbf9b2963	-1.2122005
71	0xbe14ecf7	-0.1454352
72	0xbfa79a43	-1.3093952
73	0xbefbe6a7	-0.4919941
74	0x3f97225e	1.1807363
75	0x3f124a4e	0.5714463
76	0xbe8b74cc	-0.27237546
77	0xc015a0f3	-2.3379486
78	0x3f1e3e8a	0.6181418
79	0x3f120d8b	0.57051915
80	0x3fe75b22	1.8074687
81	0x3f56095f	0.8360805
82	0xbf19032e	-0.59770477
83	0xc017b665	-2.3705075
84	0x4080ad39	4.0211453
85	0x3e92f486	0.28702182
86	0xbf51541f	-0.81768984
87	0xbf25bb9b	-0.6473939
88	0xbf30a8a2	-0.69007313
89	0xbfef20ce	-1.8681886
90	0xc01ce878	-2.4516888
91	0xbef974ff	-0.48722073
92	0x3e9a44e5	0.30130687
93	0xc05e81e1	-3.4766772
94	0xbfd1f66d	-1.6403328
95	0xbfe2071e	-1.7658422
96	0xbf423cff	-0.7587432
97	0x3f9a0cbe	1.2035139
98	0xbfbf0093	-1.492205
99	0x3fb2a3cf	1.395624
100	0xbfb13d06	-1.3846748
101	0x4045ba1c	3.0894842
102	0x3efae47e	0.4900245
103	0xbfe8c10a	-1.8183911
104	0x3fe72b2f	1.8060054
105	0xbfa17b7b	-1.2615808
106	0xbf59372d	-0.84849817
107	0x3fafd931	1.3738157
108	0xbfcaafaa	-1.5834858
109	0x3f0a2674	0.53964925
110	0xbc8068a6	-0.0156749
111	0x3f437a5d	0.76358587
112	0xc007e0f0	-2.123104
113	0x4008c08a	2.1367517
114	0xbfa39da7	-1.2782487
115	0xbe01ef8f	-0.1268904
116	0xbe415fc5	-0.1888419
117	0x3f53ee46	0.8278545
118	0x40915c6f	4.5425334
119	0x3f9d1e03	1.2274784
120	0xbe9513ac	-0.2911657
121	0xbff5e415	-1.921023
122	0x3a296683	0.0006462114
123	0x3f47de64	0.78073716
124	0x40168067	2.351587
125	0xc018fdf9	-2.3905013
126	0xbf9d047a	-1.2266991
127	0x4001324a	2.0186944
128	0xc000f22f	-2.0147817
129	0x3f8eeecd	1.1166626
130	0xc0328a49	-2.7896903
131	0xbfd25c82	-1.6434481
132	0x3f9c5b53	1.221537
133	0x4049f898	3.155798
134	0x3fd326e3	1.6496242
135	0xbf4388b5	-0.76380473
136	0xbf544216	-0.8291334
137	0xbf1f136a	-0.62139
138	0xbfd890c5	-1.691918
139	0x3fd4c005	1.66211
140	0xbfc9fa44	-1.57795
141	0xbfe0a9ed	-1.7551857
142	0x3fec7bac	1.8475242
143	0xbeeba588	-0.46024728
144	0xbf7a8224	-0.9785483
145	0xbe33928d	-0.17536373
146	0x3ff3a395	1.9034296
147	0xbfb440ba	-1.4082253
148	0x3fc08b72	1.5042555
149	0x3f27d501	0.65559393
150	0xc026cd25	-2.606271
151	0x3ff0f6ea	1.8825352
152	0xbe898727	-0.26860926
153	0xbeaa32d3	-0.332419
154	0xbf7080e2	-0.9394666
155	0xbf5a8bd1	-0.8536959
156	0xbe1e1249	-0.15436663
157	0xbdf8a548	-0.121409
158	0x3db82181	0.08990765
159	0x3e37518f	0.17902206
160	0xbfa6b1e0	-1.3023033
161	0xbf00678c	-0.50158
162	0xbf36ab60	-0.7135525
163	0xc0141428	-2.3137302
164	0x4015ec43	2.3425453
165	0xbfe28705	-1.7697455
166	0x3f7320b3	0.9497177
167	0xc03831b6	-2.878034
168	0xbf93f754	-1.1559854
169	0xc031bb12	-2.7770429
170	0x3ff0cea0	1.8813057
171	0x3fc87f74	1.5663896
172	0x4020d83d	2.5131981
173	0x3fe0a139	1.7549201
174	0x3fc52d60	1.5404472
175	0xbf539e8a	-0.82663786
176	0xbf0125d4	-0.50448346
177	0xbf36f79e	-0.71471584
178	0xbf25dac9	-0.64786965
179	0xbf00abe9	-0.50262314
180	0xbc037a06	-0.008024698
181	0xbf2bf8c2	-0.6717645
182	0xbfdde6dd	-1.7336079
183	0xbef55ab8	-0.47920775
184	0xbe263fd3	-0.16235285
185	0x3fa6d4ef	1.3033732
186	0xbf4fcd27	-0.8117241
187	0x3f9d44ec	1.2286658
188	0x3f5c40a0	0.8603611
189	0x401cc948	2.4497852
190	0xc03fe7f8	-2.9985332
191	0x3f242f1b	0.6413438
192	0x3f67d257	0.9055533
193	0xbf2c86c3	-0.6739313
194	0x40136820	2.3032303
195	0xbedfba1a	-0.43696672
196	0x3f850558	1.0392256
197	0xbe9d5d8d	-0.30735436
198	0x3d78f304	0.060778633
199	0xbe8e37dc	-0.27776992
200	0xbeef6d0d	-0.46762887
201	0x3fd0692a	1.6282094
202	0x3ff3fa81	1.9060823
203	0xc00e4543	-2.2229774
204	0x3fe2d59e	1.7721441
205	0xbe934e8d	-0.28770867
206	0x3fce783f	1.6130446
207	0x3e8ad6aa	0.271169
208	0x3f360f70	0.71117306
209	0x3f2f4d06	0.68476903
210	0xbea3ec12	-0.32016045
211	0xc00fd006	-2.2470717
212	0xbfc89899	-1.5671569
213	0x3dd54f60	0.1041553
214	0x3f2836c8	0.6570859
215	0x40188723	2.383248
216	0xc01f32b7	-2.4874704
217	0xbfb74ae9	-1.4319736
218	0x403736d6	2.862722
219	0x3f79a8fc	0.97523475
220	0x3db8c74e	0.09022389
221	0xbf85e4a6	-1.0460403
222	0x401e9f85	2.4784863
223	0x3f555c70	0.83344173
224	0x3fd19bda	1.6375687
225	0xbeedecb5	-0.46469656
226	0x3e04f13c	0.12982649
227	0x3f61a480	0.8814163
228	0x3e97149a	0.29507905
229	0xbfa97639	-1.3239204
230	0x3f30d42a	0.69073737
231	0xbf48c0d8	-0.78419256
232	0xbf83be1f	-1.0292395
233	0x3f1b9d82	0.6078721
234	0xbf773a10	-0.9657297
235	0xc021bad9	-2.5270293
236	0xc00c30c8	-2.1904774
237	0x3fb4a509	1.4112865
238	0xbf9d3ec6	-1.2284782
239	0xbfe01c03	-1.7508548
240	0x3fb82d77	1.4388875
241	0xbf25a185	-0.64699584
242	0x3ee9898f	0.4561276
243	0x3f318303	0.69340533
244	0xbfd0deba	-1.6317971
245	0x3f063b6d	0.52434427
246	0x3f5ea7de	0.86974895
247	0xbf07f970	-0.53114986
248	0xbfbd40b4	-1.4785371
249	0x40051581	2.0794375
250	0x3f4eda43	0.8080179
251	0xbf9885e6	-1.1915863
252	0x40022b4d	2.0338929
253	0x3df89be3	0.12139108
254	0xbdf235d9	-0.11826677
255	0xbf6cb2cc	-0.9246032

riemannian.proj.0.weight f4 [256, 253]
0	0x3e3f6e72	0.18694475
1	0x3cc14aa8	0.02359517
2	0xbdab07a1	-0.083510645
3	0x3d05aec8	0.032637388
4	0xbcb4af55	-0.022056261
5	0xbd26bec8	-0.040709287
6	0x3dd2c364	0.10291174
7	0xbd2d2ebf	-0.04228091
8	0xbd7272e6	-0.059191607
9	0x3d1ef0cb	0.038803857
10	0xbc542a29	-0.012949505
11	0xbd571b22	-0.05251611
12	0xbd97f143	-0.07419064
13	0xbc1c7727	-0.0095498925
14	0xbdc8ab98	-0.09798354
15	0xbdc1140b	-0.09427651
16	0xbd1882c1	-0.03723407
17	0x3cdf82c8	0.027284041
18	0xbd11d49d	-0.035603154
19	0x3dcaf601	0.09910203
20	0xbd2a01f5	-0.041505773
21	0x3d38a4ba	0.04507897
22	0x3df24577	0.118296556
23	0xbd3f8c0f	-0.04676443
24	0x3a93867a	0.0011255287
25	0xbd2242e9	-0.03961459
26	0xbdeb5845	-0.114914455
27	0x3d821844	0.063522846
28	0x3d85f016	0.065399334
29	0xbde3ed88	-0.1112929
30	0x3d34595a	0.044030525
31	0xbc974465	-0.01846523
32	0xbc828963	-0.015934652
33	0xbe0ab52c	-0.13545674
34	0xbe447b86	-0.19187745
35	0x3d1ffa42	0.039057024
36	0x3cf0beaf	0.0293878
37	0xbd4e8a83	-0.050425064
38	0x3ccee547	0.025255812
39	0xbd5c6b6b	-0.05381338
40	0x3d2cf981	0.042230133
41	0xbd6dccdd	-0.0580567
42	0xbc0c6857	-0.008569798
43	0x3dbf81e4	0.093509465
44	0x3be1bddc	0.006889088
45	0xbb6987bd	-0.0035633885
46	0x3b3c6ea0	0.002875246
47	0xbda8a7a5	-0.08235101
48	0xbd8a6a46	-0.06758551
49	0x3c79643b	0.015221651
50	0x3dc0d8e2	0.09416367
51	0x3befb78a	0.0073155807
52	0xbda83fa1	-0.08215261
53	0x3c95df9e	0.018295106
54	0x3c19d978	0.0093902275
55	0xbbf80863	-0.007569359
56	0x3d8fe360	0.0702579
57	0x3bc1b916	0.0059119565
58	0x3d581c4d	0.052761365
59	0xbcf0d7b3	-0.029399728
60	0x3bbbca9e	0.005730941
61	0x3db64338	0.0889954
62	0x3a171774	0.00057636877
63	0x3be6bbab	0.0070414147
64	0xbb7fddef	-0.0039042195
65	0x3cb9c9e3	0.022679275
66	0xbbd6208e	-0.0065346425
67	0xbc973d08	-0.01846172
68	0xbd936dc8	-0.071986735
69	0x3d9d1dbf	0.07671689
70	0xbda3a3a3	-0.079901956
71	0x3c3e3005	0.011608128
72	0x3de7b4d3	0.11313786
73	0xbbceb614	-0.0063083265
74	0x3d952d1e	0.07283996
75	0xbdba5609	-0.09098441
76	0xbda857c5	-0.08219866
77	0x3e2cacc4	0.1686278
78	0xbd9370d4	-0.07199255
79	0x3c98b4d2	0.01864091
80	0xbde1ac27	-0.110191636
81	0xbd0bfba8	-0.034175545
82	0xbd32face	-0.043696217
83	0xbd8196c8	-0.06327587
84	0x3c3147c2	0.010820331
85	0xbd331350	-0.04371959
86	0xbc866966	-0.01640768
87	0x3e0a140a	0.13484207
88	0xbcbaf372	-0.022821162
89	0x3c20e7ed	0.00982092
90	0x3d4429d0	0.047891438
91	0x3da7281c	0.08161947
92	0x3c8f6500	0.017504215
93	0xbe0119d8	-0.12607515
94	0xbda1dcc6	-0.07903437
95	0xbd82c8ab	-0.06385931
96	0x3d8bbc9c	0.06823084
97	0x3d947f0f	0.07250797
98	0x3cece9c8	0.02892007
99	0xbbfcd7ae	-0.0077161407
100	0x3d199345	0.037493963
101	0xbd8a4964	-0.067522794
102	0x3d8c03b2	0.06836642
103	0x3c6a12bd	0.014286694
104	0x3a8eefa8	0.0010905163
105	0x3a9b8536	0.0011865261
106	0x3d0e5f4f	0.034758862
107	0x3dba35ca	0.09092291
108	0x3d24e6e3	0.040259253
109	0x3d5e2424	0.054233685
110	0x3dedf0e3	0.11618211
111	0x3cb8133c	0.02247011
112	0x3c0f770c	0.00875641
113	0xbd3565b2	-0.044286437
114	0xbd672dbc	-0.0564401
115	0xbcd5c900	-0.02609682
116	0xbd823283	-0.063572906
117	0x3da10f09	0.07864196
118	0x3d087626	0.0333158
119	0x3d4fcbed	0.05073159
120	0xbd2da02c	-0.04238908
121	0x3d33d912	0.043908186
122	0xbda6dcbf	-0.08147573
123	0x3dfc816b	0.12329372
124	0xba1b158b	-0.0005915991
125	0x3da3d49c	0.079995364
126	0xbdd37156	-0.103243515
127	0xbdd127c1	-0.102126606
128	0xbc812821	-0.015766205
129	0x3c406c97	0.01174464
130	0x3d0724d6	0.032994114
131	0xbcb3bcf6	-0.02194069
132	0xbcd2dc12	-0.025739703
133	0xbd0d95bd	-0.03456663
134	0x3b896ac7	0.004193637
135	0xbd9ce24a	-0.07660349
136	0x3b86e7b0	0.004116975
137	0xbcbaf2cf	-0.022820858
138	0xbda7d875	-0.08195583
139	0x3e0f97aa	0.14022699
140	0x3d1ac8c2	0.037789114
141	0xbdd77a50	-0.10521376
142	0x3db15528	0.086588204
143	0x3d9e8d67	0.07741814
144	0x3cd96c03	0.026540762
145	0xbd12e380	-0.035861492
146	0x3ca5d1be	0.020241614
147	0x3c47ab60	0.012186855
148	0x3d826010	0.06365979
149	0x3cf6042e	0.03003129
150	0xbc8e1c5f	-0.017347513
151	0xbd1764a0	-0.036961198
152	0xbcf6b5e9	-0.030116038
153	0x3dba7847	0.09104972
154	0x3c35bc46	0.011092251
155	0xbab57f59	-0.0013847157
156	0xbd9ebc2d	-0.077507354
157	0xbc8a36c3	-0.016871816
158	0x3dcc2c3b	0.09969374
159	0xbd400045	-0.046875257
160	0xbce9d976	-0.028546076
161	0x3c2bf316	0.010494968
162	0xbe042799	-0.1290573
163	0xbda31365	-0.079626836
164	0xbc67113c	-0.01410323
165	0x3cc343ea	0.023836095
166	0x3c536b66	0.012904024
167	0x3d7b7fd0	0.06140119
168	0x3df9464c	0.12171611
169	0x3d60b0ef	0.054856237
170	0x3cadf6ee	0.02123591
171	0xbd558620	-0.052129865
172	0x3c73cb52	0.014880018
173	0xbd96abcb	-0.07356986
174	0xbda70c84	-0.08156684
175	0xbd6ecd72	-0.058301397
176	0xbd495f60	-0.049163222
177	0x3bb32344	0.0054668505
178	0xbe0b2ad0	-0.1359055
179	0xbdbf3271	-0.09335793
180	0xbd6ff90a	-0.05858711
181	0x3d3c1c40	0.04592538
182	0x3cf0f224	0.029412337
183	0x3c052760	0.0081270635
184	0x3de1c847	0.11024528
185	0xbc7c4e18	-0.015399478
186	0xbcf0a929	-0.029377537
187	0x3d341c43	0.043972265
188	0xbcc3df9b	-0.023910334
189	0xbdabc64f	-0.08387434
190	0x3caf0036	0.021362405
191	0x3c2790a4	0.010227356
192	0x3d89bdc8	0.06725651
193	0xbd00445d	-0.031315196
194	0xbd25ea9b	-0.04050694
195	0xbd291840	-0.041282892
196	0x3ceed482	0.029154066
197	0x3d18cb3a	0.037303187
198	0x3cb977e1	0.02264017
199	0x3d503828	0.050834805
200	0xbceb9d71	-0.028761597
201	0x3c7a75c6	0.015286868
202	0x3d73c51f	0.05951416
203	0xbe03d5f2	-0.12874582
204	0xbc43fe80	-0.011962533
205	0x3d75c66e	0.06000369
206	0x3dd17ac8	0.10228497
207	0xbd6c1359	-0.05763564
208	0xbdc33d7e	-0.09533213
209	0x3ca08016	0.019592326
210	0x3d28718f	0.041123923
211	0x3cec7d22	0.028868262
212	0x3dcc3465	0.09970931
213	0xbb19b831	-0.0023455734
214	0xbda0847d	-0.0783777
215	0x3d0de099	0.03463802
216	0xbd989e7c	-0.074521035
217	0x3d8a2735	0.067457594
218	0x3d1e56ea	0.038657106
219	0xbc106be0	-0.008814782
220	0xbd7324c6	-0.05936124
221	0x3cd423e7	0.025896026
222	0x3dcdaddc	0.10042927
223	0xbdb86f5c	-0.09005615
224	0xbda6f282	-0.081517234
225	0x3d6b19af	0.05739754
226	0xbd5f7294	-0.05455263
227	0xbd220515	-0.039555628
228	0x3ccde05f	0.025131403
229	0xbdb29923	-0.08720615
230	0x3dd2d7bc	0.10295054
231	0x3d366ade	0.04453551
232	0x3d2ba410	0.04190451
233	0x3d14873e	0.03626179
234	0x3d407e0f	0.04699522
235	0x3da92aa1	0.08260084
236	0x3d2dc898	0.04242763
237	0xbd182ddd	-0.037153114
238	0x3c1111e7	0.008854366
239	0xbdb0e562	-0.08637501
240	0xbd6f21ce	-0.058381848
241	0xbda891e4	-0.082309514
242	0xbb06b909	-0.0020557067
243	0xbd2d007f	-0.0422368
244	0xbde0c688	-0.10975367
245	0x3b4905e3	0.0030673675
246	0xbd90af26	-0.07064657
247	0x3da8171d	0.082075335
248	0xbd0245cf	-0.031804856
249	0x3cea5f2e	0.028609838
250	0x3cc64aff	0.024205683
251	0xbd83ce38	-0.064358175
252	0xbdebaf68	-0.115080655
253	0x3b48cb53	0.0030638769
254	0x3cba270e	0.0227237
255	0xbd477ea8	-0.048704773

riemannian.proj.0.bias f4 [256]
0	0xbc9fdf12	-0.019515548
1	0x3aa29bcb	0.0012406049
2	0xba7720d1	-0.0009427192
3	0xbbc7f14a	-0.006101762
4	0xbab363ed	-0.0013686396
5	0x3ca97019	0.020683335
6	0x3b906283	0.0044062748
7	0xbb06676b	-0.002050842
8	0xbc5a69cd	-0.013330889
9	0x3c9fd2f3	0.019509768
10	0x3cadb4b4	0.02120433
11	0xbb89a20a	-0.0042002248
12	0xb9c5f870	-0.00037759868
13	0x3cc6613d	0.024216289
14	0xbb69a8f9	-0.0035653694
15	0xbcfec287	-0.031098617
16	0x3b5089a0	0.0031820312
17	0xbaa96562	-0.0012923891
18	0xbbcc70e3	-0.006239043
19	0x3c1ce8cd	0.009576988
20	0xbcc12d65	-0.023581216
21	0x3c969bdf	0.018384872
22	0xba0e4f58	-0.0005428693
23	0xbc11918e	-0.008884801
24	0x3bb1d493	0.005426952
25	0xbc639494	-0.013890404
26	0x3d24327a	0.0400872
27	0x3c4f663e	0.012658654
28	0xbb829d42	-0.0039860317
29	0xbb59cd9c	-0.0033234125
30	0x3c9a9e97	0.01887445
31	0x3c8125ea	0.01576515
32	0x3c8d54be	0.017252322
33	0xbd3b7998	-0.045770258
34	0xbba097f2	-0.004900926
35	0xbb8cb433	-0.0042939424
36	0x3be511a0	0.0069906265
37	0xbc83a370	-0.016069144
38	0x3cb24124	0.021759577
39	0x3baf1ea8	0.0053442307
40	0xbcd47042	-0.025932435
41	0x3c8323be	0.016008254
42	0xbba8c452	-0.0051503563
43	0xbc7a5079	-0.015277975
44	0xbc817375	-0.015802125
45	0xbc347883	-0.01101506
46	0x3b6119fd	0.0034347766
47	0x3c4aa437	0.012368253
48	0x3c19bf7a	0.0093840305
49	0x3a16bead	0.0005750459
50	0xbc012111	-0.007881419
51	0xbc17a8d8	-0.009256564
52	0xbc6c9363	-0.014439437
53	0xbc299d03	-0.010352376
54	0xbc1b5acf	-0.0094821
55	0xbc5fbad3	-0.013655382
56	0xbb706a25	-0.003668436
57	0xbbe82df1	-0.007085555
58	0xbc2ad797	-0.010427377
59	0x3c0ac73b	0.008470352
60	0x3b9c6dbf	0.004773825
61	0xbd1e2cf9	-0.038617108
62	0xba327235	-0.00068071793
63	0x3c1c8b9d	0.009554771
64	0xbc4fe0b5	-0.012687852
65	0x3c278c5d	0.010226336
66	0x3ca9c2f4	0.020722844
67	0xbd495141	-0.049149755
68	0xbc013aea	-0.007887581
69	0x3cc11887	0.023571266
70	0x3a76978a	0.00094067364
71	0xbbd7735e	-0.006575032
72	0xbce6c12d	-0.028168285
73	0x3be4da81	0.0069840555
74	0xb82f5011	-4.179782e-05
75	0xbc8554f9	-0.01627587
76	0x3ce8fd1d	0.028441006
77	0xbd1ebf67	-0.038756754
78	0x3b31af59	0.0027112572
79	0x3c8128db	0.015766552
80	0x3bc13817	0.005896579
81	0xbc3dbcfd	-0.011580703
82	0xbb2997af	-0.0025877764
83	0x3c445f44	0.011985604
84	0x3cb97c21	0.022642197
85	0x3c04cb53	0.008105117
86	0xbacbeeb3	-0.0015558809
87	0x3bac6940	0.00526157
88	0xbb42805a	-0.0029678554
89	0x3c6986f1	0.014253364
90	0xbc6b5af8	-0.01436495
91	0xbcba7b38	-0.022763833
92	0xbc736de3	-0.014857742
93	0x3b3f9081	0.0029230418
94	0x3c1a1a61	0.009405703
95	0x3b64090d	0.0034795434
96	0xbb3203ee	-0.0027162987
97	0xb756b406	-1.2797309e-05
98	0x3be27ec1	0.006912083
99	0x3c9845d8	0.018587992
100	0x3bba3eed	0.005683771
101	0x3d16a69c	0.036779985
102	0xbacbb164	-0.0015540537
103	0x3bee8088	0.0072785057
104	0x3b2a8a4b	0.002602237
105	0xbc9819fd	-0.01856708
106	0x3c443471	0.011975394
107	0x3d50749b	0.050892454
108	0xbc9d5aa5	-0.019208262
109	0xbb2e0e8f	-0.002655897
110	0xbd631fb5	-0.05545016
111	0xbbfbc1d3	-0.0076830178
112	0xbcb1cdf4	-0.021704651
113	0x3c4e9e8c	0.012611043
114	0x3b7564f2	0.0037444201
115	0x3bd2cd0b	0.0064331344
116	0x3be5c013	0.0070114224
117	0x3bc52b5d	0.006017132
118	0xbc5d0933	-0.013490963
119	0x3c341bc8	0.010992952
120	0xbb10c830	-0.0022091977
121	0x3bb37c37	0.005477454
122	0xbb0b1fd7	-0.0021228695
123	0xbc87b934	-0.016567804
124	0x3cd7feef	0.026366679
125	0xbc668889	-0.014070638
126	0xbcbaaa9b	-0.02278643
127	0xbbab35e7	-0.0052249315
128	0x3c6f5a2b	0.0146089
129	0xbd130fdc	-0.035903797
130	0x3c9a7e95	0.018859187
131	0xbc6751b9	-0.014118605
132	0xbcbbc9c8	-0.022923365
133	0xbccd4525	-0.025057385
134	0x3bfdfda5	0.007751184
135	0xbc0f8920	-0.0087607205
136	0x3c317f1c	0.010833528
137	0x3cbaa516	0.022783797
138	0x3d36bac5	0.04461171
139	0x3caec465	0.021333883
140	0x3d4dea3a	0.050272204
141	0x3b9c1372	0.0047630602
142	0x3cedaed3	0.029014027
143	0x3ac6eb55	0.0015176336
144	0xbcc12028	-0.023574904
145	0xb96bb198	-0.00022477505
146	0xbb2c51cf	-0.002629388
147	0x3b517787	0.0031962113
148	0xbc0802af	-0.008301421
149	0xbb66ff2f	-0.0035247316
150	0x3b9277db	0.0044698543
151	0x3b9f27d4	0.004857043
152	0xbb2e9d3a	-0.0026644007
153	0x3cd32edb	0.025779178
154	0xbc1c39fd	-0.00953531
155	0xbd0b8b92	-0.03406865
156	0xbd89ad9f	-0.06722569
157	0xba06618b	-0.00051262294
158	0x3cec04a6	0.02881081
159	0xbc8587b3	-0.016300058
160	0x3cf0c3ad	0.02939018
161	0xbca5da6f	-0.020245759
162	0x3c4cb30c	0.01249386
163	0x3af38967	0.0018580378
164	0xbcecc73d	-0.028903598
165	0xbcb3e381	-0.021959068
166	0xbd703bb6	-0.058650695
167	0x3c95e6d3	0.018298542
168	0xbac9036b	-0.0015336102
169	0x38f998dc	0.000119017175
170	0x3c57f596	0.013181111
171	0x3cfdefc3	0.030998116
172	0x3c83b493	0.016077315
173	0xbc72ffd7	-0.014831505
174	0xbd10ea5a	-0.035379745
175	0xbc914e36	-0.01773749
176	0xbc6a84bf	-0.014313876
177	0xbbc76f16	-0.0060862405
178	0x3cdfcf12	0.027320419
179	0x3c284f47	0.010272807
180	0x3bcb3cc1	0.006202311
181	0x3bddbf96	0.0067672236
182	0x3cb10137	0.021607025
183	0xbc3abe0e	-0.011397852
184	0x3c6903b8	0.014222078
185	0x3b8f400d	0.004371649
186	0x3b98f2c4	0.004667612
187	0x3c6a5808	0.014303215
188	0xbba5b6ed	-0.005057207
189	0xbca3941c	-0.019968085
190	0x3aff48e7	0.0019476683
191	0xbc958f3f	-0.018256782
192	0xbcb05700	-0.02152586
193	0x3cd42b48	0.025899544
194	0xbbaa60be	-0.005199521
195	0x3c663a5b	0.014051999
196	0xbb84a08e	-0.00404746
197	0xbd0e6707	-0.034766223
198	0x3bc630e9	0.006048311
199	0xbbb56e19	-0.0055368063
200	0x3cecd1a0	0.02890855
201	0xbbdc5707	-0.0067242417
202	0xbc8c0137	-0.017090423
203	0xbb0f78ba	-0.0021892027
204	0xbbaccd6c	-0.0052735116
205	0x3b9923a7	0.0046734395
206	0x3ae5f086	0.0017542995
207	0x3c46df00	0.012138128
208	0xbc77675e	-0.015100328
209	0xbc8ab70e	-0.01693299
210	0x3cbf46a5	0.023349116
211	0xbc886312	-0.016648803
212	0xbc2eb62b	-0.010663549
213	0x3d7b3166	0.061326407
214	0xba9d8c31	-0.001201993
215	0xbc47d98d	-0.012197864
216	0x3ca51418	0.020151183
217	0x3a425333	0.00074129103
218	0xbc3b1de0	-0.011420697
219	0xbc1e8ba5	-0.009676849
220	0x3ca0faa5	0.019650767
221	0xbc86874b	-0.016421935
222	0xbdb12b11	-0.086507924
223	0xbc1eed1c	-0.009700086
224	0xbcd35609	-0.02579786
225	0xbc003208	-0.007824428
226	0x3a785b2a	0.0009474034
227	0xbc8da0ba	-0.017288554
228	0x3c9f20d9	0.019424843
229	0x3cd75a0d	0.026288057
230	0x3c35987a	0.0110837165
231	0xbb075d44	-0.0020654956
232	0xbc2c248b	-0.010506759
233	0x3c717da2	0.014739426
234	0x3cc36751	0.023852976
235	0x3d091372	0.03346581
236	0x3c0ecb06	0.008715397
237	0x3c5d45ca	0.013505409
238	0x3b6daad7	0.0036265159
239	0x3ba00012	0.004882821
240	0xbc94b14f	-0.018150954
241	0x3c604878	0.013689153
242	0x3cc45118	0.02396445
243	0xbc06dace	-0.008230878
244	0xbc733761	-0.014844746
245	0xbc4d5e4b	-0.012534688
246	0xba8c47f7	-0.00107026
247	0x3cb4cce5	0.022070358
248	0x39284943	0.0001604902
249	0xbc091924	-0.00836781
250	0x3c08100a	0.008304605
251	0xbbe23b93	-0.0069040745
252	0x3c6813d9	0.014164888
253	0xbc346dc5	-0.011012499
254	0x3c29acdf	0.010356157
255	0xbc1f43a9	-0.009720721

riemannian.proj.3.weight f4 [48, 256]
0	0xbd570d3c	-0.052502856
1	0x3dd6038d	0.10449896
2	0x3c2d3555	0.010571797
3	0x3d080cd6	0.033215366
4	0xbe3db6d9	-0.18526782
5	0xbdb93274	-0.09042826
6	0x3ca30b7a	0.019902933
7	0xbd8e7b43	-0.06957104
8	0x3d712753	0.058875393
9	0xbe2304cb	-0.15919797
10	0xbd8fe4fa	-0.07026096
11	0x3c4a9c7b	0.012366409
12	0x3bcf0a2d	0.0063183517
13	0xbc546557	-0.012963614
14	0xbe10d6ab	-0.1414439
15	0x3d1bea6f	0.03806537
16	0xbd4c565b	-0.049887042
17	0xbce68ade	-0.028142389
18	0x3d0b7a6b	0.034052294
19	0xbc6a7d92	-0.014312165
20	0x3dbf03bb	0.093268834
21	0xbc11dd39	-0.008902841
22	0x3b038a57	0.002007147
23	0xbddf4cda	-0.1090333
24	0xbd21ee8e	-0.039534144
25	0xbdca27eb	-0.09870895
26	0xbbd6ed14	-0.0065590236
27	0x3de28885	0.11061195
28	0xbd1eaac5	-0.038737077
29	0x3c21b045	0.009868686
30	0x3d661241	0.056169752
31	0xbd5144a5	-0.051090855
32	0x3d401d52	0.046902962
33	0x3dc48dd5	0.09597365
34	0x3d3511f0	0.04420656
35	0x3c277997	0.01022186
36	0x3daa4a14	0.083149105
37	0x3c52abf9	0.012858384
38	0xbd7ec2e1	-0.06219757
39	0xbd2a3757	-0.041556682
40	0x3df6871b	0.12037488
41	0x3c65a3f3	0.014016139
42	0xbd248da6	-0.04017415
43	0xbcfd381d	-0.030910546
44	0xbd863ab9	-0.06554169
45	0xbc8c5bfe	-0.017133709
46	0x3da89799	0.0823204
47	0x3dbe5c0e	0.09294902
48	0xbd9c3014	-0.07626358
49	0xbc3436c2	-0.010999383
50	0xbe0f50fc	-0.13995737
51	0xbe39d18e	-0.18146345
52	0xbd535fcd	-0.051605035
53	0x3c29e7b6	0.010370186
54	0x3d101626	0.035177372
55	0xbd2d5558	-0.04231772
56	0xbd2f15ef	-0.042745527
57	0xbdf5c5e1	-0.12000633
58	0xbe0f84e9	-0.14015545
59	0xbd1d1da1	-0.038358334
60	0xbdd70236	-0.104984686
61	0x3e2b7f6f	0.16747831
62	0x3dd93836	0.106064245
63	0x3d0b4721	0.03400338
64	0x3c0a1b87	0.008429415
65	0xbe038fbc	-0.12847799
66	0x3d5d5dcd	0.054044534
67	0xbd26fc75	-0.040768106
68	0xbdc99b18	-0.09844035
69	0x3b6327e6	0.0034661232
70	0xbdc16522	-0.09443118
71	0x3d0b6181	0.034028534
72	0xbd4ba1c5	-0.049714822
73	0xbe0c21ef	-0.1368482
74	0xbda4ddd8	-0.08050126
75	0x3deb0211	0.114750035
76	0xbe1da017	-0.153931
77	0x3e005026	0.12530574
78	0x3dd4f80c	0.10398874
79	0xbd9544d8	-0.072885215
80	0xbd3cde54	-0.046110466
81	0x3e5c90a4	0.21539551
82	0xbd8960f5	-0.06707946
83	0x3db878e7	0.09007435
84	0xbdaafa7f	-0.083485596
85	0xbc733e50	-0.014846399
86	0x3d4e0d91	0.050305907
87	0xbbc4da1b	-0.0060074455
88	0x3d6bf256	0.057604156
89	0x3e4acd67	0.19804917
90	0xbcfe4eea	-0.031043489
91	0xbada8d4b	-0.0016674189
92	0x3e0c52ce	0.13703462
93	0xbd733d2f	-0.05938452
94	0x3ded6934	0.115923315
95	0x3d05881f	0.03260052
96	0x3cc3129a	0.02381258
97	0xbd231b47	-0.039820936
98	0xbdfc3bc8	-0.1231609
99	0x3e0e7867	0.13913117
100	0xbd13a452	-0.03604538
101	0x3e37cf2f	0.17950128
102	0x3cf04804	0.029331215
103	0x3d84e8c6	0.064897105
104	0xbe2d0e9b	-0.16900103
105	0xbd915776	-0.0709676
106	0xbd524004	-0.05133058
107	0xbe588931	-0.21146084
108	0xbd9ead5c	-0.077479094
109	0x3e3fa6c5	0.18715961
110	0x3c2359b1	0.009970115
111	0xbc7fcfea	-0.015613535
112	0xbdbdbe2e	-0.092647895
113	0x3dd47c1b	0.10375234
114	0xbbd9e4eb	-0.0066496036
115	0xbc8994a4	-0.01679451
116	0xbd9756d0	-0.07389605
117	0x3e216162	0.15759805
118	0xbe3cc5bf	-0.18434809
119	0xbd6e6089	-0.05819753
120	0x3d81574b	0.06315478
121	0x3d91639d	0.07099078
122	0xbe125e63	-0.14293818
123	0xbd6a32eb	-0.057177465
124	0xbce2b3fd	-0.027673716
125	0xbc4adf4b	-0.012382339
126	0xbbb593b2	-0.0055412883
127	0x3de0f07b	0.10983368
128	0xbc5e106e	-0.013553722
129	0x3d2e6083	0.04257251
130	0x3ddbd32d	0.10733638
131	0x3e30e25f	0.17273854
132	0xbda08602	-0.0783806
133	0x3dc25e9c	0.094907016
134	0xbda2932d	-0.07938228
135	0xbd91dbd6	-0.071220085
136	0x3e117cb2	0.14207724
137	0xbdcb2aa6	-0.09920244
138	0xbd4f28cc	-0.050576016
139	0xbdebdd5c	-0.1151683
140	0xbd9e42d7	-0.077275924
141	0x3e366426	0.17811641
142	0xbcfe37d6	-0.031032484
143	0x3dcb1912	0.09916891
144	0x3d3ffc35	0.046871383
145	0xbd2a1c5e	-0.04153096
146	0xbd5ce0a5	-0.053925175
147	0x3d8ae926	0.06782751
148	0xbdf75419	-0.12076587
149	0xbd051191	-0.032487456
150	0xbd485e41	-0.048918013
151	0x3c1a4d69	0.00941787
152	0x3ca6a941	0.020344378
153	0x3b21d68b	0.0024694528
154	0x3d1570d4	0.036484554
155	0xbc86da1f	-0.01646143
156	0x3de541cf	0.111941926
157	0x3d2bf368	0.041980177
158	0x3b85a082	0.004077972
159	0xbd8553f1	-0.06510151
160	0xbdd705cd	-0.10499153
161	0x3da3b7e2	0.07994057
162	0x3c23e3fb	0.010003085
163	0x3debfbee	0.11522661
164	0xbdf67a82	-0.12035085
165	0xbb856b18	-0.0040716045
166	0x3df110d9	0.117707916
167	0xbe18de32	-0.14928511
168	0xbe5111d1	-0.20416953
169	0xbda924e3	-0.08258989
170	0x3e78f089	0.24310507
171	0xbdb64c21	-0.08901239
172	0x3d4de1e4	0.050264254
173	0x3bc435f2	0.005987876
174	0xbc5a2456	-0.013314327
175	0x3d5d104c	0.05397062
176	0xbcba4ac1	-0.022740724
177	0x3dad769c	0.084698886
178	0xbdf39f2c	-0.11895594
179	0xbd4935f2	-0.049123712
180	0x3d837f72	0.06420793
181	0x3e05b761	0.13058235
182	0x3dfa4a63	0.122212194
183	0x3ddab80a	0.10679634
184	0xbd9193c1	-0.0710826
185	0x3bfa4af5	0.00763833
186	0x3c1d4102	0.009598019
187	0x3e4ed6c0	0.20199108
188	0x3b78dddb	0.0037974033
189	0x3d669e0e	0.056303076
190	0x3d16f099	0.036850546
191	0x3e2e5406	0.1702424
192	0x3dadf5d8	0.084941566
193	0xbdf53292	-0.11972536
194	0x3e00ad5b	0.1256613
195	0xbe417329	-0.18891586
196	0xbc339c38	-0.010962538
197	0xbcc44ab8	-0.02396141
198	0x3b343314	0.0027496265
199	0xbc6999b4	-0.014257837
200	0xbd8d8e02	-0.069118515
201	0xbe0a3703	-0.13497548
202	0xbd00ec12	-0.031475134
203	0xba4f25e1	-0.0007902068
204	0xbd5f6359	-0.054538105
205	0x3d04ddb8	0.03243801
206	0xbcc25a52	-0.023724709
207	0x3cb112fa	0.021615494
208	0x3beb047d	0.007172166
209	0xbdc8b167	-0.09799462
210	0xbd3341e2	-0.043764003
211	0xbe04cd9b	-0.12969057
212	0xbd059e9e	-0.032621972
213	0xbe4d1dc8	-0.20030892
214	0x3d1e784b	0.03868894
215	0x3ddc23c0	0.10749006
216	0xbe5c41cf	-0.21509479
217	0xbe37dc4c	-0.1795513
218	0xbe2bb384	-0.16767699
219	0x3d57bc5f	0.05266988
220	0xbe63c59b	-0.22243349
221	0xbc9a4d14	-0.018835582
222	0x3e4d43fe	0.20045468
223	0x3e039483	0.12849621
224	0x3e0606e5	0.13088568
225	0x3c025ae7	0.007956243
226	0x3d1fcffa	0.0390167
227	0xbe06061f	-0.13088273
228	0xbd867065	-0.06564406
229	0x3d17f892	0.03710229
230	0xbd7b7dab	-0.061399143
231	0x3da560fd	0.0807514
232	0xbd07d6f9	-0.033164
233	0xbdcd8aba	-0.100362256
234	0x3cbdfe33	0.0231925
235	0x3cf8f775	0.030391434
236	0xbdf89b3e	-0.12138985
237	0x3e36851a	0.17824212
238	0xbd09a494	-0.03360422
239	0xbc8942c4	-0.01675547
240	0x3d0e2cba	0.034710623
241	0x3d023c72	0.031795926
242	0xbde56806	-0.112014815
243	0x3d666928	0.05625263
244	0xbc933bd0	-0.017972857
245	0xbd3772fc	-0.044787392
246	0xbe11ea3e	-0.14249513
247	0x3d8ae7ad	0.0678247
248	0xbdb0d433	-0.08634224
249	0x3d394b12	0.04523761
250	0xbcfe036d	-0.031007493
251	0xbd3d0ce0	-0.046154857
252	0x3cfe7c05	0.031064996
253	0xbb067aeb	-0.0020520042
254	0x3e007b63	0.12547068
255	0xbdccb921	-0.09996248

riemannian.proj.3.bias f4 [48]
0	0xbdb0c31d	-0.08630965
1	0x3da04208	0.078250945
2	0xbd1d602f	-0.038421806
3	0x3bc0f84b	0.005888974
4	0x3dab79a5	0.08372811
5	0xbd6844e3	-0.05670632
6	0x3da654d9	0.08121652
7	0xbd059464	-0.03261222
8	0xbd842460	-0.064522505
9	0x3de37829	0.11106903
10	0x3d61a7dc	0.055091724
11	0x3dbdba6e	0.09264074
12	0x3dc68ecb	0.09695204
13	0x3db68dec	0.08913788
14	0x3d2950eb	0.041336935
15	0x3cc157c8	0.023601428
16	0xbb0a5c75	-0.0021112238
17	0x3cb32d33	0.021872139
18	0x3c373017	0.011180899
19	0xbc87ddb0	-0.016585201
20	0xbd6f423f	-0.058412787
21	0xbd19e8ad	-0.037575413
22	0x3e011b9e	0.12608191
23	0xbc171d36	-0.009223273
24	0x3de62aac	0.11238608
25	0xbe06c4e5	-0.13161047
26	0x3e030c89	0.1279775
27	0xbe4da719	-0.20083274
28	0x3cee4327	0.029084755
29	0x3d6a07ab	0.05713622
30	0xbb86b4c5	-0.004110905
31	0xbdd41184	-0.10354903
32	0x3d2b8f03	0.041884433
33	0xbdada108	-0.0847798
34	0xbcbcd2a0	-0.023049653
35	0xbd6bb676	-0.057547055
36	0x3d4c1948	0.049828798
37	0xbd7e228b	-0.06204466
38	0x3d32b1ba	0.043626525
39	0xbda2eaf0	-0.07954967
40	0x3d14e6c2	0.03635288
41	0xbda35358	-0.07974881
42	0x3ccc2532	0.02492008
43	0x3e080076	0.13281426
44	0xbd905d1c	-0.07049009
45	0x3cfed7a0	0.031108677
46	0x3d935775	0.071944155
47	0x3d0cd99f	0.034387227

cnn.block1.0.weight f4 [16, 1, 1, 64]
0	0x3db2171e	0.086958155
1	0xbae484ca	-0.0017434594
2	0x3d655ea0	0.055998445
3	0x3d358354	0.044314697
4	0x3c01dcd9	0.007926189
5	0x3d9b93c9	0.07596547
6	0x3da22db8	0.079188764
7	0xbc1648df	-0.009172647
8	0x3d3472cd	0.044054795
9	0x3cf7890b	0.030216714
10	0x3d0865c3	0.033300173
11	0x3e2c14d5	0.16804822
12	0x3dc49751	0.09599174
13	0x3ddfc1e1	0.10925651
14	0x3dac0d90	0.08401024
15	0x3c997432	0.018732164
16	0x3d501f40	0.050811052
17	0x3dcacd1e	0.09902404
18	0x3da37e2f	0.07983052
19	0x3e2db2f8	0.16962802
20	0x3e0f079c	0.13967746
21	0x3c80cdc1	0.015723111
22	0x3d9d2ba7	0.07674342
23	0x3c92828b	0.017884513
24	0x3da5fa80	0.0810442
25	0x3d319f82	0.04336501
26	0xbc4c0244	-0.012451712
27	0xbd8995b3	-0.06718006
28	0xbcda3c6a	-0.026640136
29	0x3d01ace3	0.03165902
30	0x3e2cf849	0.16891588
31	0x3e3d99e1	0.18515731
32	0x3e37e719	0.1795925
33	0x3db9b1f9	0.09067149
34	0x3dfeba44	0.12437871
35	0x3db7415d	0.08948014
36	0xbc1af654	-0.009458143
37	0x3df17510	0.11789906
38	0x3d0d076b	0.034430902
39	0x3d758e5e	0.059950225
40	0x3dbf6ca0	0.093468904
41	0xbb3b6340	-0.0028593093
42	0x3c5cd931	0.013479517
43	0x3c289332	0.010289
44	0xbc206a3e	-0.009790955
45	0x3d350a60	0.044199347
46	0xbd03e88d	-0.0322042
47	0xbc3f42b2	-0.011673616
48	0x3da360d3	0.07977452
49	0x3ca383b1	0.019960256
50	0x3dcf5854	0.10124269
51	0x3e27f0e2	0.16400483
52	0x3de515ce	0.111857995
53	0x3df12ed3	0.11776509
54	0x3dcd205a	0.10015936
55	0x3d8a1e65	0.067440785
56	0x3d53d798	0.051719278
57	0x3d466bcd	0.04844265
58	0x3d2d3066	0.042282484
59	0xbbdb5696	-0.0066936715
60	0x3cd2d524	0.025736399
61	0x3dbae844	0.091263324
62	0x3e15f18a	0.14642921
63	0x3e50e7da	0.20400944
64	0xbe45f743	-0.19332604
65	0xbdb9b3f5	-0.09067527
66	0xbcb56999	-0.02214508
67	0x3c9eae7e	0.019370314
68	0xbcad516d	-0.02115699
69	0x3d3318bb	0.043724757
70	0x3d7fd021	0.062454347
71	0x3d689e63	0.056791674
72	0x3d10395d	0.035210956
73	0xbd28da1b	-0.041223627
74	0xbe01ad7d	-0.12663837
75	0xbe29ce5e	-0.16582629
76	0xbe498714	-0.19680434
77	0xbe50e00c	-0.20397967
78	0xbe5e4f89	-0.21710028
79	0xbe264a5c	-0.16239303
80	0xbdb31d7c	-0.08745858
81	0xbd65767d	-0.056021202
82	0xbd18f877	-0.03734633
83	0x3d1dba7a	0.038507916
84	0x3d906eb5	0.07052366
85	0x3d9404c2	0.0722747
86	0x3d532718	0.051550955
87	0x3d3f4b3f	0.04670262
88	0xbcaf34b8	-0.021387443
89	0x3b8f766f	0.004378132
90	0x3c83a759	0.016071009
91	0x3bfb5b00	0.00767076
92	0x3bd6e39f	0.0065578963
93	0x3c4a6de5	0.012355302
94	0xbc48ce5d	-0.012256232
95	0xbdac4075	-0.08410732
96	0xbe0cb6b1	-0.13741566
97	0xbe169f35	-0.1470917
98	0xbe12ef7c	-0.14349169
99	0xbe219548	-0.15779603
100	0xbe08c2f5	-0.1335562
101	0xbe016155	-0.12634785
102	0xbda09e08	-0.07842642
103	0xbd1b1a8a	-0.037867106
104	0xbc8d4b95	-0.017247954
105	0x3cac6bbb	0.021047464
106	0x3d3ac653	0.045599293
107	0x3dc072c7	0.09396892
108	0x3dc2ba04	0.09508136
109	0x3de0b234	0.109714895
110	0x3d9cff96	0.07665937
111	0x3d3b1a0f	0.04567915
112	0xbcc3755b	-0.02385967
113	0xbd38b219	-0.045091722
114	0xbd86c2e8	-0.06580144
115	0xbd8731df	-0.06601309
116	0xbdf7ea42	-0.12105228
117	0xbe0d0af5	-0.13773711
118	0xbe02dad7	-0.12778793
119	0xbe08045b	-0.13282911
120	0xbd9b67e3	-0.07588174
121	0xbcbd31af	-0.02309498
122	0x3c78ce27	0.015185869
123	0x3c94d2be	0.018166896
124	0x3bb60fe9	0.005556096
125	0xbd48e8a4	-0.04904999
126	0xbde48081	-0.11157323
127	0xbe1ba96c	-0.15201348
128	0x3e8e5c38	0.27804732
129	0x3e3a776f	0.18209623
130	0x3c1e437c	0.009659644
131	0xbd6b44e6	-0.057438754
132	0xbdfb0032	-0.12255897
133	0xbe2083ac	-0.15675229
134	0xbdc1ad7b	-0.09456917
135	0xbc8d4433	-0.017244434
136	0x3c670c07	0.014101989
137	0x3ce72be7	0.028219176
138	0xbc30620b	-0.010765563
139	0xbd3be158	-0.0458692
140	0xbc8869f3	-0.016652083
141	0xbd976097	-0.0739147
142	0xbda70152	-0.08154549
143	0xbd779e04	-0.06045343
144	0xbc61521c	-0.013752487
145	0xbc799d07	-0.015235192
146	0x3bee5931	0.007273816
147	0x3b60f682	0.0034326618
148	0xbb090349	-0.00209065
149	0x3cf934a8	0.030420616
150	0xbd9c6412	-0.076362744
151	0xbdc34b77	-0.09535878
152	0xbd99d06b	-0.07510456
153	0x3b8bcfcb	0.004266714
154	0x3dc7a476	0.09748165
155	0x3e126fa5	0.14300402
156	0x3dc62188	0.09674364
157	0x3a620f75	0.0008623519
158	0xbd7ce88f	-0.061745223
159	0xbde625dc	-0.1123769
160	0xbc585d15	-0.013205786
161	0xbb95c722	-0.0045708576
162	0x3cd3b11d	0.02584129
163	0x3d721b49	0.059108052
164	0x3d84cfab	0.06484922
165	0x3da0fb35	0.07860414
166	0x3db2666d	0.087109424
167	0x3dc98761	0.098402746
168	0x3da3a154	0.07989755
169	0x3dbb43d3	0.09143796
170	0x3d0f6d06	0.035016082
171	0x3d94fac0	0.07274389
172	0x3de29e82	0.11065389
173	0x3d8f5941	0.06999446
174	0x3e0ac91e	0.13553283
175	0x3de367d7	0.1110379
176	0x3e090c91	0.133837
177	0x3d7efe6a	0.062254347
178	0x3c8ffaa6	0.017575573
179	0xbcc6972a	-0.024242003
180	0x3d80fc6c	0.06298146
181	0x3b8329cb	0.004002785
182	0x3badb116	0.0053006513
183	0xbc799de0	-0.015235394
184	0xbdfa4dfe	-0.12221907
185	0xbd917008	-0.071014464
186	0xbd011281	-0.031511787
187	0xbceec7a7	-0.029147936
188	0xbcf93302	-0.03041983
189	0xbdcca07f	-0.0999155
190	0xbe763e8d	-0.24047299
191	0xbe8bc2db	-0.272971
192	0xbe2e6b94	-0.17033225
193	0xbe4a86d3	-0.19777994
194	0xbe180872	-0.14846972
195	0xbdd886b4	-0.105725676
196	0xbe1fed80	-0.15617943
197	0xbe3a91d3	-0.1821969
198	0xbe01e881	-0.1268635
199	0xbde1e00d	-0.110290624
200	0xbdc64dc6	-0.09682803
201	0xbd6dcbff	-0.058055874
202	0xbe0ba414	-0.1363681
203	0x3b9129bf	0.0044300254
204	0xbba3d368	-0.004999567
205	0x3d2c5a38	0.042078227
206	0x3c715628	0.014730014
207	0x3cfa676f	0.0305669
208	0x3d942e76	0.07235424
209	0x3d1e7c7c	0.038692936
210	0x3dae01ba	0.08496423
211	0xbc858ea8	-0.016303375
212	0xbd921370	-0.07132614
213	0xbd6015b1	-0.054708187
214	0xbd8acb11	-0.06777013
215	0xbd2e0d44	-0.04249312
216	0xbdee68f8	-0.11641115
217	0xbe205be2	-0.1566005
218	0xbdf49548	-0.11942536
219	0xbdfe9197	-0.12430113
220	0xbd847cd2	-0.0646912
221	0xbb80d3af	-0.0039314847
222	0xbd6141cc	-0.05499439
223	0xbd37bee5	-0.044859786
224	0x3cf9bdce	0.030486014
225	0x3e264136	0.16235813
226	0x3da8d106	0.08242993
227	0x3d622fd2	0.055221386
228	0x3df0ae71	0.11752022
229	0x3de67681	0.112530716
230	0x3d12a921	0.035805825
231	0xb892cea7	-7.0003145e-05
232	0x3c8dca62	0.017308418
233	0xbe1c5f0e	-0.15270635
234	0xbd652c0f	-0.05595022
235	0xbd6f11c8	-0.058366567
236	0xbdad5203	-0.08462908
237	0xbd615020	-0.055008054
238	0xbd96ce55	-0.073635735
239	0x3dba3bb6	0.0909342
240	0x3cc2b336	0.023767095
241	0x3d586530	0.052830875
242	0x3c22bd2f	0.0099328
243	0xbc589c4c	-0.013220858
244	0x3dceca37	0.10097163
245	0x3e3c0ecc	0.1836502
246	0x3d828a8b	0.06374081
247	0x3e42b43a	0.19014063
248	0x3d9e7f1c	0.07739088
249	0x3dd3f02d	0.10348544
250	0x3dde7c3e	0.10863541
251	0x3d8964d4	0.067086846
252	0xbae6b6fb	-0.001760214
253	0xbb79faac	-0.0038143797
254	0xbc76e266	-0.015068626
255	0x3d5423cb	0.051791947

cnn.block1.1.weight f4 [16]
0	0x3f8e46e1	1.111538
1	0x402366a3	2.5531394
2	0x4036765f	2.8509748
3	0x4004ff4a	2.0780816
4	0x3f0fbda8	0.5614877
5	0x3fdd55e5	1.7291838
6	0x40840785	4.125918
7	0x3dcc440b	0.09973916
8	0x40809661	4.018357
9	0x40429d36	3.0408454
10	0x3fb3eaf7	1.405608
11	0x4063c808	3.559084
12	0x40870ef5	4.220576
13	0x403ce4bb	2.9514606
14	0x3fa49045	1.2856528
15	0x405b19cb	3.4234493

cnn.block1.1.bias f4 [16]
0	0x3bb488d3	0.005509475
1	0xbbf76385	-0.0075497054
2	0x3a6b5b7e	0.0008978172
3	0x3c396d4c	0.011317562
4	0x391481d4	0.00014162745
5	0xbc80d5aa	-0.015726883
6	0xbcb93967	-0.02261038
7	0x3dc7e3ed	0.0976027
8	0xbbf6921e	-0.0075247427
9	0xbcb8fd44	-0.022581704
10	0xbc4f647a	-0.012658233
11	0xba7bffbe	-0.00096129987
12	0xbb14494e	-0.00226267
13	0xbcdfc1b2	-0.02731404
14	0x3cae6b3a	0.021291364
15	0xbd14f570	-0.03636688

cnn.block1.1.running_mean f4 [16]
0	0x3b8ed579	0.004358944
1	0xbb49adab	-0.003077368
2	0x397bbd08	0.00024007645
3	0xbad3c55e	-0.0016156842
4	0x3b97bf35	0.004630948
5	0xb9820eb7	-0.00024806496
6	0xb8b370ed	-8.556419e-05
7	0xb9ce7669	-0.00039379604
8	0x39178ba6	0.00014452505
9	0xb8eb4fb4	-0.00011220519
10	0x3af1f798	0.001846063
11	0xb874f898	-5.8405654e-05
12	0xb9ae2246	-0.00033213402
13	0x39dc9b88	0.0004207755
14	0x3aa1fe05	0.0012359029
15	0xb915ddf4	-0.00014292431

cnn.block1.1.running_var f4 [16]
0	0x406c6a8d	3.6940033
1	0x402b9d1d	2.6814644
2	0x3fb02907	1.376252
3	0x401b12d4	2.4230242
4	0x40648bba	3.5710282
5	0x3fdfe325	1.7491194
6	0x3fdfd312	1.7486289
7	0x3fc5f777	1.5466145
8	0x3f701adb	0.9379098
9	0x3f00fd05	0.5038608
10	0x3f3ea619	0.74472195
11	0x3eb4b021	0.35290626
12	0x40023fd8	2.0351467
13	0x3f20f4fe	0.6287383
14	0x3f08e704	0.534775
15	0x3f1d4dd0	0.6144686
