models/2a_LOSO/model_1.pth (torch, 985978 bytes, 93 tensors)

fusion_proj f4 [48, 48]
000000 da 92 b0 3f a8 bf f6 3f 6c c4 87 bf 2f 34 fb bf
       1.3794816 1.9277239 -1.0606818 -1.96253
000010 cd ea 09 bf a1 0b 79 3f 45 33 dc bf f6 16 29 3f
       -0.538739 0.9728337 -1.7203146 0.6605066
000020 06 7d 4b 3f 06 6e a9 bf 3a 39 6b 3e 9f 50 0f c0
       0.79487646 -1.3236701 0.22971049 -2.2392957
000030 db dd 0a bf 64 cd 50 bf e8 d5 7e 3e e7 41 41 be
       -0.54244775 -0.815634 0.24886286 -0.18872796
000040 2b d1 8e 3e 3d e2 60 3e 82 3b 19 3f 5e 99 45 bf
       0.27893957 0.21961303 0.59856427 -0.77187145
000050 13 ae 1a bf 61 d1 24 bf ac 5e 80 be 94 3a 8a bf
       -0.60421866 -0.64381987 -0.2507223 -1.0799127
000060 e9 29 e5 3e 1d 92 d6 bf 29 57 81 bf 18 a8 00 3f
       0.44758537 -1.676334 -1.0104724 0.5025649
000070 e7 5a d7 bf 27 fa 6b 3d b1 86 8b bf cc 22 c5 bf
       -1.6824616 0.05761161 -1.090048 -1.5401244
000080 50 c8 0d 3f 31 92 3e bf 72 31 b6 3d 0a b8 dc 3f
       0.5538378 -0.7444182 0.0889615 1.7243664
000090 a4 30 1b bc 92 f3 b7 3f 4a d9 f8 3b 0c ee 57 3f
       -0.009472046 1.4371207 0.0075942622 0.84347606
0000a0 be 95 1e bf 4a 53 6e 3d ec 95 8f 3d e2 8e 69 bd
       -0.6194724 0.0581849 0.07011017 -0.05702103
0000b0 bc a5 e2 be 3c 5a f5 bc f9 7f 72 be 0c 23 25 bf
       -0.4426707 -0.029950254 -0.2368163 -0.645066
0000c0 14 11 6f 3f 40 ec 6e 3f 1c c8 8f 3e af 25 ee 3e
       0.93385434 0.9332924 0.2808236 0.46513125
0000d0 fb 5c de 3f 66 3b 53 3f 21 98 05 3f 49 11 a3 3e
       1.7372125 0.8251251 0.52185255 0.31849125
0000e0 b0 6a 60 bd a3 bf a1 3e be ad cc 3e a5 6b 89 bf
       -0.054789245 0.3159152 0.39976305 -1.0735976
0000f0 9d 02 b6 3e 84 70 95 3e 23 c3 86 3f 7a 0e 1c 3e
       0.3554887 0.29187405 1.0528301 0.15239897
000100 ed 11 2b 3f 36 24 2f bf 34 60 83 bf af d0 87 3e
       0.6682423 -0.6841463 -1.0263734 0.265264
000110 cf 41 8a bf ba b1 a4 bf cc f4 17 3f e9 ee 55 3c
       -1.0801333 -1.2866738 0.59357905 0.013057449
000120 81 fd 9a be 72 ac eb bf b8 d4 b1 bd ce 68 a4 be
       -0.30271533 -1.8412001 -0.08683151 -0.3211121
000130 33 0a bc bf d3 15 da 3f c0 da fb bf 0b df 38 bf
       -1.4690613 1.703791 -1.9676132 -0.72215337
000140 7f 49 86 3f f0 e2 d2 3d f6 ac a4 3d 2b 22 3c be
       1.0491179 0.10297191 0.08040802 -0.18372409
000150 80 eb c3 bf e1 67 1d c0 40 e0 b5 3f 37 71 e2 3e
       -1.5306244 -2.4594653 1.4209061 0.44227
000160 c1 50 6b bf d4 9a dd be ce 54 00 bf fb e0 08 3f
       -0.91920096 -0.43282187 -0.501294 0.5346829
000170 70 4f 33 3f b4 6c 40 3f ec 7d d7 3f d3 cd c2 3e
       0.70043087 0.7516587 1.6835303 0.38047656
000180 15 f8 0b 3f 85 83 b5 bf 8e 34 9e bf bc 94 9a 3e
       0.5467542 -1.4180762 -1.2359788 0.301916
000190 7f c5 0b 3f ce 8a 8a 3e 3e b2 a1 3f f3 03 16 bf
       0.5459823 0.27059025 1.263252 -0.58599776
0001a0 26 81 a1 bf 61 61 aa 3f a8 ac 87 3e f1 67 95 3f
       -1.2617538 1.3310968 0.26498914 1.1672345
0001b0 78 9c 1b be e1 c5 17 3e 0a a0 2c 3f 47 89 bb 3d
       -0.15196407 0.14821579 0.674317 0.09157043
0001c0 b8 1e 9e bd e1 e4 7e bf dc 42 04 bf 27 d7 7a be
       -0.07720703 -0.9956799 -0.5166452 -0.24496137
0001d0 a9 b4 8f bf 84 98 ab 3e 57 2c 91 bf ca 2d 2c bf
       -1.1227008 0.33514798 -1.1341656 -0.6725737
0001e0 f1 a6 85 3f d2 b2 22 3f 74 39 61 3f a3 9e 2e bf
       1.0441571 0.6355411 0.8797829 -0.6821081
0001f0 6f ba 54 bf ee 6e 29 3f 3b 80 1f 40 fc 2f ff be
       -0.83096975 0.6618489 2.4922016 -0.49841297
000200 3b ae aa bf 7c 9e 62 3f a4 c6 35 bf 77 da 14 bf
       -1.3334421 0.8852308 -0.71006227 -0.5814585
000210 e8 62 34 bf 22 17 b1 be ff 8a a2 be 17 ff 0b 3f
       -0.7046342 -0.3458796 -0.3174667 0.5468611
000220 42 09 3a 3f 84 bf 7e bf 64 fe 7b 3c c3 fd b4 3e
       0.72670376 -0.9951098 0.015380476 0.35349855
000230 f2 95 f2 bf d7 33 13 3f 0e 0e 0e bf ed eb 4c bf
       -1.895201 0.57500976 -0.55490196 -0.80047494
000240 61 01 4a bf 06 14 a9 3e 4b a1 21 bf ec a6 b6 3f
       -0.78908354 0.3302309 -0.6313674 1.426969
000250 86 57 55 bf 21 1a 2e 40 92 46 4b 3e 73 90 60 3f
       -0.83336675 2.7203448 0.19851139 0.8772041
000260 32 e4 90 3f 7c d2 db bf 29 a7 66 3f b5 6e ce bd
       1.131964 -1.717361 0.90098816 -0.100797094
000270 18 29 52 3f 1f fa c6 3f 33 65 4c bf 7c 0e bf 3d
       0.82093954 1.5545081 -0.7984192 0.093289346
000280 38 5a 63 bd 0a 82 4b 3d 2d 90 a1 bf c9 f6 c4 3f
       -0.05550596 0.04968456 -1.2622124 1.5387813
000290 48 8c ec 3e 39 df 08 3f 90 48 80 3f 66 50 e5 3d
       0.46200776 0.5346561 1.0022144 0.111969754
0002a0 c8 b9 c1 be 8f 81 93 3e 7f 5b 09 c0 e4 a6 9d be
       -0.37837052 0.28809783 -2.1462095 -0.3079139
0002b0 1e 2d 6d 3b d9 e5 d0 3f 94 ec 33 3f be f3 74 3d
       0.0036190222 1.6320144 0.70282865 0.059802763
0002c0 f7 87 f2 3e 5a 86 c5 3d c5 59 ec 3e a1 c7 22 be
       0.47369358 0.09644766 0.4616224 -0.15896465
0002d0 99 9d 6a bf 56 8c 01 bc 99 66 d7 3f 4c 07 ef 3b
       -0.91646725 -0.007906994 1.6828185 0.007294571
0002e0 e2 f6 92 be 44 30 39 bf 2d 5c 2a 3f 05 25 bb bf
       -0.28703982 -0.7233927 0.665469 -1.4620672
0002f0 ec ee 15 bf 6c 93 d4 3d ed 87 2a bf 4c 63 b0 bf
       -0.5856769 0.10379681 -0.66613656 -1.3780303
000300 3e 3c 0e 40 07 b3 9c bd 5c 6d 0c 3f d3 8c 0a bf
       2.222427 -0.07651334 0.5485437 -0.5412113
000310 f2 2d 92 be 61 0e af be 5c 36 82 3f c2 10 b0 3d
       -0.28550678 -0.34190658 1.0172839 0.08596946
000320 83 81 44 bf 72 16 5c bf 1d 03 0a be 18 e5 9a 3f
       -0.7676012 -0.8597175 -0.1347775 1.2101164
000330 f6 1a a1 bf db 34 5f 3f 52 2c cf 3e 51 b3 08 bf
       -1.2586353 0.87190026 0.404635 -0.53398615
000340 e7 28 b4 bf ff 9b 35 bf a5 fd 8d bf ab af 0d 40
       -1.4074982 -0.70941156 -1.1093031 2.213847
000350 ec e5 30 3f dc d5 39 bf 49 4c 9f 3f a0 a6 57 bf
       0.6910083 -0.7259195 1.2445155 -0.84238625
000360 24 df a2 bd ba b1 a9 bf a5 25 d3 bd 62 85 e3 be
       -0.07952717 -1.3257363 -0.103099145 -0.444377
000370 1e 97 e0 3f 06 73 14 3f ab 15 2a 3f 61 69 d8 3d
       1.7546117 0.5798801 0.6643931 0.105669744
000380 47 46 be be 36 9e 6c 3e 16 13 29 bf b6 10 d1 bf
       -0.37162992 0.23107228 -0.6604475 -1.6333225
000390 cf 3b 42 3f 71 e2 19 3f d4 52 0c bf 04 54 9f 3d
       0.7587251 0.6011115 -0.54813886 0.077796966
0003a0 9a bb c5 bd cf 16 40 bf 82 94 ed 3b 56 6d e2 be
       -0.09654923 -0.75034803 0.0072503695 -0.44224042
0003b0 12 ad 2a 3f 34 35 15 3f df 8f 8c 3f f4 78 4e bf
       0.66670334 0.58284307 1.0981406 -0.8065331
0003c0 a2 29 54 3f 38 d6 c4 bf 77 13 fb 3e 1d 63 66 bd
       0.82876027 -1.5377874 0.49038288 -0.056246866
0003d0 a0 41 26 3d dc da ff bf 69 71 59 3f 43 12 6d 3d
       0.04058993 -1.9988666 0.84938675 0.057878744
0003e0 ba c1 a3 3d a7 b9 3e 3f 8b 0e 55 be b4 c8 d6 3d
       0.07995935 0.74502033 -0.20806329 0.104875
0003f0 6a 16 00 3f 5f dd ca bd 42 27 a2 bf ef 5f d4 bf
       0.500342 -0.099055044 -1.266823 -1.6591777

pos_enc f4 [1, 500, 48]
000000 c6 d8 5f 3f 34 52 f6 3f 00 4b a5 3f 38 3f 93 3f
       0.87440145 1.9243836 1.2913513 1.1503668
000010 37 e9 9d be 6d 15 79 bf c0 22 b3 3d 78 32 50 bf
       -0.3084199 -0.9729832 0.087468624 -0.8132701
000020 2a d4 9b 3f 10 87 05 40 47 31 a1 bc 88 1a 4d 3f
       1.2174122 2.0863686 -0.019676818 0.8011861
000030 86 b2 8a bf d3 8f fc 3f 73 14 e4 3e 64 2f 44 3f
       -1.0835731 1.9731392 0.44546852 0.7663481
000040 71 16 b6 3f 18 4d 89 bf f0 dd a2 bf 57 0a b1 be
       1.4225599 -1.0726652 -1.272398 -0.345782
000050 66 de eb be 4d 3c 21 3f 29 53 25 bf 88 23 85 3e
       -0.46068114 0.62982637 -0.6458002 0.2600367
000060 fc 99 4a bf 87 8a 09 bf 78 86 20 3f 4f ae 16 bf
       -0.7914121 -0.53727 0.62705183 -0.58859724
000070 54 0c 69 bf 0f 48 fb 3e 59 c4 89 bf 99 8d 00 40
       -0.91034436 0.49078414 -1.0763046 2.0086424
000080 e7 be 05 3f 0a 88 c4 bf 7a 35 65 3f 52 a7 c4 bf
       0.5224442 -1.5354016 0.89534724 -1.5363562
000090 a2 b7 50 be e1 9b e8 3f d1 af 84 3f 8f 82 43 3f
       -0.2038255 1.817257 1.0366155 0.7637109
0000a0 6b 5b 9b bf bb 8d 9c bd 80 e2 c0 be 93 6c c4 be
       -1.2137274 -0.076442204 -0.37672806 -0.38364086
0000b0 96 6e 64 3e 8c 61 39 bf f9 4c fb bb f2 97 97 be
       0.2230781 -0.7241447 -0.007669088 -0.29608113
0000c0 eb 20 bc 3e d3 19 7b 3c 79 62 67 3f 03 75 23 40
       0.36743864 0.015325981 0.9038463 2.5540168
0000d0 86 c2 e0 bf 00 4e b9 3f 38 1d 82 3f 88 d1 14 c0
       -1.7559364 1.4476929 1.0165167 -2.3252888
0000e0 db b2 05 c0 5e c3 51 bf 3c 96 44 3f 4c f2 ff 3f
       -2.0890415 -0.8193873 0.7679174 1.9995818
0000f0 11 84 9c 3e a8 38 3b 40 d4 c0 42 40 ce ee 0f c0
       0.3056951 2.925333 3.0430193 -2.2489505
000100 28 07 9d 3f cc 60 26 3f 52 8b bf bf 94 4d a4 bf
       1.2267809 0.6499145 -1.4964392 -1.2836175
000110 71 b8 0d bf 90 c7 8a ba e2 a1 cc 3f ff 7a 63 3e
       -0.5535956 -0.0010588039 1.5986903 0.22214888
000120 d5 db 23 bf 1b 43 5d bf 33 dd c5 bf 8c 06 b9 bf
       -0.6400731 -0.8643052 -1.545813 -1.4455123
000130 51 19 a3 3f 28 0d a1 3e ae c3 01 3d 4b 7c 8e bf
       1.2742101 0.3145535 0.031680755 -1.1131681
000140 fc 32 35 c0 e0 25 84 3f 4f ee 51 3f 64 a7 df 3f
       -2.8312368 1.0324059 0.82004255 1.7472959
000150 9a 56 e7 bf 0e da 50 40 17 59 e7 3f 71 8c 77 bf
       -1.8073304 3.263309 1.8074063 -0.9669867
000160 a1 72 43 c0 b4 25 f2 3f 83 24 6f bf fc eb 55 c0
       -3.0538714 1.8917756 -0.9341509 -3.3425283
000170 8b 39 38 c0 93 21 83 3f be 21 3c bf 3c a1 91 3e
       -2.8785121 1.0244621 -0.73488986 0.28443325
000180 fc 7e 6c c0 c8 81 90 c0 28 bc ff bf 90 15 7c bf
       -3.6952505 -4.5158424 -1.9979296 -0.984704
000190 b0 4c 24 bd 10 f2 12 40 56 38 b8 3f b8 00 76 3f
       -0.040112197 2.2960243 1.4392192 0.96094847
0001a0 d6 59 f6 bf 81 33 c4 3f 64 84 1c bd 12 42 4a 40
       -1.9246166 1.5328218 -0.038212195 3.1602826
0001b0 40 b8 e4 bf 7c aa 9e bc da 59 c7 bf d2 6d e2 bf
       -1.7868729 -0.019368403 -1.5574296 -1.7689764
0001c0 06 28 0f c0 f8 29 85 3f fe c4 41 c0 8f ee 84 be
       -2.2368178 1.0403433 -3.0276484 -0.25963256
0001d0 1d 94 45 bf 2d 10 9c 40 5b dc 1d 40 08 94 a0 be
       -0.7717913 4.8769746 2.4665744 -0.3136294
0001e0 d5 a2 71 40 71 ef ab 3e 0e 34 5a bf 37 60 1c 40
       3.7755635 0.33581117 -0.8523568 2.4433725
0001f0 0a e6 8a 3f c4 74 2b 40 dc 00 71 bf dc 6b 0c bf
       1.0851452 2.6790018 -0.94141936 -0.5485208
000200 a1 8f bc 3d d6 40 3a 40 10 07 ce bf f8 be cf 3f
       0.092070825 2.9102073 -1.6095905 1.6230154
000210 f1 9d 96 bf a7 d7 34 bf 30 55 0e be f7 8b 91 3f
       -1.176695 -0.7064156 -0.13899684 1.1370839
000220 49 a9 9b bf 89 0e 1b 40 75 2b 82 3f 51 97 73 40
       -1.2161037 2.4227622 1.0169512 3.8061106
000230 d2 ba 0c bf 97 da 22 c0 45 97 51 3f 09 9e 08 3b
       -0.54972565 -2.5445917 0.81871444 0.002084615
000240 67 71 7b 3f 3d 1b 8b 3f c0 8d 73 3f 22 2e 8b bd
       0.98219913 1.0867687 0.9513817 -0.067959085
000250 9b 35 8f 3d 43 0c a3 3f b5 c5 b6 be d2 79 ad 3f
       0.06992646 1.2738117 -0.35697713 1.3552802
000260 b7 40 21 bf 3a 82 62 bd 2e 45 3b c0 01 3a 80 c0
       -0.6298937 -0.055299975 -2.9260974 -4.0070806
000270 38 1f 0b 40 96 d4 a1 3e 5d 98 ed bf e6 0b f6 bf
       2.1737804 0.31607503 -1.8562123 -1.9222381
000280 99 2a 84 c0 00 82 8d be db 95 30 c0 d9 50 da 3f
       -4.1302 -0.27638245 -2.7591465 1.7055923
000290 d2 8e e8 bf fd c9 a1 3f 16 51 10 40 a4 c8 75 40
       -1.8168585 1.2639767 2.254949 3.8403711
0002a0 98 db 4b bc 9e e3 99 3f 62 51 9a 3f 0e 15 e4 3e
       -0.012442492 1.2022588 1.2056086 0.44547313
0002b0 01 f5 fb bf 4b 54 3b bf 46 e9 fe 3f 5f 60 13 c0
       -1.9684144 -0.73175496 1.9914939 -2.302757
0002c0 21 e6 00 40 f9 dd 59 be 75 8d 5b bf d0 ae 47 3f
       2.014046 -0.21276082 -0.8576272 0.7800112
0002d0 50 02 a4 be dc 34 2f 40 b5 9d 78 3e 13 90 dd 3f
       -0.32033014 2.7376013 0.2427891 1.7309593
0002e0 7c 90 92 bf 59 be 6e bf 52 ce 24 bf 9b 9e 8b 3e
       -1.1450343 -0.932592 -0.6437732 0.27269444
0002f0 8e 49 dc 3f 23 95 4a c0 dc 76 0a bf e5 34 19 40
       1.7209947 -3.1653526 -0.54087615 2.3938534
000300 42 7e 76 3f bf 5d 16 3f a6 55 b7 bf 89 34 22 40
       0.96286404 0.58736795 -1.4323013 2.5344565
000310 73 63 ce bf a2 61 16 c0 53 68 72 bf 3d 6c e8 bf
       -1.61241 -2.349709 -0.94690436 -1.8158032
000320 0d d4 2c 3f e8 b6 2c bd 43 e7 67 3d 8a 39 8e bf
       0.67511064 -0.04216662 0.056617033 -1.111131
000330 c2 09 43 3f 53 8f a4 bf 0c 99 d5 bd 48 10 00 bf
       0.76186764 -1.2856239 -0.10429582 -0.50024843
000340 79 fe 43 3e a0 af 25 40 d3 86 0e 3e 3b f6 dc 3f
       0.19140042 2.5888443 0.13918619 1.7262644
000350 49 b8 b2 3f a2 e9 dc bf d0 b1 74 40 f4 c8 27 3f
       1.3962489 -1.7258799 3.8233528 0.65541005
000360 94 28 17 3f 7e 77 d2 3f f6 c2 83 3f 35 37 d5 bf
       0.5904629 1.6442716 1.0293872 -1.6657473
000370 fc b5 68 3f 73 9a cf 3e 2d 0d 3a 40 f7 4c f9 be
       0.90902686 0.40547523 2.9070542 -0.48691532
000380 29 df 8b 3f 88 5d fc 3f 68 4b 9a 40 6b e4 0d c0
       1.0927478 1.9716043 4.821705 -2.2170665
000390 7f 48 0f 40 ea 3f 29 c0 58 1e fb 3f ff 31 38 c0
       2.2387998 -2.644526 1.9618635 -2.8780515
0003a0 0b 20 fe be 0d 77 bc be 43 50 03 40 65 aa e7 be
       -0.49633822 -0.3680958 2.0517738 -0.45247188
0003b0 2f 8a 89 3f fb 52 a4 3f d6 96 82 be 70 b6 1b bd
       1.0745295 1.2837824 -0.25505704 -0.038015783
0003c0 17 9d be 3f 69 db 62 40 e3 c6 02 c0 c8 a2 35 3e
       1.489169 3.5446417 -2.043389 0.17737877
0003d0 13 00 3c 3f e8 0b 3e 3c 1a a4 b0 bf 80 e1 80 c0
       0.73437613 0.011599518 -1.380008 -4.027527
0003e0 81 57 d1 bf a1 27 33 3f c5 e8 60 3f 63 cb 9e be
       -1.6354829 0.69982344 0.8785518 -0.31014547
0003f0 0a 14 38 bf 0e 14 fd 3f 2a fd a6 be 1e 8c 76 3f
       -0.7190558 1.9771745 -0.32615024 0.9630755

riemannian.proj.0.weight f4 [256, 253]
000000 93 47 55 bf 48 23 6b bd 3d 29 11 3d 40 52 6a 3c
       -0.8331234 -0.057406694 0.03543972 0.0143018365
000010 19 d3 19 bd 40 4a 3c bc 91 d8 20 bc c9 23 9b 3d
       -0.037554834 -0.011492312 -0.009817258 0.07575185
000020 5d b3 bf 3d e9 b1 05 3d e1 5c 20 bd 48 ec 6a bc
       0.09360383 0.03264037 -0.039151076 -0.01433856
000030 f1 34 34 3d 49 3f d8 bb ea cb b3 bb 7d 91 63 bd
       0.0439958 -0.006599341 -0.005486955 -0.05555867
000040 da da 0c bc df e6 f7 bb b1 65 e1 3b 4d f3 14 bd
       -0.0085971 -0.007565364 0.0068785776 -0.036364842
000050 8f 23 01 bd 98 85 0e 3c b5 53 69 be f6 d3 3c bd
       -0.031528052 0.008698843 -0.22785838 -0.04610058
000060 b4 3c 8e 3c 3b 22 37 bc ea f1 68 3d 77 f9 4e 3c
       0.01736293 -0.011177595 0.056871332 0.012632719
000070 3d df ca 3c 9c c5 1f bd e0 54 07 be 73 2c f9 bd
       0.024764651 -0.039006814 -0.13215971 -0.12166681
000080 d0 9b 6a bb 77 21 ca bd 96 85 10 3c a7 b2 02 bd
       -0.0035798438 -0.09869664 0.008820912 -0.031908657
000090 c0 83 b7 3c a3 23 56 39 e3 23 ce 3c d2 09 e6 bd
       0.02240169 0.00020421906 0.025163596 -0.11232342
0000a0 28 0b d7 bc ca da 43 3d 32 52 6e bd 4a 33 32 bd
       -0.026250437 0.047816075 -0.058183856 -0.043505944
0000b0 15 6e c5 3d c2 ee 8e bd ec 84 f8 3c 74 d2 20 bd
       0.09640137 -0.06979133 0.03033682 -0.039263204
0000c0 32 8f 79 3c 9d 3e 01 3d 11 29 4a 3d f6 13 f9 bc
       0.015231894 0.031553853 0.04935557 -0.030405026
0000d0 80 30 ad 3d 70 e0 51 3a 11 da 82 bd 19 ea 75 bd
       0.08456516 0.0008006161 -0.06389249 -0.060037706
0000e0 98 6d a9 3d da 12 a8 bc ba 22 62 bd af 70 d4 3c
       0.082728565 -0.020516802 -0.0552089 0.025932638
0000f0 80 71 08 3e 3c 0e 07 bd 83 eb 1a 3d 5a e1 e4 bd
       0.13324547 -0.03297256 0.037822258 -0.11175795
000100 c4 ca 80 3c 93 81 8b bd e5 92 97 3d fb d3 2e 3d
       0.015721686 -0.06811824 0.07401065 0.04268263
000110 f1 4a 3b 3c 0e 2e b6 bd b4 56 61 3c 90 c7 3d 3c
       0.011431442 -0.08895503 0.013753582 0.011583224
000120 54 17 9a bb ac f5 da 3c 21 72 ed 3b 73 4f f4 3c
       -0.004702488 0.026728474 0.0072462712 0.02982304
000130 4e e0 cc bc 37 b3 dd bc b1 17 13 3d 79 83 73 bc
       -0.0250093 -0.027062995 0.035911266 -0.0148628885
000140 a5 83 4b bc 0e 7e 7d bd 61 99 cf 3d 9f bb 93 bd
       -0.012421523 -0.061887793 0.101366766 -0.0721352
000150 73 39 39 bd 10 db 84 3d 16 b4 fe bb 13 ca 09 bd
       -0.045220803 0.06487095 -0.0077729328 -0.03363998
000160 b5 b5 ae bc 4d 60 ba 3d 38 f3 23 3c 0b 1a a3 bd
       -0.021326879 0.09100399 0.010006718 -0.07963952
000170 a7 4a be 3d bc 4a da bc 62 3e 98 3d 55 a3 86 bd
       0.092915826 -0.026646964 0.074337736 -0.06574122
000180 ed 31 18 bd f6 dd 90 bd fc 76 2e 3d e7 16 4a 3d
       -0.037156988 -0.07073586 0.04259394 0.049338248
000190 a3 a3 32 bd 08 bf b0 bd 9e a2 17 3d 6f af be bd
       -0.043613087 -0.08630186 0.03702032 -0.09310805
0001a0 5f ec d6 3c 22 96 9a 3d 24 d4 ae 3d ef b4 f5 bd
       0.026235757 0.07548167 0.08536556 -0.11997401
0001b0 be a6 d8 3d 52 2f da 3b 4b 58 bd bd 00 18 28 3d
       0.105786785 0.006658473 -0.09245356 0.041038513
0001c0 2c 4a 84 bc 2a 81 81 3d 40 3d aa 3d 44 91 f9 3a
       -0.01614865 0.06323464 0.08312464 0.0019040485
0001d0 33 59 d0 3c c0 f8 67 bd 5f 51 bb bd c6 26 12 bb
       0.025433159 -0.05663371 -0.0914638 -0.0022300943
0001e0 3d f7 c3 bc d6 68 a9 bc 44 04 9a bd 6d e2 2a bd
       -0.023921603 -0.020679872 -0.07520345 -0.041719843
0001f0 b9 f6 50 bd 9b 6d 01 be 43 f0 ec bd 0a 1f c5 bb
       -0.051016543 -0.12639467 -0.11569264 -0.006015663
000200 5b 45 fb bb 18 e8 51 bd 6c 8f 6c 3d e9 7f f4 3d
       -0.00766818 -0.051246732 0.057753965 0.119384594
000210 6c ce e1 3d c6 23 ef 3d 41 3b 31 3d 73 63 2a 3d
       0.110257 0.11676745 0.0432694 0.04159875
000220 ca 39 5e 3d 36 2f 69 bd 14 8a 01 bd 83 31 62 bd
       0.05425433 -0.05692979 -0.031625822 -0.055223
000230 6e e0 ee bd e8 b9 9d bd b6 db 62 bd 43 88 39 bc
       -0.116639 -0.077014744 -0.055385314 -0.011323991
000240 65 5f 2f 3d 26 27 b6 3d fe f3 8d 3d 48 30 59 bd
       0.042815585 0.08894186 0.069313034 -0.05302456
000250 63 82 97 3d 61 66 a3 3b 2f 81 12 be 84 b7 a4 bc
       0.07397916 0.0049865698 -0.14307092 -0.020107038
000260 03 b3 8e 3c 4c d4 54 bd 3f 14 7b 3d 48 8d 44 38
       0.017419344 -0.051960275 0.061298605 4.686162e-05
000270 30 f5 fa 3d 4d 38 62 3d 57 e2 89 3d 3b 9a 1b 3d
       0.12253797 0.055229474 0.06732624 0.037988883
000280 16 38 63 bd ce 84 b1 3c 05 aa e7 3d 1a fc 8c 3b
       -0.05547341 0.021669772 0.113117255 0.004302514
000290 90 cd e4 bb c2 00 cf 3c 00 ba 1b 3d 5e 36 56 bd
       -0.006982513 0.025268916 0.03801918 -0.052297942
0002a0 28 54 1b bd c6 a4 4b bd 73 eb 5d bd f2 34 b2 bb
       -0.037922055 -0.049717687 -0.05417962 -0.0054384405
0002b0 3b 9d 87 3d 96 33 f2 bd 18 53 0a 3d 90 2b 4f 3d
       0.06621786 -0.118262455 0.03377065 0.050578654
0002c0 13 42 55 3d 7d 66 fa 3d 99 db 1b bb d2 de bd 3a
       0.052064966 0.12226579 -0.0023782013 0.0014485961
0002d0 ca e1 75 3c b6 06 34 3d f4 71 56 bd d5 c0 33 bd
       0.015007446 0.043951713 -0.052354768 -0.04388507
0002e0 a5 12 0c 3d 74 94 99 3d a8 76 77 bd ee ad 9a 3d
       0.03419747 0.07499018 -0.060415894 0.07552706
0002f0 e1 2f 22 bd 61 89 b4 3d 63 de b3 3d 8e 33 17 3b
       -0.039596442 0.088152654 0.08782651 0.00230715
000300 96 61 11 be 7a 2a 75 3c 79 cc 01 be 12 4c ad 3c
       -0.14197382 0.0149637405 -0.12675656 0.021154437
000310 26 4e cc bc 05 08 35 3d 6e 0a 91 bd c5 b4 b5 3d
       -0.024939608 0.0441971 -0.070820674 0.0887237
000320 b3 a2 46 bd 6e 54 03 bc 5b 58 9b bd 26 bb d2 3d
       -0.048495006 -0.008015735 -0.07585212 0.10289602
000330 69 fe 46 bd 87 a2 e8 bd c8 0a 95 3c e5 c5 b2 3c
       -0.04858247 -0.11359125 0.018193617 0.02182288
000340 a5 50 32 3d f5 77 c2 bc d4 47 1c 3d ca 2e 2a bd
       0.04353394 -0.02373884 0.03815444 -0.041548528
000350 c0 7c 47 3d f7 5e 29 bd 51 82 a9 bd 20 21 2f 3d
       0.048702955 -0.04135033 -0.08276809 0.0427562
000360 bd 2c 20 bd 90 de 10 3e 07 32 25 3d 3a 89 80 3d
       -0.039105166 0.14147401 0.040330913 0.06276174
000370 85 0e af bc 17 08 33 bd c1 cd b2 3b 1c 46 bd 3d
       -0.021369228 -0.043708887 0.0054566567 0.09241888
000380 90 0f a5 bd 8d 0a 03 3c a3 b7 85 3d 6a 2c 3d 3d
       -0.08059609 0.007998121 0.065291665 0.046184935
000390 17 07 9e 3b 23 c3 0c 3e eb 0b 18 3c 73 15 f8 bb
       0.0048226225 0.13746314 0.009280185 -0.0075709163
0003a0 02 c6 d1 3c 50 60 c3 bd a8 a0 cd 3c a6 59 99 3c
       0.025607113 -0.095398545 0.025101021 0.018719506
0003b0 29 29 0a 3e a8 22 9a bd fe 29 56 3d 72 42 c7 bd
       0.13492264 -0.075261414 0.05228614 -0.0972947
0003c0 ff 57 87 3d ab 26 8f 3d 99 20 06 3e 01 69 9f 3a
       0.06608581 0.06989797 0.13098373 0.0012162031
0003d0 96 39 ec bc fb 9f 5a bd 83 50 12 3d 66 d5 bc bd
       -0.028836053 -0.053375226 0.035721313 -0.0922039
0003e0 77 11 82 3d 2f 13 0f bd cb bf 38 3e f2 f2 f3 bd
       0.063509874 -0.034930404 0.18041913 -0.119115725
0003f0 8f 62 eb 3d c6 cb 25 be fe 59 33 bb 80 3a 3f 3c
       0.11493408 -0.16191015 -0.0027366872 0.011671662

riemannian.proj.0.bias f4 [256]
000000 ad 38 98 39 96 58 af 3d c8 2d 4f bd 13 cc 8b bc
       0.00029033926 0.08561818 -0.05058077 -0.017065084
000010 a7 fb b3 bc 72 a9 fb bc 6d 5f 33 bd 97 1d 11 bc
       -0.021970583 -0.030720446 -0.043792177 -0.008857152
000020 fa d3 9f 3a 0a dc 92 3c 19 d6 1f 39 19 15 d4 bc
       0.0012193911 0.017927188 0.00015243179 -0.025888966
000030 96 6a 6d bb 6c 3c 21 3b e2 2c 9e bc 93 3c 53 ba
       -0.003622686 0.0024602665 -0.019308511 -0.00080580375
000040 24 32 59 bd b5 f6 b1 bc 28 c3 88 3c b6 60 70 bd
       -0.053026333 -0.021724084 0.01669462 -0.05868598
000050 af c9 b4 3c f1 e6 bd bb 2a 96 a0 3a 84 9f 86 bd
       0.022068826 -0.0057953526 0.0012251784 -0.06573394
000060 8f e8 0d bd cd d0 30 3d 91 79 14 3d c6 61 9c 3c
       -0.034645613 0.043167878 0.036248747 0.01908959
000070 bb ed 0f bc fb d1 1b bc 20 a4 77 bd 07 98 a2 3d
       -0.008784707 -0.009510512 -0.060459256 0.07939153
000080 f7 97 4f bd 86 66 c0 3b 2b bb c6 3c 54 6f ec bc
       -0.050682034 0.0058715967 0.02425917 -0.02886168
000090 45 66 bf 3c 67 06 d6 3c 35 3d 01 3c 88 93 87 bb
       0.023364196 0.0261261 0.007888128 -0.00413746
0000a0 54 d3 d1 ba 3b fe 08 bd 2f 4a 4e 3b 6a 78 cd bc
       -0.0016008415 -0.033445578 0.0031477322 -0.025081832
0000b0 47 57 a7 3a 06 aa 04 bd 8f f6 f6 bc 3f 24 12 3a
       0.00127671 -0.03238871 -0.030146865 0.0005574859
0000c0 ab ae 06 bd 66 db 7d bb e5 03 17 bd 7c 35 da bb
       -0.03288142 -0.0038735508 -0.03686895 -0.006659208
0000d0 60 c3 20 3c 5e 64 3d 3d d8 3f ac 3b bf a2 49 bd
       0.009812206 0.046238296 0.005256634 -0.049227472
0000e0 cf 29 03 bd 2e b1 3d bd 08 17 06 3d 87 6e 82 3b
       -0.032022294 -0.04631155 0.032736808 0.003980461
0000f0 5c ad c7 3c 2d a1 e5 bc f5 95 1f bd ed 41 52 3d
       0.024374656 -0.028030956 -0.03896137 0.051332403
000100 c8 84 f1 bb ce 09 1e bd 89 ff 00 3d 82 ce a9 3c
       -0.007370565 -0.03858357 0.031493697 0.020728353
000110 10 61 46 bd 03 7b 60 3c cd 20 5d 3d 2a eb cc 3c
       -0.04843241 0.013701203 0.05398636 0.025014479
000120 0f b6 8f 3c ba 90 70 bc f5 c7 89 bc d7 2c 75 3c
       0.017542867 -0.014682943 -0.01681898 0.014964304
000130 ce a9 9a bc ea b7 85 bd 3c a8 3a 3d 6d 10 be bc
       -0.018879797 -0.065292194 0.045570597 -0.023201192
000140 17 c6 97 3c 8b 67 d2 3c 05 d4 31 ba 4b 8b 97 3c
       0.018527074 0.025684139 -0.00067836075 0.018499037
000150 03 12 f4 bc f4 a9 84 bc 13 41 46 3c ed 28 8d 3c
       -0.029793745 -0.016194321 0.012100476 0.017231429
000160 d0 86 15 bd c3 74 0d 3d 57 c8 9f 3c a3 04 36 bd
       -0.03650552 0.03453518 0.01950471 -0.044438016
000170 72 c8 5e 3d 8d 88 81 3c 78 62 cd bc 0d 3e 11 bd
       0.05439038 0.015812183 -0.025071368 -0.035459567
000180 ac 8a 3b bb 7e d9 5a 3d 68 03 bc 3c 65 e5 6d bd
       -0.002861659 0.053430073 0.022950843 -0.058080096
000190 a6 48 c9 3c 9d 46 07 3d 4a 7c 0a 3a 7e 94 8f 3a
       0.024570774 0.033026326 0.0005282803 0.0010954288
0001a0 20 64 bb bc ef 1b 5e bd b1 ea 8d bc 01 d7 46 3c
       -0.022874892 -0.05422586 -0.017323824 0.012136222
0001b0 3f 3b 31 bd df dd 51 bd 9b c9 85 bd a3 9a 3f 3a
       -0.043269392 -0.051236983 -0.06532594 0.00073091144
0001c0 2c 1c 19 bc f2 e1 d9 bc b5 19 28 3c ea a1 00 bd
       -0.009345096 -0.026596997 0.010260035 -0.031404413
0001d0 0d c6 bd 3c 99 76 62 bd f4 12 13 bd 90 dd 6d 3c
       0.023165727 -0.055288885 -0.035906747 0.014518157
0001e0 47 41 73 bc 70 98 31 3d ea f4 0c 3d 5e 7c 92 bc
       -0.014847106 0.043358266 0.034413256 -0.017881569
0001f0 91 54 c7 3b 68 84 89 3c db b1 19 bd 50 0d 28 bc
       0.006083079 0.016786769 -0.03752313 -0.01025708
000200 e2 55 05 3d ca 42 d7 bc 65 12 98 bc 83 88 90 bc
       0.032552607 -0.026276965 -0.018563459 -0.017643219
000210 42 c8 20 bd 86 66 0c bc fa 0d 95 38 76 e8 c4 3c
       -0.03925348 -0.008569365 7.107477e-05 0.024036627
000220 b0 25 8a bc 10 de 06 bd 39 6f ec bc f0 02 13 bd
       -0.016863674 -0.03292662 -0.028861629 -0.035891473
000230 f6 da 40 bd 22 fe 47 bd 23 85 e4 bc be 25 dc bc
       -0.047083817 -0.048826344 -0.027895516 -0.026873466
000240 74 ae b1 3c aa d9 4a bc 09 74 2b 3d b5 72 9d bb
       0.021689631 -0.012380997 0.041858707 -0.004804934
000250 39 92 36 bc 44 c3 99 3b dc 20 be 3c b7 67 47 bc
       -0.011143261 0.004692467 0.023209028 -0.012170724
000260 33 5c 5c bd 47 38 ce bc b9 76 8f bd 3c 47 d9 3c
       -0.053798866 -0.02517332 -0.070050664 0.026523225
000270 71 23 78 bc 4b 1e c5 bc 49 e5 ff 3c 05 47 81 3c
       -0.015145169 -0.024062296 0.031237261 0.015780935
000280 66 0a 25 3d c8 9a b3 3b ba 67 26 bc e7 98 8d bc
       0.04029312 0.005481098 -0.010156566 -0.017284824
000290 83 7c 57 bd 06 32 14 3c 18 72 9f 3c 2c f4 17 3c
       -0.052608978 0.00904513 0.019463584 0.009274524
0002a0 2c 69 23 3d bc 14 75 bc 1c 02 48 bc 0e 1d c6 bc
       0.03989522 -0.014958557 -0.012207534 -0.024183776
0002b0 93 56 a2 3c 5f 4c f5 bb a9 1b b3 bc b9 7e c7 bc
       0.019816672 -0.007485911 -0.021863775 -0.024352418
0002c0 2a 0a f1 3b a4 1f 8f 3b 47 c0 8b bc 0b cf 03 3c
       0.007355948 0.0043677855 -0.017059458 0.008044968
0002d0 87 21 31 bb 05 47 9a bc a2 71 e8 bc 0f 8c 0e bd
       -0.002702804 -0.018832693 -0.028374497 -0.03480154
0002e0 e3 6d eb 3c 36 07 3b bd 47 bb 95 ba c9 90 1c bd
       0.028738922 -0.045661174 -0.0011423611 -0.038224015
0002f0 3c 15 c7 bc 7b 96 06 3d 2b 8c 63 3c 38 98 18 3d
       -0.024302118 0.032858353 0.013888399 0.037254542
000300 f7 cc e9 3c 3a 7e 31 bd 89 b2 54 3c 4f 48 8d bb
       0.028540118 -0.04333327 0.012982019 -0.0043115984
000310 e7 1b 84 bb 47 b0 89 bc 83 c7 ac bc fb 09 2f 3c
       -0.0040316465 -0.016807688 -0.021091228 0.010683532
000320 59 6f 29 bc 9c b7 02 bc 07 85 97 ba 7b 9f 88 bc
       -0.010341489 -0.007978346 -0.0011560031 -0.016677609
000330 ea 33 3a 3c 52 5d 35 bd b6 8a e9 bc f9 3e 8a 3c
       0.011364916 -0.04427845 -0.028508525 0.01687573
000340 73 bb bc 3c 76 5a 10 bd b5 f4 00 bd f0 63 7c bd
       0.023038602 -0.03524252 -0.03148337 -0.061618745
000350 b6 dc e9 3c 59 df 31 bd c2 9a d9 bc 5b eb 8c 3b
       0.028547626 -0.04342589 -0.026563052 0.0043005175
000360 61 70 87 bc 49 1b 19 bd 38 f0 ac bc 18 14 3a bc
       -0.016533079 -0.037379537 -0.021110639 -0.01135733
000370 bc af 30 3d 24 1e d3 bb 08 fe 93 bb 04 57 51 bd
       0.043136343 -0.006442802 -0.004516367 -0.051108375
000380 76 e0 87 bd a3 72 51 3d 3e e2 fe 3c 97 9d 0f bd
       -0.066346094 0.051134717 0.03111374 -0.0350624
000390 92 5a 12 3d 7d c4 13 3d 10 ac 78 3b 8a 80 63 bc
       0.035730906 0.036076058 0.0037944354 -0.013885627
0003a0 69 99 0f bd 3b d7 1a 3d 57 e3 f6 3b af 0b 58 bc
       -0.035058413 0.037802916 0.0075344252 -0.013186379
0003b0 3e 6a d1 bc e8 5f 12 bb 54 f8 4c bc 85 69 2b bc
       -0.025563356 -0.0022334997 -0.012510378 -0.01046217
0003c0 7e 1f 98 bd 59 8c e3 3b aa f0 3c 3c 40 4e 63 3c
       -0.07427882 0.006944221 0.011531988 0.013873637
0003d0 f1 27 5c bc 58 e8 65 bc 33 6d ed 3c 77 49 b2 bc
       -0.013437257 -0.014032446 0.028982734 -0.021763546
0003e0 c5 8c 2a bd 44 3f 1e bd 53 e7 55 3d bf be 07 bd
       -0.041638155 -0.038634554 0.05222256 -0.033140894
0003f0 f0 8f 97 bc 52 64 39 3b aa ca ff 3c 65 a4 63 3c
       -0.018501252 0.0028288555 0.031224567 0.013894175

riemannian.proj.3.weight f4 [48, 256]
000000 3d 41 20 3e f9 ac 50 3e 3c d7 c5 bd 21 4b 73 bc
       0.15649886 0.20378484 -0.09660193 -0.014849455
000010 45 3a 3f 3d 90 5b df 3d fe 07 cc bd e7 ae 40 bd
       0.04668643 0.10906136 -0.09962462 -0.0470418
000020 5d 6b d3 bd 53 0c 2e 3e 73 37 fb 3c 80 65 23 3c
       -0.10323212 0.16996889 0.030666089 0.00997293
000030 68 bd ba bd 82 37 6e 3e d9 44 65 bc 2f 5e bd 3d
       -0.091181576 0.23263362 -0.013993465 0.0924648
000040 d4 a4 76 bb c1 69 52 3d bf a8 d3 bd 9e cc 88 bd
       -0.0037634866 0.051370386 -0.1033492 -0.06679653
000050 54 d0 9a 3d 9c cb 88 bc 72 70 b6 3d af ca d6 bd
       0.07559267 -0.016698651 0.08908166 -0.104878776
000060 e4 56 0e bd 33 22 6c 3d 13 b6 21 3e b9 8b 6c bd
       -0.034750834 0.057649802 0.15792112 -0.057750437
000070 aa ce b7 bd 9f f0 aa bd 2e 82 33 be b8 c2 23 3e
       -0.08974965 -0.08346676 -0.17530128 0.15992248
000080 56 f2 59 bd 42 71 87 3c 73 f8 11 3d 0f 96 d6 bd
       -0.053209625 0.016533498 0.03563733 -0.1047784
000090 e7 a4 0a bb 33 94 11 be 09 83 28 be d4 67 99 be
       -0.0021155418 -0.1421669 -0.16456236 -0.29962027
0000a0 3a e7 6e be 15 2f c4 3d ca 4b 19 bd 98 76 3e bc
       -0.23330393 0.09579293 -0.037425794 -0.011624955
0000b0 aa af ee bd 62 50 d8 bc 57 31 ed bd be 96 73 bb
       -0.11654599 -0.026405517 -0.115816765 -0.0037168707
0000c0 17 ef 99 3c df 6f 8a 3d 5b c6 b5 bd aa ba 18 3e
       0.018790765 0.06759619 -0.08875724 0.14914957
0000d0 b0 15 4d 3d 24 8e 11 be ef 94 32 3e 4d 03 ef bd
       0.05006951 -0.14214379 0.17439626 -0.116705514
0000e0 a7 16 d4 3d 80 9f 18 bc d9 3f 80 3e ab e4 46 3e
       0.10355883 -0.0093153715 0.25048712 0.19423167
0000f0 97 5e 24 bd 81 34 4c 3b 97 a8 92 bd 83 2f 85 3d
       -0.04012927 0.0031159224 -0.07161062 0.06503203
000100 08 28 87 bd de 28 f3 b8 22 83 37 bd 83 07 18 be
       -0.06599432 -0.00011594755 -0.044802792 -0.14846615
000110 52 e5 86 bb 0b f2 ff 3d f5 01 a6 bd 18 f3 61 3e
       -0.0041166926 0.12497338 -0.08105842 0.22065389
000120 5a 76 05 3e 4c 58 7d 3d c4 dc 23 be 7c 12 85 3d
       0.13033429 0.061851785 -0.16002184 0.06497666
000130 10 9b 47 3c 2b 30 c8 bd 56 bb ab bb cd f8 e9 bc
       0.012182966 -0.09774812 -0.005240838 -0.02856102
000140 8c a6 d8 bd 1a 64 28 3e c2 81 a6 3d 4b 53 93 bd
       -0.10578641 0.16444436 0.08130218 -0.07193621
000150 27 9a 5f 3d 14 15 83 bc 0e 71 20 3d d0 7c 0e 3e
       0.05459037 -0.016001262 0.039170317 0.139148
000160 05 a5 09 bd 92 58 17 3e 92 dd 80 bc 74 9a 96 bc
       -0.03360464 0.1477988 -0.015730653 -0.018384196
000170 9e 9c 10 3e 15 36 dd bc 21 ad df bc ba 29 7e bd
       0.14122245 -0.027003327 -0.027304234 -0.062051512
000180 7c f8 69 3d cb 98 6a be 1d dd f5 3d ba 1c d3 bd
       0.05712174 -0.22909848 0.12005065 -0.103082135
000190 2e ae 1d 3c 33 82 40 3e 94 60 4a bd 42 b2 18 be
       0.009624047 0.18799667 -0.04940851 -0.1491175
0001a0 4d 84 b1 bd 10 e1 a4 3c 3b 67 b2 bc d1 43 58 3d
       -0.086678125 0.02012685 -0.02177774 0.05279905
0001b0 6d 1d e2 bd fc 54 16 3d 49 74 2d bd 74 85 02 3d
       -0.11040769 0.03670214 -0.042347226 0.031865552
0001c0 85 20 39 3e 80 a9 b5 3d a5 2b fa bc de b2 cb bc
       0.18078811 0.0887022 -0.03053839 -0.024865564
0001d0 52 dc 40 3d 81 50 4a bd 63 a0 40 bc a8 e6 14 3b
       0.047085114 -0.04939318 -0.011756989 0.002272049
0001e0 43 86 1e 3d 09 b2 1e 3e 7b 8f 14 be de dd 7e 3d
       0.03870226 0.15497603 -0.14507858 0.062223308
0001f0 5f 23 55 3d 94 91 04 3e 30 8b 94 bd 6b 38 63 3a
       0.052035686 0.12946159 -0.072531104 0.000866777
000200 ed d0 e3 bd 21 a6 1b 3d d0 5e f1 3d ce 92 f2 bc
       -0.11123834 0.03800023 0.11785662 -0.029611018
000210 33 8f 0b bd ce e0 91 3d 98 21 bc bd 72 db 5b 3e
       -0.034072112 0.07122956 -0.09186095 0.2147043
000220 17 83 78 3c c0 92 36 be 2f fa 00 be c7 0b 86 bd
       0.015167973 -0.17829418 -0.12595437 -0.06545215
000230 47 8e bf bd 32 4b f3 3c e7 75 a7 bd d2 f8 0e bd
       -0.09353309 0.029698942 -0.08176785 -0.034905262
000240 1c 34 f2 3d 03 f0 15 be 97 68 80 bc bb e2 86 3c
       0.11826345 -0.14642338 -0.015674872 0.016465535
000250 cc f9 97 bc 20 1e ec 3d c2 8e 03 3e 9b cd 37 bc
       -0.01855173 0.115291834 0.12847427 -0.011218454
000260 d1 d3 88 bd 19 53 76 3d 4b 92 ad bd ce 35 38 3e
       -0.06681026 0.06013784 -0.08475169 0.17989275
000270 8d 7b b8 bd 78 4b 26 be 6f 60 ff b9 2d cc d7 bd
       -0.090079404 -0.16239727 -0.0004870924 -0.1053699
000280 5f c7 8c 3d 10 9b a8 3d 83 ac 40 3e eb 63 e4 bc
       0.068739645 0.08232701 0.18815808 -0.027879676
000290 24 f2 25 be 4a ca 1f bd 89 97 52 be b9 db 6e 3d
       -0.1620565 -0.039011277 -0.20565619 0.058315013
0002a0 cd 37 95 3b 11 55 e7 3d e3 6b 65 bd c6 05 fb 3c
       0.004553771 0.11295522 -0.056011092 0.030642401
0002b0 12 64 8a bc 8e 37 5f bd 69 ed 29 bc fa 2a ac bd
       -0.01689342 -0.05449634 -0.010371544 -0.08406635
0002c0 be 16 ee 3d b3 60 d1 3c a3 b7 7d bd 0f 68 1c bd
       0.116254315 0.025558805 -0.061942708 -0.038185176
0002d0 88 8d 3e bd 2e bb 28 be 2b d7 9a bd 49 31 5f 3d
       -0.046521693 -0.16477653 -0.07560571 0.05449036
0002e0 16 69 88 bd c8 9a da 3b 0a fa 65 be ad 81 b3 bd
       -0.066606686 0.0066712834 -0.22458664 -0.08764968
0002f0 bd d4 e8 bc 11 1d 94 bd 4b 7e 5b bb 52 b9 56 3d
       -0.028421754 -0.072321065 -0.0033492025 0.05242283
000300 ef 6f 9c 3d 68 ac 35 3e f6 43 ef 3c b4 61 2c 3d
       0.07638537 0.17741549 0.029207211 0.042085364
000310 31 d9 17 3e 5f 1d dd ba cc 6e 1c ba d5 d9 be bb
       0.14828946 -0.0016869715 -0.0005967438 -0.0058243074
000320 81 3a 94 3d de b3 8b 3e 71 67 51 3d 09 08 1b 3e
       0.07237721 0.27285665 0.05112404 0.15139784
000330 5f fc 98 bd 12 dd ab bd 98 92 8f 3d fc 64 63 3d
       -0.07470011 -0.08391775 0.070103824 0.055516228
000340 bc 2b f9 bd 61 02 b1 3d df c5 6d 3d 1b 60 40 bd
       -0.12166545 0.08643032 0.058050033 -0.046966653
000350 77 ec 46 3e fe df 68 bd 9e 48 d3 bd f8 ef d5 3d
       0.19426142 -0.05685424 -0.10316585 0.10446161
000360 59 68 59 bd 13 54 a5 3a e0 fa 9e bd b4 90 b6 bd
       -0.05307803 0.0012613557 -0.07762694 -0.08914319
000370 a1 c8 c6 3c 6c 4e ef 3d f4 86 c1 3d fd 3f 8c bb
       0.02426559 0.1168488 0.094495684 -0.004280089
000380 ab cd d2 bd 45 f2 1f 3e b3 ba 02 bd 27 fd 16 be
       -0.10293134 0.15619762 -0.03191633 -0.14745007
000390 4c b2 72 3c ab 8c 0b 3e 60 ca 3a 3d dd d0 0d 3e
       0.014813017 0.1362788 0.045603156 0.13849206
0003a0 bf a9 1c be 77 46 a7 3d a7 eb ee 3d 33 55 b2 3d
       -0.15299128 0.08167737 0.11666041 0.08707657
0003b0 1a 82 4c be e7 7f a5 3d 66 41 86 3d f5 dc 82 be
       -0.19971505 0.08081036 0.065554425 -0.25559202
0003c0 2b 52 0f bd c4 6c 1e be b7 27 30 3d 89 13 a6 bc
       -0.03499047 -0.15471178 0.043006625 -0.020272987
0003d0 b3 3f 16 3e 20 34 17 be 27 f3 a2 bd 8b 4a 39 3e
       0.14672737 -0.14765978 -0.07956534 0.18094842
0003e0 21 a9 5d be a7 a7 67 3b 1d ce ae bd 60 37 b0 3c
       -0.21646549 0.0035347731 -0.08535407 0.02151078
0003f0 b8 de f3 bc e8 76 fa 3d 78 c3 82 3e ee 70 c6 bc
       -0.029769287 0.12229711 0.25539756 -0.024223771

riemannian.proj.3.bias f4 [48]
000000 c2 fa 36 3b 83 ce 7d 3e 09 b3 f0 3d 18 82 50 3e
       0.002792046 0.24785809 0.11752898 0.20362127
000010 79 ca 93 bd 2e 06 5f 3e 2e 85 a0 bd 24 ea a3 3b
       -0.07216353 0.21779701 -0.07837902 0.005002277
000020 39 18 3d bd ab 1d 6f 3e e0 15 c2 bd d4 89 c4 bd
       -0.04616568 0.23351161 -0.094768286 -0.09596601
000030 b1 a2 ae 3c ec 1b e7 bd a5 31 90 be 5b 05 15 3e
       0.021317812 -0.112846226 -0.28162876 0.14552824
000040 d9 9c a9 3d e7 17 85 bd a4 cc 8f 3d 0d b7 8c bd
       0.082818694 -0.064987 0.07021454 -0.06870852
000050 99 bd f5 bd a1 ea 10 be e9 69 27 be 3c e1 02 3e
       -0.119990535 -0.14152004 -0.16348995 0.12781233
000060 e7 54 f6 bd 41 2a 2d 3e 8f 3d 19 3c 0d a5 90 3d
       -0.120279126 0.1691065 0.009353056 0.07062731
000070 54 0e 1d bc 5a cc 0c 3e db 13 8d bc 51 5a 88 3d
       -0.009585936 0.13749829 -0.017221382 0.066578515
000080 75 3f 82 bd f4 1e 64 3e 55 5a 29 3e 1f 9c 16 3d
       -0.0635976 0.22277433 0.16538365 0.036769982
000090 5a 73 d4 3d 9b 9a 31 3d a8 f2 0b bd 00 b7 59 be
       0.10373564 0.043360334 -0.034166962 -0.21261215
0000a0 db 4f dd bd 55 2f ca 3c 17 2e 22 be 67 8f 12 3d
       -0.10806247 0.024680773 -0.15837894 0.03578129
0000b0 17 e8 e6 bd 50 c6 43 3d 38 af 41 bd ee fc 75 3a
       -0.112747364 0.047796547 -0.047286242 0.0009383698

cnn.block1.0.weight f4 [16, 1, 1, 64]
000000 88 44 4d be 1a ff 24 be fc 99 c3 bd b7 cb 07 bd
       -0.20045674 -0.16112939 -0.095508546 -0.033153262
000010 a2 ee fd 3c f3 a3 05 3e 91 32 5f bd 79 58 68 bd
       0.030997578 0.13050823 -0.054491583 -0.056725
000020 28 1b 32 3b bd 78 c0 bd 5e 2f 99 bd ea e7 4f 3d
       0.002717683 -0.09398029 -0.07479738 0.05075828
000030 30 51 dd 3d e8 b3 c0 3d 4e 49 8d bc 9f 95 d2 3c
       0.10806501 0.094093144 -0.017246868 0.02570611
000040 b1 a4 2e 3e c9 f0 4b 3d ca 01 22 bd 8b 5a 98 3d
       0.17055012 0.049790177 -0.039552487 0.07439145
000050 d4 1f c3 3c 07 b1 61 bd ad 24 8e 3d c1 e4 a5 3e
       0.023818888 -0.055100467 0.06940589 0.32401088
000060 f8 84 d9 3e 6d 9b 55 3e 29 5a 70 3b 3d 98 4b bd
       0.4248426 0.20860071 0.0036674833 -0.049705733
000070 b4 69 9c bd 13 5a e1 bd 56 b6 0b 3e 79 46 9b 3e
       -0.07637349 -0.110035084 0.13643774 0.30327204
000080 fc 32 7c 3e cc 64 0b 3d 44 3e d2 bd 36 4a 51 3d
       0.24628824 0.034031674 -0.102657825 0.051096164
000090 99 9c 27 3e 0c a1 f6 3d 97 17 10 3c e4 b0 1d bc
       0.16368331 0.12042436 0.008794687 -0.009624694
0000a0 f5 cf 11 be 93 0c 7b bd ea f5 c3 bc 77 af 25 3d
       -0.14239486 -0.06129129 -0.023920972 0.04045054
0000b0 93 6d af 3d ec c4 1a 3d 8c 31 f7 bd 0b e8 0c be
       0.085658215 0.037785456 -0.12069997 -0.13760392
0000c0 33 01 71 be a3 5f cf bd 1a c5 5b 3d ea 68 c8 3d
       -0.23535614 -0.10125663 0.053654768 0.09785636
0000d0 92 04 38 3d b6 79 2c be f0 62 b3 be d1 d1 6e be
       0.044926234 -0.16843304 -0.3503642 -0.23322226
0000e0 3e 0d e0 bb 69 5c 7b 3d 0a 53 70 3d b1 72 11 bd
       -0.006837516 0.061367426 0.058672942 -0.03550977
0000f0 02 f8 c7 bd 33 fe 9e bd 94 1e 9b bd da 8c 8a bd
       -0.097641006 -0.077633284 -0.07574192 -0.067651466
000100 b7 0b 76 3e a1 54 92 3d 49 b9 84 3d b8 1d dd 3d
       0.24027906 0.07145048 0.06480653 0.10796684
000110 1b 49 2f bd 22 46 e4 3d c3 82 82 bd 75 9b 40 bd
       -0.04279433 0.11146189 -0.06372597 -0.047023255
000120 9e cc 78 3d 50 13 79 3d 03 cb 4e 3d f5 18 3e 3e
       0.060742013 0.060809433 0.050486576 0.18564208
000130 cb ec 03 3e 0a c6 bc 3d af ae 42 3d 98 de 8a 3d
       0.12883298 0.092174605 0.047529873 0.06780738
000140 94 37 00 bd a3 a8 97 bc 32 c2 e4 3d 4b 88 be 3d
       -0.031303003 -0.01851303 0.11169852 0.093033396
000150 7c a4 49 3d e3 c9 81 3d 13 65 97 3d 7a 82 41 3d
       0.04922913 0.06337335 0.07392325 0.047243573
000160 b2 96 ba 3d 57 04 a0 3c 3b ae bd 3d dc 26 01 3e
       0.09110774 0.01953332 0.092617474 0.1261248
000170 8b 33 26 3d 08 e6 46 3b 05 38 3d bc da 7d 2b bd
       0.0405765 0.0030349512 -0.011549001 -0.04186807
000180 3b 01 20 bd 82 97 36 3d c6 4d 8b 3e 89 60 de 3d
       -0.039063673 0.044578083 0.27207774 0.10858256
000190 ff 23 21 3e ee 1b 97 3d 53 da aa bd 32 b2 90 3c
       0.15736388 0.07378374 -0.08342423 0.017663095
0001a0 7d 08 c7 bd ef d9 b8 3a 77 0d d3 3d ff d8 9e bd
       -0.09718416 0.0014103035 0.103053026 -0.077562325
0001b0 d7 13 69 3e 60 d3 78 3e 74 53 e5 3d 16 2a c2 3d
       0.22761475 0.24299383 0.11197558 0.094806835
0001c0 18 16 a9 3c 12 7b f6 bd 30 a0 36 bc 71 d8 79 bc
       0.020640418 -0.120351925 -0.01114659 -0.015249358
0001d0 ba 8a 82 3d 93 ee e3 3d 38 14 25 3e 9d 27 7c 3e
       0.06374116 0.11129489 0.16120994 0.24624486
0001e0 f9 96 34 3e 63 70 7c 3d 93 1a 59 bd f0 d2 d5 bd
       0.17635716 0.061630618 -0.05300386 -0.10440624
0001f0 ea 4b 02 be 92 c3 99 3d 09 15 07 3e f7 79 03 3f
       -0.12724271 0.07508005 0.13191618 0.5135798
000200 66 89 39 be 20 53 e0 bb 97 d4 f0 bb 0e ad 17 3d
       -0.1811882 -0.006845847 -0.0073495614 0.037030272
000210 70 26 00 bd fa 6c 59 bd c1 cb ea bd 09 4a ea bd
       -0.031286657 -0.053082444 -0.11464644 -0.11439902
000220 ab a5 e1 bc 1d 0e 60 3d 13 2c b8 3e 6d 8f 11 3e
       -0.027544817 0.05470096 0.35971126 0.14214869
000230 b9 05 72 3e 4a ba 56 3e cd e9 99 3c e1 a4 33 be
       0.23634996 0.20969501 0.018788243 -0.17543365
000240 44 68 df bd 18 f0 87 be d3 40 92 be 70 b3 6a 3d
       -0.10908559 -0.26550364 -0.28565082 0.05730003
000250 97 79 52 bb 25 6c 1e be a6 5d 19 3e 4f f3 bc 3d
       -0.003211593 -0.15470941 0.1497713 0.09226095
000260 f9 e2 eb bd 11 a3 10 3d 16 b6 26 3c 71 51 ce bd
       -0.11517901 0.035311762 0.010175249 -0.100741275
000270 ca ef aa bc a2 75 60 bc 43 3f c9 bd 74 de 12 3b
       -0.020866293 -0.013699921 -0.09826519 0.0022410424
000280 77 e1 01 3e 69 23 3c 3e 10 eb 8f 3e 99 67 0e 3e
       0.12683664 0.18372883 0.28109026 0.13906707
000290 f1 1c b4 3d a9 b6 0a bc 39 1f 07 be 34 5a 26 be
       0.08794583 -0.008466401 -0.13195504 -0.16245347
0002a0 87 0c be bb 5e 6b 5c be 6e 27 b3 bd be dd 2f 3e
       -0.005799833 -0.21525332 -0.08747755 0.17174432
0002b0 38 63 d1 bc 91 a1 71 bd 72 f0 03 bc ed 95 e6 bd
       -0.025560006 -0.058991972 -0.008052932 -0.11259065
0002c0 e0 7d 20 be ff 3c e3 3b d6 84 5b bd 0d cc b5 bd
       -0.15673018 0.0069347615 -0.05359348 -0.0887681
0002d0 9b ef d3 3d df 2e 15 3e 16 45 d5 3d 0a 2c 57 3e
       0.103484355 0.14568661 0.10413568 0.21012893
0002e0 27 0c 0b 3e 38 95 bc 3d 95 06 f4 3d 88 23 c8 bc
       0.13578855 0.09208149 0.11915318 -0.024431005
0002f0 5c f4 f7 bd 8e ec 47 be 00 4e f2 bd 20 8f 28 bd
       -0.12107155 -0.19523832 -0.118312836 -0.04115212
000300 11 db a1 be bd 05 e5 bd f5 2b f5 3b c5 09 db 3c
       -0.31612447 -0.11182735 0.0074820467 0.026738057
000310 60 dc 1b 3d d6 a9 b8 3d f4 cb 86 bd 5a 82 bd bd
       0.038051963 0.09016769 -0.0658187 -0.09253378
000320 25 7f 1a be 72 20 53 bc f8 83 06 be 22 65 42 bd
       -0.15087564 -0.0128861535 -0.1313628 -0.04745973
000330 6e 9f be bd d1 8f 8b bd 21 3f ad bd fe 33 b8 bd
       -0.093077525 -0.0681454 -0.084593065 -0.08994292
000340 f6 6c 93 bd 26 bf 8f bd 6a ae 28 be f3 ef 12 be
       -0.07198517 -0.070188805 -0.16472784 -0.14349346
000350 a7 af f1 bd 1d c5 05 be 11 af e0 bd aa fe b9 bd
       -0.11801081 -0.13063474 -0.10970891 -0.090817764
000360 8f 0d 33 3c 3c 56 5f bd 2b ac bf bd 51 6d 10 be
       0.010928526 -0.0545256 -0.0935901 -0.14104201
000370 8a cb 5e be f6 42 e5 bd 5f c7 ac 3c e6 25 ab bc
       -0.21757331 -0.111944124 0.021091161 -0.020892095
000380 f3 3b 37 3d 92 81 b7 3c ef 6d d8 bd 96 63 1c 3c
       0.044734906 0.022400651 -0.10567843 0.0095452275
000390 44 f7 fb bc 1d 46 5a 3c b8 43 79 3b fd 0b d5 bc
       -0.030757554 0.01332238 0.0038034748 -0.026006693
0003a0 28 2d a4 3d ce 51 08 3e f0 4a 0e 3d 97 6d 24 3e
       0.08016425 0.13312456 0.034739435 0.1605743
0003b0 7f 3d 1c 3e 7f 15 33 3e 85 70 97 3e b9 b3 15 3e
       0.15257834 0.17488669 0.29578033 0.1461934
0003c0 ef b2 98 3d 10 fc ed 3d d3 24 48 3e 23 ad 23 3e
       0.07456004 0.11620343 0.19545297 0.15984015
0003d0 c6 2d 57 3e a8 eb 51 3e 9a 8d 82 3e dd a9 2a 3e
       0.21013555 0.20500052 0.25498658 0.1666636
0003e0 3b 25 14 3e 31 11 b1 bb d0 f1 84 3d 78 f9 d3 3d
       0.14467327 -0.0054036607 0.064914346 0.10350317
0003f0 d6 46 8e 3d 9d 41 95 3d 84 31 75 3e e7 55 b3 3e
       0.06947105 0.07287905 0.2394467 0.35026476

cnn.block1.1.weight f4 [16]
000000 a9 a3 01 40 c6 d2 4d 3f 3a a1 98 40 54 35 e1 3e
       2.025614 0.8039974 4.769681 0.43986
000010 d7 5b 17 3d 15 2b 8a 40 62 f5 3b 40 29 86 42 3f
       0.03695282 4.317759 2.936852 0.7598596
000020 d6 61 a6 40 1a 39 87 40 7f 8b a3 3f 05 2a 47 40
       5.199443 4.2257204 1.2776946 3.1119397
000030 f6 ad ae 40 b9 06 a1 40 1f fe 8c 40 18 92 88 40
       5.4587355 5.0320706 4.4060206 4.2678337

cnn.block1.1.bias f4 [16]
000000 73 a9 26 3d 48 36 1d bc 49 be 6f 3a 75 93 d3 bd
       0.040688943 -0.009595461 0.0009145481 -0.103308596
000010 64 05 ec bd 9b 88 88 3b 6f 8a 65 3c ad 01 0c 3d
       -0.11524466 0.0041666753 0.014010056 0.034181286
000020 47 9b a6 bc 6f db 9b bc 74 49 3d bb da ef 7b bd
       -0.020337714 -0.019025533 -0.0028882893 -0.061508037
000030 45 3e 51 bd 72 1c 00 3c cb 65 14 3d 79 c1 a9 3a
       -0.051084775 0.007819282 0.03622989 0.0012951336

cnn.block1.1.running_mean f4 [16]
000000 7a bb 1c 3a 9e a3 d3 3b 84 c5 9e b9 72 a4 78 3a
       0.0005978864 0.0064587137 -0.0003028327 0.00094849535
000010 f1 f8 23 bc cc 82 82 b9 cb d3 0d ba a5 e9 af bb
       -0.010008083 -0.00024892983 -0.0005410283 -0.005368429
000020 4a 09 11 b7 62 46 23 39 f4 c2 09 3c 7b 0b 43 3a
       -8.644836e-06 0.00015571111 0.008408297 0.00074403704
000030 e8 1b 38 39 4c ad 7e 39 a9 07 16 39 42 35 4c b9
       0.00017558003 0.00024287886 0.00014307968 -0.00019474796

cnn.block1.1.running_var f4 [16]
000000 61 00 f0 3f 91 96 51 40 a7 4e bc 3f a2 8e a7 40
       1.8750116 3.2748148 1.4711503 5.236161
000010 5d 43 f0 40 f7 d9 84 3f fd a2 3d 3f e5 90 2b 40
       7.508223 1.0379018 0.74076825 2.6807187
000020 a0 31 95 3f b2 f3 10 40 3f 53 a2 40 67 fa 45 40
       1.1655769 2.264874 5.072662 3.0934083
000030 74 10 09 40 8e 60 05 40 0e 54 58 3f 8d 8d 05 40
       2.1416292 2.0840182 0.8450326 2.0867646
