models/2a_subject specific/model_3.pth (torch, 985978 bytes, 93 tensors)

fusion_proj f4 [48, 48]
-0.41916302 -0.53199893 -0.20897533 -0.4990245 0.3732374 0.09848172 -0.20542511 0.4982286
-0.12581022 1.775262 -0.7418211 0.8735787 -1.4460135 1.2861888 0.7435248 0.4310311
0.07284452 -0.40618226 -0.43249252 -0.0101679275 -0.037282616 1.6403958 1.1838136 0.25380784
-0.25482157 -0.5292887 0.8012631 -1.2866638 -0.22806785 0.2973782 -0.27512878 1.5926689
-0.14259224 1.1266072 -0.33167353 0.64854366 -0.24303475 -0.5451116 0.8923718 -2.7331681
0.0032981117 -0.019526495 0.5068837 -0.31317797 0.66143477 1.6359446 0.18440184 1.8763046
-0.45995623 0.17855866 0.95602673 0.4657429 0.04863668 0.013230344 0.6505598 0.6288714
3.5833943 0.118049994 -0.28114718 -0.80138284 1.2996284 0.6713053 -0.229459 -0.711807
-1.1335098 2.4337592 -0.3540829 -0.16338606 0.12313752 -0.17634042 0.47439134 0.50881153
0.7130393 1.127478 0.309804 -0.15218714 0.7751507 0.757617 -1.2573339 0.8189395
1.3511839 1.2676518 -0.6073078 0.25298348 0.70819956 0.4619733 -1.194155 -0.23232326
0.7996874 -1.9705424 0.9603997 -1.1910241 -0.54339576 1.1714756 1.6855686 0.73631585
-0.62174886 -0.2456697 1.5956128 0.5523694 0.9117918 -1.8125533 -0.28478658 -2.0324728
0.5283961 -2.1329584 0.44985318 -1.0176833 0.11308755 1.2263091 0.38234127 1.023724
-0.7646731 0.007634073 1.98157 1.1530437 -0.7542828 -0.8154016 -0.50553375 -0.64721847
-0.89805734 0.41125533 0.15536451 -1.0037508 0.91830647 1.2512081 -2.8159986 1.1345787
-0.20618889 0.3493735 0.14743367 0.23569462 1.2796948 1.6127434 0.40513456 -1.124695
0.7572811 -1.256482 -1.2258906 -0.53319055 -0.71382743 -1.3064146 0.95316344 0.34173882
0.25055537 -0.30110127 -0.40902227 -0.014351587 0.2106321 0.67288834 -0.37922803 -0.9052999
0.2238179 0.037215434 -0.041286383 0.43245816 0.66246086 1.5180306 1.513644 -0.9190853
-0.9413671 -0.10890124 -0.14599675 0.40540564 0.9521707 -0.43820584 -1.1684172 0.004234905
1.869529 0.36092308 -0.59967375 -1.7540896 1.8389925 0.23730665 0.029930776 1.3381548
-0.6077319 -0.49510908 0.34997874 0.6996975 1.0457921 -0.85112566 1.1199182 -0.54362744
0.3716101 0.40162468 -0.41692764 -0.6694408 0.5869173 -1.8789207 2.573344 -0.45072246
-0.40080902 -1.6488726 0.38691232 0.50079477 -0.4175701 -0.35813618 -1.9325318 -0.20384923
-0.024908815 -1.0411127 0.66828436 0.8928029 0.27365366 0.4175616 0.567852 -0.6775152
-0.042291198 0.09575448 0.24412724 1.2214177 -0.7477201 -0.31257135 2.0567808 -1.4471806
1.7102557 1.4431499 0.20631096 -1.4932073 1.2886628 -1.2025205 -0.24946818 -1.0387404
0.24026532 0.8156081 1.1033641 -0.15960154 0.69508857 -0.8098476 -0.10896984 -0.9322593
1.5806429 2.7376416 -0.67213285 -1.7295926 0.4134371 0.5730375 1.1797289 -2.100488
0.8044582 -1.8914412 0.64634943 1.7507308 0.42280167 0.0650584 -1.949469 -0.9744929
1.2456831 0.22447868 -0.8289042 1.046619 1.8385582 -0.43422195 -0.5350702 -1.3635494
00000000: 899c d6be 1531 08bf a1fd 55be 2480 ffbe
00000010: f918 bf3e c9b0 c93d f65a 52be d217 ff3e
00000020: 65d4 00be c93b e33f fde7 3dbf dba2 5f3f
00000030: f816 b9bf d6a1 a43f a457 3e3f 1cb0 dc3e
00000040: 822f 953d 1ff7 cfbe a96f ddbe 6197 26bc
00000050: a8b5 18bd 7df8 d13f 3487 973f 1af3 813e
00000060: f977 82be 777f 07bf 941f 4d3f 66b1 a4bf
00000070: 9e8a 69be f541 983e aedd 8cbe 93dc cb3f
00000080: b303 12be aa34 903f 1dd1 a9be f506 263f
00000090: 1ade 78be 6f8c 0bbf 7a72 643f 3aec 2ec0
000000a0: 2225 583b 07f6 9fbc 21c3 013f dd58 a0be
000000b0: ca53 293f a266 d13f d6d3 3c3e c02a f03f
000000c0: 627f ebbe 15d8 363e 2bbe 743f da75 ee3e
000000d0: 4137 473d 16c4 583c 168b 263f b7fd 203f
000000e0: 5556 6540 32c4 f13d 86f2 8fbe 6d27 4dbf
000000f0: 395a a63f aada 2b3f 4df7 6abe fc38 36bf
00000100: d916 91bf b6c2 1b40 5b4a b5be ad4e 27be
00000110: 862f fc3d 9592 34be 6ce3 f23e 7941 023f
00000120: be89 363f 3351 903f a19e 9e3e f2d6 1bbe
00000130: 4770 463f 30f3 413f 51f0 a0bf 05a6 513f
00000140: 98f3 ac3f 6a42 a23f 8678 1bbf 0d87 813e
00000150: 914c 353f c487 ec3e 12da 98bf 26e6 6dbe
00000160: 50b8 4c3f bc3a fcbf c1dc 753f 7a73 98bf
00000170: fc1b 0bbf eaf2 953f b6c0 d73f 327f 3c3f
00000180: ef2a 1fbf d690 7bbe 0a3d cc3f 1568 0d3f
00000190: 306b 693f bf01 e8bf 8ccf 91be 0914 02c0
000001a0: f844 073f 6482 08c0 2853 e63e 7243 82bf
000001b0: 729a e73d b2f7 9c3f 3cc2 c33e 6309 833f
000001c0: 9ec1 43bf 3f27 fa3b 16a4 fd3f f096 933f
000001d0: ad18 41bf 29be 50bf a96a 01bf 1cb0 25bf
000001e0: 16e7 65bf 0f90 d23e e017 1f3e e87a 80bf
000001f0: 2216 6b3f 9627 a03f 5239 34c0 e039 913f
00000200: 2e23 53be 15e1 b23e daf8 163e ee59 713e
00000210: 0acd a33f 606e ce3f cc6d cf3e 01f6 8fbf
00000220: 2ddd 413f 67d4 a0bf fce9 9cbf 2d7f 08bf
00000230: 65bd 36bf 9838 a7bf 8502 743f 64f8 ae3e
00000240: cb48 803e f229 9abe 5e6b d1be eb22 6bbc
00000250: f1af 573e 6942 2c3f 2d2a c2be bcc1 67bf
00000260: 8530 653e 366f 183d e91b 29bd 286b dd3e
00000270: 0997 293f d44e c23f 16bf c13f 2d49 6bbf
00000280: 6ffd 70bf 9d07 dfbd 2c80 15be 5491 cf3e
00000290: 76c1 733f 845c e0be b28e 95bf f5c4 8a3b
000002a0: ba4c ef3f e9ca b83e 3884 19bf 0286 e0bf
000002b0: 1b64 eb3f 8400 733e 6331 f53c a848 ab3f
000002c0: 5194 1bbf f07e fdbe 6a30 b33e 601f 333f
000002d0: 84dc 853f 5fe3 59bf 7b59 8f3f 2b2b 0bbf
000002e0: ae43 be3e c0a1 cd3e 8a77 d5be 7960 2bbf
000002f0: 3640 163f 7980 f0bf abb1 2440 18c5 e6be
00000300: d736 cdbe 420e d3bf 5f19 c63e 1634 003f
00000310: c0cb d5be a05d b7be 345d f7bf dabd 50be
00000320: 920d ccbc 2e43 85bf af14 2b3f bb8e 643f
00000330: 551c 8c3e a2ca d53e c05e 113f a371 2dbf
00000340: 8939 2dbd ed1a c43d 7efc 793e 6a57 9c3f
00000350: 966a 3fbf 5a09 a0be 4ca2 0340 373d b9bf
00000360: a9e9 da3f 23b9 b83f 2e43 533e 6b21 bfbf
00000370: e7f2 a43f 31ec 99bf 9674 7fbe 72f5 84bf
00000380: 1d08 763e b1cb 503f 093b 8d3f 966e 23be
00000390: 53f1 313f 2c52 4fbf 942b dfbd 8ca8 6ebf
000003a0: 8252 ca3f 8535 2f40 e610 2cbf 4a63 ddbf
000003b0: 07ae d33e 96b2 123f 5b01 973f 656e 06c0
000003c0: f9f0 4d3f bf1a f2bf 2877 253f f217 e03f
000003d0: 7679 d83e 573d 853d 3388 f9bf 5e78 79bf
000003e0: 8b72 9f3f bddd 653e 1133 54bf 9df7 853f
000003f0: e055 eb3f 5752 debe 5cfa 08bf c988 aebf

pos_enc f4 [1, 500, 48]
-1.0636948 -1.0247105 0.9831924 -0.010831205 -0.52581215 0.322256 -0.96392 0.09483173
-0.09013724 -0.25799504 -1.3035811 0.18599933 -0.8068087 -2.3257356 1.075812 1.3622128
0.821771 -0.9559012 -0.562182 0.5931219 1.5863304 -0.4100704 -0.4518385 0.1073285
0.656468 -0.29186872 -0.7755854 0.17464429 2.5120256 0.91048723 0.29281917 0.90607643
-0.36746153 0.054149806 -1.2808182 1.3178091 -0.2530983 -1.4468784 0.22672069 0.008744683
0.29815528 0.17745894 0.27897045 -0.05256809 -0.5574933 0.5639765 -0.38391548 -0.09856798
0.38721713 1.734305 -1.3357569 -2.1500592 3.061184 -2.0794435 0.4758789 -1.1577411
-0.5856299 0.17683597 -0.73047334 2.350785 0.28851396 -0.36197752 1.6909888 -0.6760331
-0.83737826 -0.6090381 -0.428421 0.15725291 -0.014758019 0.46051332 1.565125 -3.1543667
-0.14663424 -0.45479897 -0.4472335 1.0494448 1.5080789 -0.07246123 -2.5413551 -0.6387477
-2.2756326 -0.46376985 0.45052376 1.5915916 1.1224054 -2.361513 0.5887857 -0.81242263
-0.28687146 -1.4857922 0.5156767 1.272244 -2.3297126 1.1840714 -0.7268785 -3.3797462
0.50696915 1.4882195 -1.1935902 -0.9064082 2.926356 1.0941932 3.4645493 0.42733103
-0.96721256 0.6867838 -0.24200273 2.0709872 1.1848788 0.7544128 -0.1305547 1.1888078
0.10316818 2.489662 1.4950653 1.2505382 -0.76646227 -1.1668859 -0.77746177 -1.9334886
-0.18144192 0.83982486 -0.5676492 0.71885467 -1.4617956 0.077272974 -2.027008 -0.3998379
1.8746732 -1.4506972 0.61905634 -1.1905636 0.37245438 0.28459966 0.54096466 -1.2710162
0.11369523 -0.0099575445 1.7735884 -1.3760656 0.528026 0.9571577 -1.1840183 -1.349651
-0.7940887 0.10351941 -0.8988273 -0.7073621 0.6031291 0.7546516 1.7259405 -2.6398969
-0.5441084 -2.2125874 0.4129994 -0.3008886 1.3583013 0.39549693 -0.73462015 1.2265204
-1.4677515 -0.4008945 1.3212556 -1.5053729 0.49442944 -1.2518775 1.3343825 1.6404046
-0.7806035 -1.1556355 -0.6786884 -2.072654 0.38466153 -0.7952332 1.6583714 1.0202229
1.5593461 0.85605466 0.06398153 -1.6884462 -1.1022623 -0.7305625 1.5528582 0.75120974
1.5036577 0.82269275 -1.4471785 1.026834 0.7847014 0.80858827 -0.14994103 0.75852036
-0.30314946 1.1470035 1.5573854 -0.25455073 1.1064807 0.5494995 -0.7554483 -1.043518
1.0443467 -0.0034041898 -0.42539236 -2.4759169 0.14574167 -0.34239003 -0.9404535 0.56379557
-0.3157965 -1.694003 -1.1971282 -2.380379 1.9570621 0.36370647 0.6509097 0.59612715
0.9180016 0.82213974 -2.1576407 -0.42833844 1.7882138 -0.796401 1.7604542 0.9409345
0.07349776 -0.6975421 2.5073347 1.7816995 -1.3047668 1.2471495 -1.6256759 0.44899112
-1.5272067 -0.3278432 -0.8659051 1.2339495 1.3508297 2.6111267 1.4898587 -0.24089062
0.5566278 0.44219568 1.656015 0.493496 0.05194121 0.47491753 -2.3881056 0.7911557
-0.5370224 -0.17160396 -0.29666755 -1.2752049 -0.18136422 -0.38614583 -1.4617181 -1.3997943
00000000: 2727 88bf b729 83bf 7fb2 7b3f 5e75 31bc
00000010: a09b 06bf bdfe a43e 76c3 76bf 2337 c23d
00000020: e099 b8bd ed17 84be bfdb a6bf 9c76 3e3e
00000030: 048b 4ebf dad8 14c0 35b4 893f fd5c ae3f
00000040: 965f 523f f1b5 74bf 29eb 0fbf d6d6 173f
00000050: e00c cb3f bff4 d1be 6057 e7be 0bcf db3d
00000060: 490e 283f d16f 95be c48c 46bf f4d5 323e
00000070: 07c5 2040 b115 693f 65ec 953e a0f4 673f
00000080: eb23 bcbe 30cc 5d3d daf1 a3bf f8ad a83f
00000090: 1a96 81be 5033 b9bf 7829 683e dc45 0f3c
000000a0: cfa7 983e ccb7 353e 37d5 8e3e a351 57bd
000000b0: e2b7 0ebf c460 103f 9290 c4be 02de c9bd
000000c0: 5341 c63e b5fd dd3f 15fa aabf 929a 09c0
000000d0: 70ea 4340 9a15 05c0 66a6 f33e dc30 94bf
000000e0: d7eb 15bf 7d14 353e 4d00 3bbf 4373 1640
000000f0: 1ab8 933e 1e55 b9be 5272 d83f 8110 2dbf
00000100: 6c5e 56bf ece9 1bbf ff59 dbbe e806 213e
00000110: 9ecb 71bc 67c8 eb3e 0456 c83f 25e1 49c0
00000120: 4927 16be 69db e8be cafb e4be 3554 863f
00000130: bb08 c13f 8e66 94bd 90a5 22c0 f884 23bf
00000140: f7a3 11c0 3e73 edbe 0dab e63e 46b9 cb3f
00000150: fbaa 8f3f 0723 17c0 a9ba 163f eefa 4fbf
00000160: d1e0 92be 702e bebf 6303 043f e4d8 a23f
00000170: 031a 15c0 a78f 973f b614 3abf c34d 58c0
00000180: bbc8 013f fa7d be3f 90c7 98bf 5e0a 68bf
00000190: 6b49 3b40 860e 8c3f 2dbb 5d40 22cb da3e
000001a0: 3e9b 77bf 10d1 2f3f 90cf 77be 0e8b 0440
000001b0: 1caa 973f 3221 413f 22b0 05be db2a 983f
000001c0: d749 d33d 9f56 1f40 4d5e bf3f a311 a03f
000001d0: df36 44bf 845c 95bf bc07 47bf 8e7c f7bf
000001e0: e9cb 39be c3fe 563f 7551 11bf dc06 383f
000001f0: 1e1c bbbf 4b41 9e3d 80ba 01c0 8eb7 ccbe
00000200: 4bf5 ef3f 72b0 b9bf 7a7a 1e3f 6364 98bf
00000210: 57b2 be3e 0cb7 913e a97c 0a3f a9b0 a2bf
00000220: 0bd9 e83d f824 23bc f204 e33f eb22 b0bf
00000230: b62c 073f 4908 753f e98d 97bf 5dc1 acbf
00000240: 6649 4bbf fc01 d43d 8c19 66bf af15 35bf
00000250: ab66 1a3f d930 413f 9eeb dc3f 12f4 28c0
00000260: b04a 0bbf 089b 0dc0 a874 d33e 120e 9abe
00000270: d1dc ad3f 937e ca3e 1110 3cbf 9ffe 9c3f
00000280: 48df bbbf 0b42 cdbe e71e a93f 0fb0 c0bf
00000290: db25 fd3e 863d a0bf 0ccd aa3f c7f8 d13f
000002a0: a2d5 47bf ddeb 93bf 86be 2dbf 5da6 04c0
000002b0: 5bf2 c43e 6794 4bbf 8445 d43f aa96 823f
000002c0: a798 c73f 6626 5b3f c008 833d 011f d8bf
000002d0: ee16 8dbf 2506 3bbf 0fc4 c63f 484f 403f
000002e0: db77 c03f fe9b 523f 253d b9bf 4c6f 833f
000002f0: 31e2 483f a4ff 4e3f 248a 19be 642e 423f
00000300: 6836 9bbe 03d1 923f 6858 c73f 7954 82be
00000310: 29a1 8d3f 00ac 0c3f 0f65 41bf ff91 85bf
00000320: 27ad 853f d418 5fbb 07cd d9be 6c75 1ec0
00000330: 4e3d 153e bf4d afbe 90c1 70bf e854 103f
00000340: 14b0 a1be 17d5 d8bf 7f3b 99bf 2158 18c0
00000350: 0381 fa3f bc37 ba3e 05a2 263f ca9b 183f
00000360: 2702 6b3f c077 523f c916 0ac0 2d4f dbbe
00000370: 31e4 e43f f0e0 4bbf 9056 e13f 15e1 703f
00000380: fe85 963d 1e92 32bf 2c78 2040 bb0e e43f
00000390: 9902 a7bf 98a2 9f3f 2616 d0bf 2ae2 e53e
000003a0: 827b c3bf 10db a7be f5ab 5dbf 0ff2 9d3f
000003b0: fde7 ac3f b31c 2740 b1b3 be3f 08ac 76be
000003c0: 297f 0e3f 7967 e23e 4df8 d33f 82ab fc3e
000003d0: 4ec0 543d 6428 f33e b9d6 18c0 2e89 4a3f
000003e0: 4d7a 09bf f3b8 2fbe cfe4 97be ea39 a3bf
000003f0: 8bb7 39be e8b4 c5be 9419 bbbf 762c b3bf

riemannian.proj.0.weight f4 [256, 253]
0.27265692 0.1003492 -0.041905586 0.038753606 -0.019388197 -0.047752917 0.025948126 0.014395937
-0.01638032 0.022719007 0.08248877 -0.028967982 0.05847787 0.012118467 -0.05050494 0.07198862
0.0006179909 0.025761386 0.0638767 -0.013238285 -0.08152259 -0.032264944 0.018510636 0.11372923
-0.047301445 -0.02899273 -0.009877507 0.052604098 -0.064285584 0.04904418 -0.14249738 0.09572154
0.13017431 0.025930539 0.010882418 0.027014961 0.0648668 -0.01516709 0.065540075 -0.03034888
0.050896227 0.020552095 0.02382704 0.07072316 -0.027198346 -0.04686728 -0.03669708 -0.026121167
0.037986223 0.06986667 0.09464327 0.06936289 0.069658436 0.04285118 0.05342328 -0.09402848
0.04827692 0.010173548 -0.029797804 0.025163693 0.114336014 -0.031025957 0.07228208 0.012228231
0.0034124702 0.017248474 0.07182782 0.048506435 0.040944893 0.052021068 -0.039436705 -0.029130375
-0.15737174 0.03480146 -0.029927852 -0.011379076 -0.11820071 -0.04017089 0.04557482 0.06786656
-0.1042451 0.0256602 0.122219145 -0.00539263 -0.09614774 0.15791981 -0.04040733 -0.0059614377
0.15712726 -0.14795402 -0.017703421 0.093219616 -0.10760478 0.07062586 0.13739368 -0.04179933
0.030666977 -0.045995343 -0.0095308935 0.00882654 0.05469382 -0.02435352 -0.039027043 0.0980264
-0.001307775 -0.0032051846 -0.076316476 0.05785038 0.036012433 0.06572056 -0.02105763 0.019384848
0.009988959 0.039795075 -0.020112228 -0.01693574 0.013808381 -0.05098305 -0.075137176 0.042981274
0.0016878629 -0.01914449 -0.037524663 0.004048726 0.06203544 -0.021392353 -0.009381131 -0.018423393
0.010232804 -0.029331766 0.00356428 -0.031055339 -0.10364442 0.0033889727 -0.03001898 0.12053526
-0.054954313 -0.009127743 0.012210295 -0.05576996 -0.11573468 0.011758637 -0.07251006 -0.07866608
0.021565285 -0.0008787497 -0.018571762 0.019482534 0.02298312 0.00038630064 -0.07867597 0.00022127751
-0.047212597 0.09096412 0.033060078 -0.008825946 -0.06109292 0.08686879 0.036629047 0.09383936
-0.02874437 0.022310708 0.01889061 0.061415575 0.015405074 -0.01797168 -0.02463192 -0.08629805
-0.101932526 -0.011566497 -0.01719611 -0.13287333 -0.06538312 0.0052691107 -0.00809164 0.017568616
-0.045894887 0.13062936 0.05400324 0.05985419 -0.0050220783 -0.072824575 0.0250851 -0.018305238
-0.030655803 -0.0063856007 0.0058089187 0.006067942 0.04051358 0.035728615 -0.16142859 0.087845735
-0.02224928 0.053564746 -0.009836807 -0.08264231 -0.049793094 0.053816203 0.06748537 0.056898545
0.011696012 -0.056797348 -0.004233496 0.029851846 -0.029277591 -0.018510874 0.04584995 0.02222338
0.041038614 0.0028351017 0.00402707 -0.09619627 -0.008600742 -0.08498588 0.037954025 -0.07499083
-0.08630735 -0.0069744387 -0.071750306 3.707511e-06 0.14060795 0.0026150143 0.057855424 0.037737135
0.0139169935 -0.06679325 0.069144286 0.038542558 -0.09157356 -0.07920839 -0.03387747 -0.13751638
-0.004694285 -0.010387462 -0.022235127 0.020649804 -0.01595961 0.0697093 0.071878016 0.019291501
0.0931886 -0.04663828 -0.03197773 -0.090568356 -0.01714383 0.066964276 -0.031210607 0.06265802
0.028867038 -0.058062427 0.029393967 0.08840812 0.05702564 0.028547 -0.06538858 -0.02066345
00000000: b099 8b3e e283 cd3d 31a5 2bbd 1abc 1e3d
00000010: ffd3 9ebc 9098 43bd 2a91 d43c f0dc 6b3c
00000020: 0530 86bc 361d ba3c dfef a83d 434e edbc
00000030: 7e86 6f3d 898c 463c 45de 4ebd c56e 933d
00000040: ab00 223a 8b09 d33c cad1 823d 64e5 58bc
00000050: 51f5 a6bd 3f28 04bd 9ea3 973c dfea e83d
00000060: 29bf 41bd 2982 edbc 44d5 21bc 6577 573d
00000070: 29a8 83bd 8de2 483d d5ea 11be a809 c43d
00000080: 6a4c 053e 486c d43c 2b4c 323c 7b4e dd3c
00000090: e3d8 843d 637f 78bc e039 863d 379e f8bc
000000a0: 9078 503d de5c a83c ed30 c33c 4ed7 903d
000000b0: 11cf debc e8f7 3fbd ad4f 16bd 0ffc d5bc
000000c0: 7197 1b3d 4216 8f3d 55d4 c13d 220e 8e3d
000000d0: 15a9 8e3d b884 2f3d 5fd2 5a3d 0192 c0bd
000000e0: 05be 453d f4ae 263c 861a f4bc 1724 ce3c
000000f0: 0029 ea3d 262a febc a108 943d eb58 483c
00000100: c0a3 5f3b ac4c 8d3c 771a 933d afae 463d
00000110: d5b5 273d 0b14 553d 6288 21bd d3a2 eebc
00000120: 0f26 21be fa8b 0e3d 412b f5bc 4e6f 3abc
00000130: 3713 f2bd 3b8a 24bd aaac 3a3d 9ffd 8a3d
00000140: 747e d5bd 5735 d23c 084e fa3d a9b4 b0bb
00000150: 1be9 c4bd bbb5 213e 2882 25bd 2a58 c3bb
00000160: f8e5 203e 4281 17be c406 91bc ede9 be3d
00000170: e55f dcbd 4aa4 903d eeb0 0c3e c635 2bbd
00000180: 5039 fb3c 9d65 3cbd 7727 1cbc 319d 103c
00000190: a106 603d 0881 c7bc d2da 1fbd 11c2 c83d
000001a0: a669 abba 130e 52bb d04b 9cbd 85f4 6c3d
000001b0: c681 133d 8098 863d 0d81 acbc f9cc 9e3c
000001c0: bba8 233c 2900 233d 66c2 a4bc d2bc 8abc
000001d0: 8c3c 623c 9ad3 50bd 85e1 99bd 220d 303d
000001e0: 483b dd3a e8d4 9cbc 76b3 19bd 2dab 843b
000001f0: e018 7e3d 043f afbc 51b3 19bc a8ec 96bc
00000200: 7ea7 273c 2c49 f0bc b296 693b c467 febc
00000210: 8743 d4bd 8719 5e3b 5dea f5bc 31db f63d
00000220: c617 61bd 878c 15bc b00d 483c 0b6f 64bd
00000230: 4e06 edbd 4ca7 403c 2880 94bd af1b a1bd
00000240: aea9 b03c e55b 66ba cf23 98bc d699 9f3c
00000250: 1947 bc3c 6588 ca39 de20 a1bd bb06 6839
00000260: ff61 41bd 664b ba3d 016a 073d b39a 10bc
00000270: 923c 7abd 44e8 b13d 5708 163d da2e c03d
00000280: 5079 ebbc f2c4 b63c 7bc0 9a3c e68e 7b3d
00000290: 9065 7c3c 5839 93bc e1c8 c9bc 08bd b0bd
000002a0: 00c2 d0bd 6881 3dbc dbde 8cbc f20f 08be
000002b0: 96e7 85bd 81a8 ac3b cc92 04bc 0fec 8f3c
000002c0: 47fc 3bbd b4c3 053e 8032 5d3d ab29 753d
000002d0: 3f90 a4bb 0d25 95bd 457f cd3c def4 95bc
000002e0: e121 fbbc 4d3e d1bb be58 be3b 96d5 c63b
000002f0: 91f1 253d 2b58 123d 894d 25be 77e8 b33d
00000300: 1f44 b6bc b566 5b3d 8f2a 21bc 5f40 a9bd
00000310: d8f3 4bbd 616e 5c3d c535 8a3d 730e 693d
00000320: a1a0 3f3c 56a4 68bd 23b9 8abb dc8b f43c
00000330: 8fd7 efbc 1ea4 97bc 28cd 3b3d ce0d b63c
00000340: 1b18 283d 1dcd 393b 83f5 833b 8d02 c5bd
00000350: 20ea 0cbc 140d aebd ae75 1b3d cb94 99bd
00000360: e8c1 b0bd d589 e4bb d3f1 92bd 8ece 7836
00000370: 88fb 0f3e a960 2b3b cff9 6c3d 4192 1a3d
00000380: 1a04 643c e6ca 88bd 859b 8d3d cdde 1d3d
00000390: eb8a bbbd 0238 a2bd 1ac3 0abd 18d1 0cbe
000003a0: 84d2 99bb 2c30 2abc 7126 b6bc c729 a93c
000003b0: babd 82bc c0c3 8e3d c834 933d 3609 9e3c
000003c0: aad9 be3d c807 3fbd 15fb 02bd e77b b9bd
000003d0: 3871 8cbc 9124 893d 63ad ffbc d952 803d
000003e0: 917a ec3c ded2 6dbd 9ecb f03c 510f b53d
000003f0: b893 693d 66db e93c 73ea 85bd 6546 a9bc

riemannian.proj.0.bias f4 [256]
0.0025023532 -0.030004807 0.026759474 -0.042777337 -0.008941588 -0.01708716 0.010466129 -0.009066355
0.005594884 -0.01028412 0.005260625 0.02833277 0.0010313186 0.018169938 0.013131052 -0.003977108
0.0097801145 -0.005744091 -0.0005840874 -0.027278941 0.019670894 0.009384754 0.0023064339 0.0017360292
-0.038489673 -0.009735078 0.001952 -0.0013635005 0.012775505 0.0096081225 0.01521142 -0.012687427
-0.056527484 0.0063947057 0.014548542 -0.010632935 -0.037238676 0.002242695 -0.0044931658 -0.018284041
0.003568845 -0.055546153 -0.033229306 0.011782643 -0.02137178 -0.02703634 -0.0127457585 -0.015247578
0.015392035 -0.009848388 0.008846738 -0.048108533 0.062449202 0.025724102 -0.033663847 -0.014375902
0.008666257 0.03425622 0.035098463 -0.014561624 -0.022326473 -0.01210294 0.021508127 0.017022215
-0.014932446 0.012395174 0.0063233864 -0.0020692125 -0.013896278 -0.033439845 0.014994409 -0.058102313
-0.027790828 0.04366252 0.037429594 -0.0062053096 0.020579042 0.006088368 0.001331594 -0.00380221
-0.013237031 -0.0063212984 0.006518062 0.016164413 -0.034318075 0.03225288 0.014304553 0.01773692
-0.0025098592 0.016728392 0.029015167 0.009718499 -0.015242763 0.021141706 -0.032256797 -0.025216462
0.027659481 0.009977903 -0.0382725 0.008186751 0.010177593 -0.0066543208 -0.006297448 -0.0033743114
0.005180478 -0.017247317 -0.021756247 -0.021582907 0.044025034 -0.018982155 -0.01478837 0.014092645
-0.0034290855 -0.0075983144 0.025108347 0.009104308 -0.04946114 0.0049194796 0.0033434173 0.013831538
-0.0034891786 0.0114428 -0.011397082 -0.0043592327 0.019946754 0.0023247474 -0.022915635 0.012202178
-0.015052492 -0.02580337 0.0058816653 0.008569313 -0.0046139895 0.00487785 0.013916286 -0.010341024
-0.036464486 -0.0045410367 -0.011791771 0.053119138 0.005806572 -0.03446873 -0.0155735295 -0.0007086421
0.013637596 0.005010849 0.0047988878 -0.02206901 0.03465854 0.032395698 0.045044314 0.00081010966
-0.00712864 -0.054568272 0.03959996 -0.0030240968 -0.062323295 0.009535883 0.012092681 -0.04925267
-0.032488063 0.02264712 -0.039215576 0.033486564 0.0142248655 0.008427891 -0.0038218813 0.006515738
0.009029936 -0.004983768 0.010975624 -0.056205444 0.0048303986 0.018464815 0.005232121 0.011864087
0.003969498 0.01261199 -0.002734273 -0.046374835 0.019653726 -0.029917924 -0.0055882772 -0.055421527
0.0075907274 -0.0012773951 -0.0002908739 -0.008566973 -0.03227651 0.06725985 0.040987607 -0.046227407
0.0016878503 0.013531436 -0.024790306 0.018216847 0.0038209886 -0.021705443 0.009648683 0.01746135
-0.05185566 -0.0064796885 -0.002970953 -0.006822667 -0.0012623442 0.015280348 -0.015823692 -0.0004710144
0.0033803196 0.012524998 0.0044557676 -0.08056191 0.019542607 -0.015521853 0.012976854 -0.009395084
0.019019846 -0.0024290816 -0.01332927 0.018814912 -0.004995742 -0.017210245 -0.036480837 0.015901718
0.02443503 0.020058451 -0.01435896 -0.0073948503 0.0077690044 0.007191948 0.016547399 -0.024087654
-0.04282184 -0.045676805 0.029130138 0.0062981853 0.030529955 0.009470503 0.017360564 -0.013234297
0.0026865583 -0.00010478722 -0.006161097 -0.0144716725 -0.014674735 0.0055720103 -0.0152529925 0.018492661
-0.0030477596 -0.032917015 -0.006415808 0.00087198487 0.02537355 -0.06705569 -0.0020815923 0.028000405
00000000: 85fe 233b a4cc f5bc af36 db3c 4a37 2fbd
00000010: bd7f 12bc 5ffa 8bbc 207a 2b3c 0d8b 14bc
00000020: 4a55 b73b ba7e 28bc 5261 ac3b 201a e83c
00000030: 4f2d 873a 1fd9 943c a023 573c 6652 82bb
00000040: c63c 203c ed38 bcbb 711d 19ba 1678 dfbc
00000050: db24 a13c 83c2 193c 8a27 173b 798b e33a
00000060: 59a7 1dbd e07f 1fbc 40da ff3a 7cb7 b2ba
00000070: 5a50 513c 636b 1d3c 5239 793c edde 4fbc
00000080: 5d89 67bd ae8a d13b 025d 6e3c c335 2ebc
00000090: 9587 18bd 2efa 123b 683b 93bb 6ac8 95bc
000000a0: 49e3 693b 5d84 63bd 741b 08bd fd0b 413c
000000b0: df13 afbc 517b ddbc 96d3 50bc fad0 79bc
000000c0: e02e 7c3c 225b 21bc e9f1 103c 740d 45bd
000000d0: bcca 7f3d 5abb d23c 1ae3 09bd e788 6bbc
000000e0: ebfc 0d3c 4050 0c3d 68c3 0f3d e193 6ebc
000000f0: 02e6 b6bc 694b 46bc d031 b03c 2c72 8b3c
00000100: 38a7 74bc 2115 4b3c 6934 cf3b a09b 07bb
00000110: 37ad 63bc 38f8 08bd 1cab 753c b1fc 6dbd
00000120: 97a9 e3bc 78d7 323d c64f 193d e955 cbbb
00000130: 6195 a83c ef80 c73b e188 ae3a 802e 79bb
00000140: 22e0 58bc e522 cfbb 7895 d53b 3b6b 843c
00000150: 1c91 0cbd 991b 043d a55d 6a3c 044d 913c
00000160: 737c 24bb fb09 893c 37b1 ed3c 573a 1f3c
00000170: c8bc 79bc 5f31 ad3c b41f 04bd c192 cebc
00000180: 2396 e23c 5c7a 233c a0c3 1cbd b921 063c
00000190: ebbf 263c 7d0c dabb d35a cebb 8d23 5dbb
000001a0: 00c1 a93b 3f4a 8dbc 283a b2bc a3ce b0bc
000001b0: 9853 343d 7780 9bbc eb4a 72bc d6e4 663c
000001c0: 82ba 60bb 48fb f8bb 05b0 cd3c 3c2a 153c
000001d0: c497 4abd 9633 a13b 3c1d 5b3b ad9d 623c
000001e0: b4aa 64bb 957a 3b3c d4ba 3abc e5d7 8ebb
000001f0: 6067 a33c ca5a 183b 92b9 bbbc a5eb 473c
00000200: ba9e 76bc 9761 d3bc fcba c03b 4e66 0c3c
00000210: f330 97bb 5fd6 9f3b 2201 643c 666d 29bc
00000220: c95b 15bd facc 94bb 4632 41bc 7493 593d
00000230: 0e45 be3b 152f 0dbd 1e28 7fbc 2bc4 39ba
00000240: 3970 5f3c 0c32 a43b fd3f 9d3b 12ca b4bc
00000250: 1df6 0d3d 5ab1 043d 6380 383d 8a5d 543a
00000260: 5e97 e9bb fb82 5fbd 9133 223d ed2f 46bb
00000270: b646 7fbd 643c 1c3c 6120 463c 2bbd 49bd
00000280: 3412 05bd 7486 b93c 83a0 20bd 3529 093d
00000290: 690f 693c 2315 0a3c 8778 7abb f981 d53b
000002a0: 4cf2 133c e04e a3bb 1bd3 333c ae37 66bd
000002b0: 5248 9e3b 8643 973c 3672 ab3b 9661 423c
000002c0: 9012 823b 85a2 4e3c 7d31 33bb 8af3 3dbd
000002d0: da00 a13c 6f16 f5bc de1d b7bb af01 63bd
000002e0: a3bb f83b 446e a7ba 6f80 98b9 7d5c 0cbc
000002f0: 6034 04bd 88bf 893d 9fe2 273d f358 3dbd
00000300: dc3a dd3a f5b2 5d3c 0a15 cbbc 7f3b 953c
00000310: 8d69 7a3b 9dcf b1bc 8215 1e3c 1b0b 8f3c
00000320: 9a66 54bd 9153 d4bb 52b4 42bb ae90 dfbb
00000330: 3e75 a5ba 6d5a 7a3c b0a0 81bc 7cf2 f6b9
00000340: 5a88 5d3b a635 4d3c b001 923b a5fd a4bd
00000350: d117 a03c 5f4f 7ebc df9c 543c d7ed 19bc
00000360: 82cf 9b3c 3a31 1fbb 0363 5abc bb21 9a3c
00000370: 52b3 a3bb 80fc 8cbc ee6c 15bd 5244 823c
00000380: f92b c83c 9f51 a43c d841 6bbc 8050 f2bb
00000390: 2293 fe3b 6faa eb3b 698e 873c 7953 c5bc
000003a0: f465 2fbd 9a17 3bbd 54a2 ee3c 0261 ce3b
000003b0: f519 fa3c 2b2a 1b3c be37 8e3c aad4 58bc
000003c0: f810 303b 36c1 dbb8 07e3 c9bb 981a 6dbc
000003d0: 4d6e 70bc 6995 b63b b0e7 79bc ec7d 973c
000003e0: ecbc 47bb fed3 06bd b33b d2bb ea95 643a
000003f0: 31dc cf3c 7e54 89bd 536b 08bb 1b61 e53c

riemannian.proj.3.weight f4 [48, 256]
0.051745813 0.03950185 -0.037884545 -0.09369044 0.039172813 -0.07914905 0.060502496 0.0086180195
0.019601578 -0.015706195 0.05021053 0.04802967 0.051848866 -0.0076715457 -0.119320415 0.034779496
-0.021879373 0.009273533 -0.13513096 0.019129045 0.15242538 0.087258615 0.0048527215 0.22976388
-0.19409524 0.054396704 0.013538678 -0.0041302172 0.021551222 0.05929187 0.05490663 0.07368855
-0.04259601 0.06597265 0.08459342 0.01658164 -0.0206981 -0.006686292 -0.087056674 0.06213822
0.09711521 0.076410614 -0.016390897 -0.036669947 -0.059296016 -0.12817295 0.00225572 -0.010768436
0.007728682 0.1754634 -0.13255426 -0.05512642 -0.13498151 0.09749831 -0.09681261 0.19239622
0.082845755 0.070762426 -0.061871465 0.09529196 -0.032746784 -0.05350473 -0.01863756 -0.041724198
-0.042911198 0.036626156 0.10504385 -0.0020734738 -0.019094799 -0.09145844 0.12852861 -0.018888706
0.02053231 0.011990502 -0.04306534 -0.05263579 0.050666776 0.14548282 0.17387888 0.005626238
0.13694368 0.052354574 0.0217157 -0.020297434 -0.05136091 -0.06721634 0.06414596 -0.054283574
-0.19676222 0.06022975 0.031626128 -0.0027048679 0.14926799 0.0073426245 -0.008526115 -0.07143425
0.11667902 -0.081440926 -0.034498744 0.13166131 0.04722188 -0.10886574 0.018751888 -0.032813057
0.13252163 -0.0053082397 0.03355851 0.049780507 0.16341671 -0.049474087 -0.002951928 -0.07389072
-0.035333633 -0.061615568 -0.06113886 -0.057498638 -0.027637579 -0.033689614 0.051633384 -0.024557488
-0.049321324 0.08499043 -0.053514075 -0.028764872 0.1280448 0.0045888233 0.03656369 0.1678924
0.13934907 -0.08965236 0.073597826 0.017641556 -0.07733449 -0.06594497 0.06714385 0.19347778
0.047134887 0.070257105 0.16340587 -0.04690191 -0.16482008 -0.019673456 -0.07496389 -0.08588344
0.14656302 -0.032169323 0.041612346 -0.033613563 0.12182989 -0.034235265 0.023672573 -0.092364155
-0.18048947 -0.11903802 0.027965404 0.07054454 -0.0765894 0.119245745 0.032192864 0.044556767
-0.010696358 -0.058925766 -0.04547808 -0.07693086 0.047367048 -0.03863185 -0.00072374084 0.08928652
-0.115439154 0.064976394 -0.06922793 0.14544179 0.11087182 -0.058135923 0.07449903 -0.040813047
0.10794906 -0.009391597 0.08815753 0.06783393 0.07167131 -0.1188171 -0.021318235 -0.08417149
0.007840852 0.050930385 -0.06106457 0.10041453 -0.035916608 0.15080616 -0.063197225 0.005747853
0.12041881 0.19553298 0.008066421 -0.0005037284 -0.10820019 -0.07330165 0.011463955 -0.046222907
-0.15060247 -0.015001087 -0.04325328 0.14346127 0.023599336 -0.04633556 -0.01968489 -0.049714833
0.044166915 0.0922894 -0.032400973 0.0411376 0.06476674 0.056484025 0.010389527 -0.043293715
0.108903036 0.0117868865 0.0009575064 0.14157611 -0.06258757 -0.027751368 -0.082598366 -0.014219881
0.10375542 -0.09581514 0.08268097 -0.07840854 0.09846084 0.062353805 0.037289213 0.14015532
-0.1323609 0.010417966 0.09630349 0.013364218 0.08749546 0.110351786 -0.16348532 -0.033969063
0.1053822 0.031751603 -0.057914462 0.012875967 -0.056429483 0.02167966 -0.066100165 -0.030890755
-0.14430015 0.12743215 -0.007831926 0.001323696 -0.0003121116 0.049362 -0.0039600385 0.093199275
00000000: 6bf3 533d b1cc 213d d32c 1bbd c6e0 bfbd
00000010: ac73 203d e618 a2bd 77d1 773d 9832 0d3c
00000020: 7d93 a03c 47aa 80bc 8fa9 4d3d c2ba 443d
00000030: 7a5f 543d 9761 fbbb 435e f4bd f274 0e3d
00000040: 5f3c b3bc 04f0 173c c55f 0abe 84b4 9c3c
00000050: 6615 1c3e a5b4 b23d 9403 9f3b 3947 6b3e
00000060: e7c0 46be 14cf 5e3d 55d1 5d3c c656 87bb
00000070: 308c b03c 08dc 723d c6e5 603d 06ea 963d
00000080: 2779 2ebd ab1c 873d 513f ad3d 38d6 873c
00000090: 108f a9bc af18 dbbb c54a b2bd a584 7e3d
000000a0: 57e4 c63d 2b7d 9c3d 3446 86bc 3a33 16bd
000000b0: 61e0 72bd c53f 03be b4d4 133b 186e 30bc
000000c0: e240 fd3b adac 333e 4ebc 07be 3ecc 61bd
000000d0: 9838 0abe 32ad c73d b145 c6bd 8403 453e
000000e0: 09ab a93d e4eb 903d ef6c 7dbd 6e28 c33d
000000f0: 7e21 06bd c727 5bbd ccad 98bc fee6 2abd
00000100: a7c3 2fbd 4f05 163d 3b21 d73d 1ee3 07bb
00000110: b26c 9cbc 904e bbbd 019d 033e 7dbc 9abc
00000120: 6033 a83c cf73 443c 4865 30bd a098 57bd
00000130: f787 4f3d 73f9 143e 4e0d 323e 4e5c b83b
00000140: f73a 0c3e c071 563d 20e5 b13c ce46 a6bc
00000150: d15f 52bd b8a8 89bd f55e 833d 7458 5ebd
00000160: 097c 49be 78b3 763d 668a 013d 2744 31bb
00000170: b5d9 183e 669a f03b 1eb1 0bbc 1f4c 92bd
00000180: 69f5 ee3d 80ca a6bd 8e4e 0dbd 39d2 063e
00000190: bb6b 413d 00f5 debd 8f9d 993c fc66 06bd
000001a0: c0b3 073e bef0 adbb a674 093d a5e6 4b3d
000001b0: b656 273e 57a5 4abd 2275 41bb 0554 97bd
000001c0: 00ba 10bd 9b60 7cbd be6c 7abd b183 6bbd
000001d0: 3468 e2bc 1ffe 09bd 877d 533d c92c c9bc
000001e0: 2805 4abd 760f ae3d 9331 5bbd 4fa4 ebbc
000001f0: 2d1e 033e d75d 963b cfc3 153d fceb 2b3e
00000200: 86b1 0e3e a89b b7bd 75ba 963d 0685 903c
00000210: 8c61 9ebd 280e 87bd b782 893d 0a1f 463e
00000220: 8310 413d f5e2 8f3d de53 273e 381c 40bd
00000230: 98c6 28be 3a2a a1bc ab86 99bd a8e3 afbd
00000240: 9e14 163e fbc3 03bd b571 2a3d 60ae 09bd
00000250: f381 f93d 473a 0cbd fcec c13c 6b29 bdbd
00000260: 3bd2 38be 35ca f3bd b417 e53c a879 903d
00000270: e7da 9cbd 1d37 f43d aadc 033d 2881 363d
00000280: c73f 2fbc 255c 71bd 3947 3abd ed8d 9dbd
00000290: f303 423d 6e3c 1ebd 6db9 3dba dadb b63d
000002a0: 5d6b ecbd 5812 853d 5fc7 8dbd b1ee 143e
000002b0: c410 e33d ef1f 6ebd f392 983d 952b 27bd
000002c0: 6614 dd3d 36df 19bc ef8b b43d 84ec 8a3d
000002d0: 68c8 923d 6156 f3bd 94a3 aebc 1a62 acbd
000002e0: eb76 003c 619c 503d d81e 7abd 22a6 cd3d
000002f0: 4b1d 13bd ee6c 1a3e 8c6d 81bd 7c58 bc3b
00000300: 239e f63d cc39 483e 0629 043c a40c 04ba
00000310: 1098 ddbd 2d1f 96bd 50d3 3b3c 3b54 3dbd
00000320: 8937 1abe 1fc7 75bc 5a2a 31bd 83e7 123e
00000330: 6553 c13c 5bca 3dbd 3542 a1bc c8a1 4bbd
00000340: 5ee8 343d 3a02 bd3d e2b6 04bd e67f 283d
00000350: 6da4 843d cb5b 673d d638 2a3c c054 31bd
00000360: 8e08 df3d c91d 413c 2b01 7b3a 54f9 103e
00000370: e92d 80bd d656 e3bc 5529 a9bd 81fa 68bc
00000380: b97d d43d ba3a c4bd a454 a93d a894 a0bd
00000390: d6a5 c93d b466 7f3d 93bc 183d e084 0f3e
000003a0: 9e89 07be 1eb0 2a3c c43a c53d 98f5 5a3c
000003b0: d230 b33d 1e00 e23d b268 27be 2523 0bbd
000003c0: 9fd2 d73d f80d 023d b737 6dbd b8f5 523c
000003d0: 9a22 67bd 8b99 b13c 865f 87bd 9c0e fdbc
000003e0: 6bc3 13be 937d 023e 7b51 00bc de7f ad3a
000003f0: e9a2 a3b9 cf2f 4a3d 36c3 81bb 43df be3d

riemannian.proj.3.bias f4 [48]
0.017348884 -0.0063767447 0.0971768 -0.011131627 -0.015909078 -0.04526819 0.016004467 -0.019652754
-0.06118821 0.012605363 0.003697187 0.042679287 -0.08467517 -0.013685267 0.047121897 -0.0029571669
-0.022773724 -0.030215826 0.05585236 -0.042560045 -0.074942164 -0.0499477 0.0032959199 -0.02710463
-0.048456945 -0.015593931 0.008614521 0.02932144 -0.01074795 -0.05821774 0.03436406 0.0623062
-0.007758109 -0.036846213 0.030579746 -0.025075968 -0.018165909 0.02510613 0.011933289 -0.044199605
-0.036836818 -0.007690204 0.004748465 -0.020989465 0.048843246 -0.007672982 -0.00826 -0.025254231
00000000: 3f1f 8e3c 03f4 d0bb a104 c73d 6d61 36bc
00000010: c153 82bc 236b 39bd cd1b 833c d0fe a0bc
00000020: 7da0 7abd b986 4e3c 814c 723b 7ad0 2e3d
00000030: 2d6a adbd 2c38 60bc e402 413d 07cd 41bb
00000040: f68f babc 2e87 f7bc 72c5 643d 7153 2ebd
00000050: 477b 99bd f695 4cbd 5c00 583b 870a debc
00000060: ca7a 46bd b07d 7fbc eb23 0d3c 8433 f03c
00000070: 2b18 30bc ba75 6ebd 54c1 0c3d c934 7f3d
00000080: bc37 febb 0eec 16bd 6082 fa3c 1e6c cdbc
00000090: acd0 94bc 5fab cd3c d783 433c a50a 35bd
000000a0: 34e2 16bd 1bfe fbbb 0399 9b3b 19f2 abbc
000000b0: db0f 483d a36d fbbb f354 07bc f6e1 cebc

cnn.block1.0.weight f4 [16, 1, 1, 64]
0.084664226 0.025039237 0.08727999 0.030217137 -0.03311037 0.027392462 -0.023932649 -0.06383762
-0.062798016 -0.07421393 -0.06401224 -0.12793478 -0.033763465 -0.051246297 0.012114694 -0.023922578
0.062178336 0.13576372 0.14589076 0.038253073 0.041548174 0.005633153 0.026929813 0.04481864
0.03149787 -0.056268618 -0.07915008 -0.08063261 -0.063784055 -0.06518325 -0.084142156 -0.111616395
-0.040654507 -0.028122237 0.036681227 0.04049753 0.08932544 0.025587529 0.037110277 0.1222604
0.0888476 0.05651687 0.048635583 0.0012055306 -0.023290591 0.010209356 -0.0927064 -0.063025266
-0.039104767 -0.12539698 -0.044899646 -0.013982975 -0.06267018 -0.0031157876 0.03712227 0.016126215
0.055073686 0.09615924 0.086782806 0.072987705 0.062003274 -0.058791615 -0.043793384 -0.08674949
0.10796897 0.03449827 0.020337323 -0.007736309 0.04932108 -0.10087461 -0.029260982 -0.06424146
-0.027702007 -0.024038991 0.049885944 -0.14355262 -0.030732866 0.059376113 -0.0028669252 -0.01518946
0.075557426 -0.04083941 -0.03338995 0.009594961 0.057087537 -0.019864887 0.06458233 -0.0007137568
0.016233752 -0.013928706 0.09023544 0.01619169 0.025558023 -0.018548982 -0.036842838 -0.011828739
-0.059743404 -0.08320064 -0.07313307 -0.07334032 -0.07073639 0.033413444 -0.06258055 0.069092624
-0.058699533 -0.032796517 -0.012556534 0.03385765 0.051784787 0.080334276 0.057118755 0.004748657
0.03194945 0.030619785 0.08609267 0.10402376 -0.040797222 -0.031319283 -0.08871039 -0.11524328
-0.10441315 -0.084954515 -0.044923797 -0.044167515 -0.011207863 0.057567395 0.06677541 0.08274111
-0.10242023 -0.10489069 -0.09442797 -0.05214353 -0.011227514 -0.08412386 -0.103278235 -0.10960565
0.026982265 0.016348362 -0.023729103 0.022084989 0.095189534 0.1336756 0.15221366 0.14096603
0.092295334 0.027288213 0.038439967 -0.027366007 -0.004979241 -0.043075856 -0.10287406 -0.06420937
0.015475853 0.047659136 0.008763466 0.021628147 -0.007580502 0.0028448727 0.061791375 -0.019326413
-0.06018658 -0.023438916 -0.017382942 0.00077302614 -0.046699364 -0.056279052 -0.093501665 -0.05597308
-0.05379637 -0.02325471 -0.06416853 -0.032186236 -0.02533347 -0.038802568 0.026764663 0.04369717
0.006602422 0.03719936 0.06859296 0.0772407 0.12798667 0.00892604 0.05969828 0.034063652
-0.00556581 -0.050070953 -0.082493 -0.020710427 -0.09627819 -0.062479198 -0.104902856 -0.08396848
-0.036986046 -0.0032741807 0.060181573 0.045519214 0.041042536 -0.13277833 0.014095267 0.060991555
0.09645991 0.013947508 0.07608225 0.07518144 0.009940712 -0.07140769 -0.083090454 -0.04388524
-0.010922011 -0.05191188 0.01325175 -0.014593258 -0.033230998 -0.08336222 0.001867985 -0.11562977
0.17902885 0.11612748 0.11501889 0.036386106 0.04727426 0.032277543 -0.024229785 0.027323013
0.12710965 0.100226864 0.090208516 -0.012024066 -0.048278425 -0.11276054 -0.11886718 -0.021597335
-0.053941462 -0.049308963 -0.03547529 -0.0069618355 -0.027953865 -0.09522928 0.014608705 0.067332596
0.117488295 0.06453743 0.06449675 0.086710185 -0.0016414239 -0.06666151 0.065525465 -0.027959615
0.030151889 0.041687835 0.058232673 -0.0787936 -0.07407334 -0.08236034 -0.065045334 0.055991665
00000000: 7064 ad3d 161f cd3c dabf b23d ee89 f73c
00000010: bd9e 07bd 2866 e03c 670e c4bc 4cbd 82bd
00000020: 3f9c 80bd 79fd 97bd d918 83bd 5601 03be
00000030: 8f4b 0abd a3e7 51bd b67c 463c 48f9 c3bc
00000040: b6ae 7e3d a505 0b3e 6364 153e 41af 1c3d
00000050: 6b2e 2a3d 5096 b83b e99b dc3c c093 373d
00000060: e903 013d ec79 66bd 7019 a2bd b622 a5bd
00000070: 37a1 82bd cc7e 85bd b952 acbd 2397 e4bd
00000080: 5785 26bd 9b60 e6bc 0e3f 163d bde0 253d
00000090: 42f0 b63d f09c d13c f200 183d a963 fa3d
000000a0: bbf5 b53d 3c7e 673d 1b36 473d e502 9e3a
000000b0: e9cb bebc 2545 273c dadc bdbd 6413 81bd
000000c0: 522c 20bd 1168 00be b1e8 37bd d918 65bc
000000d0: 3959 80bd 3e32 4cbb 850d 183d 201b 843c
000000e0: f294 613d 23ef c43d 2fbb b13d 947a 953d
000000f0: 25f7 7d3d 7acf 70bd b160 33bd b7a9 b1bd
00000100: d61e dd3d 0f4e 0d3d 759a a63c dd80 fdbb
00000110: e704 4a3d 5997 cebd bab4 efbc 0791 83bd
00000120: 52ef e2bc 6bed c4bc 3455 4c3d 75ff 12be
00000130: 7ec3 fbbc 5e34 733d 06e3 3bbb 36dd 78bc
00000140: dabd 9a3d 3a47 27bd e6c3 08bd 2f34 1d3c
00000150: 9fd4 693d b0bb a2bc be43 843d 681b 3bba
00000160: a5fc 843c 3a35 64bc 5ccd b83d 6fa4 843c
00000170: 0f5f d13c 09f4 97bc 84e8 16bd 54cd 41bc
00000180: 80b5 74bd 1965 aabd cac6 95bd 7333 96bd
00000190: 3ede 90bd 89dc 083d 3b2a 80bd 6f80 8d3d
000001a0: ec6e 70bd a455 06bd ecb9 4dbc 52ae 0a3d
000001b0: 491c 543d 4c86 a43d 5bf5 693d 9f9a 9b3b
000001c0: 6ddd 023d 58d6 fa3c 5b51 b03d 690a d53d
000001d0: fd1a 27bd a648 00bd cbad b5bd ab04 ecbd
000001e0: 90d6 d5bd a2fc adbd 0402 38bd ffe8 34bd
000001f0: 2fa1 37bc cacb 6b3d 8cc1 883d 2c74 a93d
00000200: b3c1 d1bd eed0 d6bd 7463 c1bd 7494 55bd
00000210: 9bf3 37bc 2149 acbd 8a83 d3bd ed78 e0bd
00000220: e909 dd3c 00ed 853c 8963 c2bc 94eb b43c
00000230: bbf2 c23d 42e2 083e e6dd 1b3e 6659 103e
00000240: 5605 bd3d 888b df3c 3a73 1d3d ad2e e0bc
00000250: e728 a3bb 4f70 30bd a3af d2bd 3480 83bd
00000260: 6f8e 7d3c 3a36 433d a494 0f3c 832d b13c
00000270: dc65 f8bb 0b71 3a3b f418 7d3d 6d52 9ebc
00000280: 3486 76bd f802 c0bc ac66 8ebc e8a4 4a3a
00000290: d547 3fbd dd84 66bd cd7d bfbd 0744 65bd
000002a0: 9559 5cbd a980 bebc ca6a 83bd b7d5 03bd
000002b0: 2388 cfbc 71ef 1ebd 9141 db3c cefb 323d
000002c0: 2159 d83b 5b5e 183d 777a 8c3d 5f30 9e3d
000002d0: f00e 033e 863e 123c 2f86 743d 5486 0b3d
000002e0: 6661 b6bb 3317 4dbd 17f2 a8bd eaa8 a9bc
000002f0: 802d c5bd 30ea 7fbd 4fd7 d6bd abf7 abbd
00000300: ae7e 17bd a393 56bb f480 763d 5b72 3a3d
00000310: 381c 283d 0bf7 07be d6ef 663c 48d2 793d
00000320: c68c c53d 1784 643c 03d1 9b3d baf8 993d
00000330: 5ede 223c 323e 92bd 542b aabd 02c1 33bd
00000340: 3cf2 32bc 8da1 54bd de1d 593c 8f18 6fbc
00000350: 3a1d 08bd d0b9 aabd 2dd7 f43a 4dcf ecbd
00000360: 5753 373e 3fd4 ed3d 068f eb3d 9909 153d
00000370: a8a2 413d 7535 043d 8b7d c6bc 83d4 df3c
00000380: 0829 023e be43 cd3d 3ebf b83d 9700 45bc
00000390: 99bf 45bd ffee e6bd a370 f3bd e5ec b0bc
000003a0: b9f1 5cbd 32f8 49bd 8a4e 11bd 1c20 e4bb
000003b0: 81ff e4bc 9207 c3bd 5a59 6f3c ace5 893d
000003c0: b49d f03d 332c 843d df16 843d 1c95 b13d
000003d0: 0c25 d7ba d485 88bd 3732 863d 900b e5bc
000003e0: 1801 f73c ddc0 2a3d 6285 6e3d 8a5e a1bd
000003f0: c3b3 97bd 8aac a8bd 7d36 85bd 8457 653d

cnn.block1.1.weight f4 [16]
1.4006035 0.9082173 1.2561018 1.656508 1.895147 1.3268145 1.3436298 2.4446754
1.2610133 1.8010021 1.5251381 0.93123716 0.96672004 1.8618122 0.9953793 1.6153319
00000000: fa46 b33f ee80 683f f2c7 a03f 7408 d43f
00000010: 2d94 f23f 0fd5 a93f 10fc ab3f 9075 1c40
00000020: e268 a13f 3d87 e63f ba37 c33f 8f65 6e3f
00000030: f77a 773f dd4f ee3f 2ed1 7e3f 32c3 ce3f

cnn.block1.1.bias f4 [16]
-0.045956537 -0.0007446299 -0.006119628 0.017566249 -0.06348159 -0.028148534 0.013669465 -0.013940514
0.019178156 -0.006273406 -0.0006543407 -0.0037086478 0.008527085 0.011652556 -0.014261195 -0.007821689
00000000: ec3c 3cbd 4433 43ba 2987 c8bb 18e7 8f3c
00000010: a302 82bd c197 e6bc e4f5 5f3c c166 64bc
00000020: 821b 9d3c 2591 cdbb 1088 2bba c90c 73bb
00000030: 30b5 0b3c 5dea 3e3c caa7 69bc 8b26 00bc

cnn.block1.1.running_mean f4 [16]
-0.00020270258 -0.0008923191 -0.002426946 0.002129203 -0.0014496238 0.0034536298 0.0021449886 -4.6978155e-05
-0.0076424135 0.0001732477 -0.00031971704 -0.00014336666 -0.0009555877 0.0003297925 -0.00039711187 -0.0009323203
00000000: 8f8c 54b9 85ea 69ba 660d 1fbb 198a 0b3b
00000010: 4e01 beba 4b56 623b f092 0c3b 690a 45b8
00000020: 366d fabb d3a9 3539 b29f a7b9 b254 16b9
00000030: 6880 7aba 00e8 ac39 7433 d0b9 f566 74ba

cnn.block1.1.running_var f4 [16]
0.4737301 0.41428012 0.4862803 0.5560477 0.71983284 0.44170213 0.63863665 0.52242875
0.6820277 0.5072025 0.41247997 0.39413548 0.40878728 0.7436401 0.36320004 0.58993006
00000000: c08c f23e 861c d43e bbf9 f83e 2459 0e3f
00000010: f746 383f c826 e23e b17d 233f e4bd 053f
00000020: 5e99 2e3f 06d8 013f 9330 d33e 20cc c93e
00000030: 914c d13e 335f 3e3f 5bf5 b93e a805 173f

cnn.block1.2.weight f4 [32, 1, 22, 1]
-0.007939344 -0.017568838 -0.027222123 0.035151776 0.10413032 0.09259464 0.05862124 -0.073313326
0.028740767 0.056231216 -0.053786978 -0.20052342 0.11074926 -0.0033912086 0.120054536 -0.023345439
-0.12528245 -0.114158794 -0.065216415 0.06505507 0.080118954 0.035611145 0.024349617 0.058161978
0.043871976 -0.08570799 -0.1694424 -0.1661758 -0.022381034 0.017458836 -0.0067761987 0.014022047
0.002882404 0.16968213 -0.012953631 -0.025902197 -0.025917334 -0.032104462 0.10943981 0.124148436
-0.016462589 -0.013064383 -0.017106952 -0.027808635 -0.044380322 -0.0728752 -0.0033474602 -0.017910888
-0.041776277 0.03525506 0.18764238 0.12329878 0.071313284 -0.014592311 -0.028862817 -0.092508174
0.025526077 0.25586835 0.028472355 -0.07605464 0.028066188 0.04571749 0.006351681 -0.058369596
-0.00613142 -0.08776431 -0.026855433 0.012693868 0.03183826 -0.018405125 0.112366155 0.05514763
-0.0068350323 0.2880956 0.0074255136 -0.033438705 0.010749548 -0.18483284 0.026569216 0.1204865
-0.101154186 -0.07062932 -0.03986271 -0.10951959 0.051877726 -0.033864472 0.020983936 0.038863193
0.049413875 0.04448955 -0.026399923 -0.0893412 -0.15151218 0.041072387 -0.008573818 -0.1374928
0.026900467 0.02952799 0.005771613 0.024618419 0.25522617 0.053426046 0.14025216 -0.09671419
0.011204475 -0.012183707 0.010289362 -0.03012536 -0.109269544 0.018003218 -0.055355474 -0.16913655
-0.025750283 -0.02651944 -0.115216106 0.13054118 0.015127217 0.09656678 -0.021282762 -0.010985307
-0.0013885899 -0.045458034 0.06439447 0.10166491 0.042925004 -0.028588176 0.017377123 0.02307393
0.07993355 0.03557109 -0.013916151 -0.0076814056 0.019169249 -0.068516195 0.019307636 -0.039345525
0.049954675 0.09979688 0.034401014 0.006751668 -0.046440255 0.13461125 -0.028266707 -0.2501962
0.037710182 0.042054925 -0.057476897 0.02044275 -0.023748854 -0.10382407 -0.07472012 0.002299714
0.15241507 0.0066641206 0.11060918 -0.066614166 0.061440494 -0.124818586 -0.16361476 -0.007730258
0.08680301 0.000996433 -0.021130666 -0.043812875 -0.044778515 0.34156442 0.018100854 0.050074287
-0.034038704 -0.032876078 -0.006505674 0.105699554 0.041827492 -0.038027268 -0.076365516 0.0041063116
0.052662726 -0.11593496 -0.072861984 -0.007204487 -0.10055903 -0.013964389 0.15184689 -0.15254569
-0.1101107 0.05485554 -0.020262867 -0.08627263 0.121504806 -0.052516107 -0.033800527 -0.03559544
0.11070761 -0.05519113 -0.012571271 -0.08020215 0.006875968 0.00707629 -0.017851269 0.0064629717
0.055064633 -0.012298759 -0.008763273 -0.13176107 0.0033887273 -0.018948577 0.03140737 -0.078098714
0.03051059 0.2809753 -0.072573595 -0.022093108 0.0001028077 -0.014519187 -0.032322466 0.0606834
0.032004185 0.10170765 -0.17107132 0.006586675 -0.05506198 0.02870293 -0.010286422 0.022072107
0.04643836 0.016739188 0.112388276 -0.10961934 -0.11596176 0.23067 -0.0032634432 -0.06410756
0.00063082617 -0.018796315 0.04461357 0.09982016 -0.048288457 -0.12519419 -0.042828403 0.09817558
-0.04846603 -0.0628694 -0.044601507 -6.403997e-05 -0.020349372 -0.090008795 0.06185189 0.120100625
0.031122316 0.009765174 -0.1497194 0.009995799 -0.004014923 -0.012741242 0.052291874 0.07826244
00000000: 0614 02bc 86ec 8fbc ee00 dfbc 4ffb 0f3d
00000010: 4742 d53d 42a2 bd3d d31c 703d 4c25 96bd
00000020: c271 eb3c b452 663d bc4f 5cbd 0356 4dbe
00000030: 82d0 e23d 0a3f 5ebb 27df f53d ef3e bfbc
00000040: 0b4a 00be 16cc e9bd 2f90 85bd 983b 853d
00000050: 6815 a43d fedc 113d d978 c73c 413b 6e3d
00000060: 1ab3 333d ac87 afbd 4f82 2dbe fd29 2abe
00000070: 6e58 b7bc d505 8f3c e00a debb babc 653c
00000080: b7e6 3c3b 27c1 2d3e 773b 54bc d830 d4bc
00000090: 9750 d4bc f87f 03bd fb21 e03d 8941 fe3d
000000a0: 8ddc 86bc fe0b 56bc e123 8cbc efce e3bc
000000b0: 24c8 35bd 983f 95bd 1061 5bbb dbb9 92bc
000000c0: 9a1d 2bbd 9c67 103d 5325 403e 1284 fc3d
000000d0: b30c 923d 9714 6fbc b771 ecbc ed74 bdbd
000000e0: 101c d13c 2d01 833e db3e e93c 89c2 9bbd
000000f0: 10eb e53c 4342 3b3d c321 d03b f514 6fbd
00000100: 14ea c8bb c6bd b3bd edff dbbc f1f9 4f3c
00000110: d668 023d 58c6 96bc 3a20 e63d 7be2 613d
00000120: 68f8 dfbb 4481 933e b951 f33b 06f7 08bd
00000130: df1e 303c d244 3dbe afa7 d93c a0c1 f63d
00000140: ed29 cfbd 1ba6 90bd 1547 23bd cf4b e0bd
00000150: bd7d 543d 79b5 0abd 81e6 ab3c 032f 1f3d
00000160: 3466 4a3d ad3a 363d a744 d8bc 85f8 b6bd
00000170: 0226 1bbe 853b 283d 3379 0cbc eaca 0cbe
00000180: 5e5e dc3c afe4 f13c cd1f bd3b 91ac c93c
00000190: 01ad 823e 45d5 5a3d 439e 0f3e 1712 c6bd
000001a0: f992 373c 2c9e 47bc b694 283c 75c9 f6bc
000001b0: b6c8 dfbd 7c7b 933c 6cbc 62bd 2232 2dbe
000001c0: 42f2 d2bc 4c3f d9bc 6cf6 ebbd 96ac 053e
000001d0: 26d8 773c cec4 c53d 3059 aebc b8fb 33bc
000001e0: 5801 b6ba 3432 3abd 3fe1 833d b135 d03d
000001f0: 21d2 2f3d c031 eabc 785a 8e3c 8a05 bd3c
00000200: 33b4 a33d feb2 113d 9100 64bc 4db4 fbbb
00000210: d408 9d3c 3852 8cbd 0c2b 9e3c c628 21bd
00000220: 469d 4c3d 4e62 cc3d 14e8 0c3d 193d dd3b
00000230: 2338 3ebd 88d7 093e 958f e7bc b719 80be
00000240: fe75 1a3d c941 2c3d e56c 6bbd 8e77 a73c
00000250: f58c c2bc b7a1 d4bd dd06 99bd ccb6 163b
00000260: b212 1c3e b25e da3b 1187 e23d 026d 88bd
00000270: 07a9 7b3d e3a0 ffbd a18a 27be 1b4e fdbb
00000280: c7c5 b13d be9a 823a 381a adbc 2175 33bd
00000290: ad69 37bd 88e1 ae3e 3e48 943c b21a 4d3d
000002a0: 2b6c 0bbd 11a9 06bd 8d2d d5bb 0279 d83d
000002b0: 4e53 2b3d 7bc2 1bbd 8665 9cbd 3d8e 863b
000002c0: dfb4 573d 4f6f edbd aa38 95bd 9e13 ecbb
000002d0: e5f1 cdbd e5ca 64bc c07d 1b3e f034 1cbe
000002e0: b881 e1bd 34b0 603d 50fe a5bc b4af b0bd
000002f0: 83d7 f83d 211b 57bd 6c72 0abd 86cc 11bd
00000300: acba e23d 1810 62bd bbf7 4dbc 0641 a4bd
00000310: cd4f e13b 39e0 e73b d33c 92bc 56c7 d33b
00000320: 748b 613d bc80 49bc d593 0fbc 60ec 06be
00000330: 6915 5e3b 0c3a 9bbc 04a5 003d 38f2 9fbd
00000340: 58f1 f93c ffdb 8f3e 77a1 94bd 9bfc b4bc
00000350: 779a d738 e2e1 6dbc 9064 04bd 288f 783d
00000360: d216 033d 1a4c d03d 522d 2fbe 09d5 d73b
00000370: ac88 61bd 6822 eb3c 6288 28bc 90d0 b43c
00000380: 2636 3e3d 9f20 893c d32b e63d 1b80 e0bd
00000390: 5c7d edbd c234 6c3e 7edf 55bb d34a 83bd
000003a0: 075e 253a bbfa 99bc b8bc 363d 836e cc3d
000003b0: 1eca 45bd e832 00be d66c 2fbd 4710 c93d
000003c0: 5184 46bd acc1 80bd 12b0 36bd 324d 86b8
000003d0: bab3 a6bc 8856 b8bd 6858 7d3d 51f7 f53d
000003e0: 3af4 fe3c 1cfe 1f3c 0b50 19be 6bc5 233c
000003f0: 9d8f 83bb a4c0 50bc 0130 563d 0f48 a03d

cnn.block1.3.weight f4 [32]
1.4344575 1.4278252 1.021581 0.88871676 1.2190632 1.1643342 1.6111085 1.3963524
0.75888854 1.7724733 1.2901038 1.1407218 1.4347328 1.1024783 1.3348974 2.6989954
1.1722043 1.2321193 1.8068726 0.8801653 1.5658318 1.0623122 1.0785296 0.8434948
1.0953764 0.9300004 2.0621126 1.8598136 1.0034636 1.01365 1.731021 0.944498
00000000: 4e9c b73f fac2 b63f 2bc3 823f f182 633f
00000010: 430a 9c3f e708 953f ce38 ce3f adbb b23f
00000020: 8546 423f 68e0 e23f 1f22 a53f 2c03 923f
00000030: 53a5 b73f 021e 8d3f ebdd aa3f 57bc 2c40
00000040: ca0a 963f 16b6 9d3f 9a47 e73f 8352 613f
00000050: 2d6d c83f d9f9 873f 420d 8a3f 46ef 573f
00000060: 4b35 8c3f 8214 6e3f a7f9 0340 5f0e ee3f
00000070: 7f71 803f 48bf 813f 1992 dd3f 9fca 713f

cnn.block1.3.bias f4 [32]
-0.57290083 -0.4849836 -0.20687804 -0.046230853 -0.4711825 -0.2953142 -0.6290049 -0.45939517
-0.0680767 -0.69077456 -0.4779825 -0.27616107 -0.40171763 -0.09157788 -0.5453144 -1.2217207
-0.31840968 -0.20343462 -0.5378753 -0.1498283 -0.6549563 -0.07449779 -0.21470581 -0.17342032
-0.1812959 -0.23245873 -0.9153596 -0.61151004 -0.10200822 -0.11575295 -0.47497788 -0.16331585
00000000: a1a9 12bf c54f f8be d6d7 53be 905c 3dbd
00000010: d53e f1be 6c33 97be 7706 21bf d835 ebbe
00000020: cc6b 8bbd 9ad6 30bf 1fba f4be fc64 8dbe
00000030: efad cdbe 2f8d bbbd b999 0bbf 5861 9cbf
00000040: 9806 a3be 2a51 50be 32b2 09bf 976c 19be
00000050: 37ab 27bf 4c92 98bd d7db 5bbe 1995 31be
00000060: a2a5 39be a909 6ebe 0255 6abf ec8b 1cbf
00000070: b0e9 d0bd e20f edbd 4d30 f3be 453c 27be

cnn.block1.3.running_mean f4 [32]
-0.0027576536 0.0026166963 -0.0026936105 -6.4284072e-06 -0.00016858827 -0.007938906 0.0013768654 0.0058112624
0.02693659 0.0017998931 -0.0020708698 0.0024093052 0.0038465855 -0.001622641 -0.0005671145 0.0017455699
0.0004881161 -0.015693504 -0.00024383825 0.0017334295 -0.0020246385 -0.0014597296 -0.0029076822 -0.0008899992
0.0014824927 0.003120286 -0.0006199426 -8.345375e-05 0.0027240908 -0.0022588586 0.00027489956 -0.0014309319
00000000: c0b9 34bb e17c 2b3b 4987 30bb 99b3 d7b6
00000010: 12c7 30b9 2f12 02bc f077 b43a 676c be3b
00000020: 20aa dc3c 64ea eb3a 6eb7 07bb 6fe5 1d3b
00000030: ff16 7c3b ccae d4ba 69aa 14ba 9bcb e43a
00000040: d5e9 ff39 aa8f 80bc d5ae 7fb9 3e34 e33a
00000050: ccaf 04bb 6654 bfba d08e 3ebb d64e 69ba
00000060: 3350 c23a b67d 4c3b a583 22ba e403 afb8
00000070: a986 323b 5c09 14bb 6520 9039 1b8e bbba

cnn.block1.3.running_var f4 [32]
0.030830158 0.048259415 0.09405284 0.057666257 0.032074306 0.06955356 0.031267915 0.10106531
0.7674309 0.02230971 0.024686687 0.1354323 0.03243567 0.08284792 0.21759667 0.0375039
0.034568314 0.019958012 0.028195111 0.14136145 0.03675983 0.12975672 0.3399158 0.09781847
0.037365537 0.04823306 0.07860152 0.041805103 0.08489823 0.04882059 0.063393675 0.14117126
00000000: 878f fc3c aaab 453d c69e c03d 7433 6c3d
00000010: 5960 033d 1972 8e3d c912 003d 54fb ce3d
00000020: 5a76 443f dac2 b63c bc3b ca3c c4ae 0a3e
00000030: 44db 043d 2cac a93d a9d1 5e3e b09d 193d
00000040: 8197 0d3d fc7e a33c 6ff9 e63c 0ec1 103e
00000050: 7a91 163d f2de 043e 7209 ae3e 0d55 c83d
00000060: 9b0c 193d 0790 453d d5f9 a03d d43b 2b3d
00000070: 20df ad3d 19f8 473d 8bd4 813d 338f 103e
