models/2a_subject specific/model_1.pth (torch, 985978 bytes, 93 tensors)

fusion_proj f4 [48, 48]
000000 88 17 a5 3f 54 b3 13 40 11 0d 25 bf 08 6f f5 bf
       1.2897806 2.3078203 -0.6447306 -1.9174509
000010 fc 53 29 bf f2 e6 7f 3f 73 b5 06 c0 17 d2 7b 3f
       -0.66143775 0.9996177 -2.1048248 0.98367447
000020 0c ab 91 3f c4 b5 9f bf bb 41 1b 3e 2c 9d 09 c0
       1.1380324 -1.2477345 0.15161793 -2.150218
000030 ce 4a 89 be ef 88 30 bf a8 55 35 bd 55 22 96 bd
       -0.26814884 -0.68958944 -0.04427114 -0.07330767
000040 71 d9 41 3e 3b 9a 0b be 47 66 58 3f bf 5d 59 bf
       0.18930604 -0.13633053 0.8453106 -0.8490867
000050 35 b3 10 be c0 39 9a bf 6d 40 5d bf 8b 19 84 bf
       -0.14130862 -1.2048874 -0.8642643 -1.0320295
000060 a3 c9 cd 3e 9e 00 0b c0 82 37 96 bf ad 57 ba 3e
       0.401929 -2.1719127 -1.173569 0.36395016
000070 b7 82 d7 bf 12 21 24 3b 0d a7 66 bf 50 a1 8a bf
       -1.6836766 0.0025044126 -0.9009865 -1.0830479
000080 9c 54 c8 3e 62 ab 28 bf 72 3a 9c 3d 41 89 ec 3f
       0.39127052 -0.6588651 0.07628335 1.8479387
000090 92 d6 8b 3e 5e b9 ef 3f 61 27 9b be ea 0b 84 3f
       0.27312142 1.8728445 -0.3030348 1.0316136
0000a0 04 bd db be d4 e6 84 bc da 5b 8e 3e 04 be 86 be
       -0.42917645 -0.016223349 0.27804452 -0.26316845
0000b0 a5 e5 22 bf cc be 9c be c9 d8 c5 be f7 48 f6 be
       -0.6363166 -0.30614316 -0.38641956 -0.48102543
0000c0 7b 59 92 3f c0 4e 2e 3f 2e 27 47 3e d3 54 70 3f
       1.1433557 0.6808891 0.1944854 0.9387943
0000d0 03 64 cc 3f 66 17 37 3f 2b 27 21 3f 88 8e 2d 3e
       1.5968021 0.7152008 0.6295039 0.16948903
0000e0 34 27 c0 be 9b 76 91 3d 47 f8 58 3e 3c 9a 78 bf
       -0.3752991 0.071027 0.2118846 -0.9711034
0000f0 5b bc 0b 3f e2 07 d3 3e fc dd 8f 3f 81 6d 4b be
       0.5458428 0.41216952 1.1239619 -0.19865991
000100 0d 77 07 3f 59 99 3c bf 6a 4e 51 bf 24 88 c5 3e
       0.5291603 -0.7367149 -0.81760275 0.3858043
000110 a2 bb 22 bf c0 3a 97 bf ea 2d 3d 3f aa 7b 28 be
       -0.63567555 -1.1814804 0.73898184 -0.16453424
000120 5e 39 fa be ff 57 de bf 11 ad a3 bd c3 3d 7f be
       -0.48871893 -1.7370604 -0.07991994 -0.24925904
000130 4e 67 b9 bf df ad 99 3f 8c 60 ec bf 94 23 99 be
       -1.4484651 1.2006186 -1.8466964 -0.29909956
000140 0c 33 69 3f c0 f0 d9 3e bc f2 a4 3e 6e 1d 5b ba
       0.91093516 0.4256649 0.32216442 -0.00083585724
000150 fd ef ab bf 0d 97 27 c0 92 80 cf 3f a7 b7 cd 3e
       -1.3432614 -2.6185944 1.6211112 0.40179178
000160 f6 24 76 bf 6f 22 52 bf 99 89 fb be f0 fa 28 3f
       -0.9615015 -0.8208379 -0.49128416 0.660079
000170 dc 03 52 3f ec 36 51 3f 96 59 d6 3f a8 64 06 3f
       0.8203714 0.8172443 1.674609 0.5249734
000180 4f 7f f0 3e c4 c7 d4 bf fd f4 bd bf b7 f6 96 3d
       0.4697213 -1.6623464 -1.484039 0.07371276
000190 71 b1 4c 3f f4 6a 9a 3e ee 8d af 3f 78 81 3c bf
       0.79958254 0.30159724 1.3715189 -0.73635054
0001a0 9e 64 a3 bf db 7f b4 3f 91 ca 5f bd b3 0a 9e 3f
       -1.2765081 1.4101518 -0.05463654 1.2347015
0001b0 f2 31 bc be d7 df a4 3c 64 27 3e 3f 2f 8f 11 3e
       -0.36756855 0.020126266 0.74278855 0.14214776
0001c0 4f 67 38 3e 09 23 a5 bf d5 3d c5 3c c8 42 b6 be
       0.18008159 -1.2901317 0.024077335 -0.35597825
0001d0 92 e4 4b bf 65 15 19 3f f3 d1 96 bf 1a 56 56 bf
       -0.79645646 0.5979827 -1.1782821 -0.8372513
0001e0 c4 be 75 3f 27 3c 05 3f bd 5b 63 3f a7 82 33 bd
       0.9599421 0.5204491 0.88811857 -0.04382577
0001f0 68 df 3d bf 32 f9 22 3f b4 97 1c 40 1d 8e bc be
       -0.74169016 0.6366149 2.4467592 -0.36827174
000200 35 a3 c4 bf 36 af 81 3f 4e 75 5d bf 2d f0 7c be
       -1.5362307 1.0131595 -0.8650712 -0.24700995
000210 b0 9d 84 bf f0 ed 9e be be 17 a5 be eb 8c 74 3f
       -1.0360622 -0.31040907 -0.32244676 0.95527524
000220 f7 aa 43 3f 06 29 61 bf 06 81 47 3d 5f 24 d6 3e
       0.76432747 -0.8795322 0.04870703 0.41824624
000230 da 97 f1 bf ca 59 c2 3d 98 7b 2c bf f8 bc 25 bf
       -1.8874466 0.09489782 -0.6737609 -0.6474147
000240 ed 02 9d bf 1a d2 c9 3e 56 9f 14 bf e0 0f c5 3f
       -1.2266518 0.39418107 -0.5805563 1.539547
000250 d7 98 65 bf 1d 55 34 40 81 3f 0d 3e 4f 31 67 3f
       -0.8968634 2.817695 0.13793756 0.90309614
000260 e6 81 b9 3f a8 80 20 c0 6b 4b 5e 3f 4f 5e 7e be
       1.4492767 -2.5078526 0.8683383 -0.24840663
000270 b8 81 11 3f 0f 48 cb 3f 99 c3 7e bf 1f ef a5 bd
       0.5683856 1.5881366 -0.9951721 -0.08102249
000280 dc f8 31 3d 98 3e b9 bd 1d 8e b0 bf 30 d9 d2 3f
       0.04345022 -0.09045142 -1.379337 1.647253
000290 62 82 0d 3f 2a ca 51 3f a4 75 76 3f 8d a2 bc 3e
       0.55277073 0.819491 0.96273255 0.36842766
0002a0 c3 9c 81 be d8 47 5e 3e b2 20 18 c0 f6 f0 1a be
       -0.25314912 0.21707094 -2.3769956 -0.15130982
0002b0 d2 c7 84 3e 57 8c f3 3f 9c 43 03 3f f2 44 cc bd
       0.259337 1.9027203 0.5127504 -0.09974088
0002c0 10 3d 4c 3f 7a 09 e5 3d 32 d5 4c 3f 24 4f 3c be
       0.79780674 0.11183448 0.8001281 -0.18389565
0002d0 a1 82 80 bf 52 9e 30 bd 61 05 05 40 06 f6 2b 3e
       -1.0039865 -0.043119736 2.0784533 0.16793069
0002e0 97 1c af bd 1a d7 2c bf 2e dc 09 3f 75 bd d8 bf
       -0.08550375 -0.6751572 0.5385159 -1.6932818
0002f0 00 35 29 bf f9 34 77 3e ee f3 33 bf 34 70 c7 bf
       -0.66096497 0.24141301 -0.7029408 -1.5581117
000300 5d 32 07 40 a2 60 b8 3e 0b d0 60 3f 84 2f 25 bf
       2.112449 0.36011225 0.8781745 -0.6452563
000310 e4 e6 49 be 2c b8 6d bf 80 fd 95 3f f1 52 23 3f
       -0.19716984 -0.9285915 1.1717987 0.63798434
000320 31 f7 4b bf d3 41 9b bf 71 33 76 be 46 7d ff 3e
       -0.7967406 -1.2129463 -0.24043061 0.49900264
000330 48 95 c4 bf 4f 04 b4 3f bb 78 02 3f b1 10 77 bf
       -1.5358057 1.4063815 0.5096547 -0.96509844
000340 3a 02 b5 bf c6 11 24 bf 46 7d 89 bf 87 29 3f 40
       -1.4141304 -0.6408962 -1.0741355 2.9869096
000350 89 da 37 3f 4b ea 9c bf 48 83 c2 3f 24 8c 81 be
       0.71817833 -1.2259 1.5196314 -0.2530223
000360 04 d0 c4 be 81 98 83 bf 2f 8e 8e 3d 58 18 19 bf
       -0.38439953 -1.0280915 0.06960713 -0.5980277
000370 89 20 ce 3f aa dd 29 3f a5 ce 9b 3e 46 33 81 3e
       1.6103679 0.6635386 0.30431095 0.2523443
000380 b7 06 0c bf 35 76 40 3f c9 6e a7 be 42 69 04 c0
       -0.54697746 0.7518037 -0.3270171 -2.0689244
000390 72 a1 4f 3f 37 3b fe 3e 2a 42 5c bf 5e 89 31 3d
       0.8110572 0.49654552 -0.8603846 0.043343894
0003a0 76 59 07 bd 62 14 59 bf d7 a7 2e bf da 0a 74 bd
       -0.0330443 -0.84796727 -0.68224853 -0.05958066
0003b0 d4 8c dd 3e fd 4c 45 3f ec d5 51 3f 29 1d 88 bf
       0.43271506 0.770706 0.81967044 -1.0633899
0003c0 18 9e 3f 3f ad 7d 6e bf 67 73 be 3e 15 a2 31 be
       0.74850607 -0.93160516 0.3719742 -0.17346986
0003d0 7c 79 0d bd e7 e9 07 c0 e2 85 38 3f 74 dc 7c 3e
       -0.034539685 -2.1236513 0.7207929 0.24693471
0003e0 21 50 02 3f df f3 6a 3f dd 8d aa be 0b a0 86 be
       0.50903517 0.9177837 -0.33311358 -0.26293978
0003f0 ea af 92 3e 15 1b f7 3d 82 62 b5 bf 98 5d 0c c0
       0.28649837 0.12065712 -1.4170687 -2.1932125

pos_enc f4 [1, 500, 48]
000000 69 c0 2a 3f 78 01 f3 3f ca cb a8 3f 08 87 82 3f
       0.66699845 1.8984823 1.3187191 1.0197458
000010 77 52 c8 be 9f eb 89 bf d0 f3 33 be 7b 43 17 bf
       -0.39125416 -1.0775031 -0.17573476 -0.5908734
000020 18 07 9e 3f 98 16 ec 3f 04 03 a3 3d 3e 78 43 3f
       1.2345915 1.8444395 0.079595596 0.7635535
000030 f9 eb aa bf 23 b6 ee 3f c3 aa b5 3e e3 c3 93 3f
       -1.3353263 1.8649334 0.35481843 1.1544155
000040 2b bf b2 3f 48 47 8c bf c4 39 9e bf 75 03 1a bf
       1.396459 -1.0959253 -1.2361379 -0.60161525
000050 2d 97 86 bd d4 ef 11 3f 83 4a 22 bf 11 da 47 bc
       -0.06571803 0.57006574 -0.63394946 -0.012197987
000060 cc a4 59 bf af 1f 7b be 86 1d 5d 3f f8 90 09 bf
       -0.85017085 -0.24523805 0.86373174 -0.5373683
000070 59 17 47 bf 37 03 9e 3e 7c 09 9a bf 52 f5 08 40
       -0.7777 0.30861828 -1.2034144 2.1399732
000080 c6 0f 0b 3f dd ac a7 bf 05 58 83 3f c3 9e df bf
       0.54320943 -1.3099629 1.0261236 -1.7470325
000090 07 2c f0 be 8c 03 ef 3f 50 39 84 3f 66 3e 5a 3f
       -0.4690859 1.8672957 1.032999 0.8525146
0000a0 18 b7 aa bf 51 24 67 3e ba 03 81 be 4b 3a 62 be
       -1.3337126 0.22572447 -0.25198156 -0.2209255
0000b0 98 49 40 3e 12 3e 36 bf 31 bf ab 3d 6a a9 b3 be
       0.18778074 -0.7118846 0.08386076 -0.3509019
0000c0 b2 33 16 be b2 87 93 bf 8e 71 97 3f c7 e7 93 3f
       -0.14668158 -1.1525786 1.1831529 1.1555108
0000d0 af 92 9b bf 9c 0f a6 3f 4d 7f e9 3f 2b ca 7e bf
       -1.2154139 1.2973514 1.8241974 -0.99527234
0000e0 5f 6b c7 bf b3 ad 54 bf d9 8e 89 3f dc 29 ec 3f
       -1.5579642 -0.83077544 1.0746719 1.8450274
0000f0 d8 3b 91 bc 22 61 11 40 c0 de 9d 3f ac fd 7c bf
       -0.017728731 2.2715535 1.2333603 -0.9882457
000100 c1 33 7d 3f 54 80 2b be fb e6 d5 bf 8b fa 6e bf
       0.98907095 -0.16748172 -1.6711115 -0.9335105
000110 a4 23 4e bf 6b b1 de 3e 3e e5 bb 3f 10 c3 4f be
       -0.80523133 0.43494734 1.4679334 -0.20289254
000120 77 d4 35 bf 05 2b e9 bf d6 53 d8 bf d9 44 52 bf
       -0.7102732 -1.8216254 -1.6900585 -0.82136303
000130 90 25 62 3f 9a 2f 6a 3f 40 7c c5 be 43 9e 4d bf
       0.88338566 0.91478884 -0.38571358 -0.80319613
000140 25 b6 f3 bf 51 b4 e8 3f 74 93 18 3f f8 bc af 3f
       -1.9039961 1.8180028 0.59599996 1.3729544
000150 ac a7 ed bf 1b 70 27 40 a9 f6 fd 3f b2 25 48 bf
       -1.8566794 2.6162174 1.98409 -0.7818252
000160 d8 bb 36 c0 e3 36 0a 40 ca 66 2e be 48 76 eb bf
       -2.855215 2.1596 -0.17031398 -1.8395472
000170 a8 23 23 c0 6b 4b b9 3d 30 a6 47 bf c0 6c 93 3e
       -2.5490513 0.09047588 -0.77987957 0.28793907
000180 bd f4 14 c0 4f 74 49 c0 dc 89 84 bf f6 86 93 3d
       -2.3274376 -3.147724 -1.0354571 0.07203476
000190 6b 79 f7 3d b3 9c 02 40 fc a5 87 3f 3e 33 c4 3e
       0.120837055 2.0408142 1.059753 0.38320345
0001a0 d1 02 73 bf ca e6 2d 3f 07 68 89 3f d2 36 f7 3f
       -0.9492617 0.6793028 1.0734872 1.9313605
0001b0 d9 15 45 bf ea dc 6f 3f bc 60 7c bf b9 2f 90 bf
       -0.7698646 0.93696463 -0.98585105 -1.1264564
0001c0 a4 b8 01 bf fe 3f b1 3f a7 ed 8b bf 51 fc 94 be
       -0.50672364 1.3847654 -1.0931901 -0.29098752
0001d0 de 38 8a bf 32 2f 0c 40 55 d9 ab 3f 07 02 39 bf
       -1.0798604 2.1903806 1.34257 -0.7226872
0001e0 ab 0b 0a 40 73 10 38 be 23 8b 25 bf 7b 5f 56 3f
       2.1569622 -0.17975025 -0.6466543 0.8373944
0001f0 1a 74 35 3f 39 6b 9d 3f 4e 53 d5 bc 39 58 45 bf
       0.7088028 1.2298347 -0.0260407 -0.7708774
000200 bb c4 f5 be 92 cf 04 40 d3 d2 e7 be 62 06 5d 3f
       -0.48001656 2.075169 -0.45278034 0.86337864
000210 cc ea ef be aa 8d 4e bf ec 6e f6 3d 6a 61 82 3f
       -0.46858823 -0.8068491 0.120328754 1.0185978
000220 55 84 77 bf a6 c1 bf 3f f4 06 85 3f 64 5f 1a 40
       -0.966863 1.4980972 1.0392747 2.4120722
000230 77 9e 58 bf 91 83 d9 bf 4f 78 5b 3f 13 90 bb be
       -0.846168 -1.6993276 0.8573045 -0.36633357
000240 f9 d1 95 3e bb 66 1c 3f 84 6e 31 3f 24 0f 6d bf
       0.2926176 0.61094254 0.6930926 -0.9260123
000250 d7 3b 6b 3f b4 4a 9e 3f a7 5b 30 bf 86 7b 70 3f
       0.91888183 1.2366548 -0.6888985 0.9393848
000260 a5 06 a7 bf 8d 3c d6 be dc 1e 0f c0 32 dc 1f c0
       -1.3048903 -0.41843072 -2.2362585 -2.4978147
000270 c9 72 92 3f 4b bc ba 3e 0c 19 03 c0 57 6c 82 be
       1.144128 0.3647178 -2.0484037 -0.25473282
000280 dc 11 81 c0 a2 d2 4c 3f 8d 45 21 c0 e9 16 76 3f
       -4.03343 0.800089 -2.51987 0.9612871
000290 3b 5c aa bf ef 9a 15 40 81 83 eb 3f 72 32 0b 40
       -1.3309397 2.3375814 1.8399507 2.174954
0002a0 06 a2 72 bd 8a e9 6c 3f e4 c6 78 3e 59 a6 bc 3f
       -0.05923655 0.9254385 0.24294621 1.4738265
0002b0 89 4f d8 bf cd a4 68 3e c6 c8 81 3e 0f 90 08 c0
       -1.6899272 0.22719117 0.2534849 -2.1337926
0002c0 2d a6 cd 3f 08 06 bb 3e 40 0a d6 bf 6a 78 ac 3f
       1.6066338 0.3652804 -1.6721878 1.3474247
0002d0 74 e8 46 bf c7 3f 21 40 75 ab c6 3d 03 21 98 3f
       -0.77698445 2.5195177 0.097006716 1.1885074
0002e0 83 53 5a be 35 7d e1 3e 1b 9c 1b bf cd 3b 30 3f
       -0.2132092 0.44040838 -0.60785073 0.6884125
0002f0 ac 8a a6 3f 8b 2e 28 c0 3d ca a9 be b3 c9 a5 3f
       1.3011069 -2.6278408 -0.33162108 1.2952179
000300 ff eb 4e 3e 8a 75 80 3f fa ab 87 bf de d6 b6 3f
       0.20207213 1.003587 -1.0599358 1.4284322
000310 23 80 36 bf 79 40 07 c0 cd 7d ab bf 05 39 ce bf
       -0.7128927 -2.11331 -1.3397766 -1.6111151
000320 8e 3d 31 3f 4e 90 b5 bd 56 0f d5 3d f2 17 f1 be
       0.6923455 -0.088654146 0.10403316 -0.4708858
000330 bd 20 9c 3d f2 c3 c6 bf 9f f0 ee 3e c1 ed b8 3d
       0.07623432 -1.5528548 0.46667954 0.09029723
000340 34 21 84 3e db 26 ce 3f 79 0c a4 3e 44 90 ce 3f
       0.25806582 1.6105608 0.32040766 1.6137776
000350 69 cf af 3f 3a 88 a5 bf 94 54 50 40 12 a2 20 3f
       1.3735172 -1.2932198 3.2551622 0.627473
000360 1f df 6c 3f 0d 45 72 3f 9e fe 97 3f 1d 1f b4 bf
       0.92527956 0.94636613 1.1874578 -1.4071995
000370 fe f1 a7 3f c6 a7 4a 3f f5 73 06 40 10 1b 95 be
       1.3120725 0.7916225 2.1008275 -0.2912221
000380 43 d8 94 3e d2 c8 cd 3f f0 26 7a 40 f6 b9 98 bf
       0.29071245 1.607691 3.9086266 -1.1931751
000390 27 fc ed 3f 36 14 f8 bf 32 51 cc 3f 1b 98 f9 bf
       1.8592576 -1.9381168 1.5962279 -1.9499544
0003a0 ee 8c f4 3e 11 b8 8a be 74 8f 76 3f 00 2a 03 bf
       0.4776377 -0.27093557 0.9631264 -0.5123596
0003b0 1e cc 84 3f c1 78 94 3f 84 88 b7 be 43 3b 68 bd
       1.0374792 1.1599351 -0.3584634 -0.05669714
0003c0 be 05 84 3f f5 6f 61 40 21 fc dc bf ca 6c cf bd
       1.0314252 3.5224583 -1.7264444 -0.10128172
0003d0 df 6f d7 3e 2d db 86 be df 0b f8 bf a8 15 54 c0
       0.42077538 -0.26339093 -1.9378623 -3.3138218
0003e0 bb 98 90 bf e2 28 29 3f fb dd 25 3f 51 30 dd be
       -1.129661 0.6607801 0.6479184 -0.43200925
0003f0 1a 62 1b bf f0 c4 c0 3f 14 3e 0b be cd c3 a5 3f
       -0.60696566 1.50601 -0.135979 1.2950379

riemannian.proj.0.weight f4 [256, 253]
000000 4c 06 6c 3e 84 03 6c bd 6b 1c 12 3d 7c 32 6b 3c
       0.23049277 -0.05762054 0.035671633 0.014355298
000010 47 c6 1a bd 6e 3d 3d bc bf cb 21 bc f7 16 9c 3d
       -0.03778675 -0.0115502905 -0.009875237 0.07621568
000020 99 93 c0 3d 17 a5 06 3d 0f 50 21 bd 84 cc 6b bc
       0.09403152 0.032872286 -0.03938299 -0.014392022
000030 1f 28 35 3d 85 1f d9 bb 18 bf b4 bb b9 71 64 bd
       0.044227716 -0.006626072 -0.005515944 -0.055772517
000040 08 ce 0d bc 1b c7 f8 bb ed 45 e2 3b 7b e6 15 bd
       -0.008655079 -0.0075920946 0.0069053085 -0.036596756
000050 bd 16 02 bd c6 78 0f 3c e6 4e b9 bd 24 c7 3d bd
       -0.031759966 0.008756822 -0.09048252 -0.046332493
000060 e2 2f 8f 3c 69 15 38 bc 26 d2 69 3d b3 d9 4f 3c
       0.017478887 -0.011235573 0.05708518 0.012686181
000070 79 bf cb 3c ca b8 20 bd 0e 48 08 be af 0c fa bd
       0.024871575 -0.03923873 -0.13308737 -0.122094505
000080 0c 7c 6b bb b3 01 cb bd c4 78 11 3c d5 a5 03 bd
       -0.0035932092 -0.099124335 0.00887889 -0.03214057
000090 ee 76 b8 3c df 03 57 39 1f 04 cf 3c 0e ea e6 bd
       0.022517648 0.0002050544 0.02527052 -0.11275111
0000a0 64 eb d7 bc 06 bb 44 3d 6e 32 6f bd cd 01 f3 bd
       -0.02635736 0.048029922 -0.058397703 -0.11865578
0000b0 51 4e c6 3d f0 e1 8f bd 28 65 f9 3c a2 c5 21 bd
       0.096829064 -0.07025516 0.030443743 -0.039495118
0000c0 6e 6f 7a 3c cb 31 02 3d 4d 09 4b 3d 32 f4 f9 bc
       0.015285356 0.031785768 0.049569417 -0.03051195
0000d0 ae 23 ae 3d ac c0 52 3a 3f cd 83 bd 55 ca 76 bd
       0.08502899 0.00080395746 -0.06435632 -0.060251553
0000e0 c6 60 aa 3d 08 06 a9 bc f6 02 63 bd eb 50 d5 3c
       0.08319239 -0.020632759 -0.055422746 0.026039561
0000f0 ae 64 09 3e 6a 01 08 bd b1 de 1b 3d 76 e8 0f be
       0.13417313 -0.033204474 0.038054172 -0.1405352
000100 f2 bd 81 3c c1 74 8c bd 13 86 98 3d 29 c7 2f 3d
       0.015837643 -0.068582065 0.07447448 0.042914543
000110 1f 3e 3c 3c 3c 21 b7 bd f0 36 62 3c be ba 3e 3c
       0.01148942 -0.08941886 0.013807043 0.0116412025
000120 82 0a 9b bb e8 d5 db 3c 5d 52 ee 3b af 2f f5 3c
       -0.0047314772 0.026835397 0.007273002 0.029929964
000130 8a c0 cd bc 73 93 de bc df 0a 14 3d b5 63 74 bc
       -0.025116224 -0.027169919 0.03614318 -0.01491635
000140 e1 63 4c bc 4a 5e 7e bd c4 bd 2b 3d cd ae 94 bd
       -0.012474985 -0.06210164 0.04192902 -0.07259903
000150 a1 2c 3a bd 3e ce 85 3d 52 94 ff bb 41 bd 0a bd
       -0.045452718 0.06533478 -0.0077996636 -0.033871893
000160 e3 a8 af bc 7b 53 bb 3d 66 e6 24 3c 39 0d a4 bd
       -0.021442836 0.09146782 0.010064697 -0.080103345
000170 d5 3d bf 3d f8 2a db bc 90 31 99 3d 83 96 87 bd
       0.093379654 -0.026753888 0.074801564 -0.06620505
000180 1b 25 19 bd 24 d1 91 bd 2a 6a 2f 3d 23 f7 4a 3d
       -0.037388902 -0.071199685 0.042825855 0.049552094
000190 a1 a6 ad bd 36 b2 b1 bd cc 95 18 3d 9d a2 bf bd
       -0.084790476 -0.08676569 0.037252232 -0.09357188
0001a0 9b cc d7 3c 50 89 9b 3d 52 c7 af 3d 2b 95 f6 bd
       0.02634268 0.0759455 0.08582939 -0.1204017
0001b0 fa 86 d9 3d 8e 0f db 3b 79 4b be bd 2e 0b 29 3d
       0.10621448 0.006685204 -0.09291739 0.041270427
0001c0 5a 3d 85 bc 58 74 82 3d 6e 30 ab 3d 80 71 fa 3a
       -0.016264606 0.06369847 0.083588466 0.0019107312
0001d0 6f 39 d1 3c 31 6f 70 3c 8d 44 bc bd f4 19 13 bb
       0.025540082 0.014674948 -0.091927625 -0.002244589
0001e0 79 d7 c4 bc 04 5c aa bc 72 f7 9a bd 9b d5 2b bd
       -0.024028527 -0.02079583 -0.07566728 -0.041951757
0001f0 f5 d6 51 bd c9 60 02 be 7f d0 ed bd 46 ff c5 bb
       -0.05123039 -0.12732233 -0.11612033 -0.006042394
000200 97 25 fc bb 54 c8 52 bd a8 6f 6d 3d 25 60 f5 3d
       -0.0076949107 -0.05146058 0.05796781 0.11981229
000210 a8 ae e2 3d 04 1e a2 3c 6f 2e 32 3d a1 56 2b 3d
       0.11068469 0.019789703 0.043501314 0.041830663
000220 06 1a 5f 3d 72 0f 6a bd 42 7d 02 bd bf 11 63 bd
       0.054468177 -0.057143636 -0.031857736 -0.055436846
000230 aa c0 ef bd 16 ad 9e bd f2 bb 63 bd 71 7b 3a bc
       -0.1170667 -0.07747857 -0.05559916 -0.01138197
000240 93 52 30 3d 54 1a b7 3d 2c e7 8e 3d 84 10 5a bd
       0.0430475 0.089405686 0.06977686 -0.053238407
000250 1d d5 ad 3c 8f 59 a4 3b 5d 74 13 be b2 aa a5 bc
       0.021219784 0.005015559 -0.14399858 -0.020222995
000260 31 a6 8f 3c 88 b4 55 bd 7b f4 7b 3d 84 6d 45 38
       0.0175353 -0.05217412 0.06151245 4.7070454e-05
000270 6c d5 fb 3d 89 18 63 3d 85 d5 8a 3d 69 8d 1c 3d
       0.12296566 0.05544332 0.06779007 0.038220797
000280 52 18 64 bd fc 77 b2 3c c7 f1 dd 3a 48 ef 8d 3b
       -0.055687256 0.021785729 0.0016933017 0.004331503
000290 cc ad e5 bb fe e0 cf 3c 2e ad 1c 3d 9a 16 57 bd
       -0.0070092436 0.02537584 0.038251095 -0.05251179
0002a0 56 47 1c bd 02 85 4c bd af cb 5e bd 20 28 b3 bb
       -0.03815397 -0.049931534 -0.054393467 -0.0054674298
0002b0 69 90 88 3d d2 13 f3 bd 46 46 0b 3d 7d c5 a8 3b
       0.06668169 -0.11869015 0.034002565 0.0051504956
0002c0 4f 22 56 3d b9 46 fb 3d c7 ce 1c bb 00 d2 be 3a
       0.052278813 0.12269349 -0.002392696 0.0014558434
0002d0 06 c2 76 3c e4 f9 34 3d 30 52 57 bd 03 b4 34 bd
       0.015060907 0.044183627 -0.052568614 -0.044116985
0002e0 d3 05 0d 3d a2 87 9a 3d e4 56 78 bd 73 d1 04 bd
       0.034429383 0.07545401 -0.06062974 -0.03242631
0002f0 0f 23 23 bd 8f 7c b5 3d 91 d1 b4 3d bc 26 18 3b
       -0.039828356 0.08861648 0.08829034 0.0023216447
000300 c4 54 12 be b6 0a 76 3c a7 bf 02 be 40 3f ae 3c
       -0.14290148 0.015017202 -0.12768422 0.021270394
000310 62 2e cd bc 33 fb 35 3d 9d 51 ab bd f3 a7 b6 3d
       -0.025046531 0.044429015 -0.08365176 0.089187525
000320 ef 82 47 bd 9c 47 04 bc 89 4b 9c bd 62 9b d3 3d
       -0.048708852 -0.008073714 -0.07631595 0.10332371
000330 a5 de 47 bd c3 82 e9 bd f6 fd 95 3c 13 b9 b3 3c
       -0.048796315 -0.11401894 0.018309575 0.021938836
000340 22 67 81 bd 31 58 c3 bc 02 3b 1d 3d f8 21 2b bd
       -0.06318499 -0.023845764 0.038386352 -0.041780442
000350 fc 5c 48 3d 25 52 2a bd 7f 75 aa bd 4e 14 30 3d
       0.0489168 -0.041582245 -0.08323192 0.042988114
000360 eb 1f 21 bd aa 40 ba 3d 35 25 26 3d 68 7c 81 3d
       -0.03933708 0.09094365 0.040562827 0.06322557
000370 b3 01 b0 bc 45 fb 33 bd ef c0 b3 3b 4a 39 be 3d
       -0.021485185 -0.0439408 0.005485646 0.09288271
000380 be 02 a6 bd e0 1b 39 bd d1 aa 86 3d 98 1f 3e 3d
       -0.08105992 -0.0451926 0.065755494 0.04641685
000390 45 fa 9e 3b 51 b6 0d 3e 19 ff 18 3c af f5 f8 bb
       0.004851612 0.1383908 0.009338164 -0.007597647
0003a0 59 79 08 bd 8c 40 c4 bd e4 80 ce 3c d4 4c 9a 3c
       -0.03331885 -0.09582624 0.025207944 0.018835463
0003b0 57 1c 0b 3e d6 15 9b bd 18 81 d9 3b ae 22 c8 bd
       0.1358503 -0.07572524 0.0066377036 -0.097722396
0003c0 2d 4b 88 3d d9 19 90 3d c7 13 07 3e 81 73 82 bd
       0.06654964 0.0703618 0.13191138 -0.06369687
0003d0 d2 19 ed bc 37 80 5b bd b1 43 13 3d b0 3b eb bc
       -0.028942976 -0.053589072 0.035953227 -0.028714985
0003e0 a5 04 83 3d 5d 06 10 bd f9 77 96 3c 2e d3 f4 bd
       0.0639737 -0.03516232 0.018367754 -0.11954342
0003f0 07 40 0f 3c 98 5f 80 3d 2c 4d 34 bb bc 1a 40 3c
       0.008743293 0.06268233 -0.0027511818 0.011725124

riemannian.proj.0.bias f4 [256]
000000 e6 09 9f 3c 1e 7d 86 bb 41 80 a1 3b b8 09 af 3b
       0.0194139 -0.0041042706 0.004928619 0.0053417347
000010 b4 fe 7b bc 21 b5 5d bd 60 58 f3 bc c8 4b 58 bd
       -0.01538055 -0.054127816 -0.029705226 -0.052806646
000020 33 0b 49 bd 9d 60 1d 3c e5 f0 98 bb 29 a0 01 bd
       -0.049082946 0.009605554 -0.0046673887 -0.03164688
000030 5e 7f 63 3c 0f c4 8a bd 77 8f 9b 3b 57 b0 b7 bc
       0.013885347 -0.067756765 0.004747327 -0.022422953
000040 26 f3 2f 3c 51 c7 6c 3a 74 b8 be 3c dc e9 1d 3c
       0.010739123 0.0009032386 0.023281313 0.009638276
000050 c3 bb e8 3b e6 6d bc bb 0f 06 be 3b da 7d a7 3c
       0.007102461 -0.0057504056 0.005799062 0.020445753
000060 38 46 bb 3b c0 84 81 3c 89 32 45 3c 72 1b 42 3c
       0.005715158 0.01581037 0.012035974 0.011847364
000070 cb 3f 3a bb ac c1 cd 39 47 51 b1 bb 4d 9d d6 bc
       -0.0028419371 0.00039244944 -0.0054113003 -0.026198054
000080 19 77 b4 bc de d9 3f 3c 6a 5c ff 3b 31 a1 b2 3c
       -0.022029446 0.011709658 0.007792999 0.021805378
000090 a6 b5 8f 3c 2a ba f4 3a cb b5 50 3c 12 3a 86 3c
       0.017542671 0.0018671204 0.012738655 0.016385112
0000a0 74 1b 9a 3b 1e 59 90 3b 80 b7 fc b9 45 52 af 3b
       0.0047029797 0.004405155 -0.00048201904 0.0053503835
0000b0 d6 ae cd 37 5f 0d ad bc 0b 07 76 3b f8 5d 1b bc
       2.4519319e-05 -0.02112454 0.003754082 -0.009482853
0000c0 6c f1 c9 bb d6 2e 2d 3c d8 4b 38 3b cd a8 61 bc
       -0.006162813 0.010570249 0.0028121378 -0.013773155
0000d0 a2 db dd bb c3 2e 61 3d 81 5d 63 3b 7a 08 6f bb
       -0.006770567 0.054976236 0.0034693184 -0.0036473558
0000e0 6a b1 5d bc 3b c6 2a 3c d8 78 8f bc 10 8e c3 3c
       -0.013531068 0.010423238 -0.017513677 0.023871452
0000f0 78 24 06 3d 7d 01 2b bc 6a 6f 86 3b a5 a9 88 3c
       0.032749623 -0.010437367 0.004102637 0.016682455
000100 50 68 a6 bb 1d 37 6d 3c 3d d9 0a 3c 7e e5 0b bd
       -0.005078353 0.014478472 0.008474645 -0.034154408
000110 08 b4 d4 bb 29 ed 85 3c 26 c0 ff 3b 09 26 b8 3c
       -0.006491188 0.016348438 0.0078048883 0.022479074
000120 b3 fd 5d bd 44 c4 c8 bb 33 d9 59 3b ee 4a 0f 3d
       -0.054197025 -0.0061269123 0.0033241033 0.034983568
000130 aa f7 95 bc 22 a8 3a 3c aa a3 10 bd 2e 03 92 3d
       -0.018306572 0.011392625 -0.035312332 0.07129513
000140 20 1f 20 3d 46 5f 1b 3c 6b 3f c0 bc db 09 b6 bb
       0.039092183 0.009483164 -0.02346774 -0.005555374
000150 64 ff 62 3c d1 b8 ae bc 0f b9 93 bb 5d 9c 9b 3c
       0.013854835 -0.021328362 -0.0045081447 0.018995458
000160 ef 4d 21 bc 8a 5b 3c 3c 07 37 6b 3c 59 00 98 ba
       -0.009845241 0.011496434 0.014356381 -0.0011596783
000170 d1 07 98 3c 82 cb c2 3c 80 98 40 bb c4 ba 84 3c
       0.018558415 0.02377868 -0.0029387772 0.016202338
000180 15 7c 8e bc 48 5b e9 3c 39 6d 54 bc 41 df f5 3c
       -0.017393151 0.02848591 -0.012965494 0.030013682
000190 7b d6 44 bc 64 a9 cc bc 51 da e2 bc 53 a9 26 3c
       -0.012014027 -0.024983115 -0.027691992 0.010172206
0001a0 d9 f4 ab 3c 15 42 9a bc f8 66 9b 3c b0 cf 87 3b
       0.020990776 -0.018830338 0.018969998 0.0041446313
0001b0 21 26 d0 39 1d 7a ec bc 0d 1b fc bc f8 14 a5 bc
       0.0003970126 -0.028866822 -0.030774618 -0.0201516
0001c0 c9 94 8e bc bc 6d 4c 3b f4 f7 45 bb 58 45 23 bd
       -0.01740493 0.0031193336 -0.0030207606 -0.039861053
0001d0 96 3f 5d 3b 31 da 01 bc 85 a8 f7 bb c0 c3 0c bb
       0.0033759824 -0.007925556 -0.007557931 -0.002147898
0001e0 18 ce 0d 3c e2 a9 18 3a 7d 1e 37 bb 0e 4f 05 bc
       0.008655094 0.00058236544 -0.0027941756 -0.008136524
0001f0 82 05 52 bb 38 8e c7 bb a8 ed 48 3b 59 31 0e bd
       -0.003204674 -0.006089952 0.0030659232 -0.03471503
000200 71 8e 3c 3c 46 b3 22 3c 77 69 10 bc 89 42 9d bb
       0.01150857 0.009930437 -0.008814207 -0.0047991914
000210 b6 79 98 bc d7 60 70 bc 2a 2d 24 3c 72 2c ef bb
       -0.018612724 -0.014671526 0.010020534 -0.0072989995
000220 87 7a 0d bc cb 0a 96 3c 8a 47 0a bd 47 8f 02 3b
       -0.00863517 0.018315693 -0.03375963 0.0019921826
000230 97 e9 7b bc 3e 95 dc bc 2f 90 14 3a 34 5c d2 bb
       -0.015375516 -0.026926633 0.0005667237 -0.006419683
000240 e5 db 5f bc b9 b1 1f bc 75 83 78 bb 0b 30 a1 3b
       -0.013663267 -0.009746962 -0.0037920151 0.0049190572
000250 12 05 8c 3c ce 14 9b 3c cc 7e 4d 3c 14 53 56 3b
       0.017092261 0.018930819 0.012542438 0.0032703327
000260 1f 24 97 bc 95 76 f3 3c 08 91 72 ba 64 58 f0 bc
       -0.018449841 0.02971963 -0.0009253179 -0.029339023
000270 6b 0c 08 bd df 12 86 3c e0 11 89 bb 64 ae 6f bb
       -0.033214968 0.01636642 -0.004183039 -0.003657245
000280 f7 12 61 bc dd 04 b6 3a a8 87 61 bd e6 37 ab ba
       -0.013737432 0.0013886947 -0.055061013 -0.0013062924
000290 f7 f5 a3 bc 0d c7 55 bc 2a c5 01 bd 74 1e 28 3c
       -0.020014746 -0.013047946 -0.03168217 0.010261167
0002a0 58 a5 aa 3c 55 44 38 bc 86 1c 92 3c ea b3 24 3c
       0.020830795 -0.01124676 0.017835867 0.0100526605
0002b0 b8 2b 3b 3c ae ae db 3c b8 b8 7a bc c8 e5 0a bc
       0.011423998 0.026816692 -0.015302829 -0.008477636
0002c0 bf 39 36 bd 2d 4d 82 bb 8e 46 8f ba bc 19 1e 3c
       -0.044488665 -0.003976485 -0.0010931061 0.00964969
0002d0 06 ae 9d 3c 37 eb 84 3c 26 7e 02 3d 8c c8 8e bc
       0.01924802 0.01622544 0.031858586 -0.017429613
0002e0 76 a4 93 ba cf 49 d7 bb e5 bb 0a 3b 9a 12 cb bc
       -0.0011264223 -0.006570078 0.0021169123 -0.024789143
0002f0 9f ae 35 3d bd 90 58 3a 07 8b 84 bb b0 4d be 3b
       0.044355985 0.0008261314 -0.0040448937 0.005807601
000300 1d a5 e5 bc 6c 75 80 bc f9 d1 af 39 e8 4e 12 3c
       -0.028032834 -0.015680991 0.00033535043 0.0089299455
000310 b4 53 15 bd d5 ad 90 3c 21 c4 fc 3b 43 2a 4d 3c
       -0.03645678 0.017661015 0.00771381 0.012522283
000320 56 d6 6b bc 16 8a 88 3c c4 3c 7c bc 8a 9a 31 3c
       -0.014394363 0.016667407 -0.015395347 0.010840068
000330 c2 00 07 bc 6b a0 14 3b c9 40 84 bd a8 18 90 3c
       -0.008239927 0.0022678624 -0.06457669 0.017589882
000340 36 97 96 3c 98 b3 8b bb b5 7f 47 bc ec 01 48 bc
       0.01838265 -0.0042633526 -0.012176444 -0.012207489
000350 dc da 53 3c 0b e7 ae bb 21 d5 a7 3c d8 18 41 bd
       0.012930598 -0.005337601 0.02048737 -0.047142833
000360 ca b8 8f 3a 47 fc 04 3c be 08 ac 3b a6 a9 41 bb
       0.0010965106 0.008116788 0.0052500656 -0.0029550581
000370 02 27 96 3c 8c 9e c3 bd a1 26 a5 3b 7d b9 06 bc
       0.018329147 -0.09551725 0.0050400053 -0.008222935
000380 86 82 bd bc 31 87 0b bc 74 c5 39 3a 44 2f 0d 3c
       -0.023133527 -0.008516119 0.0007086613 0.008617226
000390 c0 b6 1f bd fe 60 d7 3c a2 87 4d 3c 4e 34 f4 bc
       -0.038992643 0.026291367 0.012544544 -0.029810097
0003a0 b9 4a 6f 3c 07 05 69 3b ed e4 a7 bb 5c d0 5d 3b
       0.014605218 0.0035555975 -0.0051237256 0.0033846116
0003b0 ff d7 fd b9 57 ee 16 bc 6f 08 c4 39 8e 8d 64 3b
       -0.0004841685 -0.009212098 0.00037390317 0.0034874412
0003c0 76 37 8f bc 17 fe 01 3b a7 a7 47 3c 36 ab a8 bb
       -0.0174825 0.0019835287 0.0121859675 -0.005147363
0003d0 47 e7 77 3c 60 d9 85 bc 18 26 e9 bc d7 3a 23 bd
       0.015130824 -0.016339004 -0.028460547 -0.039851036
0003e0 d4 c1 f4 bb f9 9b 18 3c 55 0e 7a 3c 50 8a 44 3c
       -0.007469395 0.0093145305 0.015262206 0.011995867
0003f0 9b 4e 02 3c 02 f7 06 bc 5f c8 5c 3b 80 a5 69 bc
       0.007953311 -0.008237602 0.0033688766 -0.01426065

riemannian.proj.3.weight f4 [48, 256]
000000 93 cb e7 3d c8 88 a7 3d d1 a9 a8 bd 63 5f 0b be
       0.113181256 0.08180386 -0.08235515 -0.13610606
000010 4c 03 00 be 5e e5 41 3d d8 c2 53 bc a1 d5 d4 bd
       -0.12501258 0.047337882 -0.012924872 -0.10392309
000020 3b 71 b6 bd a8 85 a9 3c c3 00 93 bd 1d 68 04 3d
       -0.08908316 0.020693615 -0.0717788 0.032325853
000030 b1 5b 21 be 11 13 4e 3e 29 d8 d4 3d f0 ce 49 bc
       -0.15757634 0.20124461 0.10392792 -0.012317404
000040 0b a4 84 bd 2a 65 ce bd c7 a5 90 bd 7d 29 49 3c
       -0.06476601 -0.10077889 -0.070628695 0.012277958
000050 41 02 64 3d b1 27 de 3d 05 7c c4 3c 95 85 1e bd
       0.055666212 0.10847414 0.023984918 -0.038701613
000060 44 b5 2b 3d 1e e7 af 3d e8 8f 42 bd f1 d2 16 be
       0.041920915 0.08589004 -0.04750052 -0.14728905
000070 b7 6f e5 3c af 2a b1 bd 10 5f 9e bd c3 63 8e 3d
       0.028007371 -0.086507194 -0.077329755 0.06952622
000080 de 66 f8 bc f5 38 0a 3d b8 56 b0 3d b4 02 bb 3d
       -0.030322488 0.033745725 0.0861029 0.09131375
000090 a9 12 70 bd b8 13 4c bb bc ac d4 3b 54 9d 9d bd
       -0.058611546 -0.0031139683 0.006490318 -0.076960236
0000a0 d4 d5 2f be 2f 2c 1d 3c 3a e0 10 3d 9e 10 90 bd
       -0.17171413 0.009593054 0.03537009 -0.070344195
0000b0 d1 44 d9 bc 50 ae b2 bd bf b9 1c 3d 33 9a d7 3d
       -0.026522072 -0.08724654 0.03826308 0.10527458
0000c0 36 db 0c 3e 83 cd 39 bd 90 22 d6 bd 1b 32 25 3d
       0.13755497 -0.045362007 -0.10455811 0.040330987
0000d0 91 e9 f9 bb 4c 27 09 bd 99 30 40 bd a3 8d 95 bd
       -0.0076267202 -0.033484742 -0.046921346 -0.07302406
0000e0 f4 2e a7 bd 63 d0 8c 3d 64 fe 57 3d 3b 80 91 3d
       -0.081632525 0.06875684 0.05273284 0.07104536
0000f0 30 d6 b2 bb c8 43 5d 3d 64 4d 45 bd f3 79 6e 3c
       -0.005457662 0.05401972 -0.04816951 0.014555442
000100 e6 8e 51 3d 94 c6 98 3d 40 4e 93 bc 80 b3 17 be
       0.05116167 0.07459751 -0.017981648 -0.14814568
000110 bc 17 72 3d f7 e8 3a 3d 07 8e c6 bd 27 d8 13 3e
       0.059104666 0.04563233 -0.09695058 0.14437924
000120 fe d9 ca 3c 49 30 72 3d 68 a3 a0 3d 05 92 3d 3d
       0.02476215 0.05912808 0.07843667 0.046281833
000130 2f 9d fd 3d 46 6f 35 3b ac 40 3f be f3 0a 10 bc
       0.12383496 0.0027684732 -0.18677014 -0.008791673
000140 d8 7b c4 bd ce d1 c0 3d c6 1b b3 bd 83 c3 40 be
       -0.09593934 0.09415017 -0.08745532 -0.18824582
000150 04 a3 96 3d 81 0d 87 bd b6 27 15 bc 3f f6 ff 3d
       0.073553115 -0.065943725 -0.009103706 0.124981396
000160 eb fb ab bd 09 9c 13 3e 46 5b f3 3d c0 5d 22 bd
       -0.08397659 0.14414991 0.118826434 -0.03964019
000170 16 51 3d 3e aa ed 90 bd 04 4d 04 bd 0d f7 6d 3d
       0.18487963 -0.07076581 -0.03230001 0.058096934
000180 21 9a e3 3c 1c dd 80 bc 5a 25 e4 3d a4 36 93 bc
       0.027783455 -0.015730433 0.11139937 -0.01797039
000190 14 25 35 bc 78 6e 6f 3d 3a 98 6f 3d 71 e6 03 3e
       -0.011056203 0.05845496 0.058494784 0.12880875
0001a0 da 96 5f 3e 97 a6 2d 3d 9b b7 1e 3d d9 e4 08 3d
       0.21834889 0.0423952 0.03874932 0.03342137
0001b0 a4 66 cb 3d b2 30 26 ba 7a ea b8 bd 3c 76 09 3d
       0.099316865 -0.00063396536 -0.09029098 0.033560023
0001c0 aa b7 ab bd 0d 29 5c 3e 6b 3e 16 bd b2 f2 d2 bb
       -0.083846405 0.21500035 -0.03668062 -0.006437623
0001d0 f6 0a 9e bc f0 33 79 bd a3 a5 f7 3c 36 4a db bd
       -0.019292336 -0.060840547 0.030230349 -0.10707514
0001e0 ca 80 3b 3c 41 c2 9a 3d 0d 84 4d 3d ea bd 61 3d
       0.01144428 0.07556582 0.05017476 0.055112757
0001f0 2b 3f fc bb e0 0a e5 3d a1 05 bd bd 82 76 a9 3c
       -0.00769796 0.11183715 -0.09229589 0.020686392
000200 5b ac fb bd a9 b6 9e bd 0f 23 fb bd 46 49 e2 bd
       -0.122887336 -0.077496834 -0.12262546 -0.11049132
000210 24 da 17 be 5a 50 1e bd 62 b0 33 be 24 a3 fb 3d
       -0.14829308 -0.038650848 -0.17547753 0.12286976
000220 b8 00 50 bd 56 19 87 bd 98 b5 97 bd 51 67 af bc
       -0.050781935 -0.06596629 -0.07407683 -0.02141157
000230 97 a9 3f bd 25 21 51 bd af 65 9c be b5 b8 1b 3d
       -0.046792593 -0.051057 -0.30546328 0.038017947
000240 67 e2 e6 3b 7e 36 85 3c c6 84 22 bd a6 f4 36 3d
       0.007046032 0.016261335 -0.039677404 0.04466691
000250 94 72 30 bd 5e ea 50 3e 8a cd 34 bc b6 cc 67 bd
       -0.04307802 0.20401904 -0.011035332 -0.056591712
000260 9f a6 93 ba f2 43 02 3e 59 e4 bb 3c 97 a8 7e bd
       -0.0011264867 0.12721232 0.022936033 -0.0621725
000270 7f d1 10 3d 79 eb a1 bd 92 65 95 3d a2 c0 a4 3d
       0.03535604 -0.07906241 0.072947636 0.08044554
000280 56 af 4c 3c ca d7 2c 3d 29 41 05 3e 88 bb d9 bd
       0.012492975 0.04219798 0.13013138 -0.10631472
000290 d2 d6 5c bd e3 bd 89 be 68 be 28 be c5 de 31 3e
       -0.053915806 -0.26902685 -0.16478884 0.17370136
0002a0 7d 54 20 bd 3a df 87 3d 0f df 55 3d ef 2e 4c bd
       -0.039143074 0.06634374 0.05221468 -0.049849447
0002b0 58 f5 4b 3d fc 48 1f 3d 99 ae 20 3b 35 02 06 3d
       0.049794525 0.038887963 0.002451813 0.03271695
0002c0 e4 ca 50 3d be 3a 77 3d 31 6a 82 bd fb 5a df bd
       0.05097474 0.060358755 -0.06367911 -0.10906025
0002d0 99 c8 c1 bd 5c e7 a8 bd ab 3a 86 bd be 8a c0 3d
       -0.09462089 -0.08247253 -0.06554159 0.09401463
0002e0 99 60 0b be ca 27 be bd 12 f5 26 bd 28 bf 87 bd
       -0.13611068 -0.09284933 -0.04076106 -0.06628257
0002f0 d5 76 b6 bc 1d 58 df 3d c2 5e 04 bd f8 e2 fc bc
       -0.02227346 0.10905478 -0.03231693 -0.030869946
000300 9e 2f 30 bd 48 1c 1f 3e 80 f5 0a 3d 77 a7 cd bd
       -0.04301416 0.15538132 0.033925533 -0.10041707
000310 85 f7 84 3d ad 1c 19 3e 75 62 49 3d 72 53 09 be
       0.06492523 0.14952345 0.04916616 -0.13410738
000320 ab 0d dd ba 0c 7a 37 3e 3f 05 5e bd 20 08 c1 3d
       -0.0016865035 0.17917651 -0.05420422 0.09425378
000330 09 2c 71 be 05 ac 74 3d c7 98 81 3c ea bd f9 3d
       -0.23551954 0.059734363 0.01581992 0.12194426
000340 6c ee da bc 69 72 80 3d d2 d4 2e bd 9f 56 84 bd
       -0.026725017 0.06271822 -0.04268343 -0.06461834
000350 b5 96 06 be 06 d7 e1 3d 4a d2 52 bd c2 ed 29 3c
       -0.13143428 0.110273406 -0.05147008 0.010371627
000360 c0 b9 35 bd 87 33 b5 3d 5d 15 52 3d 36 bf 3c 3e
       -0.044366598 0.08847719 0.051289905 0.18432316
000370 88 74 c2 bc 24 ce 0b 3d 53 d2 6b 3e 4e 6c c2 3d
       -0.023737207 0.034132138 0.23029451 0.09493314
000380 ab 00 5a be a9 67 de bd 76 a1 3b 3c b2 eb 73 3d
       -0.21289317 -0.10859615 0.0114520695 0.05955095
000390 a9 6b 1a be bf 97 3d 3d 7c ce da 3c 72 ff 80 3d
       -0.15080132 0.046287294 0.026709788 0.06298722
0003a0 f6 ae 6e 3d 00 ec 05 3e 09 fa 0e 3d 70 c8 3f 3d
       0.058272325 0.13078308 0.03490642 0.04682201
0003b0 32 a4 7f 3c 8c 31 d8 3d 79 eb 8c 3d a8 ca 1b be
       0.015603112 0.10556325 0.0688085 -0.15214026
0003c0 e9 2a be 3d 6d a0 27 be 0f 78 58 3d cf e6 0c 3c
       0.09285528 -0.16369791 0.05284887 0.008599951
0003d0 80 a2 c4 3d 26 4d bf bc c4 94 01 be 15 12 03 3e
       0.09601307 -0.023352217 -0.12654406 0.12799866
0003e0 27 7d 88 be 37 b2 bc bd 53 02 c8 bd 95 bb 68 3e
       -0.26657984 -0.09213679 -0.09766068 0.22727807
0003f0 7d aa 82 3c 80 f2 a2 3d 40 64 9b 3d e4 c2 e0 bd
       0.015950436 0.079564095 0.075874805 -0.109746724

riemannian.proj.3.bias f4 [48]
000000 41 be 32 ba d7 7a dc 3c de 20 83 bb 2b 88 77 3d
       -0.0006818511 0.026914043 -0.004001721 0.060432594
000010 ba 63 bc bd 20 03 88 bc b7 9d 9e bc 46 3a e5 3c
       -0.09198709 -0.016603053 -0.019362314 0.027981889
000020 c4 77 87 bd ea ec 62 bc c4 a6 ad bc db de 9d bd
       -0.0661464 -0.01385043 -0.021197684 -0.07708522
000030 3d 87 ba 3c 44 8e a3 bd 5b d7 1b 3c e6 26 09 bd
       0.022769565 -0.079861194 0.009511794 -0.033484362
000040 90 85 49 bb fc 57 51 3c 30 39 80 bd e8 92 da 3c
       -0.0030749775 0.012777325 -0.06260908 0.026681378
000050 b5 63 6d 3c 3f 8d 10 bd 3a c9 14 bd c2 82 e8 bc
       0.014489104 -0.035290953 -0.036324717 -0.028382663
000060 63 83 01 be da 11 41 3d 89 54 82 bc cf b0 30 3d
       -0.12647776 0.047136165 -0.01590945 0.043137368
000070 df 0c 06 3e 67 a8 0a bc e6 82 90 bc 70 bb 21 bc
       0.13090847 -0.008463002 -0.017640542 -0.009871349
000080 16 e2 2d 3c 66 cf 3e 3d 56 64 0f bc c5 2b 26 3d
       0.010612985 0.04658451 -0.008751949 0.040569086
000090 4f 74 e0 bd 40 cf 77 3c 79 40 10 3a 63 62 cb 3c
       -0.10959684 0.015125096 0.0005502771 0.024827188
0000a0 9b 02 39 bd df 9c 1b 3d 9d 6e 10 bd 7f 12 45 ba
       -0.0451685 0.0379914 -0.03526174 -0.000751771
0000b0 94 2f 44 bc 8a 67 f0 3b 10 75 ca 3c 97 a1 a0 3c
       -0.011974234 0.0073365616 0.024714023 0.019608302

cnn.block1.0.weight f4 [16, 1, 1, 64]
000000 5f a2 d1 3d c1 d0 8c bb 49 3f 9d 3b 7b 6a e6 3c
       0.10236048 -0.0042973463 0.004798804 0.028126946
000010 fa 59 78 3d e3 df 8b 3d ce 95 40 3d 45 92 c8 3d
       0.060632683 0.068298124 0.047017865 0.09793524
000020 d0 82 b9 3b 0f ec b3 bc 09 ef 83 3d f3 0b a4 3c
       0.005661346 -0.021963147 0.06442077 0.02002523
000030 3f 5b 6b bc 4f a3 b4 3d 22 be 21 bd 64 95 d7 3c
       -0.0143650165 0.08820211 -0.039487965 0.026316352
000040 b9 1e e1 3d c6 fa 3f 3d 36 32 a5 3c 1b bb 16 3d
       0.10992188 0.046870016 0.020165544 0.03679953
000050 96 cb 98 3c b4 81 5f 3b 49 c1 7c bd a3 7a 6e 3c
       0.018651765 0.0034104409 -0.06170777 0.014555606
000060 36 ae 8d bc be bb c7 bd a5 1d 6c bd c8 56 d9 bd
       -0.017294984 -0.09752606 -0.05764546 -0.10612255
000070 37 c8 04 be db cc 4f bd 55 a5 31 bd 21 3d b1 bd
       -0.12967001 -0.050732475 -0.043370564 -0.086542375
000080 cd 69 4b 3a 70 94 f4 bc c6 6e 55 bd de 55 09 bd
       0.0007759601 -0.029855937 -0.052107595 -0.033529155
000090 59 e6 61 bd 9e c4 f7 3c 19 ee ce bb b3 35 93 3c
       -0.055151317 0.030245122 -0.0063150045 0.017969942
0000a0 e4 e8 ea bc c4 a1 8f bd df 55 ee bd 75 0c a9 bb
       -0.028675504 -0.07013276 -0.11637472 -0.0051589557
0000b0 17 9f 92 bd d8 73 38 3c a7 3e 9d bd aa 4f 56 bd
       -0.0715925 0.011258088 -0.076779656 -0.052322067
0000c0 84 74 46 bd d6 9c 2f bd ad 75 f4 bd a6 30 b3 bd
       -0.04845096 -0.04287418 -0.119365074 -0.08749513
0000d0 77 61 90 bd 09 bc a1 bd 7e a2 8a bd 96 b3 04 be
       -0.0704984 -0.07897193 -0.06769274 -0.12959132
0000e0 09 cf 39 bc 4b 8f e8 bd c0 7b 13 bd be 05 96 bd
       -0.011340865 -0.11355456 -0.03600669 -0.07325314
0000f0 d7 eb 49 bd 34 49 85 bd b3 cd 3b be 3d 3a 9f bd
       -0.04929718 -0.06508103 -0.18340187 -0.0777478
000100 cc f3 a0 bd fb 24 ae bd 74 c8 14 bd f3 b0 59 bb
       -0.078590006 -0.08503147 -0.03632398 -0.0033217042
000110 1f a7 a8 bd 39 ee e7 3d 86 13 35 3d 21 60 d2 3a
       -0.08235001 0.11324734 0.044208072 0.0016050377
000120 3b de 37 3d c1 f3 90 bb 78 da cc bd 5e 91 53 bd
       0.04488967 -0.004423589 -0.10002607 -0.051652305
000130 46 2d 89 bd 31 ba 81 bd ef 40 b9 bc a9 e4 a0 3c
       -0.06698088 -0.06334341 -0.02261397 0.019640284
000140 6a 12 c6 3d f0 cd 03 3d 91 19 07 3e f0 89 81 3c
       0.09671481 0.03217882 0.13193347 0.015812844
000150 7e ac 90 3c 9b 5c c7 bc 3f 6d bd 3c 05 48 0e 3d
       0.017660376 -0.02433615 0.023123382 0.034736652
000160 24 2e 44 3d cb 89 64 3c 0b 86 d7 3c ce 41 e6 3d
       0.047895566 0.013948868 0.026309034 0.1124302
000170 4d 1e 95 3d ae e8 dd 3c 57 44 9c 3c 49 9d 6b 3d
       0.0728117 0.02708849 0.019075556 0.057523046
000180 e6 23 99 3d 91 95 cd 3b 3b 73 f4 3d ec 68 95 3c
       0.0747755 0.006273933 0.11936041 0.018238507
000190 e4 a0 19 3d 72 5e 2b 3d 65 03 82 bc eb de c0 3d
       0.037506953 0.041838117 -0.01587076 0.09417518
0001a0 33 81 0f 3b 10 00 b1 3d 7c 08 11 3e 56 21 f2 3d
       0.0021897077 0.0864259 0.14163393 0.118227646
0001b0 5c 1f d2 3d 32 8c 02 3e 05 a7 75 3d 2f 2b 15 3e
       0.102598876 0.12748793 0.059973735 0.14567254
0001c0 61 47 34 3d 61 ea 59 bc 31 a0 39 3d 3c 76 97 bb
       0.044013385 -0.013300509 0.045318786 -0.004622249
0001d0 bc bf b8 3d b9 66 a8 3c a0 f0 98 3d 75 62 91 3d
       0.090209454 0.020556794 0.074677706 0.07098857
0001e0 b5 15 b7 3d f4 12 38 3d 75 64 91 3d 38 c7 54 3d
       0.08939687 0.04493995 0.07099239 0.051947802
0001f0 f1 2c 80 bd 43 a4 73 3d 5e 65 55 3d 7c f3 c9 3d
       -0.06258572 0.059482824 0.052098624 0.09860894
000200 f9 c7 68 3d 9e 73 83 3d db 59 93 bd 4c 8f b5 bd
       0.056831334 0.064185366 -0.07194873 -0.08865222
000210 a1 f6 4f bd ea 8a 47 3c d5 90 a8 3d ca 56 98 3d
       -0.050772313 0.012179116 0.082307495 0.07438429
000220 68 a1 79 3d e6 d5 22 bd da ec 08 bd dc 2d d7 bd
       0.060944945 -0.03975477 -0.033429004 -0.10506794
000230 49 34 0f 3c 20 19 8b bd 22 46 65 3d 2f 66 a6 3d
       0.008740493 -0.067919016 0.055975087 0.08124959
000240 25 a5 f5 3d ba 08 ea 3d 7b 67 7f bd 29 10 92 bd
       0.119943894 0.11427446 -0.062354546 -0.071319886
000250 93 53 09 be 57 5e 3e be ce a0 c6 3c c6 40 ab 3c
       -0.13410787 -0.18590675 0.0242466 0.02090491
000260 25 e7 99 3d 69 31 1d 3e be 0b dd 3d 22 3e 69 bc
       0.075147904 0.1535088 0.10793255 -0.014236005
000270 ef a4 34 bd dc 1b 36 bd 10 9d f3 bd 9e d4 c1 bd
       -0.044102605 -0.044460163 -0.11895192 -0.09464382
000280 1d bf 0d bd 98 d0 6a 3d 5b 77 fe 3d 53 2b ee 3d
       -0.034606088 0.057327837 0.12425109 0.11629357
000290 bf 1b d2 3d b2 f8 67 bc a6 88 29 bd 26 2a ec bd
       0.102591984 -0.014158415 -0.041390084 -0.11531477
0002a0 7d fb 94 bd 7f f5 dd bd ad b6 91 bd e8 d4 d8 3d
       -0.0727453 -0.1083784 -0.07114921 0.10587484
0002b0 5b 66 29 3d cd 87 0b 3e 0d 66 00 3e e4 5a df bc
       0.04135738 0.13626023 0.1253893 -0.02726502
0002c0 69 ad 15 bd d6 79 6a bd d1 61 ec bd 12 f3 91 bd
       -0.03654233 -0.057245098 -0.115420945 -0.0712644
0002d0 12 f6 0a bc c4 81 06 3e e0 5b bd 3d 72 89 95 3d
       -0.008481519 0.13135439 0.092460394 0.07301606
0002e0 35 c2 c7 3c 18 70 6e bd f2 cf a9 bd 3a 2d 3d bd
       0.024384597 -0.05821237 -0.082916155 -0.04618571
0002f0 3d f6 81 bd 8d 28 11 bd d5 35 bd 3d 79 d0 44 3d
       -0.06345794 -0.035439063 0.09238783 0.048050378
000300 1f e3 1b 3d cf 2c 36 3c ee a1 a3 3c f4 0d 1e 3c
       0.038058396 0.011119082 0.019974675 0.009646881
000310 eb e0 08 3c 9e 77 5f 3d 2d 64 a5 3d 7b 85 93 3d
       0.008354406 0.054557435 0.08075748 0.07203194
000320 9c 8e 81 3d 4a 6b 16 3e 16 79 91 3c 0e 7f c2 3d
       0.06326029 0.14689365 0.017757934 0.0949689
000330 f1 32 41 3d 01 59 01 3d 84 14 77 3c 0f e9 ce bc
       0.047167722 0.03157902 0.015080575 -0.025257615
000340 0e 9a cc bb be 39 b3 3d 68 b1 8b 3d ab 2e aa 3d
       -0.0062439507 0.08751248 0.06820947 0.083096825
000350 2f 08 a5 3d 35 32 8a 3d b8 f9 bc 3d 0c 00 a9 3d
       0.080582015 0.067478575 0.092273176 0.08251962
000360 10 0a a6 3d 42 00 25 ba d4 2d 5f 3d ca 3b ac 3d
       0.08107388 -0.0006294289 0.054487064 0.08409841
000370 03 4f 95 3d 4b f3 51 3d ec 60 70 3d 6f e9 66 3d
       0.07290461 0.051257413 0.058686182 0.056374963
000380 8f bb ac 3d 51 b0 8f 3d f8 2c 57 bd 68 92 bd 3a
       0.084342115 0.070160516 -0.05253312 0.0014463188
000390 73 08 e2 3c aa 55 e3 3d 70 e4 3e b9 c2 b9 68 bd
       0.02759192 0.111003235 -0.00018204912 -0.056817777
0003a0 ee 5c 97 bb 1a 4d 53 3d fe e9 c0 3b a9 81 57 3d
       -0.0046192324 0.0515872 0.005887269 0.052613888
0003b0 1d 45 0a bd 1a 4a 34 bd bd 37 5a 3d 7d ed 32 3c
       -0.033757318 -0.04401598 0.053275812 0.010920879
0003c0 09 d2 c3 3c 84 63 8b 3d da 59 e2 3c 3a fc 27 3c
       0.023903864 0.068060905 0.027630735 0.010253007
0003d0 26 d6 23 3d c8 a6 bc 3d 86 93 92 3d 53 4d 1a 3d
       0.03999915 0.092114985 0.07157044 0.0376714
0003e0 ee 07 88 3c cc 11 74 3c 36 9c 74 3d b3 29 7c 3d
       0.016605344 0.014896821 0.059719287 0.061563205
0003f0 0d a0 60 bd 51 30 b6 bc 90 f8 be 3d 72 a9 c0 3d
       -0.054840136 -0.022239836 0.09324753 0.09407319

cnn.block1.1.weight f4 [16]
000000 2d 71 bc 3f 06 6e a9 3f 68 ff fe 3f de c9 87 3f
       1.4722039 1.3236701 1.9921694 1.060848
000010 01 79 e0 3f 4c 41 e6 3f 62 19 e8 3f ec 43 b4 3f
       1.7536927 1.7988677 1.8132746 1.4083228
000020 b7 03 02 40 5b a0 0c 40 b3 24 ae 3f 4b 91 a9 3f
       2.0314767 2.1972873 1.360495 1.3247465
000030 97 c3 78 3f ef 43 c8 3f 99 1e a6 3f 11 96 04 40
       0.97173446 1.5645732 1.2978088 2.0716593

cnn.block1.1.bias f4 [16]
000000 73 49 93 bc fc b8 de bb 1b 90 c7 bc d2 0c 91 bc
       -0.01797936 -0.006796954 -0.024360707 -0.017706309
000010 01 38 6e 3c 49 2d c3 bc e7 78 84 3c 40 0a d2 ba
       0.01453972 -0.023825305 0.016170932 -0.0016024783
000020 07 15 78 3d 82 b9 19 3d 3d 86 8e bc dc 18 82 3b
       0.06056693 0.03753043 -0.017397994 0.0039702486
000030 2c 67 12 3c 77 e7 07 3d 0a aa af 3b 7d b3 2a bd
       0.008935731 0.033179726 0.0053608464 -0.04167508

cnn.block1.1.running_mean f4 [16]
000000 ab fe d9 ba 9c 83 23 3b bc a8 92 38 2d e2 44 3b
       -0.0016631683 0.0024950271 6.993252e-05 0.0030042038
000010 63 b0 96 bb 7c 23 5e ba 5c 08 c0 38 e2 85 61 bb
       -0.0045986637 -0.00084739155 9.1568305e-05 -0.0034412076
000020 f9 37 26 39 f0 75 73 39 04 14 83 3b e0 f9 57 3b
       0.00015851845 0.00023218221 0.004000189 0.0032955334
000030 d0 d7 15 38 db 58 40 3b 97 6f 2c 3b b8 35 8a 38
       3.572536e-05 0.0029349837 0.002631163 6.590359e-05

cnn.block1.1.running_var f4 [16]
000000 ae 35 0a 40 0e 69 16 40 ef 20 7d 3e 33 42 07 40
       2.1595263 2.350162 0.24719594 2.1134155
000010 1e 29 a8 40 53 84 71 3f 29 48 bf 3e cf d7 3b 40
       5.255019 0.94342536 0.3735974 2.935047
000020 d3 d2 a8 3e a5 9c f8 3e 52 c8 6c 40 88 0a 2c 40
       0.32973346 0.4855701 3.6997266 2.6881428
000030 5a dc 36 3f c6 f5 13 40 2e 7e d7 3f 9b a8 b8 3e
       0.7142998 2.3118758 1.6835382 0.36066136
