models/2a_subject specific/model_2.pth (torch, 985978 bytes, 93 tensors)

fusion_proj f4 [48, 48]
-0.8855853 -0.50870997 -0.26878577 0.4878166 0.38231987 -0.026624734 -0.36140496 0.47334337
-1.6370614 -1.7170011 0.022034425 -0.2162995 -1.2489915 -0.42758211 0.6228014 -1.0669308
-0.5691157 1.8206558 -0.3819157 -0.6286155 -1.6282685 -0.06219931 -0.51094663 2.2676609
0.4594642 0.9784627 0.23884974 -0.28365433 1.5145708 0.23843277 0.2248278 0.6226079
0.17526004 0.3128498 1.9373472 0.82256734 -1.727498 0.92901236 -0.10888818 -0.12682135
0.91139483 -1.3027724 -0.13367105 0.17004335 -0.638403 0.9816734 -1.296895 0.8986807
-0.104381636 0.13643956 0.7100711 1.2242826 -0.512928 0.059716355 0.1517631 0.5221841
-1.0373275 -0.4202721 -0.09419352 -1.0976806 0.7141 0.49708036 0.19842564 1.2079705
-0.57132936 0.27825567 0.1669453 -0.33881804 0.492553 1.0135391 -0.56718004 -1.9715815
0.58049434 1.225941 -1.0302094 -1.8217542 -0.10843101 0.20357466 0.9842169 0.5480301
-0.3884456 0.5808069 0.5451058 -0.6936014 0.47306752 -0.8587441 -0.5889025 -0.23953268
1.0791138 -0.51031566 -0.17513764 2.903076 -0.9447503 -0.14353885 0.2566016 -0.20683177
0.6245687 -0.17436665 -0.29825124 1.5967416 0.32766616 -0.3800249 -0.42779136 0.25469938
-0.3191065 -1.7294562 0.952626 0.72235894 0.461566 0.32681045 -0.5089796 1.145117
-1.1492 -1.1178294 0.46566162 1.8937157 0.31343922 -0.35421613 -0.73623693 1.044212
-1.2599419 -0.9253834 -0.46549523 -0.040136732 0.660657 1.1357492 -0.026239447 -0.07934135
0.25366738 -0.59096813 0.62445456 -0.08169836 -2.506815 -0.21978767 1.1391777 0.7504539
-0.4869888 -0.9990861 -0.039102178 -0.6137445 0.49648604 1.7146848 -0.090080194 -1.589249
-0.9040319 1.0728726 -0.68602127 0.089672275 -1.2037238 -1.3211722 0.90042883 0.70782506
-0.063093625 0.8417639 0.9801523 1.4823536 0.95000213 -0.41282782 -1.0256644 0.33499533
1.7941561 0.98378193 -1.2241062 -0.21102953 0.15763254 1.4386564 0.7343578 -0.39747456
-0.30975804 -0.81918746 0.4736429 0.7691846 -0.14742014 -1.0741832 0.25259504 -0.27619892
-0.39662158 0.020558005 -0.62946564 0.8549104 0.8327254 -0.90237755 0.5412901 0.3548658
-0.5212927 1.38484 1.8690807 0.9057984 0.481848 -0.2087584 0.3536585 0.72411853
-1.3522708 1.9347806 1.7696205 -0.7389531 0.22388645 0.30340987 -1.8845509 0.92549145
-0.34540206 -0.4582618 -2.0002728 -0.05055544 0.6068214 1.4082313 0.10380959 0.43241563
0.9107608 -0.032015815 -0.21760122 -1.1663281 0.16430695 -0.732316 0.86850804 0.94369704
0.7148785 0.4520315 1.3587301 0.70354754 0.052061986 0.29844826 -0.07047881 0.6976077
-0.18948771 0.38557565 -1.14357 0.1769974 0.024289275 -1.6201429 0.8959953 0.13433577
-1.3532772 0.18902168 -0.054884333 -0.13303384 -0.43251187 -0.4643955 -0.059796963 0.39993253
0.43171245 0.3461207 0.8951228 1.0695863 -0.97478354 -1.4711083 1.0620025 0.4946971
-0.5520536 0.20477366 -1.4221115 -2.7408137 0.032753315 1.2356848 -0.24330944 -0.96411175
00000000: b8b5 62bf d13a 02bf 4a9e 89be 19c3 f93e
00000010: 6ebf c33e 1d1c dabc 120a b9be 105a f23e
00000020: 3a8b d1bf b1c6 dbbf 8a81 b43c 9e7d 5dbe
00000030: f4de 9fbf 0bec dabe ea6f 1f3f 3091 88bf
00000040: 91b1 11bf 400b e93f 748a c3be f2ec 20bf
00000050: 1a6b d0bf b4c4 7ebd 66cd 02bf 5b21 1140
00000060: e43e eb3e 887c 7a3f 0795 743e 243b 91be
00000070: 75dd c13f b827 743e 4239 663e 3b63 1f3f
00000080: 5e77 333e d92d a03e fefa f73f c693 523f
00000090: a81e ddbf c1d3 6d3f c400 dfbd 75dd 01be
000000a0: 2c51 693f 3fc1 a6bf 10e1 08be d81f 2e3e
000000b0: 616e 23bf f34e 7b3f a800 a6bf f00f 663f
000000c0: 0ac6 d5bd d0b6 0b3e 38c7 353f 4bb5 9c3f
000000d0: 404f 03bf 2399 743d c967 1b3e dbad 053f
000000e0: 26c7 84bf e82d d7be 88e8 c0bd cc80 8cbf
000000f0: 42cf 363f 5181 fe3e 1730 4b3e c79e 9a3f
00000100: a442 12bf 8777 8e3e b5f3 2a3e 8f79 adbe
00000110: e82f fc3e a6bb 813f b632 11bf c85c fcbf
00000120: 479b 143f a2eb 9c3f e7dd 83bf 3e2f e9bf
00000130: 1411 debd e075 503e a4f5 7b3f b34b 0c3f
00000140: 57e2 c6be c3af 143f 0e8c 0b3f dd8f 31bf
00000150: e835 f23e a7d6 5bbf 50c2 16bf 0e48 75be
00000160: 6720 8a3f 0ca4 02bf 4857 33be ffcb 3940
00000170: 28db 71bf d9fb 12be 4961 833e b5cb 53be
00000180: bce3 1f3f 2c8d 32be 63b4 98be 0762 cc3f
00000190: dcc3 a73e a092 c2be 7807 dbbe f567 823e
000001a0: ed61 a3be d25e ddbf 4cdf 733f 84ec 383f
000001b0: 6152 ec3e b353 a73e 7d4c 02bf 3293 923f
000001c0: fc18 93bf 0915 8fbf 336b ee3e 4765 f23f
000001d0: 1b7b a03e d15b b5be 067a 3cbf bda8 853f
000001e0: c745 a1bf ede5 6cbf 6455 eebe 6a66 24bd
000001f0: d120 293f 3b60 913f 1cf4 d6bc b87d a2bd
00000200: b1e0 813e b049 17bf 41dc 1f3f 7851 a7bd
00000210: a86f 20c0 0510 61be 93d0 913f bf1d 403f
00000220: 9956 f9be 1bc4 7fbf 9b29 20bd 5c1e 1dbf
00000230: 6b33 fe3e cb7a db3f f77b b8bd 836c cbbf
00000240: a26e 67bf e453 893f 179f 2fbf 19a6 b73d
00000250: 9f13 9abf 2c1c a9bf 8182 663f 0634 353f
00000260: 3b37 81bd d77d 573f 43eb 7a3f c3bd bd3f
00000270: 5733 733f 2b5e d3be f948 83bf 8284 ab3e
00000280: e8a6 e53f 22d9 7b3f 83af 9cbf 2018 58be
00000290: 6d6a 213e e525 b83f dffe 3b3f c981 cbbe
000002a0: 9b98 9ebe 45b6 51bf 5281 f23e 48e9 443f
000002b0: 4ef5 16be d67e 89bf 2354 813e f269 8dbe
000002c0: fc11 cbbe 4369 a83c a924 21bf 68db 5a3f
000002d0: 7e2d 553f 3702 67bf fd91 0a3f f8b0 b53e
000002e0: 7073 05bf 7042 b13f 093e ef3f 67e2 673f
000002f0: c8b4 f63e c3c4 55be ba12 b53e d55f 393f
00000300: 3617 adbf e4a6 f73f ed82 e23f 082c 3dbf
00000310: 7d42 653e 8a58 9b3e f738 f1bf 02ed 6c3f
00000320: 8ad8 b0be 4aa1 eabe 7804 00c0 3913 4fbd
00000330: a658 1b3f ec40 b43f 1f9a d43d 9565 dd3e
00000340: 9f27 693f 0423 03bd dbd2 5ebe 3d4a 95bf
00000350: 1540 283e 1079 3bbf 8b56 5e3f 2196 713f
00000360: 4702 373f ac70 e73e deea ad3f b11b 343f
00000370: f33e 553d 36ce 983e 3257 90bd 6b96 323f
00000380: 1109 42be 2c6a c53e 8060 92bf ce3e 353e
00000390: 4dfa c63c d860 cfbf f35f 653f 518f 093e
000003a0: 3038 adbf e68e 413e 65ce 60bd 063a 08be
000003b0: 3272 ddbe 3fc5 edbe a9ed 74bd f5c3 cc3e
000003c0: 6a09 dd3e bb36 b13e c526 653f 34e8 883f
000003d0: 6a8b 79bf 474d bcbf b3ef 873f f048 fd3e
000003e0: 6253 0dbf 30b0 513e c007 b6bf 7e69 2fc0
000003f0: 5728 063d eb2a 9e3f 1c26 79be 07d0 76bf

pos_enc f4 [1, 500, 48]
-0.33583862 -0.5641163 1.9268453 1.4003496 0.2257804 -0.1033337 1.2787297 1.0521425
-0.2728617 0.21182431 0.88918316 0.66065353 -0.33122244 0.24585153 0.3070237 0.41279712
0.6097899 0.27823797 0.22539616 -0.11166052 -1.0260245 0.42003402 0.26106927 1.1945046
0.6907937 -0.26740947 -1.1690656 -0.08703395 -1.5086329 -0.0008084603 0.3058323 0.34367105
0.45592853 -1.4966711 -0.6662947 -0.15506499 -1.2162981 0.6744649 -1.9486152 -0.5448168
0.32143435 -0.948316 -0.5867607 1.8177564 0.87347215 0.04574915 -0.8554484 -0.2535017
0.42483416 -0.85744435 -0.61779094 -1.6070272 0.2759933 -1.0697649 -0.37776923 -1.4879744
-0.15520422 0.37347916 0.8386049 -0.5460342 -0.05001383 -1.596665 -0.111479916 -1.3235505
-0.8052987 0.17956586 -0.022070147 -0.16996425 0.71132284 0.34789336 -0.08204049 0.18253647
1.9047414 -0.25723207 0.30289328 2.2945771 2.2865512 -0.13943788 0.27427572 -0.3012293
0.42263567 -4.0471277 -1.2343135 -0.48754418 -0.04191128 2.1280627 1.3277084 0.10959263
-1.9460776 -1.3709903 -1.2720034 2.022846 0.8881949 0.31501782 0.032294516 -0.92285633
0.04921092 -1.1630775 -0.078480504 0.08902137 -1.559687 -0.5472997 -2.0183356 0.52693236
-1.0193702 0.059413757 -0.14472888 -0.2462178 -0.46522155 0.9314963 1.0164714 1.3032055
1.4434906 -0.9556757 1.6161649 -0.32147002 1.3644737 1.0082809 -1.5693265 1.3201071
-1.0584782 -2.790502 0.73874074 1.3008231 1.2441053 -0.7126273 -0.9301926 -1.7111508
1.8144327 -0.37223837 -0.78533965 -0.6799168 -1.5083486 1.1244409 0.69763905 -0.18603264
0.6657786 -1.2329876 -0.9721252 0.005519057 0.4813701 -0.2580166 0.48245737 -0.6391181
0.038017463 -1.6592394 0.6080699 1.4815292 0.46775183 -1.6119725 1.4256268 0.009538136
0.7419483 -0.72265434 2.8186705 -1.4928222 1.0398228 -0.94589555 1.4585602 -0.028927395
-0.25373405 -1.2494888 0.535188 -0.6330516 -0.8993171 -0.44723964 1.7331734 -1.6964362
1.1043124 0.15142255 0.95868605 -0.5468882 -0.5920993 -1.2946186 1.1983758 0.10363129
0.8994567 1.0560237 2.189802 -0.8224906 -2.916053 -3.499674 0.6568232 1.6307523
2.2521183 0.21714488 0.54045796 -1.0196259 -0.870838 2.0620046 2.3654387 -1.3293132
-0.9721626 0.6952701 -1.2485749 0.94459945 -0.38049453 0.7729213 -0.18601365 1.27561
2.2661343 0.6832429 -1.9904754 1.3443382 -0.5161226 3.7487879 1.5472407 -1.8065802
0.36675286 1.8707508 -0.92796326 0.57817304 0.007130794 1.1310533 -1.7866141 -0.9686532
-1.710841 0.26138455 -0.53160053 -0.16735977 -2.0830984 0.23778325 -1.2723 1.0506631
-0.22415304 -1.2376884 -0.8807416 0.44561422 1.8566809 -2.6523345 -0.5260522 -0.2052979
2.23731 0.4797361 -0.09602176 0.9100422 -1.033689 -1.3665198 0.97242945 0.67288464
-0.8673297 0.9437881 1.2278631 1.7668803 -1.1720725 -1.2449421 0.9662971 0.70702237
0.17928436 -0.593212 -1.0499748 0.10571672 0.40680268 -1.284762 -0.23863854 -1.8980654
00000000: 0af3 abbe ed69 10bf dea2 f63f a83e b33f
00000010: fa32 673e 9ea0 d3bd 6aad a33f 9bac 863f
00000020: 87b4 8bbe 79e8 583e 82a1 633f 9720 293f
00000030: fd95 a9be 81c0 7b3e 3632 9d3e 255a d33e
00000040: 311b 1c3f 3575 8e3e 40ce 663e 45ae e4bd
00000050: c554 83bf b30e d73e dfaa 853e 87e5 983f
00000060: dbd7 303f e5e9 88be f1a3 95bf db3e b2bd
00000070: e21a c1bf daee 53ba 0d96 9c3e a7f5 af3e
00000080: 776f e93e eb92 bfbf 4a92 2abf 5bc9 1ebe
00000090: a8af 9bbf bba9 2c3f 396c f9bf 1d79 0bbf
000000a0: 0b93 a43e d6c4 72bf f335 16bf 3eac e83f
000000b0: df9b 5f3f 7663 3b3d abfe 5abf faca 81be
000000c0: dd83 d93e 7981 5bbf 8c27 1ebf 11b3 cdbf
000000d0: fe4e 8d3e 0eee 88bf f86a c1be f275 bebf
000000e0: dbed 1ebe a938 bf3e d0ae 563f e6c8 0bbf
000000f0: 4ddb 4cbd 855f ccbf 954f e4bd 1a6a a9bf
00000100: 0e28 4ebf 1de0 373e 74cc b4bc 1c0b 2ebe
00000110: 4119 363f 141f b23e d804 a8bd d7ea 3a3e
00000120: 91ce f33f ecb3 83be d414 9b3e 5ada 1240
00000130: db56 1240 cec8 0ebe de6d 8c3e ba3a 9abe
00000140: b463 d83e 1282 81c0 fcfd 9dbf 649f f9be
00000150: 2aab 2bbd 2e32 0840 59f2 a93f 1a72 e03d
00000160: 1219 f9bf 9c7c afbf 02d1 a2bf 4f76 0140
00000170: be60 633f 044a a13e 4147 043d 5040 6cbf
00000180: 6491 493d b9df 94bf 63ba a0bd d650 b63d
00000190: d3a3 c7bf d51b 0cbf 692c 01c0 0ae5 063f
000001a0: b97a 82bf d75b 733d cf33 14be 8520 7cbe
000001b0: 8531 eebe 8b76 6e3f bc1b 823f 70cf a63f
000001c0: 4dc4 b83f 2aa7 74bf 7ede ce3f b897 a4be
000001d0: 13a7 ae3f 590f 813f b1df c8bf 45f9 a83f
000001e0: 377c 87bf 9697 32c0 1d1e 3d3f 5f81 a63f
000001f0: d83e 9f3f be6e 36bf 1a21 6ebf fd06 dbbf
00000200: 553f e83f 0796 bebe 050c 49bf 070f 2ebf
00000210: 9111 c1bf aeed 8f3f 7998 323f 577f 3ebe
00000220: 7770 2a3f 8ad2 9dbf 32dd 78bf 35d9 b43b
00000230: 2476 f63e c01a 84be a704 f73e 3e9d 23bf
00000240: 33b8 1b3d f561 d4bf 78aa 1b3f c0a2 bd3f
00000250: 2b7d ef3e 1d55 cebf f07a b63f d845 1c3c
00000260: 53f0 3d3f e0ff 38bf 1965 3440 cc14 bfbf
00000270: ea18 853f 3626 72bf 1ab2 ba3f 25f9 ecbc
00000280: 6ee9 81be 40ef 9fbf 1502 093f ab0f 22bf
00000290: a539 66bf 98fc e4be a0d8 dd3f d224 d9bf
000002a0: 1c5a 8d3f 830e 1b3e 736c 753f dd00 0cbf
000002b0: d293 17bf 10b6 a5bf 6164 993f a43c d43d
000002c0: cb42 663f c92b 873f b725 0c40 be8e 52bf
000002d0: 9da0 3ac0 a9fa 5fc0 9125 283f 7ebc d03f
000002e0: b522 1040 3a5b 5e3e 745b 0a3f 1a83 82bf
000002f0: 3def 5ebf e2f7 0340 5963 1740 ef26 aabf
00000300: a6df 78bf 39fd 313f 4dd1 9fbf 45d1 713f
00000310: 2ed0 c2be 2cde 453f 5d7a 3ebe 3047 a33f
00000320: 5808 1140 02e9 2e3f e6c7 febf 4613 ac3f
00000330: 9c20 04bf 24ec 6f40 fc0b c63f 053e e7bf
00000340: 08c7 bb3e c374 ef3f 008f 6dbf 2603 143f
00000350: 70a9 e93b 5bc6 903f c5af e4bf a8f9 77bf
00000360: d6fc dabf 32d4 853e f916 08bf 5c60 2bbe
00000370: 7c51 05c0 747d 733e bada a2bf 217c 863f
00000380: 6088 65be 936c 9ebf 4878 61bf 8c27 e43e
00000390: b8a7 ed3f d9bf 29c0 5bab 06bf 9d39 52be
000003a0: 1630 0f40 f89f f53e 0ea7 c4bd 87f8 683f
000003b0: ec4f 84bf 1fea aebf 23f1 783f 2b42 2c3f
000003c0: 5209 5ebf 199c 713f 9e2a 9d3f 2229 e23f
000003d0: 7906 96bf 435a 9fbf 3f5f 773f 6bff 343f
000003e0: 5296 373e bedc 17bf 9365 86bf 0282 d83d
000003f0: 7148 d03e 1573 a4bf a95d 74be cff3 f2bf

riemannian.proj.0.weight f4 [256, 253]
-0.36906207 -7.9845755e-05 0.05441553 -0.038470544 0.022713223 0.010458082 0.09408672 0.0055197547
0.005610442 -0.052713506 0.00660098 -0.017627923 0.027121421 0.0941957 0.061537184 -0.046634845
0.015927661 -0.008742841 -0.0070482497 -0.057886064 3.211385e-05 0.023063453 0.050274372 -0.05033257
-0.04332231 0.06759022 -0.044524424 0.024126468 0.089728326 0.028543394 0.11448795 -0.08557016
-0.111511216 -0.12230113 -0.006402448 0.068885416 -0.0055424743 0.11988149 0.044731516 0.025425505
-0.15228212 -0.11237043 -0.05214806 0.03241723 0.022711001 -0.05594178 -0.02050817 -0.011868786
-0.065274216 0.01994227 -0.030982954 0.024720186 0.04850092 0.060850415 -0.009852691 -0.02657545
0.08060135 0.02473674 -0.0152566815 0.03802105 -0.0041402075 0.039895453 0.00043473934 -0.10855906
0.035806865 -0.042731963 -0.025539292 0.028536364 -0.069041386 -0.0036367893 0.047177996 -0.0325401
0.10201288 0.043620035 -0.019514704 0.067351125 0.005736045 -0.016517248 0.08894385 -0.003920333
-0.047281545 -0.07573446 -0.07332841 0.025659747 0.019498289 0.0048181703 -0.023883538 0.007260078
-0.088541 0.095258676 0.0064864038 -0.048761196 0.003528089 0.014815162 -0.05133378 -0.049362484
0.045394193 0.04532585 0.02237554 0.07819028 0.04284142 -0.11388049 -0.07746438 0.0050416007
-0.01972205 0.041513592 -0.01936385 -0.018327853 0.094575495 0.14568561 -0.02415155 -0.014731018
-0.025405139 -0.0022156509 0.0517847 -0.036283623 0.049123023 -0.021183895 -0.066019334 -0.01116632
0.070482284 -0.09406356 0.07647358 -0.04529983 0.008011496 -0.023778424 -0.016670374 -0.006357547
0.11976747 -0.054079052 -0.028296705 0.071283765 -0.040302716 0.05281434 -0.0025201314 0.08940461
0.1186993 0.07220055 0.048754685 -0.06229122 -0.026940804 0.010649195 -0.11414859 0.04804003
0.10702904 0.03923157 0.071820736 0.007156777 0.06809763 0.085409015 0.060054198 0.053710807
0.052064665 -0.065451495 -0.101982385 -0.04824725 0.061542273 0.0013269271 0.08127029 0.04444138
0.0125260865 0.0057362104 -0.03395342 -0.020092092 -0.1294593 -0.008680424 -0.09527244 0.050097927
-0.105105504 0.0311525 -0.08953615 -0.0045017414 0.1270497 0.0065628877 -0.12347888 0.022542069
-0.03372277 -0.016984222 -0.031428605 -0.0775603 0.06764252 -0.06337967 -0.04104579 -0.069073044
0.013539765 0.07303851 -0.07471948 -0.05223739 -0.032870103 0.09411821 -0.0028105867 0.0470133
0.009491741 0.0066619706 -0.027001554 0.0023922524 0.05401126 0.0829113 0.03481291 -0.02739165
-0.054927845 -0.05611783 -0.054871015 -0.07263384 0.078155994 -0.09563012 -0.018214533 0.15913154
-0.011427101 -0.06047168 -0.02125829 -0.019204665 0.042252358 0.0037531652 -0.035062026 -0.070911355
-0.07227395 -0.011695511 0.0054426985 0.032765284 0.014773311 -0.06711007 -0.05747008 -0.08934242
0.13188635 -0.06825388 -0.057426836 -0.022137515 -0.009132793 0.107250355 -0.087965526 0.05140437
-0.046418812 0.040005103 0.020899879 0.17988914 -0.008120585 -0.063012265 -0.0479994 0.0031056353
0.030143633 -0.049164202 0.12830733 -0.025008999 -0.026867472 -0.025851527 -0.08526947 0.026168114
-0.00032674777 -0.11810658 -0.039494727 0.054797165 -0.017183062 0.1913806 0.1223593 0.034733236
00000000: b4f5 bcbe dd72 a7b8 d2e2 5e3d 4a93 1dbd
00000010: 1511 ba3c 6058 2b3c 8ab0 c03d 0fdf b43b
00000020: ccd7 b73b 1eea 57bd 094d d83b 6f68 90bc
00000030: be2d de3c ade9 c03d 6a0e 7c3d 2e04 3fbd
00000040: ba7a 823c 223e 0fbc 01f5 e6bb f019 6dbd
00000050: fcb1 0638 91ef bc3c 80ec 4d3d 8629 4ebd
00000060: bc72 31bd be6c 8a3d 3e5f 36bd dfa4 c53c
00000070: 7cc3 b73d d6d3 e93c a978 ea3d 683f afbd
00000080: fe5f e4bd 0479 fabd a0cb d1bb cc13 8d3d
00000090: a59d b5bb 6d84 f53d 6538 373d 2649 d03c
000000a0: d8ef 1bbe 7822 e6bd 3499 55bd eec7 043d
000000b0: 6c0c ba3c 3523 65bd c000 a8bc 4c75 42bc
000000c0: 7dae 85bd f95d a33c f7cf fdbc fd81 ca3c
000000d0: e7a8 463d 493e 793d 2e6d 21bc c2b4 d9bc
000000e0: 5212 a53d b4a4 ca3c 29f7 79bc f6bb 1b3d
000000f0: 94aa 87bb 6a69 233d baed e339 3654 debd
00000100: 38aa 123d b607 2fbd c737 d1bc 18c5 e93c
00000110: 9265 8dbd 3357 6ebb b73d 413d c548 05bd
00000120: 21ec d03d ecaa 323d 4ddd 9fbc 63ef 893d
00000130: 6ff5 bb3b 2e4f 87bc 3128 b63d 2376 80bb
00000140: 4baa 41bd ab1a 9bbd 352d 96bd 6434 d23c
00000150: e0ba 9f3c bee1 9d3b 69a7 c3bc f3e5 ed3b
00000160: fc54 b5bd fb16 c33d e68b d43b d2b9 47bd
00000170: 8337 673b 4bbb 723c 5f43 52bd 5130 4abd
00000180: 43ef 393d 99a7 393d e94c b73c 3a22 a03d
00000190: 7c7a 2f3d 2d3a e9bd a5a5 9ebd 0334 a53b
000001a0: 2390 a1bc 280a 2a3d f0a0 9ebc 4b24 96bc
000001b0: ccb0 c13d 9c2e 153e 79d9 c5bc 5e5a 71bc
000001c0: 701e d0bc 7434 11bb 321c 543d 239e 14bd
000001d0: 3935 493d d989 adbc 2535 87bd f1f2 36bc
000001e0: 0459 903d 65a4 c0bd 2e9e 9c3d 518c 39bd
000001f0: a642 033c f8ca c2bc 4f90 88bc f852 d0bb
00000200: a648 f53d ff81 5dbd 7ece e7bc 39fd 913d
00000210: 7614 25bd d953 583d ca28 25bb c419 b73d
00000220: 9e18 f33d e2dd 933d feb2 473d 1425 7fbd
00000230: f6b2 dcbc f679 2e3c bcc6 e9bd 9fc5 443d
00000240: 0b32 db3d 48b1 203d c016 933d 6683 ea3b
00000250: c576 8b3d ecea ae3d 64fb 753d ddff 5b3d
00000260: c241 553d 6f0b 86bd 24dc d0bd e99e 45bd
00000270: c013 7c3d 49ec ad3a 0a71 a63d 2a08 363d
00000280: 373a 4d3c d2f6 bb3b be12 0bbd 2c98 a4bc
00000290: fb90 04be 5638 0ebc 321e c3bd 7c33 4d3d
000002a0: 8e41 d7bd 8733 ff3c bb5e b7bd 5883 93bb
000002b0: 5119 023e 7e0d d73b 7fe2 fcbd 25aa b83c
000002c0: e320 0abd 7f22 8bbc 48bb 00bd efd7 9ebd
000002d0: 2988 8a3d 33cd 81bd a11f 28bd 2b76 8dbd
000002e0: e4d5 5d3c 3795 953d 8706 99bd e0f6 55bd
000002f0: cda2 06bd 0cc1 c03d d231 38bb 0591 403d
00000300: 3f83 1b3c a94c da3b 5d32 ddbc 56c7 1c3b
00000310: e93a 5d3d 66cd a93d fb97 0e3d 7464 e0bc
00000320: 05fc 60bd cfdb 65bd 6ec0 60bd 0dc1 94bd
00000330: 4010 a03d b9d9 c3bd a536 95bc 61f3 223e
00000340: bc38 3bbc 27b1 77bd de25 aebc 1a53 9dbc
00000350: cf10 2d3d aaf7 753b 339d 0fbd f939 91bd
00000360: 5d04 94bd 879e 3fbc aa58 b23b e434 063d
00000370: c20b 723c 0171 89bd bf65 6bbd 29f9 b6bd
00000380: 370d 073e b1c8 8bbd 6738 6bbd bc59 b5bc
00000390: b6a1 15bc 13a6 db3d 4527 b4bd 648d 523d
000003a0: a721 3ebd 64dc 233d 3936 ab3c dc34 383e
000003b0: 340c 05bc 930c 81bd 059b 44bd ea87 4b3b
000003c0: c8ef f63c 6760 49bd ff62 033e acdf ccbc
000003d0: 2c19 dcbc 95c6 d3bc c3a1 aebd 835e d63c
000003e0: 584f abb9 dde1 f1bd 39c5 21bd fe72 603d
000003f0: 7ec3 8cbc 47f9 433e 8397 fa3d 7044 0e3d

riemannian.proj.0.bias f4 [256]
-0.004838145 0.006806349 0.009266044 0.0015562606 0.012390581 0.012738362 -0.029321022 0.01999465
0.00435592 0.020643244 0.024845527 0.021607464 0.019505616 -0.014791238 0.013539588 0.01396766
-0.03703313 0.008626941 0.0005459582 0.031100303 -0.020282578 -0.0019511145 -0.016589696 -0.032983817
0.0019005908 -0.0009229355 -0.010628444 -0.04826852 0.0053471075 0.00304683 -0.011910421 -0.007976743
-0.0273047 -0.0075963354 -0.0020025207 -0.004348546 0.017287064 0.008501103 0.0064815194 0.0034634434
-0.008417297 0.0059160856 0.01988647 0.0051879752 -0.0037119365 -0.006076691 -0.0026027237 0.021992965
-0.0048135524 0.012545141 -0.011002254 -0.055302195 0.0028972018 -0.0036414224 -0.016075322 -0.013014069
-0.00088975823 -0.040262032 0.013736709 -0.008846024 0.006924146 -0.01670156 0.0076748943 -0.02086505
-0.007197169 -0.008779571 0.005447851 -0.013917894 0.016508505 0.024905285 0.015386971 -0.0106828585
-0.019111274 0.04974975 -0.0030972182 0.029429814 0.012568743 0.0058059674 -0.01081999 0.0076675606
-0.017715259 -0.011739629 -0.014196415 0.015360707 0.008688983 -0.0060088406 -0.01384556 -0.013774482
0.009361193 -0.00695793 -0.0060386015 0.015571744 -0.016188577 -9.145198e-05 -0.0019466723 0.00062704505
-0.00977225 0.0008718373 0.023361996 0.001646464 0.010033806 0.0139779765 0.0035126987 -0.016590782
0.016135778 0.018553896 -0.033512432 -0.0016445688 -0.0041848016 -0.016434891 -0.013080482 -0.011895063
0.04079676 -0.0014993392 0.01636879 0.008831618 0.011225722 0.0052062147 0.0048513263 0.016470954
0.030555973 -0.0005970394 0.0013011515 0.0068615684 0.012471204 -0.010033094 0.02601062 0.0089012
-0.012702292 -0.003342807 -0.06548392 0.030839045 -0.010541006 0.00811807 1.5036321e-05 -0.018548753
0.0024114032 -0.0072554704 0.0126874205 0.0032262239 -0.001629221 -0.0025751065 0.0156022245 -0.018915663
0.033380095 0.010189211 0.00010884006 -0.015560173 0.03667125 0.009285112 0.004081178 0.014177645
0.0066880984 -0.015760968 0.009722875 0.01364741 0.020147724 0.010532053 -0.011536367 0.025210021
-0.014051773 -0.007617567 0.008688703 -0.03416388 0.023625452 0.012881126 0.013850526 -0.0026432604
-0.010793967 -0.003230844 0.00082934473 -0.008634163 0.0027786442 -0.008563044 0.008719936 0.017376576
0.020662334 -0.062312737 0.008696797 0.015607559 -0.014983752 -0.0008938044 0.014919486 -0.021976367
-0.0006431862 -0.02730535 0.011044483 0.040896036 0.0065764613 -0.0031331512 0.01424051 -0.007156405
-0.0036297706 -0.0128357215 -0.0038595023 0.011016903 -0.023754623 0.020008067 0.011684541 0.00086532446
0.0095634945 -0.0033747875 -0.010503459 -0.005353143 -0.011246207 -0.006373261 0.021316791 0.010439851
-0.004277803 0.00078604306 -0.0017631011 0.012792976 -0.02172881 -0.01590825 -0.0037176947 0.0006503281
0.02439593 -0.008488612 0.013455581 -0.0036996035 0.00907893 -0.02589505 0.001217334 -0.0032345287
0.03073785 -0.00044362637 -0.020488515 -0.011189432 -0.020833075 -0.009906162 -0.006630354 0.010681973
-0.0014979491 0.039734073 -0.0039464263 -0.010660218 -0.028468885 -0.009833147 0.016696263 0.0006561402
-0.0060544605 -0.0024527875 0.0096442625 0.012187009 -0.015629826 -0.0070224158 -0.0053250673 -0.017661134
-0.004662508 -0.013115732 -0.0018007953 0.0117628975 -0.010335582 -0.012336606 -0.017133573 0.0039033317
00000000: 4d89 9ebb cb07 df3b 9bd0 173c 71fb cb3a
00000010: dd01 4b3c 90b4 503c a432 f0bc d2cb a33c
00000020: 1bbc 8e3b 051c a93c d988 cb3c 2302 b13c
00000030: 3eca 9f3c f356 72bc 26d5 5d3c 9dd8 643c
00000040: 0db0 17bd 0358 0d3c a21e 0f3a 10c6 fe3c
00000050: a627 a6bc 8abc ffba 1de7 87bc 0a1a 07bd
00000060: 3f1d f93a 27f1 71ba ed22 2ebc 36b5 45bd
00000070: ca36 af3b 53ad 473b ed23 43bc e3b0 02bc
00000080: 1bae dfbc aeea f8bb b93c 03bb 3f7e 8ebb
00000090: 9a9d 8d3c 3648 0b3c ed62 d43b f0fa 623b
000000a0: b4e8 09bc b9db c13b f3e8 a23c e4ff a93b
000000b0: f643 73bb fb1e c7bb 7592 2abb 972a b43c
000000c0: 01bb 9dbb 238a 4d3c cc42 34bc 8e84 62bd
000000d0: fbde 3d3b eea4 6ebb 65b0 83bc f638 55bc
000000e0: aa3e 69ba cde9 24bd ef0f 613c eaee 10bc
000000f0: f2e3 e23b b6d1 88bc ae7d fb3b 2eed aabc
00000100: 3bd6 ebbb 31d8 0fbc e383 b23b e107 64bc
00000110: d83c 873c 2b06 cc3c a219 7c3c 2807 2fbc
00000120: 3f8f 9cbc 65c6 4b3d b3fa 4abb cb16 f13c
00000130: 21ed 4d3c fc3f be3b 5446 31bc 2940 fb3b
00000140: 971f 91bc 9357 40bc 1598 68bc 7aab 7b3c
00000150: 3c5c 0e3c cfe5 c4bb 7dd8 62bc 5dae 61bc
00000160: b05f 193c 59ff e3bb 76df c5bb a120 7f3c
00000170: e89d 84bc e8c9 bfb8 7c27 ffba 4860 243a
00000180: ca1b 20bc 038c 643a a861 bf3c 2ace d73a
00000190: d564 243c e203 653c 4e35 663b 64e9 87bc
000001a0: 2e2f 843c 57fe 973c 5544 09bd 928e d7ba
000001b0: a920 89bb 77a2 86bc 854f 56bc 83e3 42bc
000001c0: 811a 273d 7a85 c4ba d717 863c 7eb2 103c
000001d0: 17ec 373c e598 aa3b e0f7 9e3b 18ee 863c
000001e0: 8550 fa3c a382 1cba 668b aa3a 02d7 e03b
000001f0: 0554 4c3c d961 24bc 3914 d53c 57d6 113c
00000200: 461d 50bc ff12 5bbb 6f1c 86bd 2aa2 fc3c
00000210: 2fb4 2cbc a701 053c 8244 7c37 8ef3 97bc
00000220: a208 1e3b 4cbf edbb e6de 4f3c 0e6f 533b
00000230: 968b d5ba 1ec3 28bb 79a0 7f3c 05f5 9abc
00000240: 91b9 083d a6f0 263c 1041 e438 19f0 7ebc
00000250: 9834 163d 9520 183c 67bb 853b 5a49 683c
00000260: d627 db3b 251d 81bc b24c 1f3c 6399 5f3c
00000270: d70c a53c a28e 2c3c 0803 3dbc 3f85 ce3c
00000280: 6839 66bc c99c f9bb 105b 0e3c 6def 0bbd
00000290: 2a8a c13c 5c0b 533c 51ed 623c 8d3a 2dbb
000002a0: 2ed9 30bc 91bc 53bb 6268 593a 4e76 0dbc
000002b0: ea19 363b 024c 0cbc 10de 0e3c 5259 8e3c
000002c0: 0e44 a93c a43b 7fbd 037d 0e3c d9b6 7f3c
000002d0: 697e 75bc 334e 6aba dc70 743c c807 b4bc
000002e0: 7f9b 28ba 78af dfbc ebf3 343c 9a82 273d
000002f0: 5b7f d73b 8e55 4dbb 0751 693c 4780 eabb
00000300: 72e1 6dbb eb4c 52bc b4ef 7cbb 3e80 343c
00000310: 0e99 c2bc f5e7 a33c 8470 3f3c f1d6 623a
00000320: 34b0 1c3c 8a2b 5dbb b316 2cbc 6b69 afbb
00000330: 0342 38bc cad6 d0bb 8da0 ae3c e90b 2b3c
00000340: d02c 8cbb 750e 4e3a db17 e7ba a199 513c
00000350: 9e00 b2bc 0552 82bc 91a4 73bb c87a 2a3a
00000360: f9d9 c73c d213 0bbc cc74 5c3c 0c75 72bb
00000370: cbbf 143c db21 d4bc f38e 9f3a 63fa 53bb
00000380: f2cd fb3c 8696 e8b9 88d7 a7bc e153 37bc
00000390: 20aa aabc 744d 22bc 7143 d9bb 7103 2f3c
000003a0: d556 c4ba 32c0 223d 0651 81bb 32a8 2ebc
000003b0: 9437 e9bc 351b 21bc 9ac6 883c d300 2c3a
000003c0: 7f64 c6bb f2be 20bb f802 1e3c 05ac 473c
000003d0: 1f0a 80bc 4b1c e6bb e77d aebb 15ae 90bc
000003e0: f4c7 98bb 5ee3 56bc aa08 ecba 2bb9 403c
000003f0: 9356 29bc 7a1f 4abc b55b 8cbc 0acf 7f3b

riemannian.proj.3.weight f4 [48, 256]
0.07891289 -0.10822952 -0.004381612 0.046034005 0.07424282 0.10870123 -0.0001341434 -0.0066382647
0.0054464 -0.12517107 0.05486563 0.076546155 0.0012118705 -0.09522955 0.08028336 -0.00445399
0.05825879 -0.00033379562 -0.0271506 0.032966442 -0.06686344 0.0045211148 -0.17888932 -0.052988354
-0.107695006 0.07934825 0.090003304 -0.10635616 -0.20458223 -0.026604475 -0.1822609 -0.3405732
-0.0636413 0.044088904 5.6777448e-05 0.03104875 0.08235624 -0.047700424 0.0053675463 0.012436196
-0.24664979 0.108207196 -0.10327967 0.09792414 0.049373977 -0.012029993 -0.039739445 -0.07216141
0.047635864 -0.23183535 -0.031952206 0.085121736 0.05207438 0.098168634 0.046573117 -0.1490751
0.009080104 -0.10718307 0.09367414 0.044136815 -0.19546957 -0.06799235 0.009119847 -0.1909863
-0.041452568 -0.12887444 -0.27706125 -0.16238676 -0.0902745 -0.08146232 0.027579311 -0.018668303
0.05285028 0.0128200585 -0.08441201 0.1141877 0.015162901 0.05283903 0.06056659 0.03333929
-0.10966848 0.07517282 -0.015032014 -0.07496158 -0.0049912427 0.07718582 0.044174805 -0.012875341
-0.099899836 -0.21182726 -0.216816 0.0627486 0.03136327 0.089110754 0.0046273908 -0.05442155
-0.040354688 -0.005329043 0.050140314 -0.07274784 0.038982254 0.10458906 -0.08203526 0.023437493
-0.10023281 -0.07305032 -0.042095594 -0.010121284 -0.0644803 0.07497427 -0.08119452 -0.10226084
0.07204368 0.015259256 -0.10154119 0.05509013 0.14528106 0.013379747 0.052550036 0.1294726
0.0479299 -0.0444474 0.04633866 0.012851775 0.20187227 -0.0013467483 0.2070493 0.09964923
-0.002674682 0.0035649575 -0.14660673 0.05873143 0.14192756 -0.16827591 -0.012824157 -0.13520923
-0.18328196 0.062636614 -0.004218937 0.08432523 0.22940749 0.19366513 0.07142999 0.038914002
-0.11460946 0.002767733 -0.008894052 0.045506533 0.17648278 0.027685616 0.04435666 0.051763173
-0.14262104 -0.1116198 -0.10360275 -0.20049141 0.2110295 -0.039081283 -0.07602289 -0.08696354
0.026689477 -0.05028002 0.11582743 -0.027009904 0.046223458 0.022454668 0.062897764 0.06968922
-0.06534582 -0.08019273 -0.07399144 0.07631347 -0.13860346 0.048071686 -0.07508902 0.13253841
0.03799611 -0.024348898 -0.07051582 -0.1285118 0.03648973 0.21795224 -0.02160202 -0.27854612
-0.07935505 0.046260692 -0.1557395 0.0006906435 -0.10435404 -0.19833753 -0.012674811 0.025885401
0.12478454 -0.082215406 -0.07317545 -0.10296922 -0.0037433535 0.07242947 -0.048288394 0.056867626
-0.19159882 -0.06206333 0.044628445 0.09424956 0.0139598735 -0.13084798 0.121190205 -0.02890437
0.0003727329 -0.08482297 0.08876573 -0.045815833 0.01828311 -0.13922246 -0.120683745 -0.014879124
0.097990215 -0.1177913 0.03838103 0.029254759 0.047129557 0.006434384 -0.12966406 -0.048429273
0.021043623 -0.08580122 0.068058796 0.07973625 0.036127694 0.0628945 0.123625055 0.123358145
0.27037042 -0.06736765 -0.17427874 -0.038446132 -0.09583505 -0.068735056 0.025897237 -0.14116691
0.013374947 -0.15346065 0.02469718 0.12651831 0.0545192 0.049605828 -0.1856527 0.07930533
-0.05251089 0.15693827 -0.06700083 0.19587901 0.041906394 0.031710874 -0.028220162 0.12082317
00000000: 159d a13d 70a7 ddbd a093 8fbb 278e 3c3d
00000010: 9f0c 983d c09e de3d d8a8 0cb9 cd85 d9bb
00000020: b777 b23b d82c 00be c8ba 603d 3bc4 9c3d
00000030: a0d7 9e3a b607 c3bd 9a6b a43d c7f2 91bb
00000040: c5a0 6e3d 4a01 afb9 ef6a debc d207 073d
00000050: b3ef 88bd dc25 943b c32e 37be 510a 59bd
00000060: 338f dcbd 5681 a23d a753 b83d 42d1 d9bd
00000070: 017e 51be a1f1 d9bc 9aa2 3abe 9c5f aebe
00000080: 5f56 82bd 9196 343d 5224 6e38 f359 fe3c
00000090: 63aa a83d 8561 43bd 3ee2 af3b 30c1 4b3c
000000a0: c391 7cbe bc9b dd3d 4b84 d3bd 748c c83d
000000b0: 5e3c 4a3d 7319 45bc d4c5 22bd 5cc9 93bd
000000c0: d31d 433d 3f66 6dbe 51e0 02bd 4e54 ae3d
000000d0: f24b 553d a30c c93d 74c3 3e3d 25a7 18be
000000e0: b7c4 143c cc82 dbbd 3ad8 bf3d cec8 343d
000000f0: 2d29 48be 933f 8bbd 696b 153c ea91 43be
00000100: 2bca 29bd a9f7 03be f9da 8dbe b748 26be
00000110: d6e1 b8bd b8d5 a6bd 02ee e13c 45ee 98bc
00000120: 8979 583d 390b 523c 34e0 acbd 3edb e93d
00000130: d16d 783c bd6d 583d ac14 783d c88e 083d
00000140: de99 e0bd 35f4 993d d648 76bc 7585 99bd
00000150: 948d a3bb 9913 9e3d a4f0 343d 18f3 52bc
00000160: 4998 ccbd 3fe9 58be 0305 5ebe 5782 803d
00000170: c676 003d b37f b63d 5ea1 973b 22e9 5ebd
00000180: f54a 25bd 419f aebb ee5f 4d3d d2fc 94bd
00000190: dbab 1f3d ca32 d63d 1a02 a8bd fcff bf3c
000001a0: dc46 cdbd 689b 95bd 6e6c 2cbd bed3 25bc
000001b0: 3f0e 84bd 1c8c 993d 5049 a6bd 226e d1bd
000001c0: a38b 933d f501 7a3c d4f4 cfbd 30a6 613d
000001d0: 8fc4 143e ba36 5b3c b53e 573d 7794 043e
000001e0: 2552 443d 7a0e 36bd 9bcd 3d3d 4090 523c
000001f0: 9bb7 4e3e 6085 b0ba bb04 543e e514 cc3d
00000200: b849 2fbb 10a2 693b 1320 16be 5e90 703d
00000210: 7555 113e 8550 2cbe 6a1c 52bc 4a74 0abe
00000220: 44ae 3bbe a047 803d 023f 8abb b5b2 ac3d
00000230: cce9 6a3e 2750 463e e349 923d 4a64 1f3d
00000240: 5db8 eabd db62 353b 5cb8 11bc 0f65 3a3d
00000250: e7b7 343e f2cc e23c 54af 353d 9f05 543d
00000260: 400b 12be ec98 e4bd ae2d d4bd 9f4d 4dbe
00000270: 1e18 583e b213 20bd e4b1 9bbd f119 b2bd
00000280: e4a3 da3c 6cf2 4dbd ee36 ed3d e043 ddbc
00000290: cf54 3d3d daf2 b73c 8bd0 803d 39b9 8e3d
000002a0: 07d4 85bd 163c a4bd d388 97bd 3d4a 9c3d
000002b0: 11ee 0dbe d1e6 443d 46c8 99bd 26b8 073e
000002c0: cfa1 1b3d 5777 c7bc 996a 90bd 9998 03be
000002d0: 4176 153d df2e 5f3e b8f6 b0bc 999d 8ebe
000002e0: e784 a2bd da7b 3d3d 2d7a 1fbe 4d0c 353a
000002f0: 92b7 d5bd fe18 4bbe 03aa 4fbc 9f0d d43c
00000300: 098f ff3d 8d60 a8bd 03dd 95bd 87e1 d2bd
00000310: 0d53 75bb e755 943d 0dca 45bd 07ee 683d
00000320: 7b32 44be 1e36 7ebd 51cc 363d ea05 c13d
00000330: f4b7 643c 03fd 05be 9232 f83d dbc8 ecbc
00000340: 5d6b c339 aab7 adbd cfca b53d 62a9 3bbd
00000350: 76c6 953c 5590 0ebe 0a29 f7bd 92c7 73bc
00000360: 18af c83d 913c f1bd 6d35 1d3d ada7 ef3c
00000370: ec0a 413d 86d7 d23b a8c6 04be c65d 46bd
00000380: ad63 ac3c 8db8 afbd 6962 8b3d c24c a33d
00000390: a2fa 133d d5ce 803d 222f fd3d 32a3 fc3d
000003a0: fe6d 8a3e 0df8 89bd 2076 32be b179 1dbd
000003b0: 2b45 c4bd f7c4 8cbd 7126 d43c 0f8e 10be
000003c0: 9822 5b3c ca24 1dbe be51 ca3c 048e 013e
000003d0: 864f 5f3d 7b2f 4b3d be1b 3ebe d56a a23d
000003e0: a915 57bd 6db4 203e bb37 89bd 8294 483e
000003f0: 0aa6 2b3d 43e3 013d f82d e7bc 2372 f73d

riemannian.proj.3.bias f4 [48]
0.032006644 -0.05809512 0.032804333 -0.03625387 0.015893476 -0.020826321 -0.01635097 -0.07293767
0.0027817348 -0.061054643 0.008707565 0.008646301 -0.010712987 0.06651168 0.00016561964 -0.019722609
-0.05710382 0.0077323522 -0.031678107 0.037250042 0.0017911013 0.013498761 0.035648752 0.10752529
-0.0011634568 0.033563588 -0.037785586 0.030417958 -0.052840438 -0.004932479 -0.022650369 0.06085244
0.047833808 -0.03649792 0.099249095 -0.031458367 0.027540967 -0.04143115 -0.008639935 0.012496507
0.006497919 0.038452685 0.019514821 -0.086192675 0.026492395 -0.03131861 -0.03475253 0.021127539
00000000: 6619 033d 26f5 6dbd d65d 063d f07e 14bd
00000010: 0933 823c f69b aabc 78f2 85bc 5860 95bd
00000020: c44d 363b 6f14 7abd 2daa 0e3c 37a9 0d3c
00000030: 8685 2fbc 4737 883d 2faa 2d39 4f91 a1bc
00000040: b2e5 69bd ac5f fd3b e7c0 01bd 8093 183d
00000050: 63c3 ea3a e829 5d3c 6d04 123d 3836 dc3d
00000060: 227f 98ba f979 093d 0fc5 1abd 152f f93c
00000070: 376f 58bd a2a0 a1bb 448d b9bc 6840 793d
00000080: 62ed 433d d87e 15bd 1c43 cb3d 7dda 00bd
00000090: 989d e13c b6b3 29bd 848e 0dbc 26be 4c3c
000000a0: 7fec d43b 9080 1d3d 8cdd 9f3c c985 b0bd
000000b0: 9406 d93c f147 00bd ab58 0ebd a913 ad3c

cnn.block1.0.weight f4 [16, 1, 1, 64]
-0.124920115 -0.1381748 -0.11398518 -0.062092636 -0.042612202 -0.032006 -0.0063247373 -0.034005236
-0.05086483 -0.060416453 -0.17244644 -0.14805512 -0.05129846 0.058737557 -0.07231658 -0.09488848
-0.056668174 -0.06442176 -0.10712298 -0.07066125 -0.053089608 -0.08160954 -0.095526315 0.0020709047
-0.034027793 -0.031420812 0.04956347 -0.03034552 -0.005820261 0.015007366 -0.010983122 0.06547209
-0.057735473 0.015673641 0.09115363 -0.023072228 -0.0012296021 0.036456548 -0.025706388 0.11021605
0.052105393 0.041832622 0.050035916 0.12001916 0.049921926 0.08251198 0.020037929 0.071518555
0.015510738 -0.02161561 0.060414676 -0.023037089 0.030262938 0.022410763 -0.002193987 0.042499647
0.076846786 0.04446937 0.022002906 0.044476606 -0.0003271013 -0.01939463 -0.038100105 -0.03053918
0.0769448 0.006241617 0.09141075 0.038399063 0.0014734444 0.096758515 -0.05152899 -0.08171198
-0.053215683 -0.074424155 0.002158018 -0.121577375 -0.06597472 -0.056732073 -0.102506086 -0.11934778
-0.11580488 0.010110181 -0.07038892 -0.020223029 -0.009929411 0.045007363 0.07288359 0.04687344
0.03676461 0.11583647 0.10650178 0.044242147 0.03573568 -0.02297485 0.03583256 -0.0049180975
-0.078518406 -0.07402135 -0.003963657 -0.04122593 -0.0324997 -0.14161101 -0.07293528 -0.11820525
-0.1701732 -0.08347318 -0.0048430897 -0.006729975 -0.0038829502 0.05281553 0.019591598 -0.0020214235
0.03374063 0.097325474 -0.013011594 0.030402172 0.009526685 0.057255756 0.007950496 -0.013182161
0.021633327 -0.08457443 -0.025591204 -0.037579305 -0.077230655 -0.05059703 -0.11056047 -0.06465223
-0.018566841 -0.004016624 0.02517972 0.0023589323 0.05648372 0.0755509 0.035138987 0.0047906493
0.011707446 -0.017087268 -0.042491794 -0.05084807 -0.073965214 -0.07271785 -0.042352956 -0.06954539
-0.048689045 0.018954873 0.011747307 0.029175986 0.06679709 0.082113944 0.100191005 0.10746141
0.07594872 0.0748848 0.029006654 -0.03649909 -0.026147509 -0.053921662 -0.120529056 -0.12331357
-0.07353955 -0.09215026 -0.010020579 -0.038777772 -0.009596616 0.044966653 0.08147198 0.043877035
0.08182415 0.13226357 0.09496943 0.07007955 0.044023793 -0.0077991937 -0.0046843095 -0.034015227
-0.078700416 -0.075277075 -0.114491925 -0.104482345 -0.060166538 -0.0308813 0.011891296 0.0065453486
0.015807003 0.07417043 0.090221435 0.07455161 0.054461367 0.039240144 0.00024779115 -0.06239755
-0.006714368 0.07962579 0.0011456775 -0.007627247 -0.04530716 -0.062589206 0.023087941 0.029608013
0.03961969 0.06189824 0.070027106 -0.0011013687 -0.042167008 -0.10992251 -0.07007889 0.031155808
0.08769471 0.10568327 0.12872976 -0.05023688 -0.09908452 -0.10370953 -0.14416224 0.05710895
0.09821571 0.041553743 0.13339812 0.06061644 -0.050668634 -0.0804324 -0.14185724 -0.076744914
0.032718483 0.073045775 0.09865649 0.13828714 -0.08758212 -0.042693328 -0.074360326 -0.11328848
-0.010466708 0.050815012 -0.018007219 0.13284767 0.025485 -0.032865316 0.017090622 -0.06751433
-0.11975229 0.053531986 -0.02534341 0.029917806 -0.016333083 -0.007125719 0.02433147 -0.0003720322
-0.02445238 -0.02984964 -0.0403045 0.02360674 -0.01671805 0.055423066 -0.052480023 -0.006000502
00000000: 1ed6 ffbd b27d 0dbe 1071 e9bd d954 7ebd
00000010: 228a 2ebd b918 03bd be3f cfbb 1349 0bbd
00000020: a457 50bd 3e77 77bd cd95 30be c39b 17be
00000030: 561e 52bd cb96 703d b71a 94bd e454 c2bd
00000040: e31c 68bd 8eef 83bd 4b63 dbbd d8b6 90bd
00000050: 7d74 59bd e722 a7bd 4da3 c3bd 04b8 073b
00000060: ba60 0bbd 1cb3 00bd 1103 4b3d 2b97 f8bc
00000070: e3b7 bebb 75e1 753c 8df2 33bc 3b16 863d
00000080: 087c 6cbd 0266 803c c1ae ba3d f801 bdbc
00000090: 9a2a a1ba 7653 153d 3496 d2bc f4b8 e13d
000000a0: 776c 553d af58 2b3d 76f2 4c3d 9bcc f53d
000000b0: ef7a 4c3d 0afc a83d 9526 a43c 5278 923d
000000c0: c020 7e3c 3813 b1bc 6175 773d 47b8 bcbc
000000d0: fbe9 f73c c796 b73c fec8 0fbb 1c14 2e3d
000000e0: d961 9d3d 8425 363d 703f b43c 1a2d 363d
000000f0: cb7e abb9 7de1 9ebc db0e 1cbd 4d2d fabc
00000100: 3c95 9d3d 7a86 cc3b 8f35 bb3d 5648 1d3d
00000110: 9720 c13a 5429 c63d 1010 53bd 9c58 a7bd
00000120: b0f8 59bd b16b 98bd 896d 0d3b 8ffd f8bd
00000130: c11d 87bd e45f 68bd b6ee d1bd 9c6c f4bd
00000140: 1c2b edbd 2ca5 253c 1128 90bd c4aa a5bc
00000150: f8ae 22bc a459 383d fe43 953d 5dfe 3f3d
00000160: 7d96 163d ac3b ed3d 9b1d da3d 4137 353d
00000170: 945f 123d c135 bcbc 2ac5 123d fe27 a1bb
00000180: 42ce a0bd 8198 97bd 91e1 81bb 85dc 28bd
00000190: 681e 05bd 7a02 11be 185f 95bd 9815 f2bd
000001a0: e241 2ebe fdf3 aabd c8b2 9ebb 1f87 dcbb
000001b0: 1879 7ebb 1955 583d 8f7e a03c dc79 04bb
000001c0: 9d33 0a3d 9452 c73d 952e 55bc fa0d f93c
000001d0: d015 1c3c 0385 6a3d cc42 023c fef9 57bc
000001e0: 6038 b13c 5c35 adbd a5a4 d1bc c2ec 19bd
000001f0: 1b2b 9ebd d53e 4fbd 876d e2bd 6368 84bd
00000200: 7d19 98bc e29d 83bb b345 ce3c 5198 1a3b
00000210: 795b 673d 6eba 9a3d e6ed 0f3d e1fa 9c3b
00000220: 96d0 3f3c 99fa 8bbc e00b 2ebd 1146 50bd
00000230: 137b 97bd 19ed 94bd 4b7a 2dbd d06d 8ebd
00000240: 2a6e 47bd 4047 9b3c c777 403c 7a02 ef3c
00000250: eacc 883d 5b2b a83d f130 cd3d ba14 dc3d
00000260: 018b 9b3d 345d 993d 5d9f ed3c 1280 15bd
00000270: 4d33 d6bc f6dc 5cbd f0d7 f6bd d38b fcbd
00000280: e79b 96bd 47b9 bcbd 5b2d 24bc 71d5 1ebd
00000290: 203b 1dbc f42e 383d c8da a63d 68b8 333d
000002a0: 6c93 a73d 1a70 073e 557f c23d de85 8f3d
000002b0: 4b52 343d 6190 ffbb d67e 99bb 8d53 0bbd
000002c0: af2d a1bd de2a 9abd be7a eabd d7fa d5bd
000002d0: 3071 76bd c8fa fcbc b6d3 423c 5d7a d63b
000002e0: b07d 813c abe6 973d 04c6 b83d 84ae 983d
000002f0: e212 5f3d 46ba 203d f7e9 8139 9394 7fbd
00000300: 3304 dcbb d912 a33d 8f2a 963a fced f9bb
00000310: 0094 39bd c52e 80bd ec22 bd3c 818c f23c
00000320: 4248 223d 0289 7d3d 5f6a 8f3d cd5b 90ba
00000330: 50b7 2cbd 0e1f e1bd 8585 8fbd 773a ff3c
00000340: 4999 b33d 7870 d83d bcd1 033e 30c5 4dbd
00000350: d3ec cabd a965 d4bd 449f 13be 13eb 693d
00000360: 5125 c93d 4234 2a3d 8499 083e f248 783d
00000370: ea89 4fbd beb9 a4bd 0643 11be 702c 9dbd
00000380: d103 063d 0699 953d 6a0c ca3d 259b 0d3e
00000390: 415e b3bd 33df 2ebd 3a4a 98bd ca03 e8bd
000003a0: 8e7c 2bbc 6723 503d e083 93bc 3809 083e
000003b0: ebc5 d03c c89d 06bd a201 8c3c f444 8abd
000003c0: b040 f5bd 5b44 5b3d fc9c cfbc 3016 f53c
000003d0: f5cc 85bc dd7e e9bb ca52 c73c 510d c3b9
000003e0: 5c50 c8bc 3b87 f4bc 5516 25bd ec62 c13c
000003f0: 4bf4 88bc 4c03 633d 4bf5 56bd dc9f c4bb

cnn.block1.1.weight f4 [16]
1.0116931 1.2631483 1.8474892 1.4886382 1.3615224 1.2302333 1.6681671 1.472238
1.4933196 1.178367 1.8298537 1.8674362 1.1065578 1.2896142 1.1630676 1.331117
00000000: 297f 813f d8ae a13f 877a ec3f b28b be3f
00000010: 5e46 ae3f 4978 9d3f 8086 d53f 4b72 bc3f
00000020: 1925 bf3f bbd4 963f a538 ea3f 2608 ef3f
00000030: b0a3 8d3f 1412 a53f 66df 943f 0b62 aa3f

cnn.block1.1.bias f4 [16]
0.0021446927 0.018306179 0.003346917 -0.026849972 0.013307936 0.011847767 -0.010678292 -0.0037080378
0.0015570027 -0.009098859 -0.012890114 0.012766241 0.015875291 0.02081668 -0.004143107 0.0029550917
00000000: f98d 0c3b d7f6 953c f357 5b3b 79f4 dbbc
00000010: 8709 5a3c 231d 423c 01f4 2ebc 8d02 73bb
00000020: 5714 cc3a 6113 15bc 0f31 53bc 7f29 513c
00000030: e60c 823c be87 aa3c e7c2 87bb 36aa 413b

cnn.block1.1.running_mean f4 [16]
-0.002101998 -0.0011815447 0.00032036492 2.5098225e-05 -0.0044333735 0.0015592605 0.0033276095 0.00030052205
-0.0023907581 0.0014383662 -3.4204033e-05 -0.00037975266 0.00028219694 -0.0024933333 -0.0039330604 0.004224854
00000000: adc1 09bb 10de 9aba a7f6 a739 078a d237
00000010: d545 91bb 1a60 cc3a 0614 5a3b 638f 9d39
00000020: 44ae 1cbb 9087 bc3a 4d76 0fb8 8a19 c7b9
00000030: d5f3 9339 3167 23bb e7e0 80bb a570 8a3b

cnn.block1.1.running_var f4 [16]
1.1171721 1.3061711 0.7634571 0.41618973 2.296517 1.0736657 1.6807733 0.65847194
1.097984 0.9361111 0.46793038 1.0586815 0.87979877 1.6056248 2.0796866 2.1735811
00000000: 7fff 8e3f 9d30 a73f ed71 433f d216 d53e
00000010: 22fa 1240 e16d 893f 9423 d73f 9e91 283f
00000020: bd8a 8c3f faa4 6f3f 9294 ef3e e082 873f
00000030: 7e3a 613f 1d85 cd3f 9619 0540 f41b 0b40

cnn.block1.2.weight f4 [32, 1, 22, 1]
0.031867232 0.023323264 -0.038058814 -0.10610412 -0.05033659 0.034172677 0.12466275 -0.031134443
-0.020138163 -0.06938515 -0.016501924 0.010708552 -0.036566846 -0.09796915 0.08419164 0.01655124
0.09811156 0.08951476 -0.15376814 -0.013622092 0.103056684 0.17713274 -0.051853616 0.06506389
-0.003984503 0.0058322446 -0.107688576 0.008614607 0.030398143 0.15276687 0.110460356 -0.06620828
0.051054843 0.047427963 0.0636998 0.12527353 0.095371775 -0.082839034 -0.041198943 0.024812996
-0.07593368 -0.10263054 -0.20432614 -0.12192214 -0.022612935 0.07389639 -0.102615066 -0.006588728
-0.060557134 -0.070835896 -0.06257 -0.053545274 -0.017004045 0.030763553 -0.03977426 0.015609304
-0.043042526 0.21635824 0.03603058 0.020548988 0.19824794 0.08662162 0.059915792 -0.015118933
0.031355925 -0.17526275 0.012488341 0.0019003121 -0.033623166 0.12695323 -0.033594176 -0.05131718
-0.087799504 -0.1429068 0.017590366 -0.004463281 0.06202316 0.008992811 0.08950593 0.06564682
0.092661425 0.018116804 -0.09265248 -0.010614518 0.065776356 0.026295058 0.014344151 -0.13534628
0.096824266 0.19953045 -0.036295205 -0.022391396 -0.022607043 0.048569474 -0.06598494 0.03560521
0.022985304 -0.014634085 0.0026644857 -0.12614766 -0.21160215 -0.103024475 0.043062404 -0.034231715
0.060770072 0.018146683 0.0043862453 0.05907142 0.10536247 -0.051253434 -0.026876347 0.14200264
0.010428606 0.0017676633 -0.12742984 0.066932835 -0.019936727 0.14073 -0.18877523 0.052915115
-0.10021799 -0.012964245 -0.048341323 0.055321228 -0.08432871 0.051150672 0.036430474 0.038418353
-0.03787322 0.029636985 0.01438816 0.107135065 -0.009263643 -0.020507287 0.1025417 0.058096133
0.018917939 -0.009122472 -0.041160915 0.10689808 0.023556104 -0.27086243 -0.01724111 0.08057872
-0.0076812548 -0.02762329 0.022082705 -0.09222522 0.023490505 -0.039128058 -0.017387787 0.009458257
0.13204223 -0.0381099 -0.06296073 0.12803924 0.0337288 0.066984616 0.05714714 -0.015684932
-0.0025245415 -0.037292823 0.054224297 -0.13894138 -0.12207418 -0.042124882 0.0525907 -0.0061000916
-0.051546093 -0.081878595 -0.013389125 0.0639539 0.022275353 -0.008989426 0.1464891 0.101929694
-0.066184096 0.043739848 -0.05137455 -0.022221796 0.026619008 -0.014642735 -0.057571262 -0.048025906
0.11431414 0.0005987059 0.19224803 -0.10140346 -0.005522584 -0.029411467 0.003224329 0.0773963
-0.048396297 -0.026061282 0.07559661 0.12875403 -0.07404915 -0.19009593 0.006688602 -0.10760408
-0.037730716 -0.004030429 0.026866348 0.04849827 0.16876546 -0.0820729 -0.02072396 -0.02928961
0.0061453795 0.046539325 0.045709845 0.067857005 0.023009341 -0.065385565 -0.08820393 -0.028066937
0.0122983325 -0.019336397 -0.007958209 0.1979697 0.0257404 0.13226885 -0.05585096 -0.074228585
0.015786521 0.14602199 -0.032364476 0.06463382 -0.09064596 -0.037915837 -0.0798384 0.10559943
0.08842851 0.19296864 -0.0022039386 -0.11975255 0.04152514 0.010155319 0.063191034 -0.045605052
-0.027048152 -0.019379271 0.052838378 -0.14645852 -0.040399883 0.07605266 -0.023196992 0.016549878
-0.033963803 0.07187263 -0.09081326 0.03511195 0.07106436 -0.0117882015 -0.10073869 0.0014657842
00000000: 3787 023d 6e10 bf3c 8fe3 1bbd 1e4d d9bd
00000010: bd2d 4ebd a6f8 0b3d 2f4f ff3d a90d ffbc
00000020: caf8 a4bc cd19 8ebd 0b2f 87bc ec72 2f3c
00000030: 1ec7 15bd 0da4 c8bd ab6c ac3d 7796 873c
00000040: b7ee c83d 8453 b73d 6575 1dbe 322f 5fbc
00000050: 620f d33d 4962 353e 7564 54bd 3740 853d
00000060: 6f90 82bb 6a1c bf3b d48b dcbd 4824 0d3c
00000070: 8705 f93c eb6e 1c3e 0a39 e23d 3598 87bd
00000080: e21e 513d d343 423d 0a75 823d b447 003e
00000090: 4752 c33d 83a7 a9bd 39c0 28bd a044 cb3c
000000a0: 1e83 9bbd f62f d2bd df3a 51be 51b2 f9bd
000000b0: c33e b9bc fe56 973d d927 d2bd 42e6 d7bb
000000c0: c20a 78bd 6912 91bd b324 80bd 4a52 5bbd
000000d0: 114c 8bbc d903 fc3c 56ea 22bd 2bbe 7f3c
000000e0: 5c4d 30bd 048d 5d3e cd94 133d 5a56 a83c
000000f0: 8201 4b3e ad66 b13d 436a 753d 67b5 77bc
00000100: 126f 003d 1478 33be e69b 4c3c e513 f93a
00000110: 72b8 09bd 0700 023e 0c9a 09bd f731 52bd
00000120: 3ad0 b3bd 2956 12be ac19 903c b740 92bb
00000130: ff0b 7e3d 9556 133c e34e b73d d771 863d
00000140: 46c5 bd3d b169 943c 95c0 bdbd 84e8 2dbc
00000150: c1b5 863d bc68 d73c bb03 6b3c 3798 0abe
00000160: cd4b c63d b651 4c3e 48aa 14bd 296e b7bc
00000170: 6832 b9bc c9f0 463d 1d23 87bd c5d6 113d
00000180: ad4b bc3c cdc3 6fbc a79e 2e3b da2c 01be
00000190: 3cae 58be 7ffe d2bd 3462 303d 8e36 0cbd
000001a0: 0aea 783d 5aa8 943c 7eba 8f3b e0f4 713d
000001b0: 47c8 d73d 1fef 51bd c92b dcbc 2469 113e
000001c0: bedc 2a3c f0b0 e73a f87c 02be 1514 893d
000001d0: 5952 a3bc 861b 103e 4b4e 41be 85bd 583d
000001e0: 173f cdbd fc67 54bc 8d01 46bd 8398 623d
000001f0: 88b4 acbd 5e83 513d 1f38 153d 905c 1d3d
00000200: f320 1bbd 43c9 f23c 51bc 6b3c a169 db3d
00000210: 89c6 17bc e6fe a7bc 6201 d23d 36f6 6d3d
00000220: cbf9 9a3c 6c76 15bc 5998 28bd 61ed da3d
00000230: bbf8 c03c 7bae 8abe 3a3d 8dbc 7506 a53d
00000240: 09b3 fbbb 3d4a e2bc cae6 b43c 93e0 bcbd
00000250: 296f c03c be44 20bd d570 8ebc cef6 1a3c
00000260: 1436 073e 2019 1cbd 8ef1 80bd b81c 033e
00000270: 3627 0a3d 3b2f 893d 1f13 6a3d b07d 80bc
00000280: c772 25bb 5cc0 18bd 4c1a 5e3d a646 0ebe
00000290: 0702 fabd 248b 2cbd 5969 573d 47e3 c7bb
000002a0: ff21 53bd f7af a7bd 0f5e 5bbc 43fa 823d
000002b0: cd7a b63c 6348 13bc 3d01 163e 84c0 d03d
000002c0: 878b 87bd 8e28 333d 1f6e 52bd 7c0a b6bc
000002d0: 1b10 da3c 15e8 6fbc d8cf 6bbd d0b6 44bd
000002e0: 881d ea3d 79f2 1c3a abdc 443e 9eac cfbd
000002f0: cbf6 b4bb 51f0 f0bc 444f 533b f481 9e3d
00000300: 323b 46bd 787e d5bc 65d2 9a3d 19d8 033e
00000310: 15a7 97bd 82a8 42be 0f2c db3b 875f dcbd
00000320: 868b 1abd b011 84bb d116 dc3c 1fa6 463d
00000330: dad0 2c3e d615 a8bd 4bc5 a9bc c4f0 efbc
00000340: 2e5f c93b 05a0 3e3d 3f3a 3b3d 9df8 8a3d
00000350: 167e bc3c dee8 85bd 43a4 b4bd a2ec e5bc
00000360: f27e 493c 5d67 9ebc 2663 02bc 92b8 4a3e
00000370: 88dd d23c 7c71 073e fac3 64bd 2805 98bd
00000380: bc52 813c ca86 153e 9d90 04bd bc5e 843d
00000390: 97a4 b9bd a34d 1bbd 5182 a3bd 8444 d83d
000003a0: 021a b53d 9299 453e f46f 10bb d340 f5bd
000003b0: 4416 2a3d 7f62 263c 4d6a 813d 5dcc 3abd
000003c0: 1694 ddbc 47c1 9ebc 0e6d 583d 39f9 15be
000003d0: 597a 25bd 7fc1 9b3d 9e07 bebc 9c93 873c
000003e0: a11d 0bbd f531 933d 4dfc b9bd 8cd1 0f3d
000003f0: 318a 913d 4d23 41bc 1650 cebd 8e1f c03a

cnn.block1.3.weight f4 [32]
1.075515 0.46665263 1.5149167 1.2049292 1.7249374 2.052176 1.6825814 0.7503914
1.4009463 1.1356578 0.9400581 1.2305188 1.7820908 1.1098853 0.91039085 1.6911755
1.6000677 1.1400224 1.2048656 0.99118954 1.4480754 1.9615664 1.5118271 2.0186918
0.9981892 1.1104007 1.406454 0.90552723 1.0562066 1.5803006 1.0480009 1.3379639
00000000: 7aaa 893f 18ed ee3e cae8 c13f 1f3b 9a3f
00000010: c0ca dc3f da56 0340 d45e d73f a719 403f
00000020: 3552 b33f 3c5d 913f a6a7 703f a481 9d3f
00000030: 8d1b e43f b910 8e3f 600f 693f 7078 d83f
00000040: 05cf cc3f 41ec 913f 0939 9a3f 99be 7d3f
00000050: 895a b93f 9c14 fb3f 8d83 c13f 3f32 0140
00000060: 5489 7f3f 9c21 8e3f af06 b43f a2d0 673f
00000070: c731 873f 4a47 ca3f e524 863f 6742 ab3f

cnn.block1.3.bias f4 [32]
-0.18186106 -0.039816465 -0.49461123 -0.1503835 -0.7401053 -0.74806124 -0.53991413 -0.12370754
-0.3347247 -0.38022372 -0.15710732 -0.31087402 -0.2554063 -0.30362839 -0.13959546 -0.5884171
-0.44655854 -0.3099911 -0.3211686 -0.12298637 -0.5092851 -0.72623944 -0.35953116 -0.87773895
-0.18373896 -0.22637162 -0.46083906 -0.18835177 -0.24310263 -0.30548722 -0.08674975 -0.36715493
00000000: c939 3abe 9716 23bd af3d fdbe 22fe 19be
00000010: 8a77 3dbf f180 3fbf d037 0abf 615a fdbd
00000020: 0961 abbe afac c2be bee0 20be e12a 9fbe
00000030: 9dc4 82be 2e75 9bbe 1df2 0ebe 81a2 16bf
00000040: 52a3 e4be 27b7 9ebe 3670 a4be 47e0 fbbd
00000050: 8260 02bf d4ea 39bf 7814 b8be 80b3 60bf
00000060: 1126 3cbe f6cd 67be 19f3 ebbe 49df 40be
00000070: e5ef 78be d268 9cbe daa9 b1bd bbfb bbbe

cnn.block1.3.running_mean f4 [32]
0.0006739796 -0.0006151623 0.0021492515 8.2365645e-05 -0.00082649064 -1.9653457e-05 0.00019093053 -0.0035383047
-0.004443171 0.00054832356 0.0041663107 -0.00078808627 -0.0005890373 0.0041904612 -0.00047732555 -0.00037886295
-0.0031670865 0.001931415 -0.0005191561 -0.0021340447 0.00022237243 5.557317e-05 0.0042942287 -0.0011183446
-0.0064969272 -0.0010531422 -0.0073467433 -0.0062459954 0.0047311815 -0.00453826 -0.006690966 0.0024920672
00000000: 01ae 303a d842 21ba 75da 0c3b b8bb ac38
00000010: d9a8 58ba 7add a4b7 8634 4839 e7e2 67bb
00000020: 0598 91bb 5fbd 0f3a 8c85 883b 9397 4eba
00000030: a069 1aba 2350 893b 8d41 fab9 20a2 c6b9
00000040: e58e 4fbb 8927 fd3a fa17 08ba 54db 0bbb
00000050: a52c 6939 3d17 6938 9ab6 8c3b 6b95 92ba
00000060: 2de4 d4bb 9709 8aba f3bc f0bb 35ab ccbb
00000070: 0708 9b3b afb5 94bb e43f dbbb f351 233b

cnn.block1.3.running_var f4 [32]
0.027451357 0.058241967 0.05122473 0.016118543 0.06726832 0.05860159 0.017251676 0.046357606
0.016681124 0.02559527 0.09643508 0.01730491 0.022307446 0.16880915 0.06692479 0.04167204
0.04076423 0.010427716 0.02068533 0.015182237 0.018128162 0.014999355 0.22168404 0.0461045
0.12337171 0.049239125 0.012086455 0.02330048 0.020072646 0.07816346 0.04319339 0.020283174
00000000: abe1 e03c 218f 6e3d 06d1 513d 090b 843c
00000010: f9c3 893d 3908 703d 6353 8d3c 79e1 3d3d
00000020: daa6 883c 2cad d13c c17f c53d 07c3 8d3c
00000030: 1bbe b63c 4edc 2c3e dd0f 893d 4db0 2a3d
00000040: 65f8 263d 03d9 2a3c 4874 a93c ebbe 783c
00000050: 8381 943c dbbf 753c 2401 633e 12d8 3c3d
00000060: 4faa fc3d f7ae 493d 4406 463c a6e0 be3c
00000070: 646f a43c 2a14 a03d 8deb 303d e628 a63c
