models/2a_subject specific/model_4.pth (torch, 985978 bytes, 93 tensors)

fusion_proj f4 [48, 48]
0	0x3e86c8ab	0.26324973
1	0x3fc40732	1.5314696
2	0xbf5bacf1	-0.8581076
3	0xbe17ec70	-0.14836287
4	0x3c8854ea	0.016642053
5	0x3f70ec34	0.9411042
6	0x3f1ebc0e	0.620057
7	0xbfe241da	-1.7676346
8	0x3ec3e9aa	0.3826421
9	0x3f5688cb	0.8380248
10	0x3fd62c3a	1.6732247
11	0x3fc03ba0	1.5018196
12	0x3f15d85d	0.5853327
13	0xbf53e3a6	-0.8276924
14	0x3fdbb1d8	1.7163649
15	0xbe77f9c3	-0.2421637
16	0x3fb85073	1.4399551
17	0xbeb11f30	-0.34594107
18	0xbe54a107	-0.20764552
19	0xbf087349	-0.5330091
20	0x3f22802d	0.6347683
21	0xbf03f209	-0.5154119
22	0xbfca37f0	-1.5798321
23	0xbfd2bda2	-1.6464121
24	0x3e7ea056	0.24865851
25	0x3f97c630	1.1857357
26	0x3fb30a03	1.398743
27	0xbf7bfee5	-0.98435813
28	0x3f76e3d6	0.964414
29	0xbe244362	-0.1604133
30	0x3fa9e371	1.3272535
31	0xbf1e69d1	-0.61880213
32	0xbedf0901	-0.43561557
33	0x3ef667b2	0.48125988
34	0x3e8efa78	0.27925467
35	0xbea13212	-0.31483513
36	0xbd775d52	-0.06039173
37	0x3fad18a2	1.3523142
38	0xbec7ca27	-0.39021417
39	0xbd26ce9e	-0.04072439
40	0x3f197f73	0.599601
41	0x3f4f73a0	0.81035805
42	0xbe66b588	-0.22530186
43	0x3c5edd4f	0.013602569
44	0xbf8abdd8	-1.0839186
45	0x3f754eb0	0.9582319
46	0x3f528d8a	0.8224722
47	0x3e9a2847	0.30108854
48	0x3f17b5bf	0.592617
49	0xbf2a1eaa	-0.6645304
50	0x3f0f1881	0.55896765
51	0x3e38a49b	0.18031542
52	0xbf52a838	-0.8228793
53	0x3eb7c1ba	0.3588999
54	0x3f89368a	1.0719769
55	0x402087b3	2.5082824
56	0xc009b395	-2.1515858
57	0xbe86eea7	-0.26353952
58	0x3ea2700b	0.31726107
59	0xbc89aefc	-0.016807072
60	0x3ea4b60e	0.32170147
61	0xbfc64db3	-1.5492462
62	0x3e9f050e	0.31058544
63	0x3fac3934	1.3454957
64	0xbfe14bea	-1.7601292
65	0xbe82a92c	-0.25519693
66	0x3ee24787	0.44195196
67	0xbf9c57ed	-1.2214333
68	0xbf02197e	-0.5082015
69	0x3f9fdcb5	1.248923
70	0x3f76a719	0.9634872
71	0xbfd9a143	-1.7002338
72	0x3fa01a8c	1.2508101
73	0xbf811a4c	-1.008615
74	0xbfa0e8f8	-1.2571096
75	0x3f8d4a13	1.1038231
76	0xbd0926a5	-0.03348412
77	0x3fc98e82	1.5746615
78	0xbf965ace	-1.1746461
79	0xbff684c6	-1.9259269
80	0xbf244098	-0.6416106
81	0x3ff02c82	1.8763583
82	0x3e665ff5	0.22497542
83	0x3f41f48c	0.75763774
84	0x3eccebc0	0.40023613
85	0xbf801fd3	-1.0009712
86	0xbe3fc59d	-0.18727727
87	0xbe8d758c	-0.27628744
88	0x3eabf15a	0.33582574
89	0x3ef07787	0.46966192
90	0xbf64468a	-0.89170134
91	0x3ee36a5d	0.44417086
92	0x3e1826da	0.1485857
93	0xbe284842	-0.16433814
94	0xbfadf0f3	-1.3589157
95	0xbfe515e2	-1.7897303
96	0x4004a133	2.0723388
97	0xbc8c9aa8	-0.01716359
98	0x3fe6455e	1.7989919
99	0xbf178faf	-0.5920362
100	0x3eabde29	0.33567932
101	0xbe9ab009	-0.3021243
102	0x3e3aeed6	0.18255171
103	0xbff11c4d	-1.8836762
104	0xbee90abf	-0.4551601
105	0x3fcd1a81	1.6023713
106	0xbe11bff1	-0.14233376
107	0x3f2adaa3	0.66739863
108	0xbf849820	-1.0358925
109	0x3ebaa6c5	0.3645536
110	0xbf2c0edf	-0.6721019
111	0x3dc0b626	0.09409742
112	0x3facc428	1.3497362
113	0x3f38fbce	0.72259223
114	0xbf086462	-0.5327817
115	0xbdd7bf7d	-0.1053457
116	0xbd8ecc6e	-0.069725856
117	0x4009f330	2.155468
118	0xc007e1c0	-2.1231537
119	0xbf1a80a1	-0.6035252
120	0x3fa9c5a9	1.3263446
121	0xbffd9d36	-1.9813602
122	0x3f8d42d0	1.1036015
123	0xbeb8537d	-0.36001197
124	0x3f9012d2	1.1255744
125	0xc0180bcd	-2.3757203
126	0xbe8bec20	-0.27328587
127	0x3f801e18	1.0009184
128	0x3f563630	0.83676434
129	0xbfe04303	-1.752045
130	0x3f9f84b3	1.2462372
131	0x3f090371	0.53520876
132	0xbd7a6190	-0.0611282
133	0x3e99c0dc	0.30029953
134	0x3e5547f8	0.20828235
135	0xbe9fce16	-0.3121192
136	0x3f723604	0.9461367
137	0xbeb14354	-0.3462168
138	0xbdc73cbb	-0.0972838
139	0x3e121538	0.14265907
140	0xbf8b0e0c	-1.0863662
141	0xbddf18d6	-0.10893409
142	0x3e25a7e1	0.16177322
143	0xbee1fbb6	-0.44137353
144	0x3f21f6b9	0.63267094
145	0xbfcd5cf6	-1.6043994
146	0xbfc92b5c	-1.5716357
147	0xbdd308de	-0.10304426
148	0x3f9688b2	1.1760466
149	0xbeef6d2e	-0.46762985
150	0xbf341646	-0.70346487
151	0x3faf9bcd	1.3719422
152	0x3c880436	0.01660357
153	0x3e01f07a	0.12689391
154	0xbdd1c698	-0.10242957
155	0x3f2f1217	0.6838698
156	0x3f456abd	0.77115995
157	0x3ebba80e	0.36651653
158	0xbfc5e83b	-1.5461496
159	0x3ff62223	1.9229168
160	0xbfdc0ae4	-1.7190824
161	0xbdd52293	-0.10406985
162	0x3f247da2	0.642542
163	0x3fd9898f	1.6995105
164	0xbcb47803	-0.022029882
165	0xbe19cdc6	-0.15019903
166	0x3f0ea688	0.55722857
167	0x3edd54bb	0.43228707
168	0xbfb6f439	-1.4293281
169	0xbdbecb51	-0.09316123
170	0xbc891c55	-0.016737143
171	0xbf50fa56	-0.8163198
172	0xbf093b8d	-0.5360649
173	0x3f9d8daa	1.2308857
174	0xbf36cef9	-0.71409565
175	0x3e866392	0.2624784
176	0xbf51226a	-0.81693137
177	0x3f0806a6	0.53135145
178	0x3d16e422	0.03683866
179	0xbddddabf	-0.10832738
180	0xbfbfa8f3	-1.4973434
181	0xbf76a4ad	-0.96345025
182	0x3fcdb8ee	1.6072061
183	0xbfeb767d	-1.8395535
184	0x402bf8f8	2.6870708
185	0x3eb96294	0.36208022
186	0x3e818ba4	0.2530185
187	0xbf872b6e	-1.0560129
188	0xbf6b93ad	-0.9202221
189	0x3e5f4647	0.21804152
190	0x3f1917a3	0.5980169
191	0x3e850792	0.25982338
192	0x3f4fddfb	0.8119809
193	0x3f01e9d4	0.5074742
194	0x3fb98194	1.4492669
195	0xbf5a27b6	-0.85216844
196	0x3e40c3ba	0.18824664
197	0x3e2a78c5	0.16647632
198	0xbf6f0fa9	-0.9338327
199	0xbf5c9a4c	-0.8617294
200	0x3ffb9ef4	1.9657884
201	0x402ae034	2.6699343
202	0x3e8c93ff	0.27456662
203	0x3c69ea8a	0.01427711
204	0xbe756a25	-0.23966272
205	0xbeaab10d	-0.33338204
206	0x3f114b92	0.56755936
207	0x3ec2b2de	0.3802709
208	0x3f57a514	0.84236264
209	0x3f733ce9	0.95014817
210	0xbeea18f0	-0.4572215
211	0xbf37f16e	-0.7185277
212	0x3d3c056f	0.04590362
213	0xbf14b1fc	-0.5808408
214	0x3fdbcb6e	1.7171457
215	0xbf7b27dc	-0.98107696
216	0xbfc2049f	-1.515766
217	0xbf58e1ee	-0.8471974
218	0xbf874a0b	-1.0569471
219	0xbea05bcb	-0.31320032
220	0x3ed8a8bd	0.42316237
221	0xbffbba0e	-1.9666154
222	0xbf766aa4	-0.9625647
223	0xbcf7b619	-0.030238198
224	0x3f82a32f	1.020605
225	0xbe74f98f	-0.23923324
226	0x3e0b8d88	0.13628209
227	0xbd3aa182	-0.045564182
228	0xbef6f78e	-0.48235744
229	0xbf130627	-0.5743126
230	0x3f1f3e2a	0.6220423
231	0xbf43482e	-0.7628201
232	0xbe28b2fb	-0.16474526
233	0x3f409e2c	0.7524135
234	0xbf6880b7	-0.90821403
235	0xbf8e695f	-1.1125907
236	0x3e93daeb	0.2887796
237	0xbded044c	-0.11573085
238	0x3dd15cf0	0.102228045
239	0x400203f4	2.0314913
240	0x3fa24134	1.2676148
241	0x3f85741a	1.0426056
242	0x3e403167	0.18768845
243	0xbec8887e	-0.39166635
244	0xbd995762	-0.0748737
245	0xbf791f75	-0.97313625
246	0xbe54bcbb	-0.2077512
247	0xbeb6a8e8	-0.3567574
248	0xbf338faf	-0.7014112
249	0xbfc7261d	-1.5558506
250	0x3d8fc160	0.07019305
251	0x3edebbec	0.43502748
252	0x3ee4238e	0.44558376
253	0x3fc41caf	1.5321254
254	0xbf04698c	-0.5172355
255	0xbe81b3d4	-0.2533251

pos_enc f4 [1, 500, 48]
0	0xbf642cde	-0.8913096
1	0x3f62a86f	0.8853826
2	0xbf714597	-0.9424681
3	0xbf076a8e	-0.52896965
4	0x3f1cc75d	0.61241704
5	0x3e05bf46	0.13061246
6	0x3f041419	0.51593167
7	0x3eded936	0.43525094
8	0xbf94c55c	-1.1622729
9	0xbede88c7	-0.43463728
10	0x3f71bbd9	0.9442726
11	0x3e26331d	0.16230436
12	0xbf176698	-0.5914092
13	0xbccb9426	-0.024850916
14	0x3ebcb9b0	0.36860418
15	0x3f03de70	0.5151129
16	0x3fa7d684	1.311234
17	0xbf2f2e61	-0.68430144
18	0xbe27b6e1	-0.16378357
19	0xbcfcd6b0	-0.03086409
20	0xbf18416f	-0.59474844
21	0x3f3ea8f1	0.74476534
22	0xbe78d92a	-0.24301592
23	0x3f4e46e4	0.8057692
24	0x3f2ff328	0.687304
25	0xbedca645	-0.43095604
26	0xbd67d5f6	-0.056600533
27	0xbf635a78	-0.8880992
28	0x3fb1de29	1.3895923
29	0x3f4b9f0f	0.7953958
30	0x3f42c36a	0.7607943
31	0xbfb81c59	-1.4383651
32	0x3e2eef14	0.17083389
33	0xc0004560	-2.0042343
34	0xbfff63bd	-1.9952313
35	0xbe963b4d	-0.29342118
36	0xbfa1ebc2	-1.2650073
37	0xbf652081	-0.8950272
38	0x3f671599	0.9026733
39	0xbcfa33e6	-0.030542325
40	0xbf3f1ca7	-0.74653095
41	0xbe644df3	-0.2229536
42	0x3ec5e106	0.38648242
43	0xbf50b7f9	-0.8153072
44	0xbeafb6f5	-0.34319273
45	0x3f5e84af	0.8692121
46	0x3eca7afc	0.39546955
47	0x3ef63c45	0.48092857
48	0x3fb28172	1.3945754
49	0xbf76038c	-0.9609916
50	0xbf451e35	-0.7699922
51	0xbf1b0de1	-0.6056805
52	0x3ed901cd	0.42384186
53	0xc00d7aa4	-2.2106104
54	0xbef798a9	-0.48358658
55	0x3fed0b24	1.8519025
56	0x4081ce21	4.056412
57	0xbf1f0c01	-0.6212769
58	0x3c3bd71b	0.011464859
59	0xbf035ea9	-0.51316315
60	0x3f50c869	0.815558
61	0xbef4f690	-0.47844362
62	0xbf0e7f32	-0.55662835
63	0xbfdd3a91	-1.7283498
64	0x3f3a9675	0.7288583
65	0x404558fe	3.0835567
66	0xbec929bc	-0.39289653
67	0xbcbb7e78	-0.022887453
68	0xbf979318	-1.1841764
69	0x3f934a4f	1.1507052
70	0xbf6fd49f	-0.9368381
71	0x3f22f26a	0.63651145
72	0x3e097256	0.13422522
73	0xbfb8933c	-1.4419932
74	0x3f912400	1.1339111
75	0x3fb76e42	1.4330523
76	0xbeff8e28	-0.49913144
77	0x3f06e320	0.52690315
78	0xbf35907a	-0.7092358
79	0x3e82e1e6	0.25562972
80	0xbea48856	-0.32135266
81	0x3fa8e0ed	1.3193642
82	0xbec7fa8b	-0.39058337
83	0x3fb80328	1.4375963
84	0x3e4e4817	0.20144688
85	0x3fe9bf37	1.8261479
86	0xbedaa2b5	-0.4270226
87	0x3f9fd9ea	1.2488377
88	0xbf472637	-0.77792686
89	0x3ddf1d71	0.108942874
90	0xbf9a2998	-1.2043943
91	0xbf10b1c2	-0.56521237
92	0xc044705a	-3.0693574
93	0x4029fa7f	2.655914
94	0x3f2ec128	0.68263483
95	0x3e66aa54	0.22525913
96	0xbf733d7d	-0.950157
97	0x3add8e96	0.0016903456
98	0x3fb6f91c	1.4294772
99	0xc004c666	-2.0746093
100	0x3f22738c	0.6345756
101	0x3f1ccac2	0.61246884
102	0xbf75e636	-0.960544
103	0xbe36c6b8	-0.17849243
104	0xc03bcfc7	-2.9345567
105	0xbfe3cf4a	-1.7797635
106	0xbe9c7ef5	-0.3056561
107	0xbe8ab148	-0.2708838
108	0x3fc2c287	1.5215615
109	0xbea7c489	-0.32767132
110	0x3fef4c2c	1.8695121
111	0x3fa4c4d0	1.2872562
112	0x3e68f123	0.22748236
113	0xbfe2152c	-1.7662711
114	0x3eaf4e81	0.3423958
115	0x402bdaf4	2.6852388
116	0xbf9de9fb	-1.233703
117	0x3fd0050b	1.6251539
118	0xbf8084da	-1.0040543
119	0x3d907598	0.07053679
120	0x3f5b7356	0.85722864
121	0xc013446c	-2.3010511
122	0xbf89c67f	-1.0763701
123	0xbd54d0b7	-0.05195686
124	0xbfb534da	-1.4156754
125	0xbf86e970	-1.053999
126	0x3f3f7de3	0.7480146
127	0xbfd5e606	-1.6710823
128	0xbddb9dfe	-0.10723494
129	0xbfa4742f	-1.2847956
130	0xbf9d3cb5	-1.2284151
131	0xbe32efc0	-0.1747427
132	0x3f398585	0.7246936
133	0xbf006823	-0.501589
134	0xbf22a229	-0.63528687
135	0xbfa0682a	-1.2531788
136	0x3fcba7ae	1.5910547
137	0x3e65e823	0.22451834
138	0xbe870410	-0.26370287
139	0xbfa48a89	-1.2854778
140	0xbdd51e7b	-0.10406204
141	0x3ead77e3	0.3388053
142	0x3f98d277	1.1939229
143	0xbea4a40f	-0.32156417
144	0x3f90fa30	1.1326351
145	0x3eba1241	0.36342052
146	0xbd349aa2	-0.04409278
147	0xbf98537b	-1.1900476
148	0x3d68f636	0.05687543
149	0x3e5f49e2	0.21805528
150	0x3fd99c03	1.7000736
151	0xbf99e85c	-1.2024035
152	0x3ffcca36	1.974921
153	0x3ea34c83	0.3189431
154	0xbf8cb3ce	-1.0992372
155	0xbfac5d48	-1.3465967
156	0x3f341afd	0.7035368
157	0x3eef4696	0.4673354
158	0x3eb7eee3	0.35924444
159	0xbf847de6	-1.0350921
160	0xbf8f24de	-1.1183126
161	0x3f03c3da	0.5147072
162	0x3fc06aa4	1.5032544
163	0xc017400e	-2.3632846
164	0xbf307f10	-0.6894388
165	0xc008011d	-2.125068
166	0xbe7ad9e0	-0.24497175
167	0xbdd00467	-0.1015709
168	0xbe8c5f55	-0.27416483
169	0x3ea5ddfa	0.32395917
170	0xbd133f74	-0.035949185
171	0xc00a90db	-2.1650913
172	0x3e20cd64	0.1570335
173	0x3ec65f94	0.38744795
174	0x3ec885fc	0.39164722
175	0xc01c1815	-2.4389699
176	0xc009791b	-2.1480167
177	0x3d1f6948	0.038918763
178	0xc07b759d	-3.9290535
179	0x3f8786b9	1.0587989
180	0xbfbcd303	-1.4751896
181	0x3f8f1c22	1.118046
182	0xbceb13d8	-0.028695986
183	0x3e7ba9b5	0.24576457
184	0x3eb477ff	0.352478
185	0x3fb4c911	1.4123861
186	0xbe288fb8	-0.16461074
187	0xbf2c7704	-0.67369103
188	0x3f2fa494	0.686105
189	0x3f166d92	0.5876094
190	0x40056045	2.0840008
191	0x3f9dbbd8	1.232295
192	0xbf48a7f8	-0.783813
193	0xbe007565	-0.12544782
194	0xbfe77e40	-1.8085403
195	0xbf70bb72	-0.9403602
196	0x40015fed	2.0214798
197	0x3f6f9a8e	0.93595207
198	0x400229cf	2.0338018
199	0x3f854cdc	1.0414081
200	0x3d55fcd2	0.05224306
201	0x4008328d	2.1280854
202	0x3ee0aee7	0.4388344
203	0x3f10c5c0	0.5655174
204	0x3f67b8d1	0.9051638
205	0x3eaf0daa	0.34190112
206	0xbf9d78c2	-1.2302477
207	0xbf91fff2	-1.1406233
208	0x3fadfb7d	1.3592373
209	0xbfd0f4b9	-1.6324683
210	0xbfbec2cc	-1.4903197
211	0x3f1e7273	0.61893386
212	0x3fc0ce0a	1.5062878
213	0x3f5825d0	0.844327
214	0xbea9f7b9	-0.3319681
215	0x4052bfd0	3.2929573
216	0x3d07a140	0.033112764
217	0xbf85250c	-1.0401931
218	0xbf22b085	-0.635506
219	0xbe748d96	-0.23882136
220	0x3eb78265	0.3584167
221	0x3d8c0975	0.06837741
222	0xbf6d1a6f	-0.9261846
223	0xc00b174b	-2.1732967
224	0xc015ccd8	-2.3406277
225	0xbf1c53a2	-0.61065114
226	0x3f6adcb4	0.91743016
227	0xbf4cbca2	-0.7997533
228	0xbd50db11	-0.050990168
229	0x3e6475fd	0.22310634
230	0xbf288132	-0.65822136
231	0x3f190770	0.59776974
232	0x3ec508b7	0.3848321
233	0x3f2f07f9	0.6837154
234	0xbf45d07a	-0.77271235
235	0x4022a842	2.5415196
236	0xbe2478bf	-0.16061686
237	0xbde7fc8c	-0.11327466
238	0xbf8ec1bc	-1.1152873
239	0x3f164493	0.58698386
240	0x3eb60c6e	0.35556358
241	0x3f58f5c4	0.8475001
242	0x3f1d331f	0.6140613
243	0xbd824091	-0.06359971
244	0x3f88307a	1.0639794
245	0x3ee16516	0.44022435
246	0xbfff05d1	-1.992365
247	0xbf07e2fc	-0.53080726
248	0x3f92f086	1.1479652
249	0xbe330e3a	-0.17485896
250	0xbedbcf01	-0.4293137
251	0x3fd03b28	1.6268053
252	0xbfdc5a2a	-1.7215016
253	0x3f004cb6	0.5011705
254	0x3f563765	0.83678275
255	0xbf9ef626	-1.2418869

riemannian.proj.0.weight f4 [256, 253]
0	0xbe2cdf51	-0.16882063
1	0xbc54ebf3	-0.012995708
2	0xbd890f37	-0.06692355
3	0x3d9cb301	0.0765133
4	0x3d434a43	0.047678243
5	0xbc9caae4	-0.019124456
6	0xbdd03d68	-0.10167962
7	0x3a9a6808	0.0011780271
8	0xbc7d667f	-0.0154663315
9	0xbc3af45e	-0.011410801
10	0xbd74aaef	-0.059733327
11	0x3dcd9f7a	0.10040183
12	0x3c199b88	0.00937546
13	0x3ca03f58	0.019561455
14	0x3d1026ad	0.035193134
15	0x3dad92e9	0.084752865
16	0xbde8038e	-0.11328803
17	0x3cfa1aab	0.030530294
18	0xbceb33bf	-0.028711198
19	0x3c1e001d	0.009643582
20	0x3dd23256	0.10263507
21	0x3cd24af2	0.025670502
22	0x3e0d68f9	0.13809575
23	0xbcad6c36	-0.021169763
24	0x3c7547fe	0.014970778
25	0x3d5556fe	0.052084915
26	0xbcec0513	-0.028811013
27	0x3b3c8a96	0.0028769127
28	0xbd51ab09	-0.051188502
29	0x3d7a695c	0.061135635
30	0xbd828516	-0.063730404
31	0xbd236ca4	-0.03989853
32	0x3d12bcd3	0.035824608
33	0x3dd23ce7	0.102655225
34	0xbc0ad3d3	-0.008473354
35	0x3d3cb7e4	0.04607381
36	0xbd808a63	-0.06276395
37	0x3da654db	0.08121654
38	0xbd051b13	-0.032496523
39	0xbdbb30da	-0.09140177
40	0x3caf6097	0.021408362
41	0x3da279bd	0.07933376
42	0x3d283504	0.041066185
43	0xbd3b9140	-0.045792818
44	0xbcdbdb0c	-0.026837848
45	0xbd5f24c8	-0.054478437
46	0x3c4d6ed4	0.0125386305
47	0xbd53fba9	-0.051753674
48	0xbd2af762	-0.04173983
49	0xbda59e5a	-0.08086844
50	0x3d47ae73	0.048750352
51	0x3d363cea	0.044491686
52	0xbdefa882	-0.11702062
53	0xbcfe4be7	-0.031042052
54	0xbd5cff14	-0.0539542
55	0xbca69568	-0.020334914
56	0x3d10480d	0.035224963
57	0xbd4690ba	-0.048477866
58	0xbcdf527f	-0.027261017
59	0x3e1cb659	0.15303935
60	0x3d1f9c72	0.038967557
61	0x3c851cd7	0.016249103
62	0x3d1a99fb	0.037744503
63	0x3da07fec	0.07836899
64	0x3d3f96f1	0.04677481
65	0xbe07239d	-0.13197179
66	0x3b9be160	0.0047570914
67	0x3b89910b	0.0041981987
68	0xbc05d3c0	-0.008168161
69	0xbcc94ca1	-0.024572672
70	0x3dfd137f	0.12357234
71	0xbc24048c	-0.01001085
72	0xbc2f1aec	-0.010687571
73	0x3d7a00b9	0.061035845
74	0x3d20527f	0.039141174
75	0xbc544e7f	-0.012958168
76	0xbd885247	-0.06656318
77	0x3d0a9ed8	0.03384289
78	0xbe0ecfc1	-0.1394644
79	0x3d368c10	0.044567168
80	0x3b8a95f5	0.004229302
81	0xbd330499	-0.043705557
82	0x3dc5c011	0.096557744
83	0xbe0ceb65	-0.13761671
84	0xbc95bf4e	-0.018279698
85	0xbe2c6fb6	-0.1683949
86	0xbd152e3e	-0.036421053
87	0xbd45d963	-0.04830302
88	0xbda4d591	-0.08048547
89	0xbcf6d8ae	-0.030132618
90	0xbc3ed235	-0.011646797
91	0x3c05439f	0.008133798
92	0xbdeef9cf	-0.11668741
93	0xbd82d41c	-0.06388113
94	0xbd46e91b	-0.04856215
95	0x3dc12a53	0.09431901
96	0xbda28a44	-0.07936528
97	0xbd4e980e	-0.05043798
98	0x3cdf3d41	0.027250888
99	0xbd4d6626	-0.050146244
100	0x39b0dc8d	0.0003373366
101	0xbc7cdbdc	-0.015433278
102	0xbd3a6656	-0.04550775
103	0x3d9ba8ff	0.07600593
104	0x3d5c5f62	0.0538019
105	0x3e105bde	0.14097545
106	0xbd187dc5	-0.03722932
107	0x3c5294df	0.012852876
108	0xbd431185	-0.04762413
109	0x3ca585b0	0.020205349
110	0xbd7382e9	-0.059451018
111	0x3d2ee9f0	0.04270357
112	0x3d25a551	0.04044086
113	0xbca16734	-0.019702531
114	0xbdb463ff	-0.08808135
115	0xbdbc7cbc	-0.09203479
116	0x3cc57a76	0.024106245
117	0x3d5ef44e	0.054432206
118	0x3be3a7ce	0.006947494
119	0xbd796202	-0.060884483
120	0xbd7f2020	-0.062286496
121	0xbe0618e1	-0.13095428
122	0x3d34dd05	0.044156093
123	0x3b0fadf8	0.0021923762
124	0x3caa96c6	0.020823848
125	0xbd87ad02	-0.066247955
126	0xbd2c90b0	-0.042130172
127	0x3d8e0974	0.06935397
128	0xbddbe9b2	-0.10737933
129	0xbca474cd	-0.020075226
130	0x3d569cfc	0.052395806
131	0x3dac680f	0.08418285
132	0xbd4704b8	-0.048588485
133	0xbd163162	-0.03666819
134	0x3dc8a775	0.09797565
135	0x3d5812a1	0.05275214
136	0xbd1e5745	-0.038657445
137	0x3bc5d272	0.00603705
138	0x3cb4b94c	0.022061013
139	0xbccc3dad	-0.024931753
140	0x3d8b3a6c	0.067982525
141	0xba9a478d	-0.0011770591
142	0xbc61e1ee	-0.013786776
143	0x3d99afda	0.07504244
144	0xbd0ffb6e	-0.03515189
145	0xbdda3e89	-0.10656459
146	0xbca80e96	-0.020514768
147	0xbd26e0a7	-0.04074159
148	0xbd56e6b9	-0.052466128
149	0xbd363bba	-0.044490553
150	0xbe0f9aef	-0.14023946
151	0xbc7656a2	-0.015035303
152	0xbca5ed2a	-0.02025469
153	0x3bff9658	0.007799905
154	0xbbe85bef	-0.0070910375
155	0x3d63d544	0.055623308
156	0x3e16c528	0.14723647
157	0xbd752353	-0.05984814
158	0xbdde522d	-0.108555175
159	0xbe31b7ed	-0.17355318
160	0x3ca782ad	0.020448053
161	0xbde5d15c	-0.11221573
162	0xbd702bf7	-0.05863568
163	0xbc728bd6	-0.014803847
164	0x3e002d4e	0.12517282
165	0xbd1a199a	-0.03762207
166	0xbd4d861f	-0.050176736
167	0x3dab2010	0.08355725
168	0x3d2037a2	0.039115556
169	0x395f7dd7	0.00021313816
170	0x3ca9dc39	0.020734893
171	0x3da02730	0.078199744
172	0xbd816a49	-0.063191004
173	0xbcc69b89	-0.024244087
174	0xbd0ca926	-0.034341
175	0x3c6096a2	0.013707789
176	0xbdf6ae89	-0.12045009
177	0x3d0955fb	0.033529263
178	0xbd517ac0	-0.051142454
179	0x3d9d4f1a	0.07681103
180	0x3e201fb1	0.1563709
181	0x3dafdc9d	0.085870005
182	0xbd5c5397	-0.053790655
183	0xbcd8436d	-0.026399339
184	0x3d7373a3	0.05943645
185	0x3d75ae93	0.05998094
186	0xbd8bec6a	-0.06832202
187	0x3d2cce0a	0.04218868
188	0xbd60e871	-0.054909173
189	0x3d3a273c	0.045447573
190	0xbd13f317	-0.0361205
191	0x3d5ebd06	0.054379486
192	0xbcd0df3a	-0.025497068
193	0xbe2b9f4c	-0.16759986
194	0x3e301878	0.17196834
195	0xbd2dd9e4	-0.042444125
196	0x3d7d11a5	0.061784405
197	0x3d31efc6	0.043441556
198	0xbcd8a0a0	-0.02644378
199	0xbba6373b	-0.005072502
200	0x3d75281b	0.0598527
201	0x3c92b691	0.01790932
202	0x3d98974c	0.074507326
203	0xbc512e0f	-0.012767329
204	0x3b7187cf	0.003685463
205	0xbd5fb73a	-0.054618098
206	0xbc3ec6d5	-0.011644085
207	0xbb904b07	-0.004403475
208	0x3ce7ecd8	0.028311178
209	0x3a0f27a2	0.0005460923
210	0xb9ad3d1d	-0.00033042664
211	0xbc968cc5	-0.018377671
212	0x3d65ba06	0.05608561
213	0xbd3bf492	-0.045887537
214	0x3dab00e1	0.08349777
215	0x3c52f521	0.012875826
216	0x3d8e3197	0.06943052
217	0xbd2e4d45	-0.04255416
218	0x3dcf76a7	0.10130053
219	0xbd913007	-0.070892386
220	0xbd92ab6b	-0.07161602
221	0x3dd01e6c	0.101620525
222	0x3bb6289e	0.005559041
223	0x3c9604c4	0.01831282
224	0xbd36885e	-0.044563644
225	0x3d4d3989	0.050103698
226	0x3e4a5809	0.19760145
227	0xbd8a87b5	-0.06764165
228	0x3c60adb2	0.013713287
229	0xbda63226	-0.08115034
230	0xbcd707d3	-0.026248848
231	0xbd4736ed	-0.048636366
232	0x3d1fddc6	0.03902986
233	0x3caaa83b	0.020832172
234	0x3c44de1a	0.012015844
235	0xbcdead68	-0.027182296
236	0x3cc69397	0.024240298
237	0xbd434091	-0.047668997
238	0xba4e51c6	-0.00078704616
239	0x3d3864ee	0.04501813
240	0x3cf6b2ad	0.030114496
241	0xbd89eb62	-0.06734349
242	0xbe0f7335	-0.14008792
243	0xbe7309d6	-0.23734221
244	0x3de6774d	0.112532236
245	0x3b939991	0.0045043905
246	0x3d3514f1	0.044209424
247	0xbc269ef8	-0.010169737
248	0xbccf7d19	-0.025328206
249	0xbd4a7480	-0.04942751
250	0x3cb1a3f9	0.021684634
251	0x3d946b4e	0.07247029
252	0xbcc72a42	-0.024312142
253	0x3d9c2e2e	0.076259956
254	0xbdf644c1	-0.120248325
255	0xbd5040b9	-0.050842974

riemannian.proj.0.bias f4 [256]
0	0x3b8741e3	0.0041277274
1	0xbc560f8d	-0.013065231
2	0xbbbfa059	-0.0058479724
3	0xba22f294	-0.00062159565
4	0xbc66f508	-0.014096506
5	0x3c0374cb	0.008023451
6	0xbbd4be8b	-0.006492441
7	0xbae928fd	-0.0017788705
8	0x3c8a1305	0.016854772
9	0xbc1dc554	-0.009629566
10	0x3ca2f38e	0.019891527
11	0x3c3b5034	0.011432696
12	0x3c6df1c7	0.014522976
13	0xbbda3b61	-0.0066599105
14	0x39c9ff57	0.0003852795
15	0x3c658b85	0.014010315
16	0xbcc5bec4	-0.024138816
17	0x3b94b8b1	0.0045386185
18	0x3b0c6f18	0.0021428522
19	0x3bb11142	0.0054036686
20	0xbbb98c73	-0.005662495
21	0x3ccbe4d1	0.024889382
22	0xbbe057c3	-0.0068463995
23	0xbb76b34d	-0.0037643493
24	0x3a3c2011	0.0007176409
25	0x3cba883c	0.02277004
26	0xb8ae711f	-8.318037e-05
27	0x3c734f4e	0.014850451
28	0x3c308f3c	0.010776337
29	0x3c6cd372	0.014454709
30	0xbc4d6f5b	-0.012538756
31	0xbbe6a00b	-0.0070381216
32	0xbaa69466	-0.0012709021
33	0xbd1362c4	-0.035982862
34	0x3c1f2418	0.009713195
35	0x3c8c6b3c	0.017140977
36	0x3c43934a	0.011936972
37	0x3c34d86d	0.011037928
38	0x3b6294c7	0.0034573541
39	0xbbe6d2c9	-0.0070441705
40	0xbcf43a4f	-0.02981296
41	0xbcbf4096	-0.023346227
42	0xbc453220	-0.0120358765
43	0x3d16f658	0.036856025
44	0xbc54e921	-0.012995035
45	0xbb4ccb57	-0.003124913
46	0x3b863543	0.0040957048
47	0x3bcf37f5	0.0063238093
48	0xbc200384	-0.009766463
49	0x3c9b821f	0.018982945
50	0x3a973e25	0.0011538906
51	0xbca9f3f1	-0.020746203
52	0xbc642f7c	-0.013927337
53	0xbc8e0cc9	-0.01734008
54	0x3aba6c41	0.0014222936
55	0xbb1da4c6	-0.0024054511
56	0x3c21bac3	0.009871188
57	0xbca171ce	-0.019707587
58	0x3b34f187	0.0027609782
59	0xbc767cbc	-0.015044387
60	0xbbbec77c	-0.0058221202
61	0xbcb56cd0	-0.022146612
62	0xbba166ff	-0.004925608
63	0xbcc73fb5	-0.02432237
64	0xbc80bb2d	-0.015714252
65	0x3c4e812e	0.012604041
66	0x3aaaa762	0.0013019855
67	0x3c483fd4	0.012222249
68	0x3b92cae0	0.004479751
69	0x3b941df8	0.004520174
70	0x3b83686e	0.0040102517
71	0xbaaecaa3	-0.0013335537
72	0xbba85c97	-0.0051379907
73	0xbccedf34	-0.025252916
74	0x3bfea896	0.007771562
75	0xbb9c09e1	-0.00476192
76	0x3c3e60d8	0.011619769
77	0x3b2a9107	0.0026026384
78	0xbc33d00c	-0.010974895
79	0xbbeecaf0	-0.0072873756
80	0xbc9c00ab	-0.019043287
81	0xbc237ffe	-0.009979246
82	0x3d244517	0.04010495
83	0xbbebcf5b	-0.0071963496
84	0x3cb55b08	0.022138134
85	0x3aa27436	0.0012394253
86	0xbc3cc733	-0.011522102
87	0xbc239b54	-0.009985764
88	0xbad004d6	-0.0015870582
89	0xbc02b41e	-0.007977514
90	0xbc328ca2	-0.010897787
91	0xb93b9ceb	-0.00017892166
92	0xbc8143fe	-0.015779492
93	0x3c056412	0.008141534
94	0xbcbd0faf	-0.023078768
95	0x3ad8dba5	0.0016544951
96	0xbc499121	-0.012302668
97	0x3b83eaf8	0.004025813
98	0x3b962bbf	0.0045828517
99	0xbb8e62a6	-0.004345256
100	0xbb0c5a3f	-0.0021416096
101	0xbb671909	-0.0035262725
102	0xbb5eaffc	-0.0033979407
103	0xbc52a48c	-0.012856614
104	0xb8dab504	-0.00010428767
105	0xbcab6ae2	-0.02092499
106	0xbc0ac86b	-0.008470635
107	0x3c5c6124	0.0134508945
108	0x3c327c28	0.010893859
109	0x3c03bda1	0.0080408165
110	0x3b463459	0.0030243604
111	0x3b03ca63	0.0020109646
112	0x3bf91d41	0.0076023643
113	0x3b6afdaa	0.0035856762
114	0xbca972af	-0.020684568
115	0x3b61b74c	0.003444153
116	0xb9a6e74e	-0.00031834323
117	0xbb39f6df	-0.0028375906
118	0x3cb859c9	0.02250375
119	0x3c119e6f	0.008887871
120	0x3b777a03	0.0037761934
121	0x3c3aa358	0.011391483
122	0x3c33af23	0.010967049
123	0xbb04b1c0	-0.0020247549
124	0x3a487e93	0.00076482556
125	0xbc57fd05	-0.013182883
126	0xbb6e5423	-0.0036366067
127	0xbc4d9adf	-0.012549131
128	0x3c1f4950	0.009722069
129	0x3b3b9ec6	0.0028628572
130	0x3c009318	0.00784757
131	0xbc9c4b69	-0.019078927
132	0x3b521434	0.00320555
133	0x3c81dadb	0.015851429
134	0x3ac458d9	0.0014980092
135	0xbca134e9	-0.01967855
136	0xbb87ebc7	-0.00414798
137	0x3c78aa09	0.015177258
138	0xbcff5694	-0.031169213
139	0x3c5fc60c	0.013658058
140	0xbbfe442e	-0.0077595925
141	0x3c6e29bb	0.0145363165
142	0x3b639e8a	0.0034731948
143	0xbb6b638d	-0.0035917491
144	0x3ad29ee0	0.0016069077
145	0xbbd03cb9	-0.006354895
146	0xbcacb147	-0.021080626
147	0xbb835733	-0.0040081977
148	0xbc8b8212	-0.017029796
149	0x3bd86d8e	0.006604857
150	0xbd6d82a4	-0.057985917
151	0xbcba7769	-0.022762017
152	0xbd0d744c	-0.034534737
153	0xbc840257	-0.016114397
154	0xbb0581ec	-0.002037163
155	0x3a98282b	0.0011608651
156	0x3b7b4174	0.0038338574
157	0x3bc89225	0.0061209374
158	0x3c584691	0.013200418
159	0x3c0f9f18	0.008765958
160	0x3ba82e3f	0.005132466
161	0xbb9e4ec1	-0.0048311655
162	0x3c08efb2	0.008357929
163	0xbc1c607a	-0.009544486
164	0xbc4f54bd	-0.0126544805
165	0x3c755dd4	0.014975984
166	0x3bdd43de	0.006752475
167	0xbb272584	-0.0025504539
168	0xbb467926	-0.0030284612
169	0xbc1304f6	-0.008973351
170	0xbacfff28	-0.0015868889
171	0xbd05db9b	-0.032680135
172	0xb920639c	-0.00015295896
173	0xbc06f9a3	-0.008238229
174	0x3a743692	0.0009315993
175	0xbbff07bd	-0.007782905
176	0xbcf3692c	-0.029713236
177	0x3af168bd	0.0018418055
178	0xbbf295b8	-0.007403102
179	0xb9365b1f	-0.00017390818
180	0x39c275d4	0.00037090352
181	0xba49f0f2	-0.0007703445
182	0x3c2e2c57	0.010630689
183	0xbca51ed6	-0.020156305
184	0xbc3046b4	-0.010759044
185	0x3cf2a945	0.02962173
186	0xbc60795a	-0.0137008075
187	0x3baec21c	0.0053331982
188	0xbb9b49a9	-0.0047390056
189	0x3d03783a	0.03209708
190	0xbc8339c1	-0.01601875
191	0x3a9f8961	0.0012171679
192	0x3bc0d852	0.0058851624
193	0xbb1c7c2b	-0.002387772
194	0x3c5d23bb	0.013497288
195	0xbc95e730	-0.018298715
196	0xbbae5df5	-0.005321259
197	0xbbeecaff	-0.0072873826
198	0x3ce6f525	0.028193066
199	0xbc71bc21	-0.014754326
200	0x3b393981	0.0028263035
201	0xbbb4ca69	-0.0055172932
202	0xbb28b5da	-0.0025743158
203	0xbc7170d1	-0.01473637
204	0x3c202e3e	0.00977665
205	0x3b82de88	0.003993813
206	0x3a8beb04	0.0010674899
207	0x3bfed4d8	0.007776838
208	0xb98c77f0	-0.0002679224
209	0x3bc60ffe	0.006044387
210	0x3c496034	0.012291003
211	0xbc91a17a	-0.017777193
212	0xbb03b92d	-0.0020099387
213	0xbc1669ef	-0.00918053
214	0xbcbf3c0c	-0.023344062
215	0x3aad35d3	0.0013214893
216	0xbd37e31f	-0.044894334
217	0xbbeb5db2	-0.0071828
218	0xbd289dde	-0.04116618
219	0x382130de	3.8430902e-05
220	0x3c4c41ac	0.012466829
221	0xbd02f49a	-0.03197155
222	0xbbd43004	-0.0064754505
223	0xbbf257c7	-0.007395718
224	0x3c1d2625	0.009591614
225	0xbce52836	-0.027973276
226	0xbc0d239b	-0.008614446
227	0xbcaaf6b5	-0.020869592
228	0xbaa4178b	-0.0012519223
229	0x3c35618a	0.011070618
230	0x38fd37be	0.00012074363
231	0xbcfe3d6a	-0.031035144
232	0xbc046f0e	-0.008083118
233	0xbbba2f30	-0.0056818947
234	0xbc0b29fc	-0.008493897
235	0x3c328994	0.010897059
236	0xbc890133	-0.016724205
237	0x3cde6de8	0.027152017
238	0x3d0fc203	0.035097133
239	0x39838f11	0.0002509286
240	0xbb1a3946	-0.0023532673
241	0x3be5b991	0.0070106466
242	0x3cf87083	0.030327087
243	0x3b51f097	0.0032034272
244	0x3bef3797	0.007300328
245	0x3cbdb059	0.023155378
246	0x3c2fbb1e	0.010725765
247	0x3bec32c9	0.0072082025
248	0xbca219ac	-0.019787632
249	0xbb11047d	-0.002212792
250	0xbc6f5d00	-0.014609575
251	0xbaf45195	-0.0018640036
252	0x3c5d27fc	0.013498303
253	0x3bec8ee7	0.0072191837
254	0x3a6b469e	0.00089750614
255	0xbb32ac1a	-0.0027263225

riemannian.proj.3.weight f4 [48, 256]
0	0x3dd905d0	0.10596812
1	0x3dc3a0a1	0.09552122
2	0x3d54cd05	0.051953334
3	0xbc346d0b	-0.011012326
4	0xbda1d6a1	-0.07902265
5	0xbca6eea4	-0.020377465
6	0x3bb31305	0.005464914
7	0xbd38f52c	-0.04515569
8	0x3df2d0f2	0.118562594
9	0xbd8fab9e	-0.07015155
10	0x3d256e86	0.040388606
11	0xbc6e7b51	-0.014555768
12	0xbe00f995	-0.12595208
13	0x3d01bf90	0.03167683
14	0x3cfe5176	0.031044703
15	0xbcee3246	-0.029076707
16	0x3dfd9b66	0.123831555
17	0x3d56fe2b	0.052488487
18	0xbdd546af	-0.104138725
19	0x3cb10933	0.021610832
20	0x3da95da4	0.08269814
21	0xbdd0aa6c	-0.101887554
22	0xbde0d8c3	-0.10978844
23	0xbd638b4f	-0.055552777
24	0x3c865368	0.016397193
25	0x3dd2dd23	0.10296085
26	0xbd423a16	-0.047418676
27	0xbc90602f	-0.017623989
28	0xbd85a9bd	-0.06526516
29	0xbd311fcd	-0.04324322
30	0xbcee3709	-0.029078977
31	0xba049239	-0.0005057189
32	0x3dd1579a	0.10221787
33	0x3caf3fd9	0.02139275
34	0xbdbbd449	-0.091713496
35	0x3cb6f17f	0.022331951
36	0xbded6317	-0.115911655
37	0xbd61ef27	-0.055159714
38	0xbd1b1167	-0.037858393
39	0x3cf5da20	0.030011237
40	0xbd3cc14d	-0.046082783
41	0x3df25035	0.118317045
42	0xbca77eff	-0.020446299
43	0xbc012663	-0.007882687
44	0xbd3f76ba	-0.046744086
45	0xbccda894	-0.025104798
46	0xbdaf0c70	-0.08547294
47	0x3cad8eac	0.021186195
48	0x3bdb8a85	0.0066998624
49	0x3cf10438	0.029420957
50	0x3cd898dd	0.026440078
51	0xbd132ce9	-0.0359315
52	0xbd8fd905	-0.07023815
53	0xbd98f8be	-0.07469319
54	0xbcd6210c	-0.026138805
55	0xbd00d088	-0.03144887
56	0x3d54d5b1	0.051961605
57	0xbd292ffe	-0.041305535
58	0xbd6af5e9	-0.057363424
59	0xbcb78927	-0.022404267
60	0xbd83e50e	-0.06440173
61	0xbcfa8880	-0.030582666
62	0x3dd8432c	0.10559687
63	0x3dc2e17f	0.09515666
64	0xbe235534	-0.15950471
65	0x3d9db967	0.07701378
66	0xbd218213	-0.03943069
67	0xbd6f6323	-0.058444154
68	0x3d87a281	0.06622792
69	0xbda482ef	-0.08032786
70	0xbdf0bf7e	-0.11755274
71	0xbd1227ac	-0.035682365
72	0x3d1fd169	0.03901807
73	0xbd818160	-0.063235044
74	0x3cbdba04	0.023159988
75	0xbcfa0e6a	-0.030524451
76	0xbd6cb1ee	-0.057786874
77	0xbdd55b4d	-0.10417805
78	0xbe010edf	-0.12603329
79	0xbe23028d	-0.15918942
80	0xbd90f87a	-0.07078643
81	0xbdb06b09	-0.08614165
82	0x3d2470d9	0.040146682
83	0x3e17558f	0.14778732
84	0x3ca10c86	0.019659292
85	0x3d4d64b5	0.05014487
86	0x3d8c9b7c	0.06865594
87	0xbdb233ae	-0.08701263
88	0xbe4cf0d2	-0.2001374
89	0x3da4271c	0.08015272
90	0xbd8ea69e	-0.069653735
91	0xbda4eee7	-0.080533795
92	0x3d81ec5e	0.063439116
93	0xbabe1c96	-0.0014504369
94	0xbda267a6	-0.079299256
95	0xbde6fa45	-0.11278204
96	0xbcfee130	-0.031113237
97	0x3c3ef00e	0.011653913
98	0x3e0fde3e	0.14049622
99	0x3da20347	0.07910781
100	0x3cea1156	0.02857272
101	0x3cb0f236	0.02159987
102	0xbd2049fd	-0.03913306
103	0x3d5c3130	0.053757846
104	0x3d827f57	0.063719444
105	0xbd02f13a	-0.031968333
106	0xbd5bff02	-0.05370999
107	0xbda613e9	-0.08109266
108	0x3d6b3c61	0.05743063
109	0x3e1e23ce	0.15443346
110	0xbe3941cc	-0.18091506
111	0x3be33c94	0.0069347117
112	0x3da64ec8	0.08120495
113	0xbe1641f7	-0.14673601
114	0x3d6088fd	0.054818142
115	0xbdb54cc6	-0.08852534
116	0xbb93a195	-0.004505346
117	0xbb98cc0b	-0.0046629957
118	0x3cdcc206	0.026947986
119	0xbdaa330d	-0.083105184
120	0xbd191dd7	-0.037381973
121	0x3dafd21e	0.085849985
122	0x3ce16f49	0.027518885
123	0xbc99e9b2	-0.018788192
124	0x3cd4c88a	0.02597453
125	0xbc7a796c	-0.015287738
126	0xbd2100f8	-0.039307564
127	0xbd4827f1	-0.048866216
128	0x3c994295	0.018708507
129	0xbd4ac10a	-0.049500503
130	0x3cbab74a	0.022792477
131	0x3d300550	0.042973816
132	0x3d3f07a9	0.046638165
133	0xbcddcbbe	-0.02707469
134	0x3e138718	0.14407003
135	0x3da282c5	0.079350986
136	0xb928364c	-0.00016041956
137	0xbd16bc5b	-0.036800724
138	0xbe0e50fb	-0.13898079
139	0xbd75343c	-0.059864268
140	0xbcd9bd65	-0.026579568
141	0x3cf7362e	0.030177202
142	0xbc1ab74a	-0.009443114
143	0x3d966062	0.07342602
144	0xbd185936	-0.037194453
145	0x3da125fa	0.078685716
146	0x3e230503	0.1591988
147	0x3d6dc395	0.05804785
148	0x3c175e71	0.009238825
149	0xbcd0c2af	-0.025483457
150	0xbe0fbaaa	-0.1403605
151	0x3cf8a33c	0.030351274
152	0xbd84bb78	-0.06481069
153	0xbdf625f4	-0.12018958
154	0x3d2745ff	0.040838238
155	0x3da84c61	0.08217693
156	0xbe04ba1f	-0.12961625
157	0x3ceb4eb4	0.028724052
158	0x3d1855c3	0.037191164
159	0xbe17e000	-0.14831543
160	0x3dac1950	0.084032655
161	0xbd55df17	-0.05221471
162	0x3e030bf3	0.12797527
163	0xbc72412f	-0.014786049
164	0xbca39225	-0.019967148
165	0x3e0050f3	0.1253088
166	0xbdc6a24a	-0.09698923
167	0xbd899c38	-0.067192495
168	0x3d771437	0.060322013
169	0xbd130457	-0.03589281
170	0xbcbbc6e5	-0.022921989
171	0x3da8ca64	0.08241728
172	0x3d8a53ea	0.067542866
173	0xbd3519ac	-0.044213936
174	0x3c89c1ad	0.016815985
175	0x3d64bee2	0.055846103
176	0x3bd3e185	0.006466093
177	0x3a9ada04	0.0011814241
178	0xbba48294	-0.005020449
179	0xbdad3996	-0.08458249
180	0xbd25aebb	-0.04044984
181	0xbcffade0	-0.03121084
182	0x3b80995e	0.003924533
183	0xbddbe14e	-0.10736333
184	0x3d8fa746	0.07014327
185	0x3dc0cadc	0.09413692
186	0x3b650847	0.003494756
187	0x3d367efa	0.044554688
188	0x3d42f69f	0.047598477
189	0x3c89dbfe	0.016828533
190	0xbd9a34a8	-0.07529575
191	0xbd9da0bb	-0.076966725
192	0xbcbdb0f2	-0.023155663
193	0xbc9410c1	-0.018074395
194	0xbddb9cfa	-0.107233
195	0xbdd367a8	-0.10322505
196	0xbd913cd3	-0.070916794
197	0x3bacdb4b	0.005275165
198	0x3e344b54	0.1760686
199	0xbd73e4d1	-0.05954439
200	0x3d416409	0.04721454
201	0xbc7ad3a1	-0.015309245
202	0x3db5ba03	0.088733695
203	0xbd095941	-0.033532385
204	0x3d88ed1e	0.066858515
205	0x3e398f54	0.18121082
206	0x3d923d6c	0.071406215
207	0x3d8a1ffa	0.0674438
208	0x3df6d5bd	0.12052486
209	0x3d2103d5	0.039310295
210	0xbe145aa1	-0.14487697
211	0xbdcb7834	-0.09935036
212	0xbb4a1a58	-0.0030838456
213	0x3cb801fd	0.022461886
214	0xbb469339	-0.0030300154
215	0xbe833433	-0.25625762
216	0x3c0d5fba	0.00862878
217	0xbc3bfb96	-0.011473557
218	0xbcac60f8	-0.021042332
219	0x3b683902	0.003543437
220	0x3d8b9c84	0.06816962
221	0x3cf9e086	0.030502569
222	0x3dae5706	0.08512692
223	0xbda5a618	-0.080883205
224	0xbcc98f89	-0.024604576
225	0x3e25c0fb	0.16186897
226	0xbbab78ed	-0.0052329213
227	0x3dc0270c	0.093824476
228	0x3d5eaba8	0.054362923
229	0x3e0c5b50	0.13706708
230	0x3e2fe2ea	0.17176405
231	0xbd30037c	-0.042972073
232	0xbd907b74	-0.07054797
233	0x3b9cbbba	0.004783121
234	0x3d0a1478	0.033710927
235	0xbdeb5b08	-0.11491972
236	0xbdcfd680	-0.101483345
237	0x3c1270ac	0.008937996
238	0x3daaeea8	0.08346301
239	0x3a499a09	0.00076904945
240	0xbd671fdf	-0.05642688
241	0xbddebc84	-0.108758
242	0x3e02b183	0.12763028
243	0x3daacb42	0.083395496
244	0x3c262fd1	0.010143236
245	0xbd870037	-0.06591838
246	0x3da641e7	0.081180386
247	0x3dcef954	0.10106149
248	0x3c540d8d	0.012942684
249	0x3cf82be0	0.030294359
250	0xbd4278ec	-0.0474786
251	0x3d849b02	0.06474878
252	0xbcd691e2	-0.02619261
253	0xbe0b0916	-0.13577685
254	0xbc31e421	-0.010857613
255	0xbe02b61d	-0.12764783

riemannian.proj.3.bias f4 [48]
0	0xbcbb7fba	-0.022888053
1	0x3c63173c	0.01386052
2	0x3db83fdf	0.089965574
3	0xbd6cec62	-0.05784262
4	0x3b77fda3	0.0037840388
5	0x3d4e4239	0.050356124
6	0x3b03b6d0	0.0020097978
7	0xbc9c7c5e	-0.019102272
8	0x3d56788a	0.05236105
9	0x3b1ea00e	0.0024204287
10	0x3d42a607	0.047521617
11	0xbcdbd345	-0.02683414
12	0xbcd50d59	-0.026007341
13	0x3d0d588f	0.034508284
14	0x3cf512a7	0.02991612
15	0x3d733172	0.059373327
16	0xbd06e88d	-0.03293662
17	0x3d78e288	0.060762912
18	0x3d3780aa	0.044800438
19	0x3d6e41a3	0.058168065
20	0x3c9a795c	0.018856697
21	0x3c400e67	0.011722184
22	0xbca70a93	-0.020390784
23	0x3c962d49	0.01833214
24	0x3cc89ed9	0.024489807
25	0xbd118beb	-0.035533827
26	0xbc740f4f	-0.014896228
27	0x3bf5011c	0.007476939
28	0xbd225717	-0.039633837
29	0x3cd5a630	0.026080221
30	0xbc886c9a	-0.016653348
31	0xbd3ac346	-0.045596384
32	0x3cb01903	0.021496302
33	0x3dbb9565	0.09159354
34	0x3c89a2e1	0.0168013
35	0x3c992a00	0.018696785
36	0xbd040109	-0.03222755
37	0xbb929a40	-0.0044739544
38	0xbc565f89	-0.013084301
39	0xbc5d8800	-0.013521194
40	0xbb3876ac	-0.0028146906
41	0x3d680b02	0.056651123
42	0x3ce4edf7	0.027945502
43	0x3d0f8eaf	0.035048183
44	0x3dae0552	0.084971085
45	0xbc1152b5	-0.008869817
46	0xbca6f9d4	-0.0203828
47	0x3db08c80	0.08620548

cnn.block1.0.weight f4 [16, 1, 1, 64]
0	0xbdaeeeef	-0.08541667
1	0xbdd604e5	-0.10450152
2	0x3cd0ffe0	0.025512636
3	0xbbf08c29	-0.007340927
4	0xbd0cf444	-0.034412637
5	0x3b3c9792	0.0028776866
6	0xbd9644d1	-0.073373444
7	0xbd3514bd	-0.04420923
8	0x3c3d3d95	0.011550327
9	0x3a93500d	0.0011239067
10	0xbdd98cef	-0.10622584
11	0xbcd55681	-0.026042225
12	0x3ab4e80e	0.0013802068
13	0xbdb9838b	-0.09058293
14	0x3d4b79d9	0.04967675
15	0xbd9e6e93	-0.07735934
16	0xbd38611d	-0.04501449
17	0xbcbece84	-0.023291834
18	0x3c34f0e7	0.011043764
19	0xbd3e9832	-0.046531864
20	0x3d1a2278	0.03763053
21	0xbc908018	-0.017639205
22	0x3c3a852b	0.011384289
23	0xbdbab2fe	-0.09116171
24	0xbcac0788	-0.020999685
25	0xbd0af732	-0.03392715
26	0xbc588365	-0.013214921
27	0x3bbe32ce	0.0058043962
28	0xbd1e8ee9	-0.03871051
29	0xbcb995b2	-0.022654388
30	0x3cd288e6	0.025700044
31	0x3d98ebfd	0.07466886
32	0x3da81553	0.08207192
33	0x3cc012b0	0.02344641
34	0x3e01e74a	0.12685886
35	0x3e279db2	0.1636875
36	0x3bf97b5e	0.0076135835
37	0xbc81d218	-0.01584725
38	0xbd7d891a	-0.06189833
39	0xbe200271	-0.15625931
40	0xbd820354	-0.06348291
41	0x3dd4e6e2	0.103956
42	0x3d9c4bba	0.07631631
43	0x3c77e657	0.015130601
44	0x3de07e4d	0.1096159
45	0x3e13cb25	0.14432962
46	0x3dbd1f35	0.09234468
47	0x3d9d914d	0.076937295
48	0x3d1ceb6b	0.03831045
49	0x3e04b4cd	0.12959595
50	0xbe12c173	-0.14331608
51	0xba9bc2c5	-0.0011883607
52	0xbe06e6e1	-0.13174011
53	0xbd0349de	-0.032052867
54	0xbdb09524	-0.08622196
55	0x3de1b88f	0.1102153
56	0x3dccf336	0.10007326
57	0x3dd4e7d3	0.103957795
58	0xbbc2ff9d	-0.0059508816
59	0x3a521809	0.0008014446
60	0x3db5eab4	0.08882657
61	0xbd727bd5	-0.059200127
62	0x3c34ccfc	0.0110352
63	0x3dcbe6e5	0.09956149
64	0xbb8d00c2	-0.004303069
65	0x3bcee515	0.00631393
66	0x3d2cb22e	0.042162113
67	0x3cfe2f71	0.031028481
68	0x3cb9be47	0.02267374
69	0x3de22c92	0.11043657
70	0x3d0268fd	0.031838406
71	0x3db33c60	0.0875175
72	0xbcd51ce7	-0.026014758
73	0xbd60605e	-0.054779403
74	0x3d322834	0.043495372
75	0xbd3e94ca	-0.046528615
76	0xbda7fcf4	-0.08202544
77	0xbdad71c3	-0.08468964
78	0xbd7e9847	-0.06215694
79	0xbcea5ede	-0.02860969
80	0xbc34acdf	-0.011027544
81	0xbd5c1f08	-0.05374053
82	0x3c7c923a	0.0154157225
83	0xbccb7a0a	-0.024838466
84	0x3d6c2f61	0.05766237
85	0x3d4b5dd8	0.049650043
86	0x3d59a753	0.05313809
87	0x3c28d16d	0.010303837
88	0x3dfead55	0.12435404
89	0x3d8fd569	0.07023127
90	0x3d5fb554	0.054616287
91	0x3d997fa3	0.07495048
92	0x3d595e44	0.053068414
93	0x3d1beb57	0.038066234
94	0x3ce75c57	0.028242273
95	0xbccc67eb	-0.024951896
96	0xbd8b0af1	-0.06789196
97	0xbdb01192	-0.08597101
98	0xbd996732	-0.07490386
99	0xbe004ba8	-0.1252886
100	0xbda19571	-0.07889832
101	0xbdb9072a	-0.090345696
102	0xbd7ec2e3	-0.062197577
103	0xbccea703	-0.025226122
104	0xbafd9a7b	-0.0019348407
105	0x3d5e8656	0.05432733
106	0x3cea95f9	0.028635966
107	0x3dc00ae2	0.09377076
108	0x3d854ee9	0.065091915
109	0x3cf23868	0.029567912
110	0x3de30b35	0.11086122
111	0x3dd1c821	0.1024325
112	0xba1c5bb7	-0.00059645943
113	0x3dbdc9b4	0.092669874
114	0xbc005555	-0.007832845
115	0x3b2bc7b9	0.0026211573
116	0xbdf01419	-0.11722583
117	0xbdb41e5c	-0.08794853
118	0xbd21afa2	-0.039474137
119	0xbdc265f2	-0.09492101
120	0xbc71f50f	-0.014767899
121	0xbdc2e308	-0.09515959
122	0xbd1c05e7	-0.038091566
123	0xbd6152d6	-0.05501064
124	0x3d224e95	0.039625723
125	0xbc99d1fc	-0.018776886
126	0x3de6e28f	0.11273681
127	0x3e06ddff	0.13170622
128	0xbd22b0e4	-0.039719477
129	0xbd6de3b6	-0.05807849
130	0xbc02e78a	-0.0079897735
131	0x3d67c93d	0.0565884
132	0x3dcc85a8	0.099864304
133	0x3c65decd	0.014030171
134	0x3d5aee6a	0.053450026
135	0xbceadafd	-0.028668875
136	0x3d9579ee	0.07298647
137	0x3d3dc44c	0.04632978
138	0x3cc88666	0.024478149
139	0x3c4cdf63	0.012504431
140	0x3c396425	0.01131538
141	0x3e4e153b	0.20125286
142	0x3db090c3	0.08621361
143	0x3e1dbaab	0.1540324
144	0x3db5306a	0.08847125
145	0x3d0d9944	0.034569994
146	0xbbc3dadf	-0.005977019
147	0xbc8f1094	-0.01746396
148	0xbc4f1c46	-0.012641018
149	0x3d22e75a	0.039771415
150	0x3dbfcc80	0.09365177
151	0x3e3ac9bd	0.1824102
152	0x3e36eb16	0.17863116
153	0x3e046b44	0.12931544
154	0x3d284f28	0.041091114
155	0x3d06c3fa	0.03290174
156	0x3b9d1c04	0.0047945995
157	0x3ca8340d	0.020532632
158	0x3ccb836c	0.02484294
159	0x3cdfb65a	0.027308632
160	0x3d803c3d	0.062614895
161	0x3dc301be	0.09521817
162	0xbb25f196	-0.0025320998
163	0xbbfbe884	-0.00768763
164	0x3d536a38	0.05161497
165	0x3db00c38	0.085960805
166	0x3cf3cb23	0.02975995
167	0x3e0646a2	0.13112882
168	0x3d312724	0.043250218
169	0x3dbcc6f0	0.09217632
170	0xbd06eb87	-0.03293946
171	0x3ae22420	0.0017253198
172	0x3cb31fe0	0.021865785
173	0xbb9d910c	-0.0048085507
174	0x3da06ab0	0.07832849
175	0x3d53303c	0.05155967
176	0x3e060e7f	0.13091467
177	0x3d8cd470	0.06876457
178	0xbbc089f3	-0.00587582
179	0x3e040068	0.1289078
180	0xbbd7316c	-0.006567171
181	0x3cf5f3fc	0.030023567
182	0xbca303e2	-0.019899312
183	0xbca0cb08	-0.019628063
184	0x3d1596c6	0.036520742
185	0x3d31ee93	0.043440413
186	0x3e192367	0.14954911
187	0x3e0a64c8	0.13515007
188	0x3c6104bd	0.01373404
189	0x3d1e7db6	0.038694106
190	0x3d59e558	0.053197235
191	0xbc7abfc7	-0.015304512
192	0x3e0d627f	0.13807105
193	0x3d27d3db	0.040973525
194	0xbdcf9b6a	-0.10137065
195	0xbdc43e81	-0.09582234
196	0x3c8d154b	0.017222067
197	0xbdad59bd	-0.08464382
198	0x3b5e067d	0.003387838
199	0x3d592c10	0.053020537
200	0xbda10021	-0.07861353
201	0xbda758a5	-0.081712045
202	0xbce78f4b	-0.02826657
203	0xbe034cff	-0.1282234
204	0xbdc092ac	-0.094029754
205	0xbdac16b9	-0.084027715
206	0xbd282472	-0.041050382
207	0x3d80f58d	0.06296835
208	0x3d1eeab1	0.038798038
209	0xbe6b8ac4	-0.23002154
210	0xbd265ff2	-0.040618844
211	0x3c977fa7	0.018493487
212	0xbd879fc2	-0.06622268
213	0x3da342b7	0.07971709
214	0xbd5a5474	-0.053303197
215	0x3d4a3b3f	0.049372908
216	0x3b9ca20f	0.004780061
217	0x3de27393	0.110572
218	0x3b0f1a3d	0.0021835708
219	0x3d0ef306	0.034899734
220	0xbbbaa1e1	-0.005695567
221	0x3d473997	0.048638906
222	0x3e32d27f	0.1746311
223	0x3d95b3fd	0.07309721
224	0x3d8e592c	0.06950602
225	0x3d3cc068	0.04608193
226	0xbd3cbe88	-0.046080142
227	0xbd25e680	-0.040503025
228	0xbd2bcf56	-0.041945778
229	0xbd2215cb	-0.039571565
230	0x3e0f8539	0.14015664
231	0x3dd42bf2	0.103599444
232	0x3dc89982	0.09794904
233	0x3da8b3ce	0.0823742
234	0x3cc8d084	0.02451349
235	0xbca9ab81	-0.020711662
236	0x3c617a69	0.013762095
237	0x3c17e826	0.009271657
238	0x3d075676	0.03304144
239	0xbcef9c5f	-0.029249368
240	0xbce58d6b	-0.028021535
241	0xbcd240d6	-0.025665682
242	0xbdc602d8	-0.09668511
243	0xbd6a19d8	-0.057153553
244	0xbd169d14	-0.036770895
245	0xbd1befa0	-0.03807032
246	0xbd3709a2	-0.04468692
247	0x3d051de8	0.032499224
248	0xbdebd737	-0.11515658
249	0xbd8e96b7	-0.0696234
250	0xbd12ccaa	-0.035839714
251	0xbda7e4bd	-0.08197925
252	0xbc8468e5	-0.016163299
253	0xbd7f3854	-0.062309578
254	0xbde7e096	-0.11322133
255	0x3d81d406	0.063392684

cnn.block1.1.weight f4 [16]
0	0x3fcf8712	1.6213095
1	0x3ff2cbde	1.8968465
2	0x3f4fd9b5	0.8119157
3	0x3fce59a4	1.6121106
4	0x40064f3c	2.098586
5	0x3fdb1d0d	1.711824
6	0x3f6ed5b1	0.9329482
7	0x3fc41249	1.531808
8	0x3fa41c93	1.282122
9	0x3f7d4336	0.9893068
10	0x3f8d04b7	1.1017064
11	0x3fea7cb8	1.8319311
12	0x3f808da5	1.0043226
13	0x3fcdf314	1.6089807
14	0x3fa95978	1.3230429
15	0x3fee8b4c	1.863626

cnn.block1.1.bias f4 [16]
0	0x3c74fd1c	0.014952924
1	0xbc00b5b5	-0.007855822
2	0x3ceb9d31	0.028761478
3	0x3cbddf7c	0.023177855
4	0xbd2fd693	-0.042929243
5	0x3c9eb44f	0.019373087
6	0x3d8212fe	0.06351279
7	0x3c00d636	0.007863572
8	0xbc5f1726	-0.013616359
9	0x3ba66404	0.0050778408
10	0x3ab33b2b	0.001367425
11	0xbd88a1ae	-0.06671463
12	0xbd2fad0a	-0.042889632
13	0x3d42e2a3	0.04757942
14	0xbc2f8600	-0.0107131
15	0xbb14231e	-0.002260394

cnn.block1.1.running_mean f4 [16]
0	0xbb12e6d3	-0.0022415414
1	0xb9c879b8	-0.0003823766
2	0xbc3cb031	-0.011516617
3	0x3abab31e	0.0014244055
4	0x3a323a2d	0.000679883
5	0x39997909	0.00029272612
6	0xbc324177	-0.010879866
7	0x3c32ccfb	0.010913129
8	0xbb9810f3	-0.0046406924
9	0xbbed71ba	-0.0072462233
10	0xb7c23b2c	-2.3154156e-05
11	0x3ad4e332	0.0016242026
12	0xbc3a2162	-0.011360498
13	0xb99e653e	-0.0003021154
14	0xbc52abe7	-0.0128583675
15	0x39653b55	0.00021861245

cnn.block1.1.running_var f4 [16]
0	0x3f201adf	0.62541
1	0x3f1be9a6	0.60903394
2	0x402a0d1f	2.6570508
3	0x3f21c17a	0.63185847
4	0x3ecbe2a4	0.3982135
5	0x3ef7d1b5	0.4840218
6	0x402e37c8	2.7221546
7	0x405a3b3e	3.4098659
8	0x3f79d5d6	0.9759191
9	0x3fd3aae4	1.6536527
10	0x3f862ef6	1.0483081
11	0x3ec3923a	0.381975
12	0x40267894	2.6011095
13	0x3e73a198	0.23792112
14	0x4042fee6	3.0468078
15	0x3f2bbd2d	0.67085534
