models/2a_subject specific/model_6.pth (torch, 985978 bytes, 93 tensors)

fusion_proj f4 [48, 48]
000000 66 05 02 be 67 41 ad be 22 5e f5 3e 57 12 4c 3f
       -0.12697372 -0.3383896 0.4792338 0.79715484
000010 f4 88 e6 bf 70 5e f9 3e bc f6 a0 bd 83 1b 39 3e
       -1.8010545 0.48704863 -0.07859561 0.18076901
000020 45 26 19 3f 07 cc 7a 3e 15 87 c9 bf f7 11 09 bf
       0.5982402 0.24491893 -1.5744349 -0.5354304
000030 09 3c e2 3e 1a aa dd be 0d 3a 07 bf ba 81 e9 bc
       0.44186428 -0.4329384 -0.52822953 -0.028504241
000040 43 20 14 3f ee 70 13 bf ff 78 09 40 c5 e7 c1 be
       0.5786173 -0.5759419 2.14801 -0.3787214
000050 e0 e7 ab bf 64 8d 1d be 09 f7 3c bf f5 7e 13 3e
       -1.3430138 -0.15385967 -0.73814446 0.14403899
000060 f9 c4 c3 3e d0 99 56 3f c7 52 a6 bf a4 3b fd 3f
       0.38236216 0.8382845 -1.2994012 1.9783826
000070 74 d4 b1 3e 62 c4 ae 3e 9e 54 c3 3f ad c9 8d 3e
       0.347324 0.34134203 1.5260198 0.2769293
000080 0c 7d 2d 3f cc fa 13 3f 9e 66 78 be 7e 90 11 bd
       0.6776893 0.5780456 -0.24257895 -0.03553819
000090 b3 5d 5c bf 7d 87 9b bf 50 a7 cd 3c 01 67 97 3f
       -0.86080474 -1.2150723 0.025104195 1.1828309
0000a0 a4 52 e6 3e c2 52 94 3e 1e 2a 37 3f fd 70 70 bd
       0.44984925 0.2896939 0.7154864 -0.058701504
0000b0 dd 36 bc 3f 27 fe 2a 3e 86 65 70 3f 50 5e 7d 3f
       1.4704243 0.16698514 0.9390491 0.98972034
0000c0 b6 47 3f 3f 37 de a0 3d 9f 80 82 bf 32 99 19 3f
       0.747188 0.07854884 -1.0195502 0.5999938
0000d0 df d7 24 40 c7 89 13 3f 25 ad 21 bf f0 d1 9b bf
       2.5756757 0.57632107 -0.6315482 -1.2173443
0000e0 05 f7 b6 be ae 86 2f 3f ef eb e6 3f 3f c1 e4 3f
       -0.35735336 0.6856488 1.8040751 1.7871474
0000f0 10 45 88 be 81 aa 61 3f 01 af 01 3f a6 af be 3f
       -0.2661519 0.88150793 0.5065766 1.4897354
000100 36 3f 7f 3e 5e 0b 85 bf a6 da 09 40 4b 95 15 bf
       0.24926457 -1.0394094 2.1539702 -0.5843093
000110 f2 76 d1 bf 15 c6 cc be 7e 08 82 3e d9 72 a2 bd
       -1.6364424 -0.39994875 0.25397104 -0.07932062
000120 a8 19 c5 bf cd fd 69 bf 7c 38 a5 3f a0 d9 0a 3f
       -1.5398455 -0.91402894 1.2907863 0.5423832
000130 a6 c8 5b 3f d7 41 7f bf 57 10 bd 3d c8 ec aa 3e
       0.8585304 -0.9970984 0.09231632 0.33383775
000140 ba 16 c4 3f c8 43 fa be b4 7d 2a be c9 72 e0 bf
       1.5319436 -0.48879838 -0.16649514 -1.753503
000150 59 a9 17 3e eb 60 90 bc ae d7 d0 be 13 24 08 3e
       0.14810695 -0.01762434 -0.4078955 0.13295011
000160 0b 68 5e 3f cf 99 3c 3b 29 42 fd 3e 81 8e 0c 3f
       0.86877507 0.00287782 0.4946454 0.54904944
000170 14 4a 6e 3e c0 9b ef 3e 80 c0 c5 be e0 be be 3c
       0.23270446 0.46798515 -0.38623428 0.023284376
000180 e7 a6 6f 3e 4e 17 22 bf 50 fa 4a bf 93 f1 c1 be
       0.23403512 -0.6331681 -0.79288197 -0.3787962
000190 c2 a1 bb be 5f 15 a3 bd a6 8c a0 bd 12 27 9a 3f
       -0.3664685 -0.079630606 -0.078393266 1.2043173
0001a0 a6 89 02 bf 15 be 72 be d7 2e e6 3e 66 dc 06 3f
       -0.50991285 -0.23705323 0.4495761 0.5268005
0001b0 87 df 97 bf 4c 2e 93 3f 26 d1 2e 3f 6a 88 5f 3f
       -1.186509 1.1498504 0.68287885 0.87317526
0001c0 f5 05 20 3e c4 cb a5 3d 2f b6 8b 3f 54 8e ca 3f
       0.15627272 0.08095506 1.0914973 1.5824685
0001d0 a3 d4 c0 be bf 5c 62 be bf b8 d3 be 4c 7b d7 3f
       -0.3766223 -0.22105692 -0.41351888 1.6834502
0001e0 08 ba 49 bd 7c f7 4c bf 2e a7 88 bf a3 61 b4 bf
       -0.04924968 -0.8006513 -1.0676019 -1.4092296
0001f0 93 59 93 be 9c ca c9 3e 31 1f 04 3f c1 cd c1 be
       -0.28779277 0.3941239 0.51610094 -0.3785229
000200 11 4c 91 3f cc 48 17 3f 54 a8 1c bf 7a 50 11 bf
       1.1351339 0.59095454 -0.6119435 -0.5676342
000210 84 25 04 3e fc 9a c9 3f d9 e8 95 3f 4e 3c 68 bc
       0.12904936 1.5750422 1.1711684 -0.014174534
000220 da 89 68 3f e5 94 a6 3f 0f 3b db 3e 5b af 21 be
       0.90835345 1.3014189 0.42818496 -0.15789549
000230 c2 48 0f bf e6 34 82 bf 73 47 7b 3f 7c 5f 3a bf
       -0.55970395 -1.0172393 0.981559 -0.7280195
000240 ea 04 4b bd 7c be 38 c0 53 6e 57 3f 7d af 7b 3e
       -0.049565233 -2.8866262 0.84152716 0.24578662
000250 a0 28 4d bf 7d 72 1b bd 32 cc 4d bf d8 c4 29 3c
       -0.80140114 -0.03795098 -0.803897 0.010361873
000260 f2 cf a3 bf d6 f1 ac bf 2a 4e d8 be 95 14 a8 3f
       -1.2797835 -1.3511302 -0.42247134 1.3131281
000270 01 28 e5 be 03 34 25 be 11 53 50 3f c6 c4 48 bf
       -0.44757083 -0.16133122 0.8137675 -0.7842525
000280 6a 8d 78 3f f6 4f a7 bc 90 30 c2 be 0c 8b 2e 40
       0.9709078 -0.02042387 -0.37927675 2.7272367
000290 ef 09 f4 bf c9 70 48 be e0 4c f5 be 76 08 fc 3f
       -1.9065531 -0.19574274 -0.47910213 1.9690082
0002a0 cc f1 5e 3e 85 96 26 3f af d7 57 3e b4 9d 0d c0
       0.21771926 0.65073425 0.2107837 -2.2127504
0002b0 c0 e5 9f bf 3e 69 74 3f 2e 8b 2c be b8 08 16 be
       -1.2491989 0.95473087 -0.16849968 -0.14651763
0002c0 e7 7b 67 bf 4d 56 30 bf 96 56 db be 37 5e ba be
       -0.90423435 -0.68881685 -0.42839497 -0.36400005
0002d0 50 90 57 bf c8 c1 98 bc f6 dd 4f bf 63 6d 95 3e
       -0.8420458 -0.01864709 -0.8119806 0.29185018
0002e0 39 e5 a4 ba 70 fd 53 be 33 a6 2e 3f f7 5a 85 3f
       -0.0012580521 -0.20702147 0.6822235 1.0418385
0002f0 3d e8 5c 3d e0 6e 7b be 00 43 bd be d2 53 6b 3f
       0.053932417 -0.24554014 -0.3696518 0.91924775
000300 dc f4 04 3f 08 7f d0 bd b3 97 b9 3e ce b8 81 3f
       0.51936126 -0.10180479 0.3624855 1.0134523
000310 92 c0 0d 3d c5 a9 8c be b1 40 0f 40 6f dc 1a 40
       0.034607477 -0.27473274 2.2383235 2.4197042
000320 62 6f d1 bf 3a 5f 1f be 18 2f 88 3f cf e7 e3 bd
       -1.6362116 -0.1556367 1.0639372 -0.11128198
000330 ea 5a 73 bd aa e2 57 bf 27 0e 46 3f d2 81 8d 3e
       -0.059412874 -0.84330237 0.77365345 0.27638108
000340 45 15 3f bd fd b3 70 bf ec 0d 93 be 1a 77 96 3f
       -0.046651144 -0.9402464 -0.2872156 1.1755097
000350 b8 03 94 3f ae 1a 99 be c8 46 6a be d8 4b 23 40
       1.1563635 -0.29903167 -0.22878563 2.5515041
000360 33 2f e9 3e b3 9e ce 3f 0b a4 80 bf f5 f5 21 bf
       0.45543823 1.6142181 -1.0050062 -0.63265926
000370 57 87 19 3e 38 f3 0b bf 44 3f 90 be 9b 6d 22 3f
       0.14993034 -0.54668 -0.28173268 0.63448495
000380 21 94 fb bf 6a 87 b0 3f ef b9 88 bf 4c 94 b0 bd
       -1.965458 1.3791325 -1.0681742 -0.086220354
000390 04 be ec be 74 ee 98 3e 4b b5 93 3f e1 18 09 bf
       -0.4623872 0.29869425 1.1539701 -0.5355359
0003a0 75 ca 82 bf e2 0c ee 3f 90 d2 6c bf e4 b1 e5 3d
       -1.0218035 1.8597682 -0.9250879 0.112155706
0003b0 38 6a 74 3f d1 f2 0b 3f 8f a5 9b be 36 46 69 3e
       0.95474577 0.54667383 -0.3039975 0.2278069
0003c0 21 3f c3 3e ce f1 4f bf 2c 2e 8a be 09 95 b7 bf
       0.381341 -0.8122834 -0.2698835 -1.4342357
0003d0 aa b3 14 c0 4a 7b 17 bf fc 5d db 3f 85 d8 01 3f
       -2.3234658 -0.591725 1.7138057 0.5072101
0003e0 95 28 4f 3f c5 ae d6 3d 51 ef 00 c0 41 63 34 bf
       0.809213 0.104825534 -2.0146067 -0.7046395
0003f0 81 d8 fd be f2 76 88 bf 88 04 4f 3f 74 73 86 3f
       -0.49579242 -1.0661299 0.8086629 1.0503983

pos_enc f4 [1, 500, 48]
000000 97 bf 93 be a4 b3 6d bf 98 49 6c bf 39 de 12 bf
       -0.2885711 -0.92852235 -0.92299795 -0.57370335
000010 3e 4d c9 3e c4 3c 58 be e2 eb d2 bf 33 6d 2b bf
       0.39316744 -0.2111693 -1.6478236 -0.669635
000020 3b 46 86 bf b3 97 4b 3e 48 ed 9f bf 6c 6b ab bf
       -1.0490183 0.19882087 -1.2494287 -1.3392158
000030 26 cf a1 3f 25 23 0b 3f a3 0d 04 be e3 73 a3 bf
       1.2641342 0.543505 -0.12895827 -1.2769741
000040 bd 82 e4 bf cb 65 bc bf 6e fa d6 3e 71 18 7f bf
       -1.7852398 -1.4718565 0.41987938 -0.9964667
000050 56 78 e6 3f 39 8f e2 be af ea 3e c0 18 e4 00 bf
       1.8005474 -0.44249895 -2.983074 -0.50348043
000060 1d a5 b2 3f 3d 83 99 3f e8 c8 e7 bd f6 0d 41 be
       1.3956639 1.1993176 -0.11317617 -0.18852982
000070 c4 60 a5 be a3 26 b6 bf 51 54 6e 3f 84 54 db be
       -0.3230039 -1.4230541 0.93097407 -0.42837918
000080 07 ef 0c 3f ac 63 c4 bd 99 fe 86 bf fc 70 58 3e
       0.55052227 -0.095893234 -1.0546447 0.2113685
000090 18 01 f0 3f 3d 45 ff bf a4 5f 04 c0 15 77 3f bf
       1.8750334 -1.9943005 -2.0683374 -0.7479108
0000a0 65 42 b1 3b 10 d9 40 3e 54 ea 99 bf 11 50 e0 3e
       0.005409526 0.18832803 -1.2024636 0.43811086
0000b0 6a 5b 88 3e 44 1f d8 bf e3 65 80 bf 65 27 fc 3d
       0.26632243 -1.6884542 -1.0031093 0.123122014
0000c0 aa c9 b8 3d 94 2d 08 bf a6 3c bc bd b1 79 b4 3f
       0.09022839 -0.53194547 -0.09191255 1.4099637
0000d0 dc d5 98 3e a3 42 34 be a1 90 de bd 75 e8 59 bf
       0.29850662 -0.17603545 -0.108674295 -0.85120326
0000e0 93 6a aa 3f 6b d1 0b 40 e3 b6 0f bf ea d2 a6 3f
       1.3313774 2.1846569 -0.5613844 1.3033116
0000f0 95 b1 4a bc 28 4c a3 bf 25 7d c8 bf 95 8f 44 be
       -0.01237144 -1.2757616 -1.5663191 -0.19195397
000100 18 18 79 be d5 f9 9e bf 9d 98 cc 3e a9 80 e5 3f
       -0.24325597 -1.2419993 0.39960185 1.7929889
000110 4b be 41 3f 53 f5 a7 3f 4a 9d 28 bf 7d c3 c0 be
       0.7568099 1.3121742 -0.65865004 -0.37649146
000120 26 b7 20 c0 be af 63 bf 56 53 03 40 2a 75 8d 3e
       -2.5111785 -0.88940036 2.0519614 0.27628452
000130 41 f3 b7 bd bd 14 ff bf 5e cb 51 be 85 09 57 3f
       -0.08981944 -1.9928204 -0.20487735 0.839989
000140 c1 83 bd 3f b8 5b d9 3e dc 03 aa be d4 1b 02 c0
       1.4805833 0.42452788 -0.3320607 -2.0329485
000150 0f 13 1c 40 d3 c9 1a 3f d8 88 48 bf a0 f9 c5 bd
       2.4386632 0.6046421 -0.78333807 -0.09666753
000160 6d fb 8b bf 88 95 e3 bf 72 a4 cc bf 2e 0f 6c 3e
       -1.0936104 -1.7780008 -1.5987685 0.23052666
000170 5b 16 1b bf 55 f8 58 c0 20 03 f4 bf 86 4f c8 bf
       -0.60580987 -3.390157 -1.9063454 -1.5649269
000180 25 45 2d bf fc d8 68 3f ec 7c 2c bf 54 ae 2a 3f
       -0.6768363 0.9095609 -0.67378116 0.66672254
000190 1c af b4 bf 57 a0 45 40 4d 73 19 3f e8 f1 0f c0
       -1.4115939 3.0879114 0.5994156 -2.2491398
0001a0 f8 de a7 3f 6a ca f4 bf 5c 22 cf 3d 6d 1d 77 3f
       1.311492 -1.9124272 0.101139754 0.96529275
0001b0 68 72 0e bf 1f a4 2e 3f 9b 5c b9 3d 8f a9 42 be
       -0.5564332 0.6821918 0.09050866 -0.19009994
0001c0 67 55 26 bf 0e 79 e3 3f ae 68 71 bf 77 3e 1b bf
       -0.64974064 1.7771318 -0.94300354 -0.6064219
0001d0 52 ce 2d bf 62 85 7b 3e 6f ae 7b 40 2d e7 31 3f
       -0.67892945 0.245626 3.9325216 0.6949337
0001e0 10 2d 22 bf 30 86 b8 bf 63 8f 27 3e 10 b8 6a 3f
       -0.6335001 -1.4415951 0.16363291 0.9168711
0001f0 be 0c f7 3f 15 a1 dd bf 34 3c 06 c0 a6 cc a4 3f
       1.9300764 -1.7314783 -2.0974245 1.2874954
000200 cf fc b0 be b0 92 36 3f d2 ef d2 bf e2 f1 38 bf
       -0.34567878 0.7131758 -1.6479437 -0.72244084
000210 cb 23 63 3f 7c a9 30 40 86 1c a7 3f 8b 4f 6a bf
       0.8872649 2.7603445 1.305558 -0.9152762
000220 c2 d0 4e bf 70 74 c6 be a2 ce 7b bf 35 13 8c 3f
       -0.8078729 -0.3876071 -0.9836217 1.0943362
000230 e3 25 f4 bf e6 16 a0 bf 43 bc d0 3f 87 b8 76 bf
       -1.9074062 -1.2506988 1.6307453 -0.96375316
000240 fb 5e c9 bf 07 4a f9 be 1f 7e 39 3f 54 b8 84 bf
       -1.5732111 -0.4868929 0.7245807 -1.0368752
000250 e6 aa 18 3f b3 bf cf 3f 33 20 37 c0 cb 31 c7 3f
       0.5963577 1.6230377 -2.8613403 1.5562071
000260 fb 98 a6 bd 62 b1 f4 be fd 09 b2 3d 97 12 9f bf
       -0.081346475 -0.47791582 0.08693311 -1.2427548
000270 2f 2c 7c be be ec 34 bf c1 64 48 be c0 66 a6 be
       -0.2462623 -0.7067374 -0.19569685 -0.32500267
000280 6a 74 08 bf 1f f8 e7 be 9b ea bd bd f1 c2 b7 bf
       -0.53302634 -0.4530649 -0.09273263 -1.4356366
000290 37 08 48 3f 07 a5 d8 bf 29 f2 a4 3e d2 b4 2b c0
       0.78137535 -1.6925362 0.32216004 -2.6829114
0002a0 16 bf 7c bf fe 67 02 c0 77 2b c8 3f 83 03 a3 3f
       -0.98729074 -2.0375972 1.5638264 1.2735447
0002b0 3a 7c 0d 40 19 f4 f9 3f 62 8e 6a 3f 59 cd ee bf
       2.2107072 1.9527618 0.9162351 -1.8656417
0002c0 b0 34 46 bf a8 d3 6d 3e 5d 96 be be 15 59 1e bf
       -0.77424145 0.23225272 -0.37224093 -0.6185468
0002d0 c1 18 00 bd a2 9b 91 be 7c cb 13 c0 24 a5 46 bf
       -0.031273607 -0.2843905 -2.3092947 -0.77595735
0002e0 6d a7 8e 3e 3f 9e 2f 3f b0 a9 d3 bd d8 25 b9 3f
       0.2786211 0.6860084 -0.103351 1.4464674
0002f0 a7 a3 27 3f 41 48 34 40 5c af c4 bf 95 5f 3e 3f
       0.6548409 2.81691 -1.5366015 0.74364597
000300 1d 5c fb 3e 6a 95 8e 3d b2 35 e3 3f fb a2 21 3f
       0.49093714 0.06962092 1.7750762 0.63139313
000310 bf 88 5f 3f b9 e1 99 bc 02 41 24 3e 02 16 94 bc
       0.8731803 -0.01878439 0.16040424 -0.0180769
000320 06 4a 2a bf b4 34 00 3f 14 3e ad 3f 6f 70 0b c0
       -0.665192 0.5008042 1.353457 -2.1787374
000330 f8 48 ae 3f df 6c 28 bf be 8f e2 3e 9b ea 88 3e
       1.3616018 -0.65791124 0.44250292 0.2674149
000340 a7 f7 55 be 37 7b 84 3e 48 5c c0 3c 55 e7 86 bf
       -0.20895253 0.25875255 0.023481503 -1.0539347
000350 e3 48 d0 bf 3e 78 41 3f 66 2c af be 32 53 07 40
       -1.6272243 0.755741 -0.3421356 2.1144528
000360 1d 89 d4 bf 3e 37 6e bf 0f 79 28 40 26 37 78 3f
       -1.6604344 -0.9305304 2.6323888 0.9695915
000370 c7 fb d8 bd f2 16 13 bf 1d 69 25 40 99 93 a5 bc
       -0.10594898 -0.57456887 2.5845406 -0.020211982
000380 9e 56 00 3f de ed 91 bd be ed 98 3e 3d ce 2d 3f
       0.5013217 -0.07125448 0.29868883 0.6789282
000390 f5 73 b3 3e c0 f1 d2 bf cb 99 ed 3e 49 62 a8 bf
       0.35049406 -1.6480026 0.46406397 -1.3154994
0003a0 cb 4d 3b bf 05 43 8a be a5 f4 98 bf dc 56 1a c0
       -0.7316558 -0.27004257 -1.194966 -2.4115515
0003b0 71 b4 ea bf 42 5b e8 3f e0 93 0e bf 85 ed a8 bf
       -1.8336316 1.815285 -0.5569439 -1.3197485
0003c0 90 d7 bf 3f 55 29 87 bf 74 69 31 3f de 9e be 3f
       1.498766 -1.0559489 0.69301534 1.4892232
0003d0 5b 2f da bf 79 ff 09 bd fe 26 7f 3f 31 20 f6 3e
       -1.7045702 -0.033690903 0.9966887 0.48071435
0003e0 8b 5d b7 bf 57 d1 f2 3f d5 f2 fa bc 2c 96 76 bf
       -1.4325422 1.8970135 -0.03063337 -0.96322894
0003f0 20 28 d2 3f 2c c1 67 be c0 4f 13 bf d7 1a b3 be
       1.6418495 -0.22632283 -0.57543564 -0.34981415

riemannian.proj.0.weight f4 [256, 253]
000000 07 ab b7 be c4 9d c1 3c f7 6b ab bd 1e 13 06 3d
       -0.3587267 0.023634799 -0.08370202 0.032733075
000010 ab 13 b5 bc 1e 23 27 bd 80 16 d3 3d 15 93 2d bd
       -0.022104105 -0.040804975 0.10307026 -0.042376596
000020 02 c6 72 bd 21 55 1f 3d 45 7d 54 bc 3e 6e 57 bd
       -0.059270866 0.038899545 -0.01296932 -0.05259537
000030 99 55 98 bd 7d db 1c bc b4 fe c8 bd 27 67 c1 bd
       -0.074382015 -0.009573814 -0.09814206 -0.09443503
000040 17 e7 18 bd e4 d5 df 3c f3 38 12 bd 1d 49 cb 3d
       -0.03732976 0.02732367 -0.035698842 0.099260546
000050 4b 66 2a bd 10 09 39 3d 86 50 44 3d 95 ef 3f bd
       -0.04160146 0.04517466 0.047928356 -0.046859343
000060 d0 ea 93 3a 3f a7 22 bd 61 ab eb bd 9a 7c 82 3d
       0.001128519 -0.03971028 -0.11507297 0.06371422
000070 6c 54 86 3d a4 40 e4 bd b0 bd 34 3d bb a8 97 bc
       0.06559071 -0.11145142 0.044126213 -0.018513074
000080 b9 ed 82 bc 82 19 0b be a2 ce 44 be 98 5e 20 3d
       -0.015982496 -0.13583949 -0.19219449 0.03915271
000090 cb 11 f1 3c 9f dd 4e bd 63 38 cf 3c 87 be 5c bd
       0.02942743 -0.050504323 0.025295442 -0.05389264
0000a0 d7 5d 2d 3d f9 1f 6e bd ad cc 0c bc d3 0f 8d 3d
       0.04232582 -0.05813596 -0.00859372 0.06887784
0000b0 f8 10 e2 3b d9 da 69 bb f6 d2 3c 3b fb 0b a9 bd
       0.0068989955 -0.0035683422 0.0028812266 -0.08254238
0000c0 9c ce 8a bd 57 b7 79 3c fe 2b c1 3d a6 0a f0 3b
       -0.06777689 0.0152414655 0.09432219 0.007325488
0000d0 f7 a3 a8 bd f4 43 96 3c ce 3d 1a 3c 7f 5b f8 bb
       -0.08234399 0.01834295 0.009414149 -0.0075792666
0000e0 b6 47 90 3d 32 0c c2 3b 69 6f 58 3d cf 2a f1 bc
       0.07044928 0.005921864 0.052840624 -0.029439358
0000f0 f4 2e bc 3b 8e a7 b6 3d ca 7b 17 3a e3 be 73 bc
       0.005742902 0.08918677 0.0005778639 -0.014877054
000100 45 42 80 bb 39 2e ba 3c aa 73 d6 bb 5e a1 97 bc
       -0.00391415 0.022727119 -0.00654455 -0.018509563
000110 1e d2 93 bd 15 82 9d 3d f9 07 a4 bd 5b 94 3e 3c
       -0.07217811 0.07690827 -0.08009333 0.01163205
000120 ef 07 e8 3d 30 09 cf bb 74 91 95 3d 5f ba ba bd
       0.11329638 -0.006318234 0.073031336 -0.09117579
000130 1b bc a8 bd 1a 11 2d 3e 2a d5 93 bd 28 19 99 3c
       -0.08239003 0.16901055 -0.07218392 0.018688753
000140 43 ff e1 bd fe 5f 0c bd c6 cf 5e bd 1e fb 81 bd
       -0.110350154 -0.034271233 -0.054397367 -0.06346725
000150 18 ac 31 3c a6 77 33 bd bc cd 86 bc 60 78 0a 3e
       0.010844253 -0.043815278 -0.016455524 0.13522482
000160 c8 57 bb bc 43 4c 21 3c ec 7c 44 3d 72 8c a7 3d
       -0.022869006 0.009844842 0.047970697 0.08181085
000170 56 c9 8f 3c 2e 7e 01 be 1c 41 a2 bd 01 2d 83 bd
       0.01755206 -0.1264579 -0.07922575 -0.06405068
000180 f2 20 8c 3d 65 e3 94 3d e4 3c ed 3c ca 2a fd bb
       0.06842221 0.072699346 0.028959699 -0.007726048
000190 79 e7 e9 3c ba ad 8a bd 08 68 8c 3d d9 65 6a 3c
       0.028552758 -0.06771417 0.0685578 0.014306509
0001a0 fe 53 8f 3a 8c e9 9b 3a a5 c3 0e 3d 20 9a ba 3d
       0.0010935066 0.0011895164 0.03485455 0.09111428
0001b0 39 4b 25 3d 40 77 5e 3d ff 43 ee 3d 92 77 b8 3c
       0.04035494 0.054312944 0.11634063 0.022517953
0001c0 62 db 0f 3c 08 ca 35 bd d8 80 67 bd 1c 1c d6 bc
       0.008780332 -0.044382125 -0.05651936 -0.02613645
0001d0 d9 96 82 bd 07 b1 3d 3d 7c da 08 3d 09 1f 50 3d
       -0.06376428 0.046311405 0.033411488 0.050810847
0001e0 82 04 2e bd 68 3d 34 3d 15 41 a7 bd 87 d4 fc 3d
       -0.042484768 0.044003874 -0.0816671 0.12345224
0001f0 e1 79 1b ba f2 38 a4 3d 72 c4 d3 bd dd 7a d1 bd
       -0.0005930942 0.08018674 -0.10340203 -0.102285124
000200 77 8c 81 bc b3 bf 40 3c 2c 89 07 3d 4c 21 b4 bc
       -0.01581405 0.011764455 0.0330898 -0.021988533
000210 2e 2f d3 bc 43 b5 40 bd 1d cf 89 3b a0 46 9d bd
       -0.025779333 -0.047047865 0.004205598 -0.07679486
000220 06 4c 87 3b 25 57 bb bc cb 3c a8 bd 00 fc 0f 3e
       0.0041289357 -0.022868702 -0.0821472 0.14060974
000230 18 2d 1b 3d 6c cd d7 bd 7e b9 b1 3d bd f1 9e 3d
       0.0378848 -0.10537228 0.08677958 0.07760952
000240 1f bf d9 3c d6 47 13 bd 14 36 a6 3c 7c fe 47 3c
       0.026580391 -0.03595718 0.020289458 0.01220667
000250 96 a1 2b 3d 4a 57 f6 3c b5 80 8e bc f6 c8 17 bd
       0.041902147 0.03007092 -0.017395357 -0.037056886
000260 05 09 f7 bc 9d dc ba 3d 9c 20 36 3c af e3 b5 ba
       -0.030155668 0.0912411 0.011116173 -0.0013877059
000270 83 20 9f bd 19 9b 8a bc 57 7f cc 3d 61 53 40 bd
       -0.07769873 -0.01691966 0.09985226 -0.046954516
000280 92 2c ea bc 6c 57 2c 3c 88 a9 05 be bb 77 a3 bd
       -0.028585706 0.01051889 -0.13052952 -0.07981821
000290 58 64 67 bc 06 97 c3 3c 82 be 53 3c ec d2 7b 3d
       -0.014123045 0.023875725 0.012923839 0.061480448
0002a0 68 99 f9 3d 0b 04 61 3d 44 5b ae 3c 3c d9 55 bd
       0.12187463 0.054935496 0.021283753 -0.052209124
0002b0 6e 1e 74 3c 21 10 97 bd da 70 a7 bd 85 96 45 bd
       0.014899833 -0.07376123 -0.081758216 -0.04823925
0002c0 7c b2 49 bd 9a 87 b3 3b 26 8f 0b be c7 96 bf bd
       -0.04924248 0.0054788115 -0.13628826 -0.0935493
0002d0 26 4c 70 bd 96 80 3c 3d 40 45 f1 3c b6 8b 05 3c
       -0.05866637 0.046021067 0.029451966 0.008150985
0002e0 63 1b e2 3d 34 a1 7c bc 45 fc f0 bc a5 8e 41 3d
       0.1104038 -0.015419293 -0.029417166 0.047255177
0002f0 b7 32 c4 bc a5 2a ac bd 8c 64 af 3c fa f4 27 3c
       -0.023949964 -0.08406571 0.02141025 0.010251278
000300 1e 22 8a 3d b3 a8 00 bd f1 4e 26 bd 96 7c 29 bd
       0.067447886 -0.031410884 -0.04060263 -0.04137858
000310 9e 27 ef 3c 90 2f 19 3d 00 8b 33 3c 44 8b 50 3d
       0.029193696 0.037398875 0.010958433 0.050914064
000320 8d f0 eb bc e2 c8 7a 3c 3b 18 74 3d 48 3a 04 be
       -0.028801227 0.015306683 0.05959342 -0.12912858
000330 9c 51 44 bc 8a 19 76 3d e4 cd d1 3d 75 66 6c bd
       -0.011982348 0.06008295 0.10244349 -0.0577149
000340 c0 b3 d0 bd 6c e4 a0 3c e5 d5 28 3d 3e d0 ec 3c
       -0.101905346 0.01964017 0.04121961 0.028907891
000350 81 87 cc 3d 87 1c 1a bb d3 e8 a0 bd ef 44 0e 3d
       0.09986783 -0.0023515539 -0.07856908 0.03473371
000360 d2 02 99 bd 09 30 1c 3d 40 bb 1e 3d 36 d0 10 bc
       -0.07471241 0.038131747 0.038752794 -0.008838704
000370 e2 77 73 bd 03 77 d4 3c f8 00 ce 3d b2 d3 b8 bd
       -0.0594405 0.025935655 0.100587785 -0.09024753
000380 d8 56 a7 bd 01 8a 01 3c b0 c5 5f bd 6b 69 22 bd
       -0.08170861 0.007906438 -0.05463189 -0.039651316
000390 7b 33 ce 3c 79 fd b2 bd d8 2a d3 3d 34 cf 36 3d
       0.025171032 -0.08739752 0.10310906 0.044631198
0003a0 d1 e8 73 bc 94 eb 14 3d 2b d1 40 3d f7 8e a9 3d
       -0.014887051 0.036357477 0.047074478 0.082792215
0003b0 ee 2c 2e 3d 33 92 18 bd 85 22 aa bb b8 49 b1 bd
       0.042523317 -0.0372488 -0.0051921033 -0.08656639
0003c0 ea 74 6f bd 3a f6 a8 bd 5f 1d 07 bb f9 25 6c bd
       -0.058461107 -0.08250089 -0.0020616872 -0.0576534
0003d0 a4 19 e1 bd ff 58 49 3b 7c 13 91 bd 0e 7e 88 bc
       -0.10991219 0.0030723212 -0.070837945 -0.01666167
0003e0 25 aa 02 bd 4a b2 ea 3c 71 f8 2f bb 8e 32 84 bd
       -0.031900544 0.028649468 -0.0026850963 -0.06454955
0003f0 5a 91 0b be b6 14 2e be 64 8b ba 3c c4 d1 47 bd
       -0.13629666 -0.17000088 0.022771545 -0.048784032

riemannian.proj.0.bias f4 [256]
000000 b3 74 36 3c d4 17 ff bc f3 9a 98 bc 80 a4 f5 3c
       0.011136222 -0.031139292 -0.018628573 0.029985666
000010 de e0 e5 3a 90 47 a1 3b 9f 30 c0 3c e1 0f 85 bb
       0.0017538329 0.004921861 0.023460684 -0.004060731
000020 c5 89 62 bc e7 46 0c 3c 81 c6 1e 3c 8b 66 38 b9
       -0.013826792 0.008561826 0.009690882 -0.00017585808
000030 43 77 51 3c ff 9c cf 3b 94 f8 47 3b 22 b5 3c bc
       0.012784782 0.006335854 0.0030513154 -0.011517795
000040 d5 51 59 bc a9 fb 51 3b e7 a4 3b 3c c4 32 b9 3b
       -0.013264139 0.003204087 0.01145289 0.0056518037
000050 6c fa 8f bb 3d ab fe 3c 2a 52 89 3b 9b d3 41 bc
       -0.0043938663 0.031087512 0.004190703 -0.011830236
000060 f4 b7 00 3c d1 e5 ab b9 57 82 02 3c 8f 4f 02 3c
       0.007856358 -0.00032786888 0.007965646 0.007953539
000070 f9 47 12 3d 16 c7 2f 3c 40 ca 49 bc 6a dc 15 bc
       0.03571317 0.010728618 -0.012316287 -0.009146789
000080 75 90 45 3c e3 5f 06 3d 23 91 91 bc b7 34 62 bc
       0.012058367 0.03280629 -0.017769402 -0.0138065135
000090 76 a9 91 3c c6 4b d4 bb 5e 54 9a 3c 0e b4 f8 bb
       0.017781 -0.0064787595 0.018839058 -0.0075898236
0000a0 e8 52 69 bc 22 74 68 b8 2c c1 ad 3a 96 a0 5f bc
       -0.014240958 -5.5421267e-05 0.0013256422 -0.0136491265
0000b0 25 de 60 bc 91 b7 13 bc 5b 2e 4b 3b 2d 13 a5 3b
       -0.013724838 -0.009015934 0.0031002972 0.0050376863
0000c0 44 93 75 3c d1 f7 d3 3b 49 66 00 bc 42 31 04 3d
       0.014988724 0.006468751 -0.007836887 0.03227354
0000d0 af 08 39 bc 15 7b 84 bc 6c e1 fc bb 95 50 4b 3c
       -0.011293574 -0.016171971 -0.007717302 0.012409349
0000e0 99 b0 fb 3b 51 a5 e3 3b 9f df b5 3b ba 91 4c 3d
       0.007680964 0.0069471975 0.0055503394 0.049943663
0000f0 74 f5 21 3c 38 e6 5f 3c b4 57 9e bc 59 27 21 3b
       0.009885181 0.013665728 -0.01932893 0.0024590103
000100 7d 74 a6 b9 33 e9 1c 3c 95 0f 3d ba 50 40 7f bd
       -0.00031748778 0.009577083 -0.00072121 -0.062317193
000110 bf 16 28 3b 66 62 16 bc 84 a5 1a bc 3f 5a 94 3a
       0.0025648323 -0.009178733 -0.009438876 0.0011318399
000120 a5 80 d1 bc e4 5f aa bc f2 ab 46 bc 4f 16 0e bc
       -0.025574038 -0.020797677 -0.012125956 -0.008672311
000130 52 72 07 3c 11 7a 4a bc fc b9 d1 bc 35 ea 07 3d
       0.008267002 -0.012358204 -0.02560138 0.03318234
000140 92 d6 5f 3c 78 98 86 bb 97 aa 79 bc b6 b8 18 bd
       0.013661997 -0.004107531 -0.015238426 -0.03728553
000150 c7 dc b7 bb 83 70 34 ba e9 ea 60 3b c9 dd 8f 3c
       -0.0056110355 -0.00068832206 0.0034319705 0.01756181
000160 f8 49 23 3a 8a 8b c7 3a cd d1 65 3b 8f 9f e8 bc
       0.0006228979 0.0015224081 0.0035067678 -0.028396396
000170 32 06 e1 39 4e 4f 2f bc f1 e2 6a 3b 83 56 9a bc
       0.0004291996 -0.01070006 0.0035840834 -0.01884008
000180 5a 34 d2 3b 81 8d 16 3c 7c 9f cb 3c 48 a2 9a 3c
       0.006414932 0.009189011 0.024856322 0.01887621
000190 30 79 81 bc 59 0c b1 3c dc 5b a0 bc 4b 59 a5 bb
       -0.015804857 0.021612333 -0.019575052 -0.005046045
0001a0 0f 0b 0a bc c3 d3 fc bb 7d 28 cc bc 30 16 0b bd
       -0.008425488 -0.0077156737 -0.02492165 -0.033956707
0001b0 5d ba 8e 3a 6f 65 a0 3c db 4c 0b bd 8d 9a 51 bc
       0.0010889281 0.019579617 -0.034008842 -0.012793195
0001c0 44 1e 0d bc 2d 15 13 3c 8a 1e fb bb 2d 15 ab 3c
       -0.008613173 0.008977217 -0.0076635526 0.02088412
0001d0 17 ad 4b 3c 5f 5a 34 3d 07 48 8b bc 8d 1e 45 3c
       0.012431405 0.044031497 -0.017002119 0.01203121
0001e0 e8 ff 25 3c 2c 62 2d 3c 68 da 64 3b 80 00 8d 3b
       0.010131814 0.010582488 0.003492022 0.004303038
0001f0 20 12 fb ba 8c b5 97 bb f2 b6 ca bc 1a 64 88 bc
       -0.0019155182 -0.0046297964 -0.024745438 -0.016649295
000200 0d 4b 1b bb a4 df e5 bc cd 0c 67 3c 77 9c 0e bc
       -0.0023695857 -0.028060742 0.014102173 -0.008704296
000210 b3 f8 dc bc 5f a1 db ba ba f2 76 bb 2e 96 88 bc
       -0.026974058 -0.0016756466 -0.0037681297 -0.016673174
000220 6e 9f f7 3a 30 a8 e0 3c fb df c4 3c 39 1e 31 3c
       0.0018892118 0.027423948 0.024032583 0.010810428
000230 0b 8f 77 3c ef 32 ef 3c 71 f5 a4 3b b2 a5 6f 3b
       0.015109788 0.029199092 0.0050341417 0.0036567268
000240 ad c3 39 bc b9 81 2e 3c 48 9f 68 3a 61 3a 60 bc
       -0.011338157 0.0106510455 0.00088738324 -0.013685794
000250 b5 2e c9 ba 5e 4f 4f bc 1a 7c 29 3b e4 07 29 3c
       -0.0015349003 -0.0126532 0.0025861324 0.010316823
000260 d9 c5 51 bb 6d 44 ec 3c e5 1e e0 39 51 df 2a bc
       -0.0032008796 0.028841222 0.00042747628 -0.010429219
000270 41 09 25 ba 2f b5 10 3a ef c8 3d 3b 83 54 a3 bc
       -0.00062956294 0.00055201625 0.0028958877 -0.01993776
000280 14 7e fc bb 3d 85 46 3b 51 4d ac bb 4f 5c f2 bb
       -0.0077054594 0.0030291819 -0.0052582403 -0.007396258
000290 c0 a9 39 bc aa c7 96 bc 30 f1 04 3b 56 24 cd 3b
       -0.011331975 -0.018405754 0.002028536 0.006260435
0002a0 4b 19 22 ba b7 cb ed bc 1f 7a e3 3c 7a fe b2 3b
       -0.00061835785 -0.029027803 0.027768193 0.005462465
0002b0 e7 f8 5a 3c 90 87 81 3b 95 ca b3 3b 08 0e 38 bc
       0.013365007 0.003952928 0.005486796 -0.011233814
0002c0 31 83 84 3c 63 d0 26 3b 1c 58 96 3b 24 b4 a5 3c
       0.016175838 0.0025453798 0.00458814 0.0202275
0002d0 81 42 22 3c 09 5e 2c bd 87 11 12 3c 68 73 9d 3b
       0.009903551 -0.042081866 0.008915312 0.0048050173
0002e0 57 06 3c 3c 6c 77 1e bc 1a 17 29 bc 09 2b 4c bc
       0.011476121 -0.009672027 -0.010320449 -0.012461432
0002f0 8d 15 9e bc f7 91 c1 bc 71 55 b0 bb 76 92 88 3c
       -0.019297386 -0.023629172 -0.005381279 0.0166714
000300 cd 14 b4 bc 81 c1 ac 3c 99 b2 9b bb 09 d1 86 3c
       -0.021982575 0.021088364 -0.004751515 0.016457098
000310 38 f1 d0 bc 74 7e 44 bd ed 86 9b bb 6e d8 a3 bc
       -0.025505647 -0.047972158 -0.004746309 -0.020000663
000320 03 32 3a 3c 7b 8f 01 bc 74 88 1a 3c e6 c8 c8 bb
       0.011364463 -0.007907744 0.009431947 -0.0061274646
000330 25 ca f2 bb 6b f6 ab bb 5b 44 d2 3b b3 48 a3 ba
       -0.0074093514 -0.005247881 0.00641684 -0.0012457579
000340 4d f3 87 bc 6a fe 1d 3a 10 41 bc 3b 0d a3 93 ba
       -0.016595507 0.00060269854 0.0057450607 -0.0011263803
000350 4a 6c f2 3a dc 12 58 3d 45 08 1e 3c be c6 ed bb
       0.0018495407 0.05275236 0.009645526 -0.007256358
000360 3f f2 bf bb ef e9 df 3b ca 7d dd bb 62 1f 5e 3c
       -0.0058577354 0.006833307 -0.00675938 0.013557287
000370 97 ba c5 3c bf 64 13 bc ce 38 bd bc d5 b3 cd 3c
       0.024136825 -0.008996188 -0.023098376 0.025110165
000380 3c a8 9c 3b db 5e ad bc 4e ca 1e 3b 81 f1 cb 3c
       0.0047807973 -0.021163395 0.002422947 0.024895431
000390 27 e7 5f 3c ff fa 9d 3b 14 09 fa 3c 28 0f 83 bb
       0.013665951 0.004821181 0.030521907 -0.0039996095
0003a0 43 b1 a2 bc 30 7d 3b 3c 10 e6 c7 bc 46 a9 bb 3c
       -0.019859916 0.011443421 -0.024401695 0.022907864
0003b0 13 a5 24 ba dc 3b 4e ba 98 19 41 3b b5 35 2b 3d
       -0.00062807015 -0.0007867196 0.0029464718 0.041799266
0003c0 2e 48 f2 bc 19 67 3c ba b3 65 a9 3c e7 9a 3f 3c
       -0.029575434 -0.00071869936 0.020678377 0.011694646
0003d0 d9 56 c0 3c 12 48 a0 bc 7c ed 4a 3c 27 3f af 3c
       0.023478912 -0.019565616 0.012385722 0.021392418
0003e0 9a 5e d0 bc d0 0f 3b bc 1b 88 45 bc e3 19 95 bb
       -0.025435735 -0.011417344 -0.012056376 -0.004550205
0003f0 3c b2 41 3c 57 01 0f bd 95 92 2b 3c f0 f8 ac 3b
       0.01182228 -0.034913387 0.01047196 0.005278699

riemannian.proj.3.weight f4 [48, 256]
000000 aa 14 f0 bd db bc a1 3d 94 e8 81 3b a7 97 1e 3d
       -0.11722691 0.078973494 0.003964493 0.038718846
000010 95 a0 b5 bd a7 07 a7 bd cd 4b 93 bd 0d 7c 89 bd
       -0.08868519 -0.081557564 -0.07192192 -0.06713114
000020 6c 91 ae 3d 0b 7b 6c be 84 70 79 3d 0a 5e 6b bd
       0.08523831 -0.23093812 0.06089832 -0.05746273
000030 f1 1d 77 3c 9d ca 98 bd 09 90 b6 bd 63 69 33 bd
       0.015082822 -0.074605204 -0.08914191 -0.043801676
000040 29 fc 28 3d 49 2c 84 3d 11 44 2a 3e e8 e4 a3 bd
       0.041256104 0.06453759 0.16627528 -0.08002645
000050 63 e8 8a 3d ea d0 30 bc 6f e0 75 3c c5 7d ab 3d
       0.067826055 -0.0107919965 0.015007122 0.08373598
000060 a4 6e 82 3d 92 db 0a be 9f 1b b4 3d 01 d1 dc 3d
       0.06368759 -0.13560322 0.08794331 0.10782052
000070 e8 11 90 bd d7 23 22 bc 78 5f a3 3d ce 62 f7 3b
       -0.07034665 -0.00989624 0.079771936 0.0075496202
000080 ff 7c 87 3d cc 8d 9f bc cd 63 6c 3d 6f af b3 3d
       0.06615638 -0.019476794 0.057712365 0.08773696
000090 5e 25 83 3c bf 61 28 3c a8 d6 3a bc 32 a8 28 3c
       0.016009029 0.010277211 -0.011403717 0.010294007
0000a0 c4 60 38 3e ed 6b 57 3d 30 1a 04 be 87 be a2 bd
       0.18005663 0.05259316 -0.12900615 -0.079464965
0000b0 0d a0 2e 3e 1b 42 86 3d c4 1e 41 3d f4 57 0b 3e
       0.17053242 0.06555577 0.04714848 0.1360777
0000c0 2e a2 ca bd d1 c9 fb bd f3 d4 40 bd 73 5e b3 bd
       -0.098942146 -0.12294353 -0.047078084 -0.08758249
0000d0 4c b5 bb 3c 00 5e 82 3d 7e 15 6d 3d 3c b5 02 be
       0.022913598 0.06365585 0.057881825 -0.12764448
0000e0 6c bf 9b bd 00 70 f3 bd 13 04 7f bd f3 c6 df bd
       -0.0760487 -0.11886597 -0.062259745 -0.109266184
0000f0 68 8b 14 be 57 69 ca 3d 5f 36 86 3d 88 f4 ab 3b
       -0.14506304 0.09883373 0.06553339 0.0052476563
000100 ef 8a a9 3b 48 f3 d7 bd 95 66 26 3d 17 fe ce bc
       0.005174033 -0.10544449 0.040625174 -0.025267644
000110 e9 bf 63 be 86 0d 32 3e 33 0c aa 3d 03 81 5f 3d
       -0.22241177 0.17387971 0.08303108 0.054566395
000120 98 4d fc bc 0c 15 55 be b5 f8 a7 bd 3c 54 f1 3c
       -0.030798718 -0.2080881 -0.08201734 0.029459111
000130 3d b3 b0 bd b7 44 b0 3d c7 78 8f 3d f9 1f 88 bd
       -0.08627937 0.08606856 0.07005458 -0.06646723
000140 2c 35 7f bd 36 48 31 3e 6a 2f 2a bd d8 01 34 3d
       -0.062306568 0.17312703 -0.041549124 0.04394707
000150 35 44 aa bd 0c d8 80 39 ce d5 2d bd 37 7c af b9
       -0.08313791 0.0002457503 -0.04244023 -0.00033471148
000160 7b d7 10 3d eb 4e 11 3e 54 36 0f bd 09 da dc bd
       0.03536175 0.14190261 -0.03496392 -0.107837744
000170 6b 23 33 3d f7 e2 ab bd 9a 94 fc 3d fc 72 14 3e
       0.04373495 -0.083928995 0.12333031 0.14496988
000180 0f 38 0c 3c 30 f7 66 bd 8a 96 0c bd 48 29 60 3d
       0.008558287 -0.05638808 -0.034323253 0.05472687
000190 54 b9 1c 3d 04 bd fd 3d de 33 b8 3c 7a 59 df 3b
       0.03826268 0.123895675 0.02248567 0.0068160864
0001a0 b1 cf 16 be 6d b9 98 bd 2c 82 5a 3c 63 2c 08 be
       -0.14727665 -0.07457242 0.013336699 -0.13298182
0001b0 53 bd 35 be cb b3 94 3d 38 01 be bd 6a 77 37 3b
       -0.17748003 0.07260855 -0.09277576 0.002799476
0001c0 52 23 a5 bc a9 a5 0c 3e 03 2a 46 3d b2 1e 6a bd
       -0.020158444 0.1373507 0.04837991 -0.05715818
0001d0 a3 12 04 bd b4 b8 2c 3e 17 e5 7d bd 86 f0 89 3d
       -0.032244336 0.16867334 -0.061986055 0.06735329
0001e0 91 c0 bb 3c 0d 29 94 3d 9c fb 04 be d4 fd a2 bc
       0.022918971 0.07234392 -0.12986606 -0.019896425
0001f0 92 81 8f 3d 93 79 80 bd 71 f7 a4 3d bc ae 93 3d
       0.070071355 -0.062731884 0.08055008 0.07211062
000200 97 71 7b bd 4a fa ce 3d bf f8 66 3c 3b 92 04 3e
       -0.061387625 0.101063326 0.014097392 0.12946407
000210 8f 2f 60 bd 9b 6b f8 3d 31 4d 2f be 32 fc a5 3d
       -0.054732855 0.12129899 -0.1711929 0.08104743
000220 2a 02 19 3e 4d 6d 8d bd 8c 1a e7 bc 6f a1 ed bd
       0.14942232 -0.06905613 -0.0282109 -0.11603057
000230 18 45 c8 bc 0c 50 0e 3e 43 00 42 3c 6e 3d 8e 3d
       -0.024447009 0.13897723 0.011840883 0.069453105
000240 5f 04 f4 bc b6 38 6c bc 59 67 0c 3e b6 0b 22 3d
       -0.02978724 -0.014417818 0.13711299 0.03956195
000250 63 34 ad bd 02 5c c3 bc b3 90 34 bd fe 37 67 bd
       -0.084572576 -0.023847584 -0.04408331 -0.056449883
000260 fd de 30 3d 13 48 a7 bd 57 5d 84 bd a6 6b e5 bd
       0.04318141 -0.08168044 -0.06463116 -0.11202173
000270 37 be 40 3c 2c 9d 8e 3d bb 19 4f bd e2 83 7d 3c
       0.011764101 0.06963572 -0.050561648 0.015473338
000280 82 bc 0f be be 97 be 3c d4 f2 9f 3c e9 2a d9 3d
       -0.14036754 0.023265716 0.01952497 0.106038876
000290 94 34 8a bd 04 80 98 3c b3 58 a0 3c 31 8b b7 bd
       -0.0674831 0.01861573 0.019573545 -0.089620955
0002a0 59 70 d7 bd 18 72 0f be 42 e9 19 3e 0b f9 da 3d
       -0.105194755 -0.14008367 0.15030387 0.106920324
0002b0 4a f8 38 3d 89 e6 5e 3d ff 1b 66 3b 9e bd 2c bd
       0.045158662 0.054419074 0.0035111902 -0.04217302
0002c0 d1 1b 9a bd de f3 a7 bc e8 20 96 3d 1c 6b 09 3d
       -0.07524837 -0.020502027 0.07330495 0.033549413
0002d0 86 a6 00 bd a6 3c f0 3b 61 d3 88 3d 0e fa 58 3d
       -0.03140881 0.0073314486 0.06680942 0.052972846
0002e0 28 88 b2 bd 30 1f c0 3c bb dd 02 bd e4 07 a9 3d
       -0.08717376 0.023452371 -0.03194974 0.08253458
0002f0 05 51 a8 bd ad bf 5f 3d a2 de 4e 3d 34 3c cd 3d
       -0.08218578 0.054626156 0.050505288 0.100212485
000300 00 64 94 3d c1 41 ae bb 10 35 53 3e 3d 69 50 bd
       0.07245636 -0.005317897 0.2062571 -0.050881613
000310 dc 84 ff 3c 08 1f 82 bd 2a ba b1 bb 6d 8b c1 bd
       0.031191282 -0.06353575 -0.005423804 -0.094504215
000320 3b c6 6a bb 5d 44 e3 bd 61 ef 0c bd 47 3a d5 bd
       -0.003582372 -0.11097024 -0.034407977 -0.10411506
000330 1d 27 94 bd a0 d2 34 3e c5 de f2 3c 7d a3 05 3d
       -0.07234023 0.17658472 0.02964724 0.032626618
000340 e6 7b c1 3d ee f0 00 be f8 67 1d 3d 25 ed db bd
       0.0944746 -0.12591907 0.03842923 -0.10738591
000350 b4 f5 c3 bd 7c be 29 be 73 0e 2a 3d 9f 3e 31 bd
       -0.095683485 -0.1657657 0.041517686 -0.04327261
000360 18 bc 31 bd 28 51 07 be 9c d1 44 bd 39 c5 82 3d
       -0.04339227 -0.13214552 -0.04805146 0.063852735
000370 db e2 41 be 70 91 b9 3c bb 6c a7 3d 2d 3e ad 3d
       -0.18934195 0.022652358 0.081750356 0.08459125
000380 90 8b c0 3c b7 84 28 3d b9 30 d5 3d 73 f0 42 be
       0.023504049 0.04114219 0.10409684 -0.19037037
000390 2c 69 e7 bc e5 fe 25 3d 56 bd f3 bc b3 67 0f 3e
       -0.028248392 0.04052629 -0.029753368 0.14004402
0003a0 d6 78 a2 bd a3 4d d3 bc 27 93 5a bd aa 1f 22 bd
       -0.07933204 -0.025793856 -0.05336299 -0.03958098
0003b0 98 a8 13 bd 6f 48 85 3d 01 07 a2 bd d9 26 ce 3c
       -0.036049455 0.06507956 -0.07911492 0.025165008
0003c0 7e 5a fa bc d0 2e 10 3d b8 16 20 bd ea 78 91 bd
       -0.030560728 0.035200894 -0.039084166 -0.07103141
0003d0 59 ce 9d bc b4 b9 22 bd ed ee 4b be ed 58 c4 3a
       -0.019263433 -0.03972788 -0.19915362 0.0014980115
0003e0 16 9e b2 bc c8 c0 38 3d 22 a4 c1 3d 3e 78 b3 bd
       -0.021803897 0.045105726 0.09455134 -0.08763169
0003f0 ee e7 41 3e 9c 44 98 3d 00 42 0f 3d 54 2d 10 be
       0.1893613 0.07434961 0.034975052 -0.14079791

riemannian.proj.3.bias f4 [48]
000000 fc 3a 47 bc b9 0a 58 bb f3 46 8f bd a9 da 33 3d
       -0.012160059 -0.0032965376 -0.06995954 0.043909702
000010 85 e1 f6 3c e5 36 fb bc 59 dd 69 bd 38 ab 74 bd
       0.030136833 -0.030665824 -0.05709586 -0.0597336
000020 5e 78 4f bd bc ae b2 3c 3b 06 de bc d9 35 c6 3d
       -0.0506519 0.021811835 -0.02710258 0.096782394
000030 24 e6 94 3d 53 5b bc 3d bb a1 34 bd 92 5c 11 3d
       0.07270458 0.09197106 -0.04409955 0.035488673
000040 c9 5c ca bc 6b 8f 14 bc 66 7b 6c bd 95 2e d8 bc
       -0.024702447 -0.009067397 -0.05773487 -0.0263894
000050 0d bb d2 bd 22 2e ee bb 5f b7 0e 3d 93 a6 5b 3d
       -0.10289583 -0.007268683 0.034842845 0.053625654
000060 b0 26 cd bc a1 d9 30 bd 3f f3 e8 3c 04 d3 56 bd
       -0.025042862 -0.043176297 0.028436301 -0.052447334
000070 4a 54 d5 3d a5 da dd bc 55 fb 9b 3d bc b0 55 bb
       0.104164675 -0.027081797 0.07616297 -0.0032606563
000080 79 70 13 3d c4 0d b7 bc 13 c5 a5 ba 4b 4e d9 3c
       0.035995934 -0.022345431 -0.0012647234 0.02652659
000090 55 99 64 3c 21 d3 8d 3c 2b 5e 73 3d e7 32 90 bd
       0.013952573 0.017312588 0.059415977 -0.07040959
0000a0 98 cb 31 bb be af ab bb 68 e5 18 bd fc 6c 46 3d
       -0.0027129408 -0.005239456 -0.037328154 0.04844378
0000b0 6a 41 a1 bc be 20 42 3d 26 c0 eb bc 51 2a 54 3c
       -0.019684512 0.047394507 -0.028778147 0.012949542

cnn.block1.0.weight f4 [16, 1, 1, 64]
000000 e3 0e cb 3b 14 c4 75 bc 73 f5 62 3d 07 c7 cd 3c
       0.006196843 -0.015000362 0.05540986 0.025119318
000010 3e 87 10 bd 1f ce 92 3b 12 35 98 3c 58 6e 3f bd
       -0.035285227 0.004480138 0.018579993 -0.04673609
000020 7e ce 8d bc a8 d0 f5 bb 57 aa 6c bc 1e 3f cb 3d
       -0.017310377 -0.0075016804 -0.014444909 0.09924148
000030 29 e9 4a 3d c7 4e 51 3d 54 03 80 3c 71 17 74 bd
       0.049538765 0.05110052 0.015626587 -0.059592668
000040 64 3b a1 bc fe 91 be 3c 80 a0 3c bc 8c 54 8d 3d
       -0.01968164 0.023262974 -0.011512876 0.06900892
000050 b2 8e a4 3d fd bd a6 bd ff d5 d6 bc 3f d0 62 bc
       0.080350295 -0.08141706 -0.026225088 -0.013843595
000060 d3 ee 0f 3d dd c7 02 3c 0a 9b 7c 3b 28 10 cf bc
       0.03513987 0.007982221 0.003854456 -0.025276259
000070 e2 5e 15 bd 3c bb 08 3b 1c 7e 8c 3b 06 26 e4 bc
       -0.03646744 0.0020863554 0.0042874943 -0.027850162
000080 c5 49 22 bd 7a 47 75 bd 8e 90 0b bc 5f 3b cc bc
       -0.039621133 -0.05988262 -0.008518351 -0.024930654
000090 83 69 13 bd e6 40 04 3d 31 99 35 bc b0 80 05 3d
       -0.035989296 0.032288454 -0.011083887 0.03259343
0000a0 80 1b 30 3d 5f a7 26 bd 6c 2c a7 3c 67 39 90 3d
       0.042994976 -0.04068696 0.020406924 0.07042199
0000b0 6d 22 8b 3d 19 19 c8 3d 4e ec 81 3d 17 7f c0 3d
       0.067936756 0.09770412 0.063439 0.093992405
0000c0 22 0b fb 3d c0 ca 30 3d 0e 31 b1 3d 2d d1 1e 3e
       0.12257983 0.043162107 0.086519346 0.15509482
0000d0 35 8b 24 3d d8 a2 df 3d 5a dc da 3d ea cf 90 3d
       0.04017182 0.10919732 0.1068656 0.070709065
0000e0 80 af 91 3d f9 0e ae 3d ee 18 c1 3d 9e ce 88 3d
       0.07113552 0.084989496 0.09428583 0.06680034
0000f0 6a 7c 16 3e 5b ea e9 3d c9 a7 e5 3d d3 d0 e3 3d
       0.14695898 0.11421653 0.11213643 0.111238144
000100 41 37 77 bc 88 cc 9a 3c cd 27 97 bb 13 2b b3 bb
       -0.015088857 0.018896356 -0.004612899 -0.0054677813
000110 75 f5 01 be 7b 4b dc 3b e7 e8 ff 3c a4 b2 9b 3b
       -0.1269129 0.006722865 0.031238986 0.00475152
000120 74 89 0e bd 73 3e b6 bd 23 27 68 bd f7 08 3b bd
       -0.034799054 -0.0889863 -0.05667795 -0.045662846
000130 6a 56 d4 bd c1 33 d7 bd a7 5e 1e be 97 0b c5 bd
       -0.10368045 -0.10507918 -0.15465795 -0.09621351
000140 c8 8e e8 bd 19 52 bc bd c4 d6 0a be 78 55 1f bd
       -0.11355358 -0.091953464 -0.13558489 -0.03889987
000150 d4 e5 a6 bd 7a 3f 90 bd 02 f3 c2 bd ce 60 a8 bd
       -0.08149305 -0.07043357 -0.09519006 -0.08221589
000160 ab a8 32 be 76 77 bd bd ca 16 3d bd fc 9b c2 bd
       -0.17447154 -0.09251301 -0.04616431 -0.09502408
000170 cd ca fa bd 06 52 7e bd ce e0 54 bd 5d ca 85 bd
       -0.122457124 -0.062089942 -0.051972203 -0.06532738
000180 50 9d fb bd b6 8c 51 bd 8d ca c8 bb 9c fc f6 bc
       -0.12285864 -0.051159583 -0.0061276616 -0.03014975
000190 05 10 91 bc ae 35 ec bc 26 fd a2 3c d1 e7 61 bd
       -0.017707834 -0.02883419 0.019896101 -0.055152718
0001a0 ab 13 3e bd db 96 04 bd f5 7c 85 bd f3 39 56 bd
       -0.046405476 -0.03237043 -0.06517974 -0.05230136
0001b0 42 5b 65 bd 21 ca 5b 3b 69 eb 9b bb 6a 1d 60 bc
       -0.055995233 0.0033537226 -0.0047582877 -0.013678888
0001c0 2a a1 99 bd 6a d6 86 bd 44 b0 99 bd 23 15 9e 3b
       -0.07501443 -0.06583865 -0.07504323 0.004824297
0001d0 65 46 84 bd 4a a0 07 bd 91 3b 42 3c ff 9f 93 bd
       -0.06458739 -0.033111848 0.011855022 -0.07208251
0001e0 66 f4 27 3c cf 44 74 bd 83 61 2d bd 15 f4 56 bd
       0.01025114 -0.059635933 -0.042329323 -0.05247887
0001f0 42 d6 21 bd fb a1 b5 3a fa d4 03 bc b6 f0 bb bc
       -0.039510973 0.0013857478 -0.008046383 -0.022941928
000200 7e ce da bc ae 76 1b bd f2 d7 d0 bd fe 92 df bc
       -0.026709791 -0.03795498 -0.10197438 -0.027291771
000210 03 50 82 bd 59 e1 b9 bd 82 d8 4c bc 76 ec ce 3c
       -0.06362917 -0.09076185 -0.012502791 0.025259238
000220 8b aa b9 bd b5 9c da 3c e5 ab 14 bd f8 4b ea bd
       -0.090657316 0.026686052 -0.036296744 -0.11440271
000230 ae 6c ab bd 4e fc ff bd 03 0e b3 bd 91 dd bd bd
       -0.083703384 -0.12499295 -0.08742907 -0.09270776
000240 56 9b 2a bd b1 73 b7 bd 0a 54 53 bd bb 0e 9b bd
       -0.041652046 -0.08957613 -0.051593818 -0.07571169
000250 ad 84 2d bd 0a d4 23 3c 47 ba 44 bd 6e ce eb bd
       -0.042362858 0.0099992845 -0.04802921 -0.11513983
000260 4b ce 05 be dd dc e0 bd 21 be 94 bc 6d ed 41 bd
       -0.13066976 -0.10979626 -0.018157067 -0.047345567
000270 4f 8e 96 3c f5 2f f3 3c 90 e7 4d 3c b3 f2 8d bd
       0.018378405 0.029685954 0.012567416 -0.06931057
000280 37 57 35 3d 99 40 d8 bb 90 c1 2d bd b7 98 8d bc
       0.044272628 -0.0065994975 -0.042420924 -0.017284734
000290 13 84 e8 bc ff 02 9c bc a4 79 87 bd a7 be b8 bd
       -0.02838329 -0.019044397 -0.06614998 -0.09020739
0002a0 33 1a 92 bd 59 b4 be 3b cb 53 8d bd 34 65 15 3c
       -0.07133903 0.005819839 -0.06900748 0.009118367
0002b0 21 6b a0 bb 21 05 44 bd 30 8d 38 bd 1a c5 91 bd
       -0.0048955833 -0.047856454 -0.045056522 -0.07117672
0002c0 f9 f9 70 3d 1b 00 8c bd f3 15 29 bd 16 e5 44 bd
       0.058832143 -0.068359576 -0.041280698 -0.048070036
0002d0 cd 2b 93 3c 13 ee 5e bd d5 49 61 bd e1 ae 14 3d
       0.017965222 -0.054426264 -0.055002052 0.03629959
0002e0 93 a9 1e bc 6d c1 5e bc 12 3c c6 3c bd 1b 08 bd
       -0.009683984 -0.013595921 0.024198566 -0.03322958
0002f0 bf 52 f6 3c ce d2 81 bd 9a 10 f2 bd 7a fd 90 bd
       0.030068753 -0.06339036 -0.11819573 -0.07079597
000300 ba 8c 0d 3e de a5 c8 3d 3f e7 bd 3d ba 22 bc 3d
       0.13823214 0.09797262 0.09272622 0.09186311
000310 67 0b 6b 3c d2 52 84 3d 3b 25 57 3d 48 75 31 3c
       0.01434598 0.06461109 0.05252574 0.010831185
000320 c5 23 4a 3b 51 06 8b 3d cc b2 d6 bb 4c 5f ce 3d
       0.0030844074 0.06788314 -0.006552076 0.1007677
000330 3a a0 25 3d 92 d8 36 3d 27 b2 e5 3c 84 5c 1a 3d
       0.040436007 0.04464013 0.028039051 0.037685886
000340 38 fd 4a 3d 14 ca 23 bd 15 16 32 3d 16 c8 4f bc
       0.049557894 -0.03998764 0.04347809 -0.012681982
000350 10 9e 4c 3c 6b 8d 89 3d f5 a2 3e 3d 18 b4 c9 3d
       0.012488857 0.067164265 0.046542127 0.09848803
000360 e4 6b 85 3d d3 ab 37 3d d4 6c 0e 3d db ad 00 3c
       0.06514719 0.0448416 0.034771755 0.00785395
000370 eb 3f 78 3d 85 ae ef 3d a7 15 b8 3c d8 3d 0c bd
       0.060607832 0.11703209 0.022471262 -0.034238666
000380 cf 32 37 bc b0 d1 ca 3d 98 ea 5e 3d a6 c9 cb 3c
       -0.011181547 0.09903276 0.054422945 0.024876427
000390 40 4b 8b 3d 48 7d 8d 3c 64 53 02 bc 21 ca 1a 3d
       0.06801462 0.017271653 -0.007954452 0.03779042
0003a0 92 ca 1f 3e 5f 57 e3 3c b9 0b a0 3d 82 30 5b 3d
       0.15604618 0.027751623 0.07814736 0.053513058
0003b0 d3 5d 10 3b 7d 1f ae 3d 8d 4e 4e 3c f9 9e 0f 3e
       0.002202858 0.085021 0.01259197 0.14025487
0003c0 c3 98 8a 3d b0 88 a6 3d 07 f0 ed 3c b3 8e 54 bd
       0.06767418 0.0813154 0.029045118 -0.0518939
0003d0 4b 76 1b 3d 2a 05 c6 3d dd 9e 85 bd 30 ba 9f 3d
       0.03795461 0.09668954 -0.065244414 0.07799184
0003e0 e5 5c 9d bd c8 a8 38 bd 0f f1 62 3d 5b 89 87 3d
       -0.07683734 -0.045082837 0.055405673 0.06617995
0003f0 65 74 81 3d 7c 5e 4a 3d 95 65 92 3c 1c a6 80 3d
       0.063210286 0.049406514 0.017870704 0.06281683

cnn.block1.1.weight f4 [16]
000000 34 df b2 3f 6b a1 c5 3f cf 4f ba 3f 25 10 a2 3f
       1.3974366 1.5439886 1.4555606 1.2661177
000010 3c b0 86 3f 27 c4 bc 3f ff 2c 9a 3f 29 16 d2 3f
       1.0522532 1.4747361 1.2044982 1.6413013
000020 4d a6 9b 3f e9 a9 e9 3f ea d7 6b 3f a1 40 f8 3f
       1.2160126 1.8254977 0.92126334 1.9394723
000030 3e 97 b8 3f 85 9d 07 40 83 3d b6 3f a6 7e 73 3f
       1.4421155 2.1189892 1.4237522 0.95115125

cnn.block1.1.bias f4 [16]
000000 ae 69 2f 3c e4 c2 45 3a 5d 33 6f 3c ad 2d 53 bc
       0.010706348 0.00075439946 0.014599648 -0.012889308
000010 98 1c c5 bb 12 32 46 bc 3b 25 a1 3a ae 53 47 3c
       -0.0060153715 -0.012096899 0.0012294421 0.012165947
000020 f3 fc 24 bb c4 a8 23 bc 67 c1 44 3c 02 85 e2 bc
       -0.0025175184 -0.009988967 0.012009001 -0.027651314
000030 aa 17 96 bc 22 7d 0d bc 66 49 44 bc 8c 90 d6 3c
       -0.01832183 -0.008635791 -0.01198039 0.026191972

cnn.block1.1.running_mean f4 [16]
000000 bb 24 38 38 6a 5e 5e 3a 87 34 02 3a 93 61 1c ba
       4.3903226e-05 0.0008482697 0.00049669336 -0.00059654674
000010 47 f5 38 3a 92 2c 21 b9 2b 1b 6d 3a 7c 6e 60 ba
       0.0007055592 -0.0001537076 0.0009044881 -0.00085613853
000020 03 dd 93 39 2b c8 b7 b8 03 2c b2 38 0f e2 c1 b8
       0.00028202691 -8.763404e-05 8.495899e-05 -9.245064e-05
000030 36 dc 32 3a 4f e7 2b 39 4d 19 2d ba c4 88 ce 38
       0.0006822975 0.00016394 -0.00066031964 9.84832e-05

cnn.block1.1.running_var f4 [16]
000000 c7 86 ce 3f 40 cc 31 40 e3 e1 c5 3f fc 95 c7 3f
       1.6134881 2.7780914 1.545956 1.5592647
000010 f0 15 d5 3f 55 06 62 3f f0 22 03 40 96 87 02 40
       1.664732 0.8829091 2.0490074 2.0395255
000020 3c c0 93 3f 84 e1 88 3e ec 0f b3 3f b8 68 7a 3e
       1.154304 0.26734555 1.3989234 0.2445401
000030 52 72 b5 3f 1b 01 12 3f 80 2f 08 40 b3 30 66 3f
       1.4175513 0.57032937 2.1278992 0.8991806
