models/2a_subject specific/model_7.pth (torch, 985978 bytes, 93 tensors)

fusion_proj f4 [48, 48]
0	0x3f07c22d	0.53030664
1	0x3f39f738	0.7264285
2	0x3f83c282	1.0293734
3	0x401d45e4	2.4573908
4	0xbf35ea5c	-0.7106073
5	0x3db1dee1	0.08685089
6	0x3cbc289b	0.022968581
7	0x401adc0a	2.41968
8	0xbf89ef95	-1.077624
9	0xbd1c51d8	-0.03816399
10	0xbfb9c5b9	-1.4513465
11	0x3e424053	0.1896985
12	0xbf914372	-1.1348708
13	0xbeec9c14	-0.46212828
14	0x3f905562	1.1276057
15	0xbe801e89	-0.25023296
16	0xbf6e877d	-0.9317549
17	0x3ed7b7c5	0.42132393
18	0x3f606a14	0.8766186
19	0x3d623a4b	0.055231374
20	0xbd9fec84	-0.07808784
21	0xbf37f416	-0.7185682
22	0xbf0e0992	-0.55483353
23	0x3d2a1256	0.041521393
24	0xbf92c988	-1.1467752
25	0x3f068d0a	0.5255896
26	0xbfc9f2d9	-1.5777236
27	0x3f837bdd	1.0272175
28	0xbe5e7886	-0.21725664
29	0xbeb72df1	-0.35777238
30	0x3ea00ae3	0.31258306
31	0xbef3f8e4	-0.47650826
32	0xbfc9cb0a	-1.5765088
33	0x3f06f6af	0.5272016
34	0xbe7ed55e	-0.2488608
35	0x3f9bbab5	1.2166353
36	0x40096319	2.1466734
37	0x3ea83e17	0.3285987
38	0x3fdb0575	1.711104
39	0x3f88d90a	1.0691235
40	0x3f253a81	0.64542395
41	0xbfba6147	-1.4560937
42	0x3f073b87	0.52825207
43	0xbf264660	-0.64951134
44	0x3eef0847	0.46686003
45	0xbe1e81b3	-0.15479164
46	0x401d7d15	2.4607594
47	0x3bb135bd	0.0054080174
48	0xbefcac4c	-0.49350202
49	0x3fee0faf	1.8598536
50	0x3f317f45	0.6933482
51	0xbf922eed	-1.1420571
52	0x403829cb	2.8775508
53	0x3e000fbd	0.12506004
54	0x3f0b6e5d	0.54465276
55	0xbf0b7661	-0.54477507
56	0xbdfbc543	-0.12293484
57	0x3fa84a6c	1.3147712
58	0xbf3ae5a4	-0.73006654
59	0xbf482e57	-0.7819571
60	0xbfc0fd78	-1.5077353
61	0x4009a470	2.1506615
62	0xbd869848	-0.06572014
63	0x3f79e0de	0.97608745
64	0xbf42cc44	-0.76092935
65	0x3f94440e	1.1583269
66	0x3f830e5f	1.0238761
67	0x3f5d5f44	0.8647349
68	0x3f27a21d	0.6548174
69	0x3f8aa23f	1.0830764
70	0xbd46bde7	-0.04852095
71	0x3e88d50c	0.26725042
72	0xbf2fdf44	-0.6870005
73	0x3ec06a4b	0.37581095
74	0x3f070a66	0.5275024
75	0xbe327953	-0.17429094
76	0xbfbb2ae9	-1.462247
77	0xbf8e5d63	-1.1122249
78	0xbff5d269	-1.9204837
79	0x3f81520e	1.0103166
80	0xbf26a376	-0.6509317
81	0xbf1d385f	-0.6141414
82	0x3f849648	1.0358362
83	0xbf6d7d32	-0.9276916
84	0x3e9a507e	0.30139536
85	0x3eed5b2a	0.46358615
86	0x3f351933	0.70741576
87	0xbe8d740e	-0.27627605
88	0xbf4adda7	-0.79244465
89	0xbee8555c	-0.45377624
90	0xbf101a15	-0.562898
91	0x3f4a5e11	0.79049784
92	0xbf10ff2e	-0.56639373
93	0xbe2df742	-0.16988853
94	0x3dc0a897	0.09407156
95	0xbf3dd9bf	-0.7416038
96	0xbeda6c0c	-0.42660558
97	0x3f18aaf1	0.59635836
98	0x3dcac22f	0.09900319
99	0x3f8f4f17	1.1196011
100	0xbf31e34a	-0.6948744
101	0x3f7d6dd2	0.989957
102	0xbec73112	-0.38904625
103	0x3f06bc62	0.526312
104	0xbf908e6f	-1.1293467
105	0xbd43ed34	-0.047833636
106	0x3fc3fe8e	1.5312059
107	0xbf86d7dc	-1.0534625
108	0xbddde512	-0.10834707
109	0x3e81d2fa	0.25356275
110	0xbf835bf1	-1.0262433
111	0xbe058e0b	-0.13042466
112	0x3f976085	1.182633
113	0x3cb7bab2	0.02242789
114	0x3f691740	0.910511
115	0x3f96d01b	1.1782259
116	0xbfe908de	-1.8205831
117	0x3e9b8292	0.30373055
118	0xbf23c3c1	-0.6397057
119	0xbf5b4375	-0.85649806
120	0x3ecab954	0.3959452
121	0x3eda7637	0.42668316
122	0x40242aa7	2.5651033
123	0xbf3e0f5c	-0.74242187
124	0xbf0b6df8	-0.54464674
125	0xbf99c7e7	-1.201413
126	0x3ec91db1	0.39280465
127	0xbf947a70	-1.1599865
128	0xbf8d5bdc	-1.1043658
129	0xbf2f0b03	-0.6837618
130	0xbfac8bf9	-1.3480216
131	0xbf7f564b	-0.9974105
132	0x3ee24478	0.44192863
133	0x3e669349	0.22517122
134	0x3fa4f180	1.28862
135	0x3ea7495b	0.32673153
136	0xbec5ec57	-0.38656875
137	0x4009d55b	2.1536472
138	0xbf7f0bb1	-0.99627215
139	0xbd7df406	-0.062000297
140	0xbfc9f3ad	-1.5777489
141	0xbf13ef9b	-0.57787484
142	0xbf318b3b	-0.69353074
143	0x3e3ae1c6	0.18250188
144	0xbf7d95a8	-0.9905648
145	0x3e17186d	0.14755411
146	0x3f6235ff	0.8836364
147	0x3caf5017	0.021400495
148	0x3dda82dd	0.106694914
149	0xbf1e4108	-0.6181798
150	0x3e3be096	0.18347391
151	0xbf71c1dc	-0.9443643
152	0xbdf7e720	-0.121046305
153	0x3f0a946d	0.5413273
154	0x3f6bb5e2	0.92074406
155	0xbf12cd7c	-0.57344794
156	0x3f9409bb	1.156547
157	0xbf7d908f	-0.99048704
158	0x3f7c2ac3	0.9850275
159	0xbffd0d09	-1.9769603
160	0x3ff40041	1.9062577
161	0x3f820def	1.0160502
162	0xbe10288a	-0.14077964
163	0xbe472f8b	-0.1945173
164	0x3f1e1c0b	0.6176154
165	0xbfcb64d5	-1.5890146
166	0x3f85431f	1.0411109
167	0x3f62a465	0.88532096
168	0xc0159268	-2.337061
169	0x3e765e8e	0.24059507
170	0x3f472601	0.77792364
171	0xbebe739d	-0.3719758
172	0xbef4b037	-0.4779069
173	0x4008064b	2.125384
174	0xbf8c7bda	-1.0975296
175	0xbf8237e9	-1.0173312
176	0xbfdc0a7b	-1.7190698
177	0xbf0f5e98	-0.56003714
178	0x3f64ee2f	0.8942594
179	0x3fedcb99	1.8577758
180	0x3f0e07b6	0.55480516
181	0x3f24fde4	0.64449906
182	0xbf934006	-1.1503913
183	0xbfbbdcfe	-1.4676816
184	0xbfba1679	-1.4538108
185	0x3ef1bd89	0.47214916
186	0xbf1df1a9	-0.6169687
187	0xbf8c8dd8	-1.0980787
188	0xbebb7c4c	-0.36618268
189	0xbe289575	-0.16463263
190	0x3f2ee7f1	0.68322664
191	0x3e5b593d	0.2142076
192	0xbeac952a	-0.33707553
193	0x3f111eb4	0.56687474
194	0x3f506bff	0.8141479
195	0xbf6c1156	-0.9221395
196	0x3f86b578	1.052413
197	0xbfc2b2d1	-1.521082
198	0x3ef9018f	0.48634002
199	0xbfa3c9dd	-1.2795979
200	0xbf3854dd	-0.7200449
201	0x3d684dec	0.056714937
202	0xbe9f11cb	-0.31068262
203	0x3f87eb43	1.0618671
204	0xbf981805	-1.188233
205	0xbf94ade0	-1.1615562
206	0x3e2194a5	0.1577936
207	0xbf3094f0	-0.6897726
208	0xbf2727e1	-0.65295225
209	0x3eb3a7b2	0.3508888
210	0x3f8f05e1	1.1173669
211	0xc028fc76	-2.640409
212	0xbf0ab127	-0.54176563
213	0xbfc4ecfa	-1.538482
214	0xc00ed606	-2.231813
215	0xbf07f4b0	-0.5310774
216	0x4003dc9d	2.0603402
217	0x3fb3a2bf	1.4034041
218	0x3df65737	0.12028354
219	0xbf6fcef6	-0.9367517
220	0x3ff83c34	1.9393373
221	0x3f4df1db	0.8044717
222	0xbf3523c4	-0.707577
223	0xbf165384	-0.58721185
224	0xbd9ecb10	-0.07753575
225	0xbecc0e8f	-0.39854857
226	0xbe55d708	-0.20882809
227	0xbfa0c10e	-1.2558916
228	0xbea8aa9f	-0.32942674
229	0xbf96990a	-1.1765454
230	0x3fca8818	1.5822783
231	0x3ec11bcc	0.3771652
232	0xbfd1f3e1	-1.6402551
233	0xbfcb9ca8	-1.5907183
234	0xbeea18ea	-0.45722133
235	0xbfa3947a	-1.2779686
236	0xbd688e75	-0.056776483
237	0xbe9c87be	-0.30572313
238	0xbebdf266	-0.37098998
239	0x3dc2233a	0.09479375
240	0x3e7b7ed6	0.24560103
241	0xbfa24b44	-1.2679219
242	0xbef70753	-0.48247775
243	0x3cf193e7	0.02948947
244	0x3edd04c2	0.43167692
245	0x3f5e7dc7	0.8691067
246	0x3f383444	0.7195475
247	0xbfb403c2	-1.4063647
248	0x401849ad	2.3794968
249	0x3ea2dd1f	0.31809327
250	0x3f91c88e	1.138933
251	0xbf8403c6	-1.0313652
252	0x3e2b0f24	0.16704994
253	0xbfeb932e	-1.8404291
254	0x3f06447f	0.52448267
255	0x3ea56427	0.32302973

pos_enc f4 [1, 500, 48]
0	0xbf4cadaf	-0.7995252
1	0xbfc065b5	-1.5031039
2	0xbfc1e377	-1.5147542
3	0x3b768fd7	0.0037622356
4	0x3f9037b0	1.1266994
5	0x3feca4e6	1.8487823
6	0xbfd7d154	-1.6860757
7	0xbf42c453	-0.76080817
8	0x3ea2600d	0.31713906
9	0x3cbf8875	0.023380497
10	0xbf7ce1e6	-0.98782194
11	0x3fce9179	1.6138145
12	0xbeefc746	-0.4683172
13	0x3f72fa1f	0.94912905
14	0xbf43c0e5	-0.7646621
15	0xbfee40fc	-1.8613582
16	0x3f9c8023	1.2226604
17	0xbdf3f44a	-0.11911829
18	0x3d8c2ac0	0.068440914
19	0x3f8b36d9	1.0876113
20	0xbf65ae4c	-0.8971908
21	0x3ef3ab49	0.47591618
22	0x3d83cd93	0.064356945
23	0x3f5f1ba8	0.87151575
24	0x3e5ce539	0.21571817
25	0x3f13c4bf	0.57722086
26	0xbe8944a8	-0.26810193
27	0x3f871a62	1.0554926
28	0x3fd451ab	1.6587423
29	0x3ed59272	0.4171329
30	0x3f533b14	0.8251202
31	0x3e8b1d19	0.27170637
32	0x3fe89fa0	1.8173714
33	0x3ed31890	0.41229677
34	0x3de16feb	0.11007675
35	0x3eba8297	0.36427757
36	0x3f836fd2	1.02685
37	0xbe5b1c17	-0.21397434
38	0xbf1c0d67	-0.6095795
39	0x3fa63d03	1.2987369
40	0x3fcc0560	1.593914
41	0x3fe58345	1.7930685
42	0xbe31b44e	-0.17353937
43	0xbf23779b	-0.6385438
44	0xbea45f27	-0.32103845
45	0xbf85ff28	-1.0468493
46	0xbec926c6	-0.39287394
47	0xbeb05b8a	-0.3444484
48	0xbf1172a5	-0.5681556
49	0x3e8780f6	0.26465577
50	0xbf2ab2e7	-0.66679233
51	0xc04e89d5	-3.2271626
52	0x3f456581	0.7710801
53	0xbe2c4dcb	-0.1682655
54	0xbeab9dad	-0.33518735
55	0x3e6fe0ea	0.23425642
56	0xbf31e591	-0.69490916
57	0x404a7ded	3.163936
58	0xbfbe9655	-1.4889628
59	0xbfd30566	-1.6486022
60	0x3f3bcaca	0.73356307
61	0x3f260da1	0.64864546
62	0xbe6b2ae2	-0.22965577
63	0xbf9bbb58	-1.2166548
64	0xbddc092c	-0.10743937
65	0x3f8a67fa	1.0812981
66	0x3f219f42	0.63133633
67	0xbfae1f40	-1.3603287
68	0xbf996f50	-1.1987095
69	0xbf0847c6	-0.5323452
70	0xbf96d8d5	-1.1784922
71	0xbedbfcdf	-0.42966363
72	0xbf54c878	-0.8311839
73	0xbef800aa	-0.48438007
74	0xbfca4627	-1.5802659
75	0x3f545f5b	0.82958
76	0x3f12170a	0.57066405
77	0xbea650dc	-0.32483566
78	0x3f6f01ac	0.93361926
79	0x3e3a9b4e	0.18223307
80	0xbf3e46f9	-0.74327046
81	0x3fed1be4	1.8524137
82	0xbf886787	-1.0656594
83	0xbeaab786	-0.33343142
84	0xbd8ce26c	-0.06879124
85	0x3f84362d	1.0329033
86	0x4014e52c	2.3264875
87	0xbfc09411	-1.5045186
88	0x3f9e6c4e	1.2376802
89	0xbfb1b093	-1.3882011
90	0x3f9992d1	1.199793
91	0xbfe37692	-1.777056
92	0x3f2f1f01	0.68406683
93	0x3d9ef468	0.077614605
94	0xbf1a3b53	-0.6024677
95	0xbeb9ffe6	-0.36328048
96	0xbf1f7b3f	-0.62297434
97	0x3f7ede31	0.9955779
98	0xbd7dd756	-0.06197294
99	0xbfa9e471	-1.327284
100	0x3fea74ae	1.8316858
101	0xbf64fa6c	-0.89444613
102	0x3f1183ce	0.56841743
103	0xbed02ee8	-0.40660787
104	0x3ed4544c	0.41470563
105	0x3ffd666a	1.9796879
106	0xbfb33346	-1.4000022
107	0x3f7dbf4d	0.99120027
108	0x3cf25592	0.029581819
109	0xbf9e4dd2	-1.2367499
110	0xbefb4cb8	-0.4908197
111	0xc0290cc1	-2.6414034
112	0xbf8d8131	-1.1055051
113	0xbfe9af79	-1.8256675
114	0xbe7727cb	-0.24136274
115	0xc0169882	-2.3530583
116	0x3fa90882	1.3205721
117	0x3f2e81e4	0.6816695
118	0x3fd0385b	1.6267198
119	0x3f3def6c	0.74193454
120	0x3eae3d0f	0.3403096
121	0xbe79e991	-0.24405505
122	0xbf8c592f	-1.0964717
123	0x3eeb2c3c	0.45932186
124	0xbf5c8af6	-0.8614954
125	0x3fddf7b3	1.7341217
126	0x3fc53be5	1.5408903
127	0xbd30b385	-0.043139953
128	0xbf08b3fe	-0.53399646
129	0x3f479cba	0.7797352
130	0x3e9a0054	0.30078375
131	0xbf211ef9	-0.62937886
132	0xbf46c461	-0.776434
133	0x3f7809f6	0.968902
134	0x3f2a86e7	0.66612095
135	0xbef40e80	-0.47667313
136	0xbee90bb1	-0.45516732
137	0xbfcdfe5a	-1.6093247
138	0x3f1f2396	0.62163675
139	0xbeaee7f8	-0.34161353
140	0xbfc2dfef	-1.5224589
141	0xbdea93aa	-0.11453946
142	0xbf7e835b	-0.9941918
143	0x3f4ec5a3	0.8077032
144	0x3f913418	1.1344023
145	0x400cc4b2	2.1995053
146	0x3fa92d99	1.321704
147	0xbfcec55a	-1.6153977
148	0xc00831a0	-2.1280289
149	0xbd7c5d60	-0.061612487
150	0xc02f4e94	-2.739171
151	0x3fc4f1a9	1.5386249
152	0x3f83753d	1.0270153
153	0x3f717ada	0.9432808
154	0x3f01626b	0.505408
155	0x3d2baff8	0.041915864
156	0xbd8e9de8	-0.06963712
157	0xbed85635	-0.4225327
158	0x40334a00	2.8013916
159	0xbec24b84	-0.3794824
160	0xbe4f9c79	-0.20274533
161	0x3f0258b2	0.5091659
162	0xbf33237a	-0.6997601
163	0xbfdaec1b	-1.7103304
164	0x3fb51bd4	1.4149117
165	0x40587255	3.3819783
166	0x3f1ea93a	0.6197697
167	0x3e18b38d	0.14912243
168	0xbdc179ed	-0.094470836
169	0xbf052dd0	-0.5202303
170	0x3f8f6a56	1.1204326
171	0xc006a877	-2.1040323
172	0x3f2c3a30	0.6727629
173	0xbe7ef163	-0.24896769
174	0x3f6229e6	0.8834518
175	0xbf0e90c5	-0.5568965
176	0xbfc02ea3	-1.5014232
177	0x3ff1972c	1.8874259
178	0xbeefed12	-0.46860558
179	0x3e4a9e29	0.19786896
180	0x3ec0e21d	0.3767251
181	0x3f616554	0.8804524
182	0xbe4d8593	-0.20070486
183	0xbe5bb430	-0.21455455
184	0xbfa19139	-1.2622443
185	0xbf4761da	-0.77883685
186	0xbf856b50	-1.0423374
187	0xbf84fe55	-1.0390116
188	0xbf17931c	-0.59208846
189	0x3fec638b	1.8467878
190	0x3fbf2164	1.4932065
191	0x3f75f962	0.9608365
192	0xc00f341c	-2.2375555
193	0xbfcdc7b8	-1.6076574
194	0x3e462f26	0.19353923
195	0x3ea9bb18	0.33150554
196	0xbf6245d9	-0.8838783
197	0xbe1cf64a	-0.15328327
198	0xbf9f5bb3	-1.2449859
199	0x3facede9	1.3510104
200	0x3e806f48	0.250849
201	0xbe04eeb2	-0.1298168
202	0x401062a4	2.2560205
203	0x3f0266e3	0.5093824
204	0xbf9e724a	-1.2378628
205	0xbefa4004	-0.48876965
206	0xbedc2cd4	-0.4300295
207	0x3f251ed0	0.6450014
208	0x3f9b3993	1.2126945
209	0x3e9c09c1	0.30476192
210	0xbfeb1b5d	-1.8367726
211	0xbec341ce	-0.38136142
212	0x3fdc00e7	1.7187775
213	0x3e9098d1	0.2824159
214	0x3eefe24e	0.46852344
215	0xbf8f138f	-1.1177844
216	0x40369c51	2.8532908
217	0x3d26441e	0.040592305
218	0x3f6905de	0.9102458
219	0x3f557982	0.8338853
220	0xbfc7dff2	-1.5615218
221	0x3e1daf75	0.15398963
222	0x3e1d37a9	0.15353264
223	0x4010dca0	2.263466
224	0xbec3b8ab	-0.38226828
225	0x3ed7ec17	0.4217231
226	0xbfbb012b	-1.4609731
227	0xbf3ef697	-0.74595016
228	0xbfd41450	-1.6568699
229	0xc00fd7e5	-2.2475522
230	0x3faafddf	1.3358725
231	0xbf8cd0d2	-1.1001227
232	0x3fd1b0f2	1.6382124
233	0x3fc5f3de	1.5465047
234	0x3f84ddb4	1.0380158
235	0x3f383161	0.71950346
236	0x3fb30202	1.3984988
237	0xbfd8928f	-1.6919726
238	0x3efecce5	0.49765697
239	0xbee96fc4	-0.45593083
240	0xbfe4113c	-1.781776
241	0xbf578f4d	-0.84203035
242	0xbf30f926	-0.6913017
243	0xbdfda237	-0.12384456
244	0xbf8ff699	-1.1247131
245	0xbfbefe8d	-1.4921433
246	0x3fe06de1	1.7533532
247	0xbe630c53	-0.2217267
248	0x3ec6a446	0.38797206
249	0x3f4d9239	0.80301243
250	0xbf04a5ad	-0.518153
251	0xbf714f21	-0.94261366
252	0xbe678f20	-0.22613192
253	0x3e69faf4	0.22849637
254	0xbf9fbabc	-1.2478862
255	0x400cbe33	2.1991088

riemannian.proj.0.weight f4 [256, 253]
0	0x3dc906bd	0.09815738
1	0x3cafbb67	0.021451665
2	0x3c3bc5d5	0.011460741
3	0xbbba0f70	-0.00567811
4	0x3da28583	0.079356216
5	0xbd0282c3	-0.031862985
6	0x3cab617a	0.020920504
7	0x3c8f5794	0.017497815
8	0x3ce64e98	0.028113648
9	0xbae1f39c	-0.0017238739
10	0x3d0288f1	0.03186888
11	0xbd78fea5	-0.060789723
12	0xbd7aaa26	-0.061197422
13	0x3df34b5c	0.11879608
14	0xbd9efd36	-0.0776314
15	0xbd142d24	-0.036175862
16	0x3ab1463c	0.001352496
17	0xbd92c67d	-0.07166765
18	0xbc136c3a	-0.008997971
19	0xbb681d27	-0.0035417767
20	0x3d5007d6	0.050788723
21	0x3c5c2e8b	0.013438831
22	0x3d3cb529	0.046071205
23	0xbdce581e	-0.10075401
24	0xbd9c16c3	-0.07621529
25	0x3c62aa73	0.013834584
26	0x3db88a11	0.09010709
27	0x3c3f29e2	0.0116677005
28	0xbd028c1b	-0.031871896
29	0x3d7f89c8	0.062387258
30	0xbd429214	-0.047502592
31	0x3c08da84	0.008352879
32	0xbddfa0e3	-0.109193586
33	0xbe1359aa	-0.14389673
34	0xbccb0d60	-0.024786651
35	0x3a762a5d	0.0009390468
36	0xbd825078	-0.063630044
37	0x3df4ca1d	0.119526125
38	0xbe0d64d5	-0.13807996
39	0x3e1065de	0.14101359
40	0xba7f1f14	-0.0009732109
41	0x3b120b99	0.0022284745
42	0x3c9b6cca	0.018972773
43	0xbcb66e78	-0.022269472
44	0x3d649426	0.055805348
45	0xbd05cb41	-0.03266454
46	0x3da64d9c	0.081202716
47	0xbc88dd24	-0.01670701
48	0x3c87f140	0.01659453
49	0x3cab7055	0.020927588
50	0xbd3fdf92	-0.046844073
51	0xbc5e7f38	-0.013580136
52	0xbdea9346	-0.114538714
53	0xbde5c1d6	-0.11218612
54	0xbd08b38f	-0.033374365
55	0x3d92794f	0.07152044
56	0xbd807f7a	-0.06274314
57	0x3d303595	0.04301985
58	0xbcd1132c	-0.025521837
59	0x3ce52f65	0.027976701
60	0x3d524488	0.051334888
61	0x3d999aaf	0.07500207
62	0xbbb48d37	-0.005509998
63	0x3bbc282d	0.005742094
64	0x3d12df01	0.035857204
65	0x3d57b97b	0.052667122
66	0xbbabc09f	-0.005241468
67	0x3d464013	0.04840095
68	0x3d9138c2	0.07090904
69	0x3d80c9f3	0.06288519
70	0xbc0b4bc7	-0.008501953
71	0xba727a15	-0.0009249759
72	0x3cce3d43	0.025175696
73	0xbd41c465	-0.047306437
74	0x3d889c62	0.06670453
75	0x3dcb1737	0.09916537
76	0x3d9d949e	0.07694362
77	0x3cdf42f0	0.027253598
78	0xbd46d0f4	-0.048539117
79	0xbb61a46c	-0.0034430278
80	0x3d028269	0.03186265
81	0x3d592510	0.05301386
82	0x3d7391de	0.05946528
83	0x3d94722c	0.07248339
84	0x3c0afe3a	0.008483464
85	0x3d184ccf	0.037182625
86	0x39a6d59c	0.0003182114
87	0xbbde3cfa	-0.0067821713
88	0x3d21e538	0.03952524
89	0xbd8d0979	-0.068865724
90	0x3bd91587	0.0066248807
91	0xbce12ca4	-0.027487107
92	0xbd08c159	-0.033387516
93	0xbc82e7e4	-0.015979715
94	0x3db6cb81	0.08925534
95	0xbdd2c814	-0.10292068
96	0xbcc82c6e	-0.024435248
97	0x3d81bf44	0.06335309
98	0x3d855057	0.06509464
99	0x3e0c9066	0.13726959
100	0xbc41f5fe	-0.011838434
101	0xbd2b8fc0	-0.041885138
102	0x3d7083ff	0.05871963
103	0xbd81a111	-0.06329549
104	0xbc83d869	-0.016094403
105	0xbcfd9710	-0.030955821
106	0xbc4fc529	-0.012681284
107	0xbc688582	-0.014191987
108	0x3d124234	0.035707667
109	0x3d09646e	0.033543043
110	0xbd8a1748	-0.06742722
111	0xbcd1d17d	-0.025612587
112	0xbe43861c	-0.19094127
113	0xbd65c040	-0.056091547
114	0x3d042555	0.032262165
115	0x3d8edac6	0.069753215
116	0x3d04cad8	0.03242001
117	0xbe1312c3	-0.14362626
118	0xbe19e22a	-0.15027681
119	0xbd8442b7	-0.06458037
120	0xbc3b4ee7	-0.011432386
121	0xbd80e596	-0.0629379
122	0xbd3657c8	-0.04451731
123	0xbcf33386	-0.029687654
124	0xbe12a017	-0.14318882
125	0xbd13bd81	-0.036069397
126	0x3c097207	0.008389003
127	0x3d1d2bca	0.03837184
128	0xbd124927	-0.035714295
129	0xbdd5b314	-0.10434547
130	0x3d520df7	0.05128285
131	0xbbe207e7	-0.0068979147
132	0xbdb10840	-0.08644152
133	0xbda205c1	-0.07911254
134	0xbb71e324	-0.0036909068
135	0xbd926dee	-0.07149874
136	0x3d6c59a4	0.057702675
137	0xbd79ca35	-0.060983855
138	0x3ccba94d	0.024861002
139	0x3de4b663	0.111676
140	0xbd8f6558	-0.07001752
141	0x3d8342e0	0.0640924
142	0x3de5f080	0.11227512
143	0xbdb5046e	-0.088387355
144	0x3d9d6c55	0.07686678
145	0x3d7de25f	0.061983462
146	0xbdc31bbc	-0.09526774
147	0x3d8d4ce6	0.06899433
148	0xbd6e440c	-0.058170363
149	0xbd625a83	-0.0552621
150	0x3d891f97	0.066954784
151	0x3d2eb98d	0.042657424
152	0x3b5b6258	0.0033475365
153	0xbbad82a6	-0.0052951155
154	0x3d3cb5e8	0.046071917
155	0xbcfd6058	-0.03092973
156	0xbdeb5639	-0.11491055
157	0xbdbd682f	-0.09248387
158	0x3d67de77	0.056608643
159	0x3d298b4c	0.04139261
160	0xbd951e48	-0.07281166
161	0x3e04ef97	0.12982021
162	0x3bcff43d	0.006346254
163	0x3b0741cd	0.0020638586
164	0x3cd4b319	0.025964307
165	0x3bc8613b	0.0061151064
166	0xbd577063	-0.052597415
167	0xbcdbc807	-0.026828779
168	0xbd2bf4df	-0.041981574
169	0x3d4f4a25	0.05060782
170	0x3d2ed890	0.042687
171	0xbd197b65	-0.037471194
172	0x3d24a13e	0.040192835
173	0x3dd0949a	0.101845935
174	0xbcbd6529	-0.023119526
175	0xbdae0249	-0.084965296
176	0xbdcc8a08	-0.09987265
177	0x3daaa5ba	0.08332391
178	0xbcce97d0	-0.025218874
179	0x3b6b18d8	0.0035872962
180	0x3db47d58	0.0881297
181	0x3d42b952	0.047540016
182	0x3df7457a	0.120737985
183	0xbcfb06f8	-0.030642971
184	0x3c9b875b	0.018985441
185	0xbdafe6b6	-0.085889265
186	0x3d10669e	0.035254113
187	0xbc57ebe4	-0.013178799
188	0xbd032eb9	-0.03202698
189	0x3ca5ae59	0.020224737
190	0xbc7c194c	-0.015386891
191	0xbd3b57ad	-0.04573791
192	0xbdaeac97	-0.08529013
193	0xbdeb8e36	-0.11501734
194	0xbc4d6412	-0.012536066
195	0xbd05759e	-0.03258287
196	0xbbddaa41	-0.0067646806
197	0x3daf2586	0.08552079
198	0xbd134b98	-0.035960764
199	0x3caabfd8	0.020843431
200	0x3d0d1296	0.034441553
201	0x3bcf92c5	0.006334635
202	0xbc0cf861	-0.00860414
203	0x3c963a16	0.018338244
204	0xbd97f4f0	-0.07419765
205	0x3ca06276	0.0195782
206	0x3c8f0e21	0.017462792
207	0x3d6ee8e6	0.058327578
208	0x3d25c32c	0.040469334
209	0x3c2f149d	0.010686067
210	0x3c2333a2	0.009961041
211	0x3dbf7e7d	0.093502976
212	0x3d148b09	0.036265407
213	0x3e113118	0.14178884
214	0x3d4d4347	0.05011299
215	0x3c8f959d	0.017527396
216	0xbd874322	-0.066046014
217	0xbbfdfb2d	-0.0077508898
218	0x3c26c242	0.010178151
219	0xbddf2644	-0.108959705
220	0x3d4934ff	0.049122807
221	0xbe0f9e16	-0.14025149
222	0x3d18e476	0.037327252
223	0x3cb9a474	0.022661425
224	0xbd08aed2	-0.033369847
225	0x3d21d719	0.039511774
226	0xbd98821b	-0.07446691
227	0xbc15bbc4	-0.009139005
228	0x3ce4d882	0.02793527
229	0xbbd29ce2	-0.0064273933
230	0x3d3857b1	0.045005504
231	0xbc3f7d50	-0.011687592
232	0xbe0d19ca	-0.13779369
233	0x3ce01b8c	0.027356885
234	0x3d2417a6	0.040061615
235	0x398c6874	0.00026780705
236	0xbd593bc2	-0.053035505
237	0xbd60533d	-0.054766882
238	0x3dec419b	0.11535951
239	0x3d92b090	0.07162583
240	0xbdb035c6	-0.086040065
241	0xbc39a3b9	-0.011330538
242	0x3cffaf04	0.031211384
243	0x3d1c5d99	0.0381752
244	0xbdd5b453	-0.10434785
245	0x3d9a962b	0.075481735
246	0x3d69f2df	0.057116386
247	0x3c0ca9f2	0.00858544
248	0x3db93d94	0.09044948
249	0xbc9cc4bc	-0.019136779
250	0xbd49793a	-0.049187876
251	0x3dcf9236	0.101353094
252	0xbccf5f94	-0.02531413
253	0xbd3b7e1e	-0.04577457
254	0xbe1b5dd6	-0.15172514
255	0xbd887809	-0.0666352

riemannian.proj.0.bias f4 [256]
0	0xbbb4f1fe	-0.005522012
1	0xbbb972f6	-0.0056594564
2	0xbcaee098	-0.021347329
3	0xbc6b1e48	-0.014350481
4	0xbc862a8e	-0.016377714
5	0xbb736558	-0.0037139263
6	0xbbc573b8	-0.0060257576
7	0x3cd2f39b	0.025750926
8	0x3b1bc59f	0.0023768914
9	0xbbef240a	-0.0072979974
10	0x3b5f8d7c	0.003411143
11	0x3d26ccdb	0.04072271
12	0x3d246096	0.040131174
13	0xbd56c311	-0.052432124
14	0x3c4e0a13	0.012575644
15	0x3cd763f6	0.026292782
16	0xbc74934a	-0.014927695
17	0x3b50769e	0.0031808983
18	0x3ccf9c08	0.025342956
19	0xbb1b6c6b	-0.0023715745
20	0x3c4a9fa8	0.012367167
21	0x3c8c5606	0.017130863
22	0xbc0d2639	-0.00861507
23	0x3cb71f29	0.022353726
24	0xb9a81de3	-0.00032065724
25	0x3ca1e35a	0.01976173
26	0x3a83c352	0.0010052717
27	0x391c8ab6	0.00014928993
28	0x3cc960a9	0.024582224
29	0x3c288f80	0.010288119
30	0xbd0937a6	-0.033500336
31	0x3c1d4db6	0.009601047
32	0x3c8e5a6b	0.017377099
33	0xbca4bdc4	-0.020110019
34	0x3b9005ec	0.004395237
35	0xbb82b0e1	-0.0039883708
36	0xbbee1f51	-0.007266917
37	0x3c7920a6	0.015205538
38	0x3c9c9246	0.019112717
39	0xbcd0b35d	-0.025476152
40	0x3b93ff36	0.0045165075
41	0x3b9a7e54	0.0047147665
42	0x3bd5b287	0.0065215263
43	0x39452a9d	0.00018803259
44	0x3ba6f144	0.005094679
45	0xbc7eb325	-0.015545641
46	0x3cb5170d	0.022105718
47	0xbc007c11	-0.00784208
48	0xbc496c96	-0.012293955
49	0x3d3e33cd	0.04643612
50	0xbd468407	-0.048465755
51	0xbcd51dc5	-0.026015172
52	0x3ccc89f1	0.02496812
53	0x3c73dab0	0.014883682
54	0x3c338080	0.01095593
55	0xbb0e1a36	-0.0021683103
56	0xbc8d7fc5	-0.01727284
57	0xbbc52e27	-0.0060174647
58	0x3cc8562e	0.024455156
59	0xbbb79db7	-0.005603518
60	0xbc77b6b8	-0.015119247
61	0x3c88af39	0.016685115
62	0x3c73afd2	0.014873462
63	0x3c00017e	0.007812856
64	0xbc2d0ed5	-0.010562618
65	0xbba4902b	-0.005022069
66	0x3c166bf0	0.009181008
67	0xbca19e90	-0.019728929
68	0xbc0d3616	-0.008618852
69	0xbd05f6a5	-0.03270592
70	0x3af2a118	0.0018511144
71	0xbba0eb51	-0.0049108644
72	0x3b8f6b2f	0.004376791
73	0xbd054bfe	-0.032543175
74	0xbc74f8f4	-0.014951933
75	0x3c4c30f0	0.0124628395
76	0x3d04849d	0.032353032
77	0xbcd3cfe9	-0.025855975
78	0x3bc10b3f	0.005891233
79	0x3be4c3b3	0.006981337
80	0xbc0b2c69	-0.008494475
81	0x3cbb6e3b	0.02287971
82	0xbc5ee025	-0.013603245
83	0xb9751ff7	-0.00023376929
84	0xbb898ddb	-0.0041978187
85	0x3b84e776	0.0040559126
86	0x3be6254d	0.0070234896
87	0x3bd6fb4d	0.006560719
88	0xbb820b75	-0.003968651
89	0x39718881	0.00023034403
90	0xbc210e32	-0.009830045
91	0x3c3f9861	0.011694045
92	0x3cdbeccd	0.026846314
93	0xbb6def95	-0.0036306132
94	0x3c13a2e0	0.009011
95	0x3c4a7505	0.012357001
96	0x3d11c365	0.035586733
97	0x3c8b18c7	0.016979588
98	0x3cb2bd5d	0.021818811
99	0x3c2e17d2	0.010625796
100	0xbc46722e	-0.0121121835
101	0xbc95ed00	-0.018301487
102	0xbd20b7a5	-0.039237637
103	0xbb59be00	-0.003322482
104	0xbb13ae03	-0.002253414
105	0x3c1bf25e	0.009518234
106	0xbcf9136e	-0.030404773
107	0x3cd4aa02	0.025959972
108	0x3a42331e	0.000740813
109	0xbbb9f49c	-0.0056749117
110	0x3a50a288	0.00079587894
111	0xbc316cf6	-0.010829201
112	0x3c88f01c	0.016716056
113	0x3787c064	1.6182843e-05
114	0xbc289353	-0.010289031
115	0x3cdce35d	0.026963884
116	0xbc858646	-0.016299378
117	0xbbc5013a	-0.006012109
118	0x3aadca9a	0.0013259233
119	0x3d268426	0.04065337
120	0xbc29b9a4	-0.010359202
121	0x3c03a525	0.008034979
122	0xbc3992e9	-0.01132653
123	0xbac04a22	-0.0014670531
124	0xbb56018e	-0.0032654735
125	0x3c1bc03a	0.00950628
126	0x3b80a391	0.0039257486
127	0x3c2a7924	0.010404859
128	0xba88a5bb	-0.0010425368
129	0xbc766459	-0.015038573
130	0x3c0449dc	0.00807425
131	0x3bcfd553	0.006342569
132	0xbb94ff0a	-0.0045470046
133	0xbc652875	-0.0139866965
134	0x3c6190b4	0.01376741
135	0x3bb8502e	0.0056247925
136	0x3d27e21f	0.04098713
137	0xbd163382	-0.036670215
138	0xbc64aebd	-0.0139576765
139	0x3c9bc9e3	0.019017166
140	0xbc0cfd24	-0.008605275
141	0x3c8eede5	0.017447421
142	0x3d4858f5	0.04891296
143	0x3c08074c	0.008302521
144	0x3be50b9f	0.0069899107
145	0xbcdefd9c	-0.02722054
146	0x3a3c9a46	0.00071946194
147	0x3a2c3efb	0.0006570664
148	0xbcf8b340	-0.03035891
149	0xbc170847	-0.009218282
150	0xbb365616	-0.0027822307
151	0x3c91ac6e	0.017782416
152	0x3c2e8f61	0.010654301
153	0x3d0ce8bc	0.03440164
154	0xbc2cb8ea	-0.010542134
155	0x3c7e507d	0.01552212
156	0x3c235699	0.009969377
157	0x3ca782bc	0.020448081
158	0xbc1478df	-0.009062021
159	0xbc123d29	-0.0089257145
160	0xbb86617d	-0.004100977
161	0xbb2ccf8f	-0.0026368832
162	0xbb280417	-0.0025637203
163	0xbbcf6be3	-0.00633
164	0xbcbf7043	-0.02336896
165	0xbc617cfb	-0.013762708
166	0xbd2d7b94	-0.04235418
167	0xbcae9ce8	-0.021315053
168	0xbc88f606	-0.016718876
169	0x3af4211a	0.0018625588
170	0xbb4e5193	-0.0031481727
171	0x3cfbc86a	0.030735213
172	0x3c49ef37	0.0123251
173	0xbbbdc66b	-0.0057914755
174	0x3cbd159c	0.023081593
175	0xbc678cf9	-0.014132732
176	0x3c30949a	0.010777617
177	0xbd396236	-0.045259677
178	0xbc8775df	-0.016535698
179	0x3c5e25af	0.013558789
180	0xb9cbd340	-0.0003887657
181	0x3c8d33ff	0.017236708
182	0x3bd92b82	0.006627501
183	0x3b11e75c	0.0022263145
184	0xbc678c1f	-0.014132529
185	0x3c0a7926	0.008451736
186	0x3c95ea78	0.01830028
187	0xbca5572b	-0.020183166
188	0x3c3638ab	0.011121909
189	0x3b88f16f	0.0041791718
190	0x3ae28f31	0.0017285106
191	0xbcad2b37	-0.02113877
192	0xb91ef670	-0.0001515986
193	0xbcd2f3e0	-0.025751054
194	0x3b0ed0e6	0.0021791994
195	0x3c99b320	0.018762171
196	0x3c67af8e	0.014140977
197	0x3cb28dec	0.02179619
198	0xba124cc2	-0.0005580896
199	0xbc76b1a6	-0.015057003
200	0x3cbff44b	0.023431918
201	0xbd3ea1fb	-0.046541195
202	0xbc4382c6	-0.011933034
203	0x3b3c4c1b	0.0028731886
204	0x3b29d67a	0.0025915192
205	0xbc548286	-0.012970572
206	0xbbd04e0f	-0.0063569616
207	0xbca2ba2d	-0.019864166
208	0xbafa0e2e	-0.0019077712
209	0xbc816f93	-0.015800273
210	0x3ca5735c	0.02019661
211	0x3c3e3392	0.011608975
212	0xbcc86160	-0.024460495
213	0xbc51ee3b	-0.012813146
214	0x3b28f589	0.0025781116
215	0x3beef777	0.0072926837
216	0xbb90b8dd	-0.0044165687
217	0x3bae01b2	0.0053102607
218	0x3a0bec7b	0.00053376675
219	0x3b4a504a	0.003087061
220	0xbc224dc4	-0.009906236
221	0x3b723330	0.003695678
222	0x3afdcd45	0.0019363543
223	0xbb425d4e	-0.0029657665
224	0x3b41711c	0.0029516881
225	0xbc9cada4	-0.019125767
226	0x3c6c33f3	0.0144166825
227	0x3cf58bb4	0.029973842
228	0x3b81526b	0.0039465926
229	0x3b154304	0.002277554
230	0x3b2b9dcd	0.0026186586
231	0x3c202f76	0.009776941
232	0xbb804575	-0.00391453
233	0xbc0af3ac	-0.008480947
234	0xbd1fd776	-0.03902384
235	0xbd06d838	-0.032921046
236	0xbd0653e9	-0.032794867
237	0xb912b1a9	-0.00013989829
238	0x3bf8a391	0.007587858
239	0xbb157891	-0.002280746
240	0xbcbf6426	-0.023363184
241	0x3a0d2f50	0.0005385773
242	0x3b4287af	0.0029682925
243	0xbc03a4eb	-0.008034925
244	0xbb770a89	-0.0037695488
245	0x3d2e0cdb	0.04249273
246	0x3c3c5eb9	0.011497193
247	0xbacdffce	-0.0015716495
248	0x3c488c7e	0.012240527
249	0x3c55f16a	0.013058046
250	0xbc86e0a6	-0.016464543
251	0x3b54144a	0.0032360726
252	0x3cee1f6b	0.029067716
253	0xbc8201f4	-0.015870072
254	0x3c0dc496	0.008652827
255	0x3c83b0a8	0.016075447

riemannian.proj.3.weight f4 [48, 256]
0	0x3db7aae1	0.089681394
1	0xbd51e64b	-0.051245015
2	0x3c6ad4ee	0.014332993
3	0xbc80a9b5	-0.015705923
4	0x3e68c630	0.22731853
5	0x3d98867a	0.07447524
6	0x3e4f9b10	0.20273995
7	0xbd34a34e	-0.044101052
8	0x3c9170ce	0.017753985
9	0x3e26299c	0.1622681
10	0x3d6477de	0.055778377
11	0xbbada053	-0.005298653
12	0x3d4d2c5a	0.050091125
13	0x3e769024	0.24078423
14	0x3d3053a3	0.043048512
15	0xbde7b11e	-0.11313079
16	0xbd250b7e	-0.040294163
17	0xbe0d0e95	-0.13775094
18	0x3d77dc6a	0.060512938
19	0xbe62fab3	-0.22165947
20	0xbb74cc66	-0.0037353276
21	0xbd532292	-0.05154664
22	0x3c655e61	0.0139995525
23	0x3de034da	0.10947581
24	0xbc57488a	-0.013139853
25	0xbbcc07ad	-0.006226501
26	0x3d8cc8fa	0.06874271
27	0x3d74400c	0.059631392
28	0xbe3208c2	-0.17386153
29	0x3ded8e1f	0.11599373
30	0x3d0a16ea	0.03371326
31	0xbdddab46	-0.108236834
32	0xbd8d62fa	-0.06903644
33	0x3d12991e	0.035790555
34	0xbcdb169b	-0.026744178
35	0x3dd05f4d	0.10174427
36	0x3e4638a6	0.19357547
37	0x3d25ebf7	0.040508237
38	0xbd6370bd	-0.055527437
39	0x3e6333d7	0.22187744
40	0x3ce42d03	0.027853495
41	0xbdc9d0a0	-0.09854245
42	0xbce34694	-0.027743615
43	0x3cd470fe	0.025932785
44	0xbe8150a7	-0.25256845
45	0x3d2a94e8	0.041645914
46	0xbdb92c28	-0.09041625
47	0x3c808c69	0.015691953
48	0x3d49bc32	0.049251743
49	0xbe3d3089	-0.18475546
50	0x3e2acc1f	0.16679429
51	0xbe1ad8c9	-0.1512176
52	0x3d75b2f5	0.05998512
53	0x3de04ae2	0.10951783
54	0xbdeefdaa	-0.11669476
55	0xbd827d06	-0.063715026
56	0x3dc4453b	0.09583517
57	0xbd95367c	-0.07285783
58	0xbc8c77cd	-0.01714697
59	0x3e060421	0.13087513
60	0x3e3ec058	0.18628061
61	0xbdc7c733	-0.09754791
62	0xbd8a66c0	-0.06757879
63	0x3d6c0942	0.057626016
64	0xbd9f1426	-0.07767515
65	0x3d4706cd	0.04859047
66	0xbde733cc	-0.11289176
67	0xbd79612c	-0.060883686
68	0x3de845f2	0.11341466
69	0x3e35fc1a	0.1777195
70	0xbd4cd98a	-0.05001215
71	0x3c872d34	0.016501047
72	0x3e175221	0.14777423
73	0x3e957101	0.29187778
74	0x3ab11884	0.0013511335
75	0x3ce50604	0.02795697
76	0xbe393d9c	-0.18089908
77	0xbd5870c3	-0.052841913
78	0x3dcc3dd9	0.09972734
79	0xbdb747fa	-0.08949275
80	0xbd84153d	-0.064493634
81	0x3d883060	0.06649852
82	0x3e2c207a	0.16809264
83	0x3e70494a	0.23465458
84	0xbe294620	-0.16530657
85	0x3cf76138	0.030197725
86	0xbb570fe1	-0.003281586
87	0xbd523b6c	-0.0513262
88	0xbc87a315	-0.016557256
89	0xbde53aa3	-0.11192825
90	0xbc1b6eee	-0.009486897
91	0xbd794b2c	-0.060862705
92	0xbce8a6c2	-0.028399829
93	0xbdbb155e	-0.09134935
94	0xbe68f134	-0.22748262
95	0x3c1090fd	0.00882363
96	0xbe796a15	-0.24356873
97	0xbe76a211	-0.24085261
98	0xbc31c2eb	-0.010849695
99	0xbc8209ac	-0.015873753
100	0xbd903303	-0.0704098
101	0xbc5ba2d5	-0.013405521
102	0x3df3861f	0.11890816
103	0x3db7680a	0.08955391
104	0xbce69c72	-0.02815077
105	0x3e375258	0.17902505
106	0x3ca08534	0.019594766
107	0x3d227f95	0.039672453
108	0xbe420616	-0.18947634
109	0xbdb2e22b	-0.08734544
110	0xbda3fe89	-0.08007533
111	0xbd6c1928	-0.05764118
112	0xbd9ef664	-0.07761839
113	0xbc8f2040	-0.017471433
114	0x3e584095	0.21118386
115	0xbd716415	-0.058933336
116	0x3e675fca	0.22595134
117	0x3e5f88c7	0.2182952
118	0xbd13efad	-0.036117245
119	0xbbeb6fb6	-0.007184948
120	0x3df3966d	0.11893926
121	0x3d005fdb	0.031341415
122	0x3e21388a	0.15744224
123	0xbdfba201	-0.12286759
124	0xbe0bacdd	-0.13640161
125	0xbda0c459	-0.0784995
126	0x3c5fca8c	0.013659131
127	0xbdb0b510	-0.08628285
128	0x3d1f320d	0.03886609
129	0xbba96987	-0.0051700505
130	0x3dea4ca6	0.11440401
131	0x3d1e1ef6	0.038603745
132	0x3e1a7857	0.15084969
133	0x3d82ef4c	0.063932985
134	0x3e057115	0.13031419
135	0xbe2be10a	-0.16785064
136	0x3be2e4cc	0.0069242474
137	0x3e257544	0.16158015
138	0x3e195548	0.14973938
139	0xbcfff296	-0.031243604
140	0x3d05b14f	0.032639798
141	0xbe2218fc	-0.15829843
142	0xbde6cd92	-0.11269678
143	0x3d701dba	0.0586221
144	0xbd0d3f0c	-0.034483954
145	0x3d29e0a0	0.041473985
146	0xbdde2c37	-0.10848277
147	0x3cd936c3	0.02651537
148	0x3dafaf97	0.08578413
149	0xbcc57d84	-0.024107702
150	0x3e5775e4	0.21041065
151	0xbe0e1b46	-0.13877591
152	0xbcb1eb4a	-0.02171864
153	0xbe387a07	-0.180153
154	0x3e19ffb3	0.15038948
155	0xbdf879ce	-0.121326074
156	0xbe0b95ef	-0.13631414
157	0xbe3e70b9	-0.18597688
158	0xbd49ec0d	-0.04929738
159	0xbd5c4a79	-0.05378196
160	0x3d67b2f4	0.056567147
161	0x3d9e5117	0.077303104
162	0xbb7c1428	-0.0038464162
163	0x3dc38b6e	0.095480785
164	0xbda16cd5	-0.07882086
165	0x3ddc9028	0.10769683
166	0x3e8a2ec4	0.26988804
167	0xbe4812d3	-0.19538431
168	0x3e4e343e	0.20137116
169	0xbdffd5c5	-0.12491945
170	0x3d3ab215	0.04557999
171	0xbe24d045	-0.16095074
172	0xbcb2d35e	-0.021829303
173	0x3bf07dd2	0.0073392177
174	0xbd2281c1	-0.039674524
175	0x3dfb2285	0.122624435
176	0xbe33ab76	-0.17545876
177	0x3e0f3d89	0.13988318
178	0xbda086c9	-0.07838208
179	0x3e497a35	0.19675525
180	0x3dfd0530	0.12354505
181	0xbcd87894	-0.026424684
182	0xbc8f64a9	-0.017504053
183	0xbe52db7d	-0.2059154
184	0x3e17e2a5	0.14832552
185	0x3d303362	0.043017752
186	0xbe276793	-0.16348104
187	0x3e61b51e	0.22041747
188	0x3ce7d31d	0.028298909
189	0xbdc6f39f	-0.09714436
190	0xbe181dc5	-0.14855106
191	0xbd87db6c	-0.06633648
192	0x3e13dfd6	0.14440855
193	0x3df45769	0.11930735
194	0xbcfa5a04	-0.0305605
195	0x3df26349	0.118353434
196	0xbcd85e22	-0.026412074
197	0xbd961c02	-0.07329561
198	0x3c979229	0.018502312
199	0x3dd9ea05	0.10640339
200	0x3d04e26c	0.032442495
201	0x3c839fba	0.016067374
202	0x3e0a007e	0.1347675
203	0xbcc34c0b	-0.023839971
204	0xbcd94bf0	-0.026525468
205	0xbc8d56da	-0.017253328
206	0x3d3e8a78	0.046518773
207	0xbd4c73ed	-0.049915243
208	0x3dc77fcc	0.09741172
209	0x3d17b8a4	0.03704132
210	0xbe4cb71a	-0.19991723
211	0x3ca2d6dd	0.019877845
212	0x3e0229ae	0.12711212
213	0xbcc3919d	-0.023873145
214	0x3c29dfeb	0.010368328
215	0xbdfb6efe	-0.122770295
216	0xbe8c10fd	-0.2735671
217	0xbd23ddb8	-0.04000637
218	0xbd873e91	-0.066037305
219	0xbdfc822d	-0.123295166
220	0x3deb4b8a	0.11489017
221	0xbe323705	-0.17403801
222	0x3dbcb578	0.092143
223	0x3d43ca3c	0.047800288
224	0xbe0588ae	-0.1304042
225	0x3df86c7d	0.121300675
226	0xbd95a206	-0.07306294
227	0xbdbd161e	-0.09232734
228	0x3e6c373d	0.23067947
229	0xbdfaabdc	-0.12239811
230	0x3d0ade8d	0.033903647
231	0x3e386fdc	0.18011421
232	0xbd5cbfad	-0.053893734
233	0x3db75333	0.08951416
234	0x3d741cd6	0.059597813
235	0x3de955bb	0.11393305
236	0x3e43613f	0.19080065
237	0x3e61b782	0.22042659
238	0xbde20462	-0.11035992
239	0x3dfc0bfe	0.12306975
240	0x3e1b5a3e	0.15171143
241	0x3e368d94	0.17827445
242	0xbc39894e	-0.01132424
243	0xbde25a08	-0.11052328
244	0xbd908f76	-0.07058613
245	0xbc6f09e3	-0.0145897595
246	0x3e565294	0.20929939
247	0xbd7cd416	-0.0617257
248	0xbe46689f	-0.19375847
249	0x3e223be6	0.15843162
250	0x3d5c68fd	0.053811062
251	0xbc9df179	-0.019280182
252	0xbdab47c0	-0.083632946
253	0x3ddd6a97	0.10811346
254	0x3c03203c	0.008003291
255	0xbd8221de	-0.06354116

riemannian.proj.3.bias f4 [48]
0	0xbdaa6261	-0.083195455
1	0x3cc71597	0.024302287
2	0x3cb4bd62	0.022062961
3	0x3a7eeca5	0.0009724594
4	0xbbc961c5	-0.0061456882
5	0x3cbb6fb9	0.022880422
6	0xbc4f49ee	-0.012651904
7	0x3cd5875b	0.02606552
8	0xbcfb236d	-0.03065654
9	0xbd7ecc37	-0.062206473
10	0x3d2fd98b	0.042932075
11	0x3c98f736	0.018672567
12	0x3c1c934a	0.009556601
13	0x3d752bea	0.059856333
14	0x3d040de0	0.032239795
15	0x3aaa6d36	0.0013002518
16	0x3cd23f99	0.025665091
17	0xbd219bfd	-0.039455403
18	0x3d07fd71	0.033200685
19	0xbd40f5a0	-0.047109246
20	0xbc0ce6db	-0.008599962
21	0xbc988fa4	-0.01862318
22	0x3d9b5807	0.07585149
23	0x3db86d9e	0.09005283
24	0x3d336d3b	0.043805342
25	0xbcd24a65	-0.02567024
26	0xbb88fb13	-0.004180321
27	0xbc862563	-0.01637525
28	0xbcee14cd	-0.029062653
29	0xbc5d9b59	-0.013525807
30	0x3d53c967	0.051705744
31	0xbd8f768c	-0.07005033
32	0xbda98255	-0.08276812
33	0xbb86c980	-0.004113376
34	0x3cc88687	0.02447821
35	0xbb9c96fc	-0.004778741
36	0xbb4b16e9	-0.0030988997
37	0xbafada6c	-0.0019138581
38	0xbc7db511	-0.015485064
39	0xbc8e8022	-0.017395083
40	0xbc94b295	-0.01815156
41	0xbcfdc815	-0.030979196
42	0xbccf4af7	-0.0253043
43	0x3beded77	0.007260974
44	0x3d653a97	0.05596408
45	0x3d5e8e98	0.054335207
46	0x3d302ea0	0.043013215
47	0x3c6ad816	0.014333745

cnn.block1.0.weight f4 [16, 1, 1, 64]
0	0xbcf543e5	-0.029939601
1	0xbdcc5fa6	-0.09979181
2	0x3d1d17fe	0.03835296
3	0x3d1bf9ef	0.038080152
4	0x3de9db72	0.11418809
5	0xbb9b3a17	-0.0047371495
6	0x3bebf932	0.0072013373
7	0x3ae6c437	0.0017606084
8	0x3dd29315	0.1028196
9	0x3c0c02b2	0.0085455645
10	0xbc865911	-0.016399892
11	0x3cfd331b	0.030908158
12	0x3b8915b9	0.0041834977
13	0xbbe730f8	-0.007055398
14	0x3d77c127	0.06048694
15	0xbc12f6a4	-0.0089699365
16	0xbcab2cfb	-0.020895472
17	0xbdc60f8c	-0.09670934
18	0x3c83f53c	0.016108148
19	0xb9489fae	-0.00019132972
20	0xbd15bf2a	-0.03655926
21	0xbcd4278b	-0.025897762
22	0xbced761c	-0.028986983
23	0x3a0b39a7	0.000531102
24	0xbd488484	-0.0489545
25	0xbc80bf55	-0.015716234
26	0x3b5602e9	0.0032655543
27	0xbc32c2a0	-0.01091066
28	0xbd3eb5c8	-0.04656008
29	0xbc9cb939	-0.01913129
30	0xbd7ae780	-0.06125593
31	0xbdb6cdb3	-0.08925953
32	0xbd387aa3	-0.04503883
33	0x3b540665	0.0032352444
34	0xbe036a94	-0.12833625
35	0xbe108fc4	-0.14117342
36	0xbd94f3a0	-0.0727303
37	0xbdbc555e	-0.0919597
38	0xbd0d8760	-0.03455293
39	0xbd679075	-0.05653425
40	0xbcdfa1be	-0.027298804
41	0xbd83aeba	-0.06429811
42	0x3cb6d0ac	0.0223163
43	0xbdeff447	-0.11716514
44	0xbda8b2fd	-0.08237264
45	0xbd003f29	-0.031310234
46	0xba9406a9	-0.0011293489
47	0xbdd00ee6	-0.10159092
48	0xbe51709d	-0.20453115
49	0xbe01668c	-0.12636775
50	0xbc4aa783	-0.0123690395
51	0xbdd75fc8	-0.10516316
52	0xbda997b9	-0.08280892
53	0xbd5dc167	-0.05413952
54	0xbd098515	-0.033574183
55	0xba4feb71	-0.0007931507
56	0xbd7ff19f	-0.062486287
57	0xbd09d419	-0.033649538
58	0xbceb70cb	-0.028740307
59	0xbc7349b2	-0.014849113
60	0xbde4bf2a	-0.11169274
61	0xbcb8635d	-0.022508318
62	0xbc2205ab	-0.009889047
63	0xbd84e867	-0.0648964
64	0x3c7addf3	0.015311706
65	0x3dd53ff8	0.10412592
66	0x3cd6dbaa	0.02622779
67	0xbd0fce94	-0.035109118
68	0x3d562788	0.052283794
69	0x3cd4e693	0.025988853
70	0xbd9bf64c	-0.07615337
71	0x3bcccab8	0.006249752
72	0xbd9b2e2e	-0.075771675
73	0xbca21f79	-0.019790398
74	0x3cbfcf04	0.023414142
75	0x3e0bbb55	0.1364568
76	0xba7ee805	-0.00097239047
77	0x3d986a22	0.07442118
78	0xbb89b4a3	-0.004202442
79	0x3d09aa15	0.03360947
80	0xbd2bc623	-0.041937005
81	0xbd8159cf	-0.06315958
82	0xbc6d86c3	-0.014497462
83	0xbe0a70a7	-0.13519536
84	0xbd9936a0	-0.07481122
85	0x3c640c40	0.013918936
86	0xbddcb0c8	-0.10775906
87	0xbd931dfc	-0.071834534
88	0xbdcfe546	-0.10151152
89	0xbdbfa019	-0.09356708
90	0xbda6ba0a	-0.08140953
91	0xbdb266fb	-0.08711048
92	0xbc8712b5	-0.016488412
93	0xbda3e2e1	-0.08002258
94	0xbdd7d528	-0.10538703
95	0xbdb35295	-0.08755986
96	0x3d5f9961	0.054589633
97	0xbb57e513	-0.0032942935
98	0xbd461b4c	-0.048365876
99	0xba9ab24f	-0.0011802408
100	0x3d0a8970	0.033822477
101	0xbcefbfc2	-0.029266242
102	0x3d570b4a	0.052501
103	0x3cc54dbe	0.024084922
104	0x3d27b291	0.04094178
105	0xbd94704f	-0.07247984
106	0xbc01fa0c	-0.007933151
107	0x3b05f352	0.002043922
108	0xbd3dfcf9	-0.04638383
109	0x3d5faa82	0.05460597
110	0x3b1b4c77	0.00236967
111	0x3c87108e	0.016487386
112	0x3c71d63c	0.01476055
113	0xbbd8b603	-0.0066134944
114	0x3d98db16	0.07463662
115	0xbc93942d	-0.018014992
116	0x3d0b6d56	0.034039818
117	0x3da0f610	0.07859433
118	0xbcac7131	-0.021050068
119	0x3ce3eb53	0.027822172
120	0x3dab9747	0.08378463
121	0x3bd4ccfd	0.006494163
122	0xbd561236	-0.05226346
123	0xb9906902	-0.00027544057
124	0x3d73171f	0.059348222
125	0x3d277bc3	0.040889513
126	0x3d33a9fb	0.043863278
127	0x3d3b5da5	0.045743603
128	0x3c8fb67e	0.017543074
129	0x3c11bf88	0.008895762
130	0xbcd30e23	-0.025763577
131	0xbd594e3b	-0.053053122
132	0xbc517a65	-0.012785529
133	0x3d5bd997	0.053674307
134	0xbd9613fb	-0.0732803
135	0xbdec40ab	-0.11535772
136	0xbdbd4696	-0.09241979
137	0xbd93b5f4	-0.07212439
138	0xbdb9f5a1	-0.09080053
139	0xbd289fc4	-0.04116799
140	0xbd610749	-0.05493859
141	0x3caf8dc9	0.021429913
142	0x3d41e7bc	0.04734014
143	0x3c9fb229	0.019494133
144	0x3c10da1a	0.008841062
145	0xbda0915d	-0.07840226
146	0xbd175a5a	-0.0369514
147	0xbd6443f1	-0.055728856
148	0xbd36a9fe	-0.04459571
149	0xbd98d886	-0.074631736
150	0xbe1d4ff5	-0.15362532
151	0xbd2f45c0	-0.04279113
152	0xbd83e1f1	-0.06439579
153	0x3e101954	0.14072162
154	0xbca7b492	-0.020471845
155	0x3d2b21d3	0.041780304
156	0x3d76ed46	0.060284875
157	0xbd162a0f	-0.036661204
158	0xbdd26e2e	-0.10274921
159	0x3cd16e4c	0.025565289
160	0xbd3e3539	-0.046437476
161	0xbe298f7f	-0.16558646
162	0xbe14620f	-0.14490531
163	0xbdc7d0b9	-0.097566076
164	0xbb02f798	-0.0019984003
165	0xbd49cbbb	-0.04926656
166	0x3d7c701a	0.061630346
167	0x3d123638	0.03569624
168	0x3da95838	0.082687795
169	0x3ddc7394	0.10764232
170	0xbd4166d4	-0.047217205
171	0x3bc7a7e4	0.006093012
172	0xbc43befe	-0.011947392
173	0xbc9ca4a2	-0.019121472
174	0x3d456f8d	0.048202086
175	0xbd88d9b4	-0.066821486
176	0xbdd2e7f8	-0.10298151
177	0xbd4d040b	-0.050052684
178	0x3a5a27d1	0.0008321973
179	0xbb46c350	-0.0030328818
180	0x3d736b7e	0.059428684
181	0x3cff9c16	0.031202357
182	0x3bef3fb9	0.0073012975
183	0x3d1d6cd5	0.03843387
184	0x3cb68cf3	0.022284007
185	0xbc8ca235	-0.01716719
186	0x3ccabb7a	0.024747599
187	0xbe081eb7	-0.13292967
188	0xbd056b7a	-0.0325732
189	0x3ba82058	0.005130809
190	0xbda47d3e	-0.080317006
191	0xbdbe2598	-0.09284514
192	0x3e2d17c2	0.16903594
193	0x3d77e707	0.06052306
194	0x3da50ac1	0.08058692
195	0x3d8a9ad2	0.06767811
196	0x3cb941e8	0.022614434
197	0x3dbba4ee	0.09162317
198	0x3d735560	0.05940759
199	0x3c1c0c7e	0.009524463
200	0xbcb95880	-0.022625208
201	0x3dc064d5	0.09394232
202	0x3df6a981	0.12044049
203	0x3c7efba0	0.015562922
204	0x3d7251da	0.05916009
205	0x3cfcd8c2	0.030865077
206	0xbcab2a44	-0.020894177
207	0x3d8249f9	0.063617654
208	0x3ddf7a50	0.10912001
209	0x3c2bd212	0.010487096
210	0x3d1cd821	0.038292054
211	0x3c57ef6d	0.013179642
212	0x3d2ec0dc	0.042664394
213	0x3d073999	0.033013914
214	0x3d32f6cd	0.0436924
215	0x3b0afbd6	0.0021207235
216	0x3db11fe9	0.086486645
217	0xbb3aa1d1	-0.0028477798
218	0xbc803476	-0.015650015
219	0x3dcf98d7	0.10136574
220	0xbd532a3f	-0.05155396
221	0x3d2327b1	0.039832775
222	0x3ca7c133	0.020477867
223	0x3d942ecd	0.07235489
224	0x3c869af4	0.01643131
225	0x3d7a9d52	0.06118519
226	0x3d1420bd	0.036164034
227	0x3bd4c444	0.0064931232
228	0xbd245d21	-0.040127877
229	0x3d643c5d	0.05572163
230	0x3d535c9e	0.051602
231	0xbd2889fb	-0.041147213
232	0x3cc664c2	0.024217967
233	0x3cb1855f	0.021670042
234	0x3cb77509	0.022394674
235	0x3be2f0f7	0.006925698
236	0x3b830271	0.003998094
237	0x3cba64ab	0.02275308
238	0x3dac47d3	0.08412137
239	0xbcff6a0e	-0.0311785
240	0x3e16659f	0.14687203
241	0xbb025334	-0.0019886019
242	0xbcb18128	-0.021668032
243	0x3b6b8cf6	0.0035942174
244	0x3d392d8d	0.045209456
245	0xbbf2d932	-0.0074111456
246	0x3dabd080	0.083893776
247	0x3db6cec9	0.0892616
248	0x3d4f7703	0.050650608
249	0x3df65277	0.12027448
250	0x3bff0d06	0.007783535
251	0x3da20245	0.07910589
252	0x3d9b5c69	0.07585985
253	0x3d2dd197	0.04243621
254	0x3da95f86	0.08270173
255	0x3e6332ea	0.22187391

cnn.block1.1.weight f4 [16]
0	0x3fb1ec32	1.3900206
1	0x3f8458bd	1.0339581
2	0x3f97d06b	1.1860479
3	0x3f8f02fb	1.1172785
4	0x3ff5ef2e	1.9213617
5	0x3fe08a24	1.7542157
6	0x3f89375d	1.072002
7	0x3fe2ba6e	1.7713144
8	0x3fa22827	1.2668504
9	0x3fb2a32e	1.3956048
10	0x3f928198	1.1445799
11	0x3fbc6819	1.4719268
12	0x3f7673dc	0.9627054
13	0x3fa4cf29	1.287572
14	0x3f68a28b	0.9087302
15	0x3fd30df5	1.6488634

cnn.block1.1.bias f4 [16]
0	0x3b019fab	0.0019779007
1	0x3b99606a	0.004680683
2	0x3989b58b	0.00026265936
3	0x3b6a96e6	0.003579551
4	0xbd13b6dc	-0.03606306
5	0xbbeea7e2	-0.007283197
6	0x3b2aa94c	0.002604085
7	0x3cbd5257	0.023110552
8	0xbb843bc2	-0.004035444
9	0x3b9bf99e	0.0047599813
10	0x3c035919	0.008016848
11	0x3b86b876	0.004111345
12	0xbc3b5e1b	-0.011436011
13	0xba17ea58	-0.0005795113
14	0xbc279a00	-0.010229588
15	0xbd057e5f	-0.03259122

cnn.block1.1.running_mean f4 [16]
0	0xba866408	-0.00102532
1	0xb98f53e4	-0.0002733759
2	0xbaa65844	-0.00126911
3	0x3b134b76	0.0022475398
4	0x383fa726	4.5693618e-05
5	0x38c1d921	9.2434006e-05
6	0x3a3eb894	0.0007275429
7	0x38da508c	0.00010410053
8	0x3b0a55d6	0.002110829
9	0xbb0243bf	-0.0019876806
10	0x3ad617a3	0.0016333949
11	0xba44704b	-0.00074935396
12	0xbaea3514	-0.0017868602
13	0xbafaf5fe	-0.0019146798
14	0xba2926d4	-0.0006452624
15	0x3b1a25ef	0.0023521145

cnn.block1.1.running_var f4 [16]
0	0x4006c00b	2.1054714
1	0x3f1d04af	0.6133527
2	0x3f59c0ca	0.850598
3	0x3ffa9a3f	1.9578322
4	0x3e4f3b70	0.20237517
5	0x3f060fe9	0.52368027
6	0x3f228662	0.634863
7	0x3debe295	0.115178265
8	0x40192fe7	2.3935487
9	0x3ff4617e	1.9092252
10	0x3fef4243	1.8692096
11	0x3fdc324d	1.720285
12	0x3fb26d04	1.3939519
13	0x3fb3f61c	1.4059482
14	0x3f3c0b34	0.73454595
15	0x40031835	2.0483525
