models/2a_subject specific/model_8.pth (torch, 985978 bytes, 93 tensors)

fusion_proj f4 [48, 48]
00000000: 66bf 013f e7d5 5fbd 93c1 2a3f e792 2abf
00000010: 5a2f d7bb abfc b7be 3685 1c3f e4ee 1bbd
00000020: 031b f0bf 4b2e 5abf 83b7 4a3f e7e7 283e
00000030: 2089 66bf bc7d e9be a802 a33d 76ae e9be
00000040: 9a7c 873b beac ba3f f0f6 cabe 047c a1be
00000050: 4caf 43bf 9199 2dbe 002b 09c0 f2e5 e93f
00000060: ba1d bc3f cf39 dd3f 70fc fb3e a441 8cbd
00000070: 0fdd c13c 08f7 4dbf 75e4 b13e 0603 abbe
00000080: f1ff c83e 5120 7ebf a1e9 b03f 669e 3f3e
00000090: 68c1 bcbd f9af 573e c7cf 76be 3434 8b3f
000000a0: f5aa 61bf 2f4c 813f 2f18 8b3d 76e7 303f
000000b0: b5aa 04c0 dd6a 9bbf cba4 c7be c938 9ebe
000000c0: cccb 82bf 5c9f 95be fea5 0cc0 686a 703e
000000d0: 01d5 d3bf 4857 a9bf d8c7 0140 e22c fdbe
000000e0: 7aa9 12bf 81dd a3be b3c0 243e 708e 273e
000000f0: 62ac 54bf c199 133e d24e 8dbe 0abf 41be
00000100: eacc a9be 8a64 54bf f214 463f ec11 27bf
00000110: f948 c7bf 9acb 563f 8ee6 e13f d309 b1bf
00000120: 9821 a23e b304 563f c19d c83f 6e84 bb3f
00000130: 78cc bebe 9195 dbbf 865d a53f 77b2 8d3f
00000140: eb8c 93bf a9ee e6bc 6eb8 86bf 2b85 5e3f
00000150: 9963 a23f dd77 733f 434e ddbf 9dd6 a3be
00000160: a700 00c0 b72d 8fbe 02a9 473f 9518 76bf
00000170: d097 723e 0674 df3e db3f bfbe 7af5 043f
00000180: 8b58 50bd 4f95 303f 0be6 0ec0 e929 5f3f
00000190: bf82 d0bf fd6c ad3c f03c b4bd 98e4 59bf
000001a0: d0e3 b4bf 9247 55bf 9eba dbbf f4a6 8d3e
000001b0: 12dc a3bf d9eb 403f 41a6 8b3e 415e bf3f
000001c0: def1 353f a1ef 083e c51f fa3e b65a cabe
000001d0: cf74 f43e 1618 343f 83d2 5e3f f0ee 24bf
000001e0: 2a4f 0340 18da 23bf 1424 efbf 9d74 703f
000001f0: c23a 0a3f b358 33be 5126 63bf 2c9c a8bf
00000200: 775b 443f ed48 b8be a8ec 1fbf fc04 5abf
00000210: 3c48 5c3f 1ee2 293c 9495 823e 1a0a 463e
00000220: cc22 86be eb96 e7bc c880 34be ec62 8a3f
00000230: abc2 843f cb48 c13f f96c a03e c984 76bd
00000240: 9d27 35bf d04a f63f d90f 53bf 9d46 a5be
00000250: 0816 893f fd22 90be 2de1 283f 3f8c 893f
00000260: c371 b33d c5c0 c03f 226f c0bd df28 66bf
00000270: 5f35 f5be 5ae7 b33f c2fd 6b3e 5e20 a63f
00000280: 957a 263f f190 983f 30be 0ebe dd5a b83e
00000290: 3103 06c0 5ec5 143f 2ebe 2340 4e3b 1dbd
000002a0: 5f10 473f a9dc 343f 981c 3a40 0ed8 44bf
000002b0: 6553 16be 1fbd 53bb c6f9 2b3c 59ad 883f
000002c0: bff9 e63e aa6e 35bf 442b 923f 4cd3 c23e
000002d0: 50c5 03c0 c36b 88bf 0606 1c3f b03f 2a3f
000002e0: 9c97 20bf 7a18 403e 8efa 28be 7bd4 9b3e
000002f0: eccc da3e bec0 113d 9737 b13e 1b1b bdbe
00000300: efdb 6cbf efb1 07be fd8e cd3e 9301 ef3e
00000310: b19f 9cbf 61a9 9e3f 8eec 033f 9ce7 05bf
00000320: 0062 1d3f 4c30 5140 47d0 a13c 2e07 37bf
00000330: eee1 28bf 510d 7dbe bad6 9f3f a92f 08bf
00000340: 9a44 673f 83dc 833f 6a61 30bf 5f74 43bf
00000350: 5a61 e93d df50 bcbf 2836 35bf 1fb1 063f
00000360: 6842 533f 2ce2 8ebe 1e20 1bbe 6ec2 003f
00000370: 5253 58bf b41a 943d 8fce 733e 3c19 a73f
00000380: 42c8 163f 4a16 14bf 57a7 8dbe ac0e 1c3e
00000390: d108 c93f 1b3e d4be 24c3 1e3e 883f 05c0
000003a0: 28a1 dfbd e211 7cbf 96f6 57bf 53ab 4d3e
000003b0: 5293 10bf 8fd4 da3e 8abb bdbe 894a 08c0
000003c0: f577 48bf 00c8 633d 411a a03e e21a cc3f
000003d0: e0d8 1a3f 3db8 e4bd ea83 053f a240 00c0
000003e0: b058 c13f f921 eb3e 3898 1140 e827 d73e
000003f0: 89ab 6cbf dca4 433f 3b26 3440 d71d 86be
0.50682676 -0.054647353 0.6670162 -0.66630405 -0.006566924 -0.35934958 0.61140764 -0.03806962
-1.8758243 -0.8522689 0.79186267 0.16494714 -0.90052986 -0.4560374 0.07959491 -0.45640916
0.0041347267 1.4583967 -0.39641523 -0.3153993 -0.76439357 -0.16953112 -2.1432495 1.8273299
1.4696572 1.7283267 0.49216032 -0.068484575 0.02366498 -0.80455065 0.3474461 -0.33400744
0.39257768 -0.9926806 1.3821298 0.18712768 -0.09216577 0.21063222 -0.24102698 1.0875306
-0.88151485 1.0101374 0.06791722 0.6910318 -2.0729191 -1.2141987 -0.38992915 -0.309027
-1.0218444 -0.29223144 -2.1976314 0.23478091 -1.6549379 -1.3229761 2.0278225 -0.49448305
-0.5728985 -0.32004932 0.16089134 0.1636293 -0.83075535 0.14414121 -0.27599198 -0.18920532
-0.3316415 -0.8296591 0.7737571 -0.6526172 -1.5569144 0.8390442 1.7648485 -1.3831123
0.31666255 0.8360092 1.5673143 1.4649789 -0.37265372 -1.7155019 1.2919166 1.1070088
-1.152738 -0.028189974 -1.0525033 0.8692195 1.2686645 0.9510477 -1.7289509 -0.31999674
-2.0000398 -0.27964565 0.7799226 -0.9613126 0.23690724 0.43643206 -0.37353405 0.5193707
-0.05086569 0.68977827 -2.2327907 0.87173325 -1.62899 0.021170134 -0.088006854 -0.8511443
-1.4132023 -0.8331233 -1.7166326 0.27666438 -1.2801535 0.75359875 0.2727528 1.4950639
0.71072185 0.13372661 0.48852363 -0.39522332 0.47745368 0.7034925 0.87039965 -0.6442709
2.0517068 -0.6400466 -1.8682885 0.9392794 0.5399591 -0.17514305 -0.8873034 -1.317266
0.76702064 -0.35993138 -0.62470484 -0.85163856 0.8604772 0.010368852 0.25504744 0.19339791
-0.26198423 -0.028270205 -0.17627251 1.0811439 1.0371908 1.510034 0.3133314 -0.060185228
-0.7076357 1.9241581 -0.82446057 -0.32280436 1.0709848 -0.28151694 0.6596859 1.0745925
0.08761933 1.5058829 -0.09396197 -0.89906114 -0.4789228 1.4054978 0.2304602 1.2978628
0.65030795 1.1919233 -0.13939738 0.36006823 -2.0939448 0.5811366 2.5584826 -0.038386635
0.77759355 0.706492 2.9079952 -0.76892173 -0.1468025 -0.003230877 0.010496562 1.0677902
0.45112416 -0.70871985 1.1419454 0.38051832 -2.058918 -1.0657886 0.6094669 0.6650343
-0.6273134 0.18759337 -0.16501829 0.30435547 0.42734468 0.035584204 0.34612724 -0.36934742
-0.9252309 -0.1325147 0.40148154 0.4668089 -1.2236234 1.239544 0.5153283 -0.5230653
0.6147766 3.2685728 0.019752635 -0.7149533 -0.6596974 -0.24712111 1.2487404 -0.53197724
0.9033905 1.030167 -0.6889864 -0.76349443 0.113955215 -1.471218 -0.7078576 0.52614015
0.825232 -0.2790693 -0.1514897 0.50296676 -0.84502137 0.07231656 0.23809265 1.3054576
0.5889932 -0.5784651 -0.27666733 0.15239972 1.5705816 -0.41453633 0.15504128 -2.0820026
-0.1091941 -0.98464787 -0.84360635 0.20084886 -0.5647479 0.42740294 -0.37057143 -2.1295493
-0.7830804 0.055610657 0.3127003 1.5945704 0.60487175 -0.11167953 0.5215441 -2.0039449
1.510519 0.45924357 2.2749157 0.42022634 -0.9244924 0.7642343 2.8148334 -0.2619464

pos_enc f4 [1, 500, 48]
00000000: 3ed4 d63f 974b cabf 53e4 0bbf fe97 3c40
00000010: 79a6 31bf f5b5 443f 443d 853f f68b f33e
00000020: ebf3 e73e 1b5e 9bbe 9efb 573e 1bfa 4b3e
00000030: 529d c63e 2dbc 743e b4a7 913f 596a 903f
00000040: bd22 2f3f 6cda b33e 8ff7 24bf 57e5 a33f
00000050: 258b 983f 8c13 96bf 741d ecbe 7463 823f
00000060: 0761 103f 3da8 f93e 5cbe 9a3f 1db5 b93e
00000070: 6491 44bf a707 e9be 6543 fd3e f3b7 1ebf
00000080: 2364 bb3f 5eaf 603f 0629 c2be 8fbb 47bf
00000090: 800e 993f 29d3 1b3f f53d 163e ea8f e33e
000000a0: 3a6c 12be 694a 903e 85ce 053f a8ee fbbd
000000b0: 7ad0 8cbe 6f7b cebe 2111 c3bf eb41 033e
000000c0: 12ec a13e b0df 9abe 0941 8fbe 4d4c a13f
000000d0: ca8c 2440 8cd0 d9bf 590f fbbd b5d3 913f
000000e0: b3dd ba3f 753a 02c0 d7b0 d8bf fee4 6cbe
000000f0: 3107 763e fea1 c6bf 713e 6f3e 5824 73bf
00000100: da2b 393f 47d1 0340 c2be bcbd 2322 4dbc
00000110: c3f0 57bf 9c38 bc3f bdcc adbe 03b9 293f
00000120: e953 5abf a9f7 0bbf 6e34 81bf a565 993e
00000130: ded2 1a3d 0ec7 de3f 72e4 773f 30da 0cbe
00000140: 7912 d53f 6313 ae3f 0150 243e 3d70 993f
00000150: ca9c 083f f1a7 ef3f c1eb 1c3d 07d6 9fbe
00000160: 575a 39bf 07cf 94bf ef42 f63f afaf 283f
00000170: da47 633e a0ee 8b3f c219 b1bd b2c3 dc3f
00000180: ac2d 5f3e b91d bcbe 0ae2 883f 1022 a03f
00000190: d956 7ebe e623 ef3e da8c 55bf 0a90 f5bf
000001a0: 72f1 0a40 c2b0 b03e ec38 a13f 288a 27c0
000001b0: ba3b c7be 5bea 9d3d 2bf8 12c0 2b3a 33be
000001c0: 019d 353f 1de9 ff3e 8348 95be 569d 353f
000001d0: 5f0e b83f 6b51 1b3f e42d f83d 2e39 393f
000001e0: e9d5 32bf 896b c03f 2d9f f83f 0a39 35be
000001f0: d8a8 423e 7fb9 633f 2707 b83f 1e56 003f
00000200: 77ee 04c0 0f26 c4bf 9c13 02bf fc0a d8bf
00000210: 0bf0 0240 2afd 65bf fd24 38be 2596 aabf
00000220: f0f5 f63f 3429 eabf 0b5a 47bf a74d 173f
00000230: d96f 9e3f cb80 9c3f ff9a f43e b15c b93f
00000240: 3b86 3c3e 002d a9bf 7836 cbbe 418f 813f
00000250: a6d2 0a3f dacc 0c40 fd75 0b3f 1db9 39c0
00000260: ee82 763e 7ba4 7b3f ab67 5040 1de4 b9bf
00000270: e83c bcbe 2ae3 f73d 5968 8dbf 8ae8 803d
00000280: 7fa8 5fbe ec3f 883e e537 1dbf dd45 873f
00000290: 2567 ca3f ccfa e83f 2ce7 553f f874 ce3e
000002a0: 09f5 a93d 6828 273f 9252 2cbf 2373 213f
000002b0: d48a 1abf 2980 bbbe fcb2 ad3e ec95 803d
000002c0: 052e 693e 08c2 a4be f7e9 e8be d2dc 97bf
000002d0: 6d28 e03f d50a 9c3d 22ff 993f 7f62 8d3f
000002e0: 4b1c c1bf f66c e83e 6e7c 8d3d c216 2ec0
000002f0: f8b0 943f 5983 653e d352 f7bf 1165 f73e
00000300: cbc9 41c0 2250 2240 4dbe 0d3f 79eb 22c0
00000310: d968 4f3e cc31 923f 71bd 94bd 4b99 d9bf
00000320: 5e6f 913e 5209 233f b66c 8dbf e1cf 4d40
00000330: 84f9 ff3e f31c 083f 5a46 c73f 8a19 ae3e
00000340: da72 83bf 4ead 59bf 0a3b 72bd a6e2 413f
00000350: e792 763e bddd 273e 3e48 3b3f 8803 81bf
00000360: 8855 483f d4dd 023f 9e4b 56bf bfd6 363f
00000370: 322a 3f3f 2815 fe3f 2984 24c0 ec41 9bbd
00000380: de3f 8d3f a7dd ad3e 42a7 8bbf bb75 0abf
00000390: c7ef 96bf bd7c b1be 56fe 063f b346 fd3f
000003a0: 9fff aebf d1ad 1a3f 0ec4 6e3f f30f af3f
000003b0: 4cf1 99bd 4b87 a7bf 1571 513f d7e5 62c0
000003c0: 3d28 bfbf 05c7 86be 3b12 df3f 8aed 113f
000003d0: cc76 0a40 83a3 ff3e d3d2 563f de4e 13bf
000003e0: b2b8 b23e f445 513e 9b6f 81bf fcbb 2b3f
000003f0: 0c90 c8bc a613 1340 0862 693f b77c be3e
1.6783521 -1.5804318 -0.5464527 2.9467769 -0.6939464 0.76840144 1.0409322 0.4756772
0.45303282 -0.30345234 0.21092078 0.19919626 0.387919 0.23899908 1.1379304 1.1282455
0.6841238 0.3512758 -0.64440244 1.2804364 1.1917464 -1.1724715 -0.4611622 1.0186601
0.5639805 0.48761168 1.2089343 0.3627099 -0.7678435 -0.4551365 0.4946548 -0.61999434
1.4639934 0.8776759 -0.37921923 -0.78020567 1.195755 0.6086908 0.14672072 0.44445735
-0.14299098 0.2818177 0.5226825 -0.123013794 -0.27502805 -0.40328547 -1.5239602 0.12818114
0.3162542 -0.30248785 -0.27979305 1.260141 2.571093 -1.7016768 -0.12258787 1.1392733
1.4598907 -2.034818 -1.6928967 -0.23134229 0.24026181 -1.5518186 0.23363663 -0.9497733
0.7233254 2.0596483 -0.09216072 -0.012520346 -0.8435175 1.4704776 -0.33945265 0.6629793
-0.85284287 -0.54674774 -1.0094125 0.2996036 0.037798755 1.7404497 0.96832955 -0.13755107
1.6646262 1.3599666 0.16046144 1.1987377 0.5336424 1.8723127 0.03831077 -0.31217977
-0.7240347 -1.162568 1.9239177 0.6589307 0.22195378 1.0932198 -0.08647491 1.7247221
0.21794766 -0.36741427 1.0693982 1.2510395 -0.24837817 0.46707076 -0.8341805 -1.9184582
2.1709867 0.34509856 1.2595496 -2.6178074 -0.38912755 0.077107154 -2.296397 -0.17502658
0.70942694 0.4998254 -0.29156885 0.709432 1.4379386 0.6067111 0.12118128 0.72352874
-0.6985765 1.5032817 1.9423577 -0.1769754 0.19009721 0.8895492 1.4377183 0.50131404
-2.0770547 -1.5324115 -0.5081117 -1.6878352 2.045901 -0.8983942 -0.1798286 -1.332707
1.9293804 -1.8293824 -0.7787177 0.59102863 1.2377883 1.2226804 0.47774503 1.4481412
0.1841058 -1.3216858 -0.39689994 1.0121843 0.54227674 2.2000031 0.5447691 -2.9019234
0.24073383 0.9829785 3.2563274 -1.452274 -0.36765218 0.12103875 -1.1047469 0.06294353
-0.2184162 0.2661127 -0.61413413 1.0568196 1.5812727 1.8201537 0.83555865 0.40323615
0.0829869 0.6529603 -0.6731349 0.6306631 -0.60368085 -0.36621216 0.33925617 0.06278595
0.22771461 -0.32179284 -0.45491 -1.1864264 1.7512337 0.076192535 1.2030985 1.1045684
-1.5086759 0.4539563 0.06908499 -2.720139 1.1616507 0.22413386 -1.9322151 0.48319295
-3.0279415 2.536141 0.553685 -2.545622 0.2025484 1.1421447 -0.072626956 -1.6999906
0.2840528 0.63686097 -1.1048801 3.215813 0.49995053 0.53169173 1.5568345 0.3400386
-1.0269425 -0.85030067 -0.059138335 0.75736463 0.24079476 0.1639318 0.7315711 -1.0079203
0.7825551 0.5111973 -0.8370913 0.71421427 0.7467376 1.9850206 -2.5705664 -0.07580933
1.1035116 0.3395817 -1.0910418 -0.5408589 -1.1791924 -0.3466548 0.52731836 1.9787201
-1.3671759 0.6042147 0.93267906 1.3676742 -0.07516727 -1.3088163 0.81813174 -3.5452783
-1.4934155 -0.26323715 1.7427438 0.5700308 2.1635008 0.49929437 0.8391544 -0.57542217
0.34906536 0.20436841 -1.0112184 0.67083716 -0.02448275 2.2980742 0.9116521 0.37204525

riemannian.proj.0.weight f4 [256, 253]
00000000: 2b94 9bbe 61c6 233d 8bc1 acbd 9965 3b3e
00000010: a316 c4bb 3a77 35bd 4b64 94bd a3ce a63d
00000020: 54c4 edbc 9dbb 44bd f912 3c3d 615a 2a3c
00000030: 93d5 2bbd e318 253e b920 243d d847 b4bd
00000040: 4abb 243c db8e fdbc 72a1 6c3c 3c6c e1bd
00000050: 1ccc fc3d 78b2 24bd 5e9a bc3c bca3 57bc
00000060: 138f f83c 9f47 6d3c 6f07 10bd 40d9 abbd
00000070: 4303 f5bd 4af0 113c 06d4 1cbc 8c5b fd3b
00000080: e506 783c 5d5d b33c 5e65 0b3d c51f f5bc
00000090: e707 7d3c d41c 8abd f9cd 85bc dd5a f7bc
000000a0: 34e7 2fbd b9ca c8bc 7dd4 043d 5916 8f3d
000000b0: fa37 44bd 474a b83b 96c2 803d 782b 4abd
000000c0: a3d8 923c 801b c1bc b32a cebc 051b 33bc
000000d0: ca8c 223c c029 003d 8cf2 a13d 62fe 83bd
000000e0: 4090 a3bd 6095 6a3d 2737 1a3d b495 993c
000000f0: 7de1 bb3d 64e8 a83d 8957 ea3a 9570 7c3d
00000100: dad7 2cbd 52c5 aebd a31f 063d 65b0 41bc
00000110: 9cad 20bc f284 2bbd 196e 4bbd 69b6 edbc
00000120: dd9d e6bd 49c2 0d3d a937 4e3d d680 0a3d
00000130: 4751 8f3d 760b eb3c 7d3c 99bc 8070 3cbd
00000140: 1cb5 b4bc 2d51 b1bc c0be acbd fe23 c0bd
00000150: 12a9 e63d fb04 49bd e454 c8bc 9e97 a43d
00000160: 48d7 2dbd ebc4 553d 220e acbc f291 0d3e
00000170: 6e77 bbbc 6a1a d13d 7962 4d3d 66f4 51bc
00000180: e41b e7bd 7b1c a53c adfc 76bc 4818 ddbc
00000190: dd03 1e3d 35a7 093e d4a1 083e db8e 283d
000001a0: 7513 a9bc 9fba 9abd 91cf acbd 2e1f 243d
000001b0: 9e9c a0bd 1134 0dbd 7adf 9f3d f54f 023a
000001c0: 9afe 26bc 3ce3 c23c b108 61bd e39b 34bb
000001d0: e63e 39be 7906 9ebd 7052 703d c49c c4bd
000001e0: 96ac f93b e787 d73d 0286 f23d 4454 ab3d
000001f0: a9b2 4fbd 7f07 46bd c881 6cbd 2714 44bc
00000200: d493 b13d d5f9 853d 99a2 633d 4b58 b8bd
00000210: 9c29 a6bc 5a06 d43d 4411 963d 4179 81bc
00000220: 2ac6 3ebd 213b fcbc b2b9 74bd 2898 183b
00000230: 761a 2dbd 505e d3bd a1b3 503d 3e56 78bd
00000240: eb42 18be 7364 d0bd 553f a93c 1b20 213e
00000250: d33e bf3d 97be 493c 22fe dd3d e7e8 a73c
00000260: 5a50 bbbc 5035 723d 1125 e1bd 3fff 8dbc
00000270: 93d7 0cbd e945 ae3d 85f5 c2bc 8c6e 483e
00000280: 6242 383d 6e93 213c 54a1 fabc 0d24 35bd
00000290: 10d8 0cbc b119 1e3d 2faf 6b3c ee5b febd
000002a0: 65a6 5f3d 02e1 b93d 2665 683c 6ab6 3c3d
000002b0: 03f6 14bd cfd2 73bd 20f9 c73d 0ce3 a3bc
000002c0: 0a22 14bc c101 f5bc c0e6 a43d 35bb 943d
000002d0: 752f 523d 917d 563d 1d44 29be 782e 643d
000002e0: de3d 2f3d 73ea 0fbd 830c 44bc 2e8b 78bc
000002f0: 58e3 1abd 6816 083b 6a2f d8bd f3b8 0b3d
00000300: 6e6c da3c 5d01 743c 2245 9abd 7ff7 3ebd
00000310: 7578 df3c 42a4 8dbd 3eea c03c 87ba 09bd
00000320: ff41 933d c61c 4b3b 7de1 ac3d d1ae a83d
00000330: a139 28bd 41d5 45bc 62b1 fe3b 2694 87bd
00000340: 09a7 d2bb 4c4c 823d a596 ce3d bb6a 92bc
00000350: dbef 863c 2f49 d8bc 76e2 ee3d c032 b23b
00000360: 23cc c63c 35ec 9ebd 16c6 52bd 3c6f a4bd
00000370: ef2c 873d 430e 18be f27e f3bc 670f a1bc
00000380: a99b d33c 788f f33c be70 31bd 63ec 9cbd
00000390: 1a5e 843b ecd0 77bd 49ad 45bd 216d 51bd
000003a0: 2ab3 b9bd 480f 153d 8a5d 443d 9069 033e
000003b0: 6934 36bd 7d73 8e3c 3121 573d 5216 043d
000003c0: 79bf f1bd 13b0 d03c b82b ebb9 75d8 893d
000003d0: 0113 a8bd 74e0 373e 6e74 723d 19f8 d1bd
000003e0: f7d1 66bc 44a9 8e3d 06f0 f0bc dca1 273d
000003f0: fabf c23c dd0c 843e 5b81 4cbd b1a4 6dbd
-0.3038648 0.03998411 -0.08435353 0.18300475 -0.005984144 -0.044303156 -0.07245692 0.081448816
-0.02902428 -0.048030484 0.04591653 0.010397525 -0.041951727 0.16122775 0.04007027 -0.088027656
0.010054419 -0.030951908 0.014442788 -0.11006972 0.12343618 -0.040209264 0.023022827 -0.013161596
0.03034166 0.014482408 -0.03516334 -0.083910465 -0.11963513 0.008907387 -0.009572035 0.0077318605
0.015138363 0.021895105 0.03403222 -0.029922375 0.015443779 -0.0674378 -0.016333567 -0.030194694
-0.0429451 -0.024510728 0.032429207 0.06986684 -0.047904946 0.005624089 0.06287114 -0.04935786
0.017925566 -0.023572683 -0.025166845 -0.010931735 0.009921262 0.031289816 0.0790759 -0.06445004
-0.07986498 0.05727136 0.037650254 0.018748142 0.09173868 0.0824745 0.0017878871 0.061630804
-0.04219804 -0.085337296 0.032745015 -0.011821841 -0.009807017 -0.041874833 -0.049665544 -0.029017644
-0.11260579 0.034609113 0.05034605 0.033814274 0.06997924 0.028691988 -0.0187056 -0.046005726
-0.022059016 -0.021645153 -0.0843482 -0.09381865 0.11262716 -0.049077015 -0.024454542 0.08036731
-0.042441636 0.05218975 -0.021002833 0.13825205 -0.022884097 0.10210116 0.05014274 -0.012814617
-0.112846166 0.020155182 -0.015074891 -0.026989117 0.038577903 0.1344269 0.13342983 0.041151863
-0.02063916 -0.075551264 -0.08438028 0.040068798 -0.07842372 -0.034473483 0.07806297 0.0004971021
-0.010192538 0.023789994 -0.05493993 -0.0027558736 -0.180904 -0.07716078 0.05867237 -0.09600213
0.007619451 0.10523968 0.11841966 0.08365682 -0.050707493 -0.048346993 -0.057740957 -0.011967695
0.08670774 0.06541792 0.055574987 -0.090012155 -0.020283513 0.10352774 0.07327512 -0.015804889
-0.046575703 -0.030789914 -0.059747405 0.0023284052 -0.042261563 -0.10320723 0.050952557 -0.060629122
-0.14869277 -0.10175409 0.020660082 0.15734904 0.09338155 0.012313507 0.108394876 0.020496799
-0.022865463 0.059132874 -0.10993398 -0.017333625 -0.034385275 0.08509428 -0.023798713 0.1957342
0.044985183 0.00986181 -0.030594505 -0.044223834 -0.008596435 0.03859872 0.014385029 -0.12419878
0.054602046 0.0907612 0.014184272 0.0460724 -0.036367428 -0.059527215 0.09764314 -0.020005725
-0.009041319 -0.029908063 0.080518246 0.072622694 0.05131479 0.052365843 -0.1652989 0.05570838
0.04278361 -0.035135698 -0.011965874 -0.015169902 -0.03781447 0.0020765308 -0.105559185 0.03411193
0.026663031 0.014892903 -0.07532717 -0.04662275 0.027279118 -0.06916095 0.023549195 -0.033625152
0.07190322 0.0030992492 0.08441446 0.082364686 -0.041070584 -0.0120747695 0.0077726105 -0.06620054
-0.0064286035 0.06362209 0.10087327 -0.017873159 0.016471794 -0.026402084 0.11664288 0.005438179
0.024267262 -0.07759897 -0.05145844 -0.08029029 0.06600367 -0.1484919 -0.029723618 -0.019660665
0.02583106 0.029731497 -0.04332041 -0.07662275 0.004039538 -0.060501978 -0.04826096 -0.051129464
-0.09067376 0.036391526 0.04794077 0.12833238 -0.044483576 0.017389053 0.05252189 0.03224785
-0.11804099 0.025474584 -0.00044855266 0.06730739 -0.0820675 0.17956716 0.059193067 -0.10252399
-0.014088145 0.069658786 -0.029411327 0.040925846 0.023773182 0.25791064 -0.04992805 -0.05801839

riemannian.proj.0.bias f4 [256]
00000000: cb7a c23c 3d14 89ba 6b71 b6bc e6ad 74bb
00000010: 4136 8f3c a0df 1e3c 546f 193c 1534 b0bc
00000020: 4359 ddbb bda6 2c3c 2038 43ba 1fb7 383c
00000030: 82e8 f6bc c3ff 2cbb 1018 333d b3cf 1bbc
00000040: 1b85 49bb dad0 193c 6663 39bc 1ad0 333c
00000050: f830 abbc 2c43 553c 3b0c 87bc c91d 2dbb
00000060: c204 15bc b3e8 e6bd 1da2 833c 2b70 053c
00000070: 702f 2dba d702 a1bc 78e6 c93c c824 0f3c
00000080: 35a6 2d3c 4aeb a63b 604d e53b 7483 d6bb
00000090: b797 2b39 eb9a d43c e8fb b13c 6c5a f1bc
000000a0: 16c0 80bc 9cdc 503c c5fa 143c 8736 243a
000000b0: e431 fc3b d291 14bd 8e5c 87bb 984e 7d3d
000000c0: 7b55 373b 231c 8bb9 7353 a6ba 4376 45bc
000000d0: 416c fd3c cc9a 893c 4f58 7e3c 3bd3 bebd
000000e0: a68a 6f3c 4d2c 64ba 9833 98bb 85b9 6fbc
000000f0: f9d1 50bb 792d 363b 6620 08ba 11d6 80bb
00000100: c2a0 0f3c 3bca 8fbc 5d43 97bc 3302 fabb
00000110: ef67 233b 26fa 5c3b a053 013d 16a6 c9bc
00000120: 7a5c aebc 87e1 c1bc e6c5 4b3c 4958 5cbc
00000130: e542 963c 38be cabb d5bb b5bb 9ff5 a23c
00000140: d8fd 303c 8805 773c bb6b 003c 0fc1 353b
00000150: 223b 74bd a7b7 c2bc e84c c33b 50e4 6dbb
00000160: f001 843c 5530 30bd 221c ad3c fbc9 9c3c
00000170: 0bbd ddbb 871a 5a3b c97b cabc 0d8b 98bc
00000180: 53b3 233c 452d 243c 9a7e 963c a97e 953b
00000190: 0211 d83b 9442 36bc 3ba8 4ebc 7750 38bc
000001a0: 4200 39bc 7f28 c4bc 3ef9 4e3c 0280 7a3c
000001b0: 7e15 5a3c b4af 2dbd 234e 3b3d 95e2 35bc
000001c0: 64d3 13bc f607 a13c 8359 b139 1bed 37bc
000001d0: 6f4f 73bb e4a7 55bc d1d5 02bb ac99 00bc
000001e0: 7dd5 e0bb 1c84 8dbb aa9a bf3c 41bf 3bbc
000001f0: b56b 5abd fca5 903c 7264 c0bb 8273 68bc
00000200: d5fd 4c3c 5513 f23b f25a 273b 69f9 33bc
00000210: 0bba 43b9 6c15 2a3c 5779 8a3b bf2c 92b9
00000220: 638f c23a e6b9 2ebd 5b33 763d e32e 28bc
00000230: a712 1bbd 13e9 1bbc f130 8e3c 62e3 da3b
00000240: e0fd c2bb abd9 6fbb d806 df3c 7f5f 443c
00000250: 54d1 f83c a874 e3bc b830 4f3c efec dcb7
00000260: 2bb0 f3bb fbc0 763c 8273 8c3c 7590 1dbb
00000270: 1c8d dd3b cfd4 8ebb daff 9a3c 4caf 8db9
00000280: 53c5 2bbc c9c5 903b ec22 353d a5ec 823c
00000290: 8a02 543c 996d a7bb 9d0f 02bc 2e20 f4bb
000002a0: 4636 01bc 5cc0 a53c c527 293c f8fc 5d3c
000002b0: 8e73 0cbc 2a26 43bb f73f 8e3b ce00 4bbc
000002c0: 7b55 e33b 8a6a c13c 9862 d6bc 415d 95bc
000002d0: 1a45 99b9 c160 b63c d680 9dbc aa6d 033d
000002e0: e564 48bc a605 9d3c 359c 883c 60d8 a6bc
000002f0: e2f3 8fbb d4c4 62bd 8c21 3fbd 5d2b 3f3c
00000300: 1d9b 0b3c 360f 97bc c6bd 0c3c aba2 13bc
00000310: 9ef0 c23b d9bf 9a3d b3ae d83c 788c 243d
00000320: c3d1 e3bc f935 7b3b bcd4 3c3d ad2f 4fbd
00000330: 7021 273b 7d7d 7abc 5e5e f53b 76b8 9abd
00000340: 0e30 ee3a bab7 19bb f915 873c 1e49 963c
00000350: 3d24 3b3d 8681 9a3b d8c2 0b3c 85ae 363c
00000360: c14c 16bd 85d6 bdbb e5c0 703d 039e 8fbc
00000370: ecca ea3c 3eb3 3e3b ddf9 e1bb 0468 d83c
00000380: 525d 98bb 15fa a6bb 3368 2f3c 711c 26bc
00000390: da6e 053b b3c8 00bd ce6f b43c 902c 97bc
000003a0: 0f37 c03b 400d 0b3c b73b 29bc b343 413c
000003b0: 1fc6 db3c 6904 dc3c 80dd 023d deae fb3c
000003c0: 53d2 803c 9b91 00bc eecc d73b 6ffa 103d
000003d0: be18 cbbc 8c26 07b9 ff4a 6a3c d8a3 5dbc
000003e0: 68bd 60bb 7e94 f7bb 3ce6 26bd a265 ce3c
000003f0: 34f7 c13c 6646 e23c bc59 94b9 b632 e23c
0.023740193 -0.0010458302 -0.022270879 -0.0037335097 0.017481925 0.009696871 0.009364922 -0.02150921
-0.0067550256 0.0105378 -0.0007447023 0.011274128 -0.030140165 -0.0026397563 0.04372412 -0.009509969
-0.0030749503 0.009388173 -0.011315202 0.010974908 -0.020897374 0.013016503 -0.016485324 -0.0026415458
-0.009095373 -0.112748526 0.016068513 0.008144419 -0.0006606495 -0.019654674 0.024646029 0.008736797
0.010598709 0.0050939666 0.006997749 -0.006546432 0.00016364349 0.025952777 0.021726564 -0.029462062
-0.015716594 0.01274791 0.009092991 0.0006264229 0.007696377 -0.036271878 -0.0041309064 0.06184253
0.0027974534 -0.0002653311 -0.0012689665 -0.012052122 0.030935409 0.016797446 0.015523984 -0.09317633
0.014620459 -0.0008704111 -0.0046448223 -0.014631634 -0.0031863435 0.00277981 -0.0005192816 -0.0039317687
0.008766355 -0.017552486 -0.018464739 -0.0076296567 0.0024933775 0.0033718436 0.03157389 -0.024615329
-0.02128433 -0.02366711 0.012437319 -0.013448783 0.018342445 -0.0061872266 -0.005546073 0.019892512
0.010802709 0.015077002 0.007838185 0.002773348 -0.059626706 -0.023769213 0.0059600957 -0.0036299415
0.016114205 -0.043014843 0.021131579 0.01913928 -0.0067669204 0.0033279972 -0.024717228 -0.018620992
0.009991485 0.010020559 0.018370915 0.004562218 0.0065938244 -0.011124272 -0.012613351 -0.011249653
-0.011291565 -0.023945091 0.012632666 0.0152893085 0.013310788 -0.04240389 0.045728814 -0.011101385
-0.009022567 0.019657116 0.00033826762 -0.011225964 -0.0037126204 -0.0130405165 -0.001996387 -0.007849138
-0.0068613873 -0.004318727 0.02338918 -0.011459173 -0.053325374 0.017657273 -0.005871349 -0.014187695
0.01251169 0.0073875585 0.0025536385 -0.010984757 -0.00018665956 0.010381084 0.0042258906 -0.00027880628
0.0014843758 -0.042657755 0.06010757 -0.010265085 -0.037859585 -0.009516018 0.017357321 0.006679938
-0.0059506744 -0.0036598246 0.027224943 0.011985659 0.030373253 -0.027765587 0.012645893 -2.6336375e-05
-0.0074367723 0.015060659 0.017144922 -0.0024042402 0.0067612063 -0.004358865 0.018920828 -0.00027024222
-0.0104840575 0.004418109 0.044222757 0.015981982 0.0129400585 -0.0051095006 -0.007938293 -0.007450125
-0.007886475 0.020233326 0.010324423 0.013549082 -0.008572472 -0.0029777386 0.0043411213 -0.012390329
0.0069376803 0.023610372 -0.02617006 -0.018232943 -0.0002923392 0.022262933 -0.019226473 0.032087006
-0.012231086 0.019167732 0.016676048 -0.020366848 -0.004393087 -0.05536349 -0.046662852 0.011668053
0.008520869 -0.01843987 0.008590167 -0.009010951 0.005949094 0.07556123 0.02645049 0.040173024
-0.027809983 0.003833173 0.046101317 -0.050582577 0.0025502108 -0.015288708 0.007488056 -0.075547144
0.001817228 -0.0023455457 0.01648997 0.018345412 0.045688856 0.0047151474 0.008530341 0.011150007
-0.036694292 -0.005793395 0.05877771 -0.0175314 0.028661214 0.0029098536 -0.006896241 0.026416786
-0.0046497965 -0.00509573 0.010705995 -0.010138617 0.0020360262 -0.0314414 0.022025969 -0.018453866
0.0058659385 0.008487046 -0.010329179 0.011795926 0.02682787 0.026857572 0.03194952 0.030723032
0.01572529 -0.007847215 0.006585709 0.035395082 -0.024792071 -0.00012888963 0.014300107 -0.013527833
-0.0034292582 -0.0075555434 -0.040746912 0.025194947 0.023677446 0.02762146 -0.00028295617 0.027612071

riemannian.proj.3.weight f4 [48, 256]
00000000: 33ad f03d 6835 19be aa67 863d 22ce eebd
00000010: e50a b3bd f884 aebb 06fe 6c3d bc2f 333e
00000020: cecc f13c 3b52 92bd 078e 4dbc 2fd3 24be
00000030: 9551 923d 0f1e aebd 02b3 673e 31a2 623d
00000040: 83f2 e1bb 44dc 15bd 4cb2 733e 9574 24bd
00000050: 6296 ae3c 0db3 2a3d ab1c 50bd e645 8dbc
00000060: 48ad fdbb 9cf4 11be ab06 93bc c2b1 84bc
00000070: 82cf 223d 5725 0b3c 77dc 473e cddb 72be
00000080: 9165 013d 1eb3 c6bc e285 2dbd 85a6 a1bd
00000090: a7c2 41bb 2a23 593d 973a 75bd 7b9d 85bd
000000a0: 6274 273e 65e1 01bd 9bde 263c eadd 92bc
000000b0: 10e9 ffbc 51b4 85bd 0ac9 a63d a651 17bd
000000c0: b13a de3d 9bdf 40be d336 103d caa9 2c3e
000000d0: 14a8 d43d af51 443d 57dd cdbc ff21 e9bd
000000e0: c54b 9cbd d4a8 f2bd dfe0 8e3d ae99 063e
000000f0: dd0f 883d af6f 2dbd cc76 8d3d db6c 76bd
00000100: c174 d1bb 8fa7 f0bd 954c a93d 35a5 75bc
00000110: 8ed4 b23d 6602 183d f2d5 533e 8eea da3c
00000120: aa98 923d 0719 5f3d d3bd 8cbc 6f42 e93c
00000130: a400 0bbe 954b ec3d 1fe5 12bd 3bbf 183e
00000140: a438 e43d 292c dd3d c82e 803d ed27 17be
00000150: 784b 85bd 4ed8 e3bd 9439 db3d 388e 553d
00000160: ee10 aa3c 8467 2fbe 78db 82bc 5c68 02be
00000170: afa7 b23d 204c 62bd 6c2b e53d 31c8 cbbb
00000180: 1d4c 01be a308 883c e4af 78bd dee3 ad3d
00000190: c465 85bd c722 59bc 9782 ac3c 5653 a7bc
000001a0: d6f8 1d3d 46b4 b93b e3d7 d43d 97be 04bd
000001b0: 6b19 043c 2886 0fbd b706 76bb a678 d03d
000001c0: 8623 5dbd d659 953d 6a78 d93d 7bea 113e
000001d0: 9024 f1bc 2fe9 14bb f2f0 e8bd ad27 1abd
000001e0: 40b5 13be cdd9 59bc dccd 9e3c 18b8 003e
000001f0: 94f4 403e 5018 493e 7ab9 8a3d b65d 013e
00000200: e4b8 75bd b953 1fbe f9a4 013c cec5 603e
00000210: a81d 563e ffe2 383c e130 a43d aa0a 30bd
00000220: 00c9 01be 5132 9ebd 8d9a c9bd 3f9e ee3d
00000230: 50a4 433d d3fd ad3d 7f92 eabd ca7e 6fbc
00000240: 5e50 cdbd 64e9 933a 9a56 1d3e 9f20 0a3c
00000250: 60a3 a3bd 51e4 eabd 235a dbbd 6e7a 12be
00000260: 7294 87bc 1a79 97bd f9de e0bc abea 44be
00000270: 03b9 18bc e549 dfbc 1454 bfbc 50cd 43bc
00000280: 2dd5 0c3e 0cda 97bd 7894 b03d dc19 0bbe
00000290: a0c6 8d3d 7a58 b63b 524c 0e3e 311b 28be
000002a0: f626 673c ee83 b53d 1e1d 06be 98bd 873c
000002b0: afd7 6bbe 7336 f93d 3a51 58be ea0d b3bd
000002c0: 09b0 0dbe 7bdc 033b ce29 0f3e 9916 4fbc
000002d0: 3926 733d 1d90 21be 44a8 0b3e c970 48bc
000002e0: 0765 21bd 2db3 58be c74c 0bbd 2ef7 8ebd
000002f0: f93f dcbd b90d 003e 04d6 c4ba 93f0 8fbd
00000300: d745 ea3c 8ee5 65bd beb8 34be e738 d93d
00000310: 8a0b 37bd e6bb ed3d 1648 b53d f88e 9cbc
00000320: 2927 0c3d 3190 c5bd 2e41 31be 3a0e c23c
00000330: bbdb 533d 052f 803d eeda 273d ed4c 0f3e
00000340: 20eb 3fbe 70ae bb3d b897 dc3d 7b6e a0bd
00000350: ccfd 903d 8948 d9bd fa88 243c 4b69 54bd
00000360: 98b0 e2bc 9c7f 33be ea73 1b3e a004 c5bd
00000370: ce40 e93c 0986 d0bd 50d8 9d3d d75a ebbd
00000380: 4249 a73d a623 833d 1661 0f3d fc4a f93c
00000390: 8ab2 583e 36b2 82be 59fe 96bd c158 323e
000003a0: d722 e63c 3903 a03c e493 d83d 3463 debd
000003b0: 2ed4 24bd 88c9 c7bc c7aa 73bd 43f9 61bc
000003c0: 3554 73bd 0ff6 e0bd aa93 093e e621 05be
000003d0: ed29 973d c950 d63d 6872 203d 5d03 0abe
000003e0: 72a2 3abe 3a01 183e 4ee9 523d 3695 8c3d
000003f0: 508f 573d 5312 45ba 0bfb 99bd 9e54 1ebd
0.11751785 -0.14961779 0.06562741 -0.116604105 -0.08742312 -0.0053259097 0.057859443 0.17498678
0.029516604 -0.071445905 -0.012546069 -0.16096185 0.07144467 -0.08501827 0.2262688 0.05533046
-0.0068953647 -0.036587015 0.23798484 -0.040150244 0.021311942 0.041674662 -0.05080859 -0.017245244
-0.007741604 -0.14253467 -0.017947515 -0.016198043 0.039748676 0.008492789 0.19517694 -0.2371666
0.031591002 -0.024255332 -0.04236401 -0.07893089 -0.0029565485 0.05301205 -0.05987033 -0.06524178
0.1635299 -0.031709094 0.010184909 -0.017928082 -0.031239063 -0.06528533 0.08143814 -0.0369431
0.10851038 -0.18835299 0.035208534 0.16861644 0.10383621 0.047929462 -0.025129957 -0.11383437
-0.076316394 -0.11848608 0.069764845 0.13144562 0.06643651 -0.042342838 0.06907424 -0.060162406
-0.006392092 -0.11750709 0.0826656 -0.014993002 0.08731948 0.037111662 0.20687082 0.026723173
0.071580246 0.054467227 -0.017180359 0.02847406 -0.13574463 0.11537854 -0.03586304 0.14916699
0.11143616 0.107994385 0.06258923 -0.14761324 -0.06508535 -0.11125241 0.107043415 0.052137583
0.020760026 -0.17129332 -0.015973791 -0.12735122 0.08723389 -0.05524838 0.11189923 -0.006218933
-0.12626691 0.01660568 -0.060714617 0.08490728 -0.06513551 -0.0132529205 0.021058364 -0.02042548
0.038567387 0.005667242 0.103927396 -0.032408323 0.008062701 -0.03504005 -0.0037540623 0.10179262
-0.053988956 0.072925255 0.1061867 0.14249603 -0.02943638 -0.0022721996 -0.11374082 -0.037635494
-0.1442461 -0.013296557 0.01938527 0.12570226 0.18843299 0.1963818 0.06773658 0.12633404
-0.05999078 -0.15559281 0.007912868 0.21950457 0.2090975 0.011284589 0.080171354 -0.04297892
-0.12674332 -0.07724441 -0.09843931 0.11651277 0.047764122 0.08495679 -0.11453723 -0.014617631
-0.100250944 0.0011284766 0.15365067 0.008430629 -0.07990146 -0.11469329 -0.107105516 -0.14304516
-0.016550276 -0.07396145 -0.027450072 -0.19230144 -0.009321454 -0.027256915 -0.023355521 -0.011950806
0.13753195 -0.07414636 0.08622068 -0.13584083 0.0692265 0.0055647464 0.13896301 -0.16416623
0.01410841 0.08863054 -0.13097045 0.016569898 -0.23031496 0.121685885 -0.21124735 -0.08742888
-0.13836683 0.002012043 0.13980791 -0.012639665 0.059362624 -0.15777631 0.13638407 -0.012233921
-0.039402988 -0.211621 -0.034008767 -0.069807395 -0.10754389 0.12505235 -0.0015017395 -0.07028308
0.028597755 -0.056127124 -0.17648599 0.106065564 -0.04468874 0.116081044 0.0885164 -0.019111142
0.034217034 -0.09646643 -0.1731002 0.023688424 0.051723223 0.06258968 0.040980272 0.13994189
-0.18742037 0.09164131 0.107711256 -0.078335725 0.07079658 -0.10609538 0.010042423 -0.051858228
-0.027672097 -0.17529148 0.15180936 -0.09620023 0.028473284 -0.10181815 0.07707274 -0.11491936
0.0816827 0.06403284 0.035004698 0.030431263 0.21161857 -0.2552659 -0.07372732 0.1741667
0.028092785 0.019532787 0.10575083 -0.10858765 -0.040241413 -0.02438809 -0.059489038 -0.013792339
-0.059406478 -0.10984432 0.13435236 -0.13001212 0.073810436 0.10464627 0.039171606 -0.13477845
-0.1822603 0.14844218 0.051492028 0.06864397 0.052626908 -0.0007517684 -0.07518586 -0.038654916

riemannian.proj.3.bias f4 [48]
00000000: 33c6 a63c b73c 0ebd 6ac5 67bd f18c b9bd
00000010: cf11 b5bc d137 813c b5d0 92bd 5a8b 77ba
00000020: a34b 31bd e182 b53d 31dc f6bd d929 73bb
00000030: 5042 d23d 9c14 94bc 7051 e7b7 0728 1bbd
00000040: c7ac 6c3d c41a 42bd 1e8e 1fbd 005a 6d3c
00000050: cb22 32bc 9d23 943c 4059 b4bc e288 083d
00000060: e8d9 d83c 6559 7bbc ba46 0abc 07d6 ad3c
00000070: 0567 843d 54bc 473d c713 1ebd 7974 5e3d
00000080: 9c43 1039 82e3 fdbc 5882 75bc 20f4 3b3d
00000090: a911 113d f0b2 713d 5a9b 22bc 0a7f 95bd
000000a0: 7ebf 463d 1787 13bc dcfd 65bd 1902 f7bc
000000b0: d874 86bb ae1c 3ebd 12c9 d03c b82b eb3c
0.02035818 -0.03472587 -0.056584753 -0.090600856 -0.022103218 0.015773686 -0.07168714 -0.0009443067
-0.043285023 0.08862854 -0.12053717 -0.00371038 0.10266554 -0.018076234 -2.7575268e-05 -0.03787997
0.05778196 -0.047388807 -0.038953893 0.01448679 -0.010872553 0.018083388 -0.022015214 0.033333667
0.026471093 -0.015341138 -0.008439714 0.02122022 0.06464962 0.048763588 -0.03859308 0.054310296
0.00013758097 -0.030992273 -0.01498469 0.045887113 0.035417233 0.05900854 -0.009924734 -0.072996214
0.048522465 -0.009004376 -0.056150302 -0.030152367 -0.0041032843 -0.04641407 0.025486503 0.02870737

cnn.block1.0.weight f4 [16, 1, 1, 64]
00000000: dd56 a1bb 0dc4 4ebd 73ac e5bb 3a73 ac3d
00000010: 825f ea3d ca17 6a3d b33d b83c e1a4 88bc
00000020: c93a 98bd bbad 3fbd 3db6 0abe e418 f7bd
00000030: 9e1b d6bd ea8d 063d f3b8 8a3d 2f26 e43c
00000040: 2680 b6ba e444 123e b6c0 0e3e ac5b 293d
00000050: 6b55 9e3c 4a2b 05bd 9209 ccbd 6a2d d33c
00000060: 92bb 08be 4cb4 07bd 7e1d a83c bd52 0dbc
00000070: 7666 a23d e884 5b3c f5ef d83d 4d95 773d
00000080: 5add 1f3d 2179 8abd 3309 a4bd 608c fabd
00000090: 6ede 75bc 0251 53bd c99b 9cbd db14 2cbd
000000a0: 7346 273d fba8 51bc 339c 2d3d 9c5c d63d
000000b0: d6e8 103e f4e7 603d 4bf3 0bbd 1e43 7b3b
000000c0: 4c47 bdbd d0b6 06be e922 eabd 6b7b c5bc
000000d0: 1d05 90bc 3158 6c3d e0f1 31bd 818e 843d
000000e0: 0a84 d03c 2605 db3d 3ba1 153e aae7 fdbb
000000f0: 2d99 1a3d 90c2 d1bd a862 82bd 73ef c4bd
00000100: 12b2 11bc a246 0cbe ee3e 08bd 5711 fbbd
00000110: 3b03 4cbd 40f6 17bd 4ab7 8cbd fcec 21bd
00000120: 7863 623d b07e cfbb 2c39 803d 0fcd a93d
00000130: bd74 803d ea41 b43d 82c7 b63d a363 1b3d
00000140: bf4d 323d 6b23 b33d e5b5 273b e1b3 783d
00000150: 721a 7e3c d68b 843d d0af 363d 3bcb 0d3b
00000160: c2d7 76bd 7c40 a3bd e60e c0bd bde0 2fbe
00000170: 1e1f 08be ed66 9bbd 99c6 06be 7d77 a5bd
00000180: 833c 89bd 70d8 5f3c ea2a 123d 3e70 b93c
00000190: 2699 8c3d 2de0 923d b212 ed3d 2e12 5b3d
000001a0: 601f 4ebd 2ba2 133e 2c05 593d c5eb e63c
000001b0: 9a3a 123c 1c51 8d3d c8e5 f33c c3d7 c83c
000001c0: 52f9 11bb caed 97bd bcab cbbc 30e1 c7bd
000001d0: d6c3 edbd 4ec4 2cbe ad49 33bd 80e2 9bbd
000001e0: 702d 3ebd d62e d2bc 689a f3bc c784 433d
000001f0: 40ef fabb 735b f53d ad7f 9e3d 966e 1d3d
00000200: add8 b6bd 7afa ccbc 2d46 96bd 3efb d3bd
00000210: 3b55 53bd feef 973d 885c 8bbd 83ce acbd
00000220: 4969 77bd 1fc4 3fbd bf13 efbc ab8a 5ebd
00000230: 24f8 93bd 5fdd 8abd 67dd 8dbd fb03 8ebd
00000240: 850c 1bbd 8c3f c9bd 3f9b d5bd 8dc5 aebd
00000250: 034f e3bc 602e 06bd 06f5 85bd b6a0 383c
00000260: 20e4 e5bd 17b3 5dbd 141c 0d3c e735 17bd
00000270: cec7 97bb 4670 cd3c 72a2 05bc b008 bebd
00000280: 0740 453c 01b4 463d 6e28 b6bd d684 9abd
00000290: 3ba9 42bc 273e e1bc 3e5b 39bc b86d 23bc
000002a0: 1925 8ebd 3a08 debd d674 e4bd 3bd4 ddbc
000002b0: a7cf d6bd 5eff a6bd 7613 9ebd 1428 65bd
000002c0: 5282 6dbc 437f d63c da27 bfbd 3c1b d3bd
000002d0: 4be3 88bd f11b aabd 3bd0 b1bd c309 c4bc
000002e0: ad1c e1bd abbe 12bd 2564 7bbd bf94 babc
000002f0: abb9 33bb 6d9e 9bbc ed6c 26be 09f6 15be
00000300: a78c d9bd 7c47 c9bd 363a bdba 3bfe e1bb
00000310: ef8f a9bd 9788 afbd 0e8a ddbd 604d e3bd
00000320: 107e c1bd da2e fbbd f84f 74bd e80a f9bd
00000330: d97d 64bd e906 ed3d 4003 733d 2936 223e
00000340: 52cd 1c3e ed00 1d3d 74fa e73d 3421 b6bc
00000350: 6217 973d e99d a5bd 57f3 18bd a16e 5ebd
00000360: 504d 023d feef 9ebd da8c 823c 47ce 2e3d
00000370: 8272 83bc 457e b5bd 0846 6c3b 58b9 feba
00000380: 7803 a2bd cbbb 06bd 4fda 153d 619f 10bc
00000390: 07f7 a1bd 70ba 1fbc a8f5 adbc 50e3 173c
000003a0: 2301 d8bc 9578 f13c df38 85bd 4a13 f1bc
000003b0: 4e31 903d a964 41bd 8ce8 c1bc 1d6f 083c
000003c0: 2a29 52bc 4b9a debc 7cdc 753b 34d0 4e3d
000003d0: f4cd 0f3d 1e19 4d3d 2096 f63d b574 433d
000003e0: 7c7c 123e d2bd b53b 6328 d43d ca41 a13c
000003f0: 7c36 06be 6239 7cbc 4151 afbd 80c0 2dbe
-0.004923685 -0.050479937 -0.007009083 0.08420415 0.11443998 0.057151593 0.022490358 -0.016680183
-0.074330874 -0.04679654 -0.13546081 -0.120652944 -0.10454486 0.032850184 0.067735575 0.027850239
-0.0013923689 0.14284092 0.13940701 0.04134719 0.01932784 -0.032511987 -0.09962763 0.025778491
-0.13352802 -0.03313093 0.020521875 -0.008625683 0.07929699 0.013398387 0.10592643 0.06044512
0.039029457 -0.06761385 -0.08009567 -0.12233806 -0.015006645 -0.051590927 -0.07646901 -0.042012077
0.04083867 -0.012796636 0.04238529 0.104668826 0.1415132 0.054908708 -0.03416757 0.0038339566
-0.092421144 -0.13155675 -0.1143244 -0.024106702 -0.017580563 0.057701293 -0.04344356 0.06472493
0.025453586 0.10694341 0.14612286 -0.007748564 0.037743736 -0.10242188 -0.063664734 -0.09615984
-0.008892553 -0.1369882 -0.03326314 -0.12259167 -0.04980777 -0.037100077 -0.06870897 -0.039532647
0.055270642 -0.006332241 0.06260905 0.08291065 0.06272266 0.088016346 0.08924772 0.037936818
0.043531176 0.0874699 0.0025590595 0.06071842 0.015509235 0.06471984 0.04460126 0.0021636027
-0.060264356 -0.07971284 -0.09377842 -0.17175575 -0.1329312 -0.07587991 -0.13161696 -0.08079431
-0.06700995 0.013662443 0.035685457 0.022636529 0.06865148 0.071716644 0.115758315 0.053484134
-0.05032289 0.14417331 0.052983448 0.028188596 0.0089251045 0.06900236 0.029772654 0.024516946
-0.002227385 -0.074184015 -0.024862163 -0.09759748 -0.11609618 -0.1687176 -0.043771435 -0.07611561
-0.04643005 -0.025657099 -0.029736713 0.04773405 -0.0076579154 0.11980333 0.07739196 0.03843554
-0.089280464 -0.02502178 -0.07337604 -0.10350655 -0.051594954 0.07418822 -0.06804758 -0.084378265
-0.060403142 -0.046817895 -0.02918422 -0.054331463 -0.072250634 -0.067805044 -0.06926995 -0.06934353
-0.037853736 -0.09826574 -0.104300015 -0.085337736 -0.027747637 -0.03275907 -0.06540875 0.011268785
-0.11225152 -0.05412587 0.008612651 -0.03691664 -0.004631973 0.02507795 -0.008156406 -0.09279001
0.012039191 0.04851151 -0.0889443 -0.07544868 -0.011881168 -0.027495457 -0.011313258 -0.009974889
-0.069406696 -0.10841413 -0.11155097 -0.027078738 -0.10488825 -0.08154176 -0.07718556 -0.055946425
-0.014496403 0.02618373 -0.09333773 -0.10307929 -0.06683978 -0.08306111 -0.08682295 -0.023930436
-0.109917976 -0.035826366 -0.061374802 -0.022776006 -0.00274239 -0.018996442 -0.1625249 -0.14644636
-0.106225304 -0.09828088 -0.0014436904 -0.0068967617 -0.08279406 -0.08570974 -0.108173475 -0.110987425
-0.09447873 -0.122647956 -0.059646577 -0.12160283 -0.05578408 0.11573584 0.05932927 0.15840973
0.15312698 0.03833096 0.11327067 -0.02223263 0.07377507 -0.080867596 -0.037341442 -0.054304723
0.031812012 -0.077606186 0.015936304 0.04267719 -0.016045813 -0.088619746 0.0036052484 -0.0019433899
-0.07910818 -0.032893937 0.03658515 -0.008827061 -0.07908445 -0.00974904 -0.021235302 0.009270504
-0.02636773 0.029476443 -0.06504988 -0.029428143 0.07040654 -0.047215138 -0.023670457 0.008327273
-0.012827197 -0.027173182 0.0037515452 0.050491527 0.03510852 0.05007278 0.12040353 0.047718722
0.143053 0.00554631 0.10359266 0.019684691 -0.13106722 -0.0153945405 -0.0856042 -0.16967964

cnn.block1.1.weight f4 [16]
00000000: 1523 de3f 476e 0240 071b da3f 3dc6 933f
00000010: 310c bd3f 7c98 e23f 3e16 b33f 44b3 aa3f
00000020: 266f ef3f ba33 c23f 632f 423f d3a1 fb3f
00000030: 1a08 cd3f adc8 c53f 582b dc3f ef4c b13f
1.7354456 2.0379808 1.7039498 1.1544873 1.4769346 1.7702785 1.3991163 1.3335958
1.8705795 1.5172036 0.75853556 1.965876 1.6018097 1.5451866 1.7200727 1.3851603

cnn.block1.1.bias f4 [16]
00000000: 28cc 9d3c fe52 8a3a 2bd3 ef3c 14ba e83c
00000010: 9d67 183d e85c 84bb 5638 633a 1554 f4bb
00000020: 971c 483c 1a5c c2bb e265 cc3c 6bb7 b63b
00000030: 19e4 803b 9b7b 26bb 4920 493c 0872 40bc
0.019262388 0.0010553298 0.029275497 0.028409041 0.03720819 -0.0040393956 0.00086677575 -0.0074563124
0.012213848 -0.0059313895 0.024950925 0.0055760643 0.0039334414 -0.0025403264 0.012275764 -0.011745937

cnn.block1.1.running_mean f4 [16]
00000000: e016 1b39 c5e9 dfb9 525c 7e3a be59 4039
00000010: 0669 4638 8a91 9f38 fc0c 7fba 5a80 8139
00000020: 1f45 66b9 3287 86b9 a00f 3a39 cdef 9638
00000030: 975a 6338 c52e 693a 0b47 a537 b31b 3e39
0.00014790474 -0.00042708046 0.0009703088 0.00018343978 4.730469e-05 7.6088196e-05 -0.0009729413 0.00024700427
-0.00021960259 -0.000256592 0.00017744163 7.197224e-05 5.4205386e-05 0.0008895214 1.9702615e-05 0.00018130131

cnn.block1.1.running_var f4 [16]
00000000: abcd ce3e 9755 ef3f f1ce dc3f 768c 453f
00000010: d32a 4b3f dae5 113f 0d16 eb3f 1df8 a83f
00000020: b167 543f e36e 633f 88a9 943f 6544 183f
00000030: 98eb 903f 830f cb3f e8e8 893f 9c9e de3f
0.40391287 1.8697995 1.7250654 0.7716745 0.7936222 0.5699135 1.8366104 1.3200718
0.8297072 0.88841075 1.1614237 0.5947936 1.1321898 1.5864109 1.0774202 1.7392154

cnn.block1.2.weight f4 [32, 1, 22, 1]
00000000: b8b6 34bd 40c7 76bd b204 9b3b af51 1dbd
00000010: 5c1d 343c 8a5f 173e d402 b33b 42b2 8c3d
00000020: 8bb0 d33c f94e d63d c502 0d3c 7e38 e3bc
00000030: fb58 5f3c a009 b3bc 2c5e 903d 6d9c d53c
00000040: c2d7 ddbd a02d 57be d630 2dbd 0203 a63c
00000050: bd38 863c f039 9d3d b520 733c f695 123d
00000060: ad54 00bd cd6a 45bc 368f 913d df08 febc
00000070: c63f 14bd 82c1 323d 0d43 a23d 8491 ea3c
00000080: f939 8ebd f813 403d 68ff 1f3e 382c 883d
00000090: c442 d7bd b67c e7bd ed57 dcbd 0e84 a6bd
000000a0: 2c99 3dbd 4bbc 24be 21e1 ea3c 8312 673e
000000b0: 42f7 25bd 2ba6 4f3b f630 0bbd 9bff 983b
000000c0: 8ecd 9cbd 98ae 0bbd a16e 113c 2ae7 ac3a
000000d0: c5f4 733d 1fa6 28bd e045 22bd 486b 8dbd
000000e0: 810b eebd 5ace 9dbb 2ccf 09bc bfea 113d
000000f0: 4255 233e c2de 393e 3795 6fbd 6258 b03c
00000100: 06da fa3d 4540 46be fbcf 25bd 673e f8ba
00000110: e095 633d fb8b 133c 68b1 aabc 7043 08bc
00000120: e06b a83c 575a 333c e2c5 0e3e 2776 973c
00000130: ac4d 963d 1ce2 8ebd 1a25 6cbd a841 843c
00000140: c57f 15be 9dde 92be 65e1 1c3e 50f5 d93d
00000150: 89d5 d93d 62fc 21be d761 283d fa53 493d
00000160: a4d0 bb3d fc6b 2dbd 0e72 1f3e 65d3 91bd
00000170: c09f 5abd f6e0 253e 0411 f8bd bdfd aebc
00000180: bdb0 303d 70ec 9e3d 9aac cb3d ea4a e53d
00000190: 2860 a03d ed16 eb3c 6195 09be 0156 173d
000001a0: 1e11 963b 98b7 f6bb 633f ccbc 85b7 533d
000001b0: 526b 84bd 2557 21be 5631 563d fd50 c23c
000001c0: f1ed d1bd d99a de3b f9a0 62bd 6673 9c3d
000001d0: 401d e4bd 378c 22bd 39c7 f63c f38e 943c
000001e0: 7c3c 0fbd 7996 8a3d c24d 073e 5599 b93c
000001f0: 8b31 8d3d 5c50 4b3c a6b8 8cbd a78a a5bd
00000200: 646e 9c3d db18 cebc 8be0 21be 130c ca3d
00000210: 2585 a7bd 646f c33d 1fa5 4c3d 71c5 873d
00000220: 8bc0 153d 75a1 d7bd c40b b03d 1312 2e3d
00000230: 83ed 123e 093c a7bc bdfc 37bb d309 39be
00000240: 50e5 04bd 01d2 293d b446 f13c d9f7 4abd
00000250: 053d 45bd 4fb7 89be 34ed 2e3d 7cbb 46bc
00000260: 45e1 bfbb 04e3 553b 235e 62bd af89 993d
00000270: aef9 6f3c 2920 b2bc 78ee c13d 258c a6bc
00000280: b295 0b3c 4c0b c0bc a98c 7d3c e2da c3bd
00000290: 06b5 0a3e 7bb5 dd3d fbcc d2ba 71d6 a23d
000002a0: ab61 e8bc 3843 58be 1cf3 b1bd 9bdb 8a3d
000002b0: ad74 b4bc cdb0 59be b380 de3c 4d97 9d3d
000002c0: 211d 833d cb04 cf3d a887 6abc c5a2 4abd
000002d0: d3dc f53c 5d42 dc3c dd3b da3d 701d b13c
000002e0: 9126 5e3d dd28 203d a6e4 87bd c394 693d
000002f0: 9a4c aabc e894 99be 739f f4bd f91d 623c
00000300: 5c93 713d 323a 0bbd b449 e6bd 428f 8b3c
00000310: a697 733d 0c66 013e 5f40 9ebb a8c7 a5bd
00000320: 0ff8 91bd 0501 353d 02ec 063e 58cd 2ebd
00000330: 1c2d 993e e415 95bd 008e 0cbe fbfb 1ebe
00000340: 7c45 723b 8491 1c3d e6ce ac3b c453 2e3e
00000350: db06 44bd a17e 55bd 7d73 72bd e239 1d3d
00000360: a847 ad3d 6ae8 863d 94bf 06bc 10f9 d1b8
00000370: 0d06 91bd 6c78 f6bd 3a78 d73d fd31 93bd
00000380: 12ad d6bc 4d04 58bb 84ef 47be bf56 383e
00000390: 5ff7 1d3d 4e53 32bd 3c00 2f3c ad7b 863d
000003a0: 6947 b4bc afe4 573e 773a 3c3e 6bcb 89bd
000003b0: 061b a4bd ed85 833d 6f1f acbc acf9 a337
000003c0: f330 aabc aba9 0bbe e17c ad3c 441f 223d
000003d0: 9c59 753a 843a 8b3d 76f7 563d 0ff9 faba
000003e0: beaa a8bd 8ab5 003d 6e1a 75bd ea44 e13d
000003f0: ee96 7fbd f3b2 8d3c fc90 ed3d 09c9 8ebc
-0.044119567 -0.060248613 0.0047307843 -0.038407978 0.010993328 0.14782539 0.0054629836 0.068699375
0.025841018 0.104642816 0.008606617 -0.027736899 0.013632054 -0.021855175 0.07049212 0.026075566
-0.10832168 -0.21013498 -0.0422829 0.020265106 0.016384477 0.07677066 0.014839341 0.035787545
-0.031330753 -0.012049389 0.071073934 -0.03101009 -0.03619363 0.043641575 0.07922945 0.02863384
-0.06944651 0.046894044 0.15624774 0.06649059 -0.105107814 -0.113030836 -0.10758958 -0.08130656
-0.046288654 -0.16087453 0.028671803 0.22565655 -0.040519007 0.0031684737 -0.03398224 0.0046691424
-0.07656394 -0.034102052 0.008876474 0.0013191451 0.059559602 -0.04117405 -0.03961742 -0.06905228
-0.11623288 -0.004815859 -0.00841121 0.035624262 0.15950492 0.18151382 -0.05849191 0.02152652
0.12248616 -0.19360454 -0.04048155 -0.0018939496 0.055562854 0.009005542 -0.020836547 -0.00831686
0.020559251 0.010946832 0.13942674 0.018488957 0.073390335 -0.06976721 -0.05765257 0.016144589
-0.14599521 -0.28685465 0.15320356 0.10642493 0.10636432 -0.15818933 0.041108932 0.049152352
0.091706544 -0.04233931 0.15570852 -0.071203984 -0.053375006 0.16199097 -0.121126205 -0.021361226
0.0431373 0.077599406 0.099450305 0.11195929 0.0783084 0.028697455 -0.1343589 0.036947254
0.0045796772 -0.0075292103 -0.024932569 0.05168869 -0.06465782 -0.15755899 0.052293144 0.023720259
-0.10250462 0.0067933616 -0.055329297 0.07639198 -0.111383915 -0.0396845 0.030124294 0.01813457
-0.03496979 0.06766982 0.13213256 0.022656122 0.06894215 0.012409296 -0.068711564 -0.080830865
0.07638243 -0.025158336 -0.15808313 0.09865584 -0.08179692 0.095427305 0.04996216 0.06629456
0.036560576 -0.10528842 0.08595994 0.042497706 0.14348416 -0.02041437 -0.0028074228 -0.18070154
-0.032445252 0.04146004 0.02945266 -0.049552772 -0.048153896 -0.26897666 0.042706683 -0.012129661
-0.0058557116 0.0032636533 -0.055265557 0.07496964 0.014646931 -0.02174385 0.094693124 -0.020330498
0.008519577 -0.023442887 0.0154754305 -0.09563233 0.13545617 0.1082563 -0.0016082817 0.07951058
-0.028366884 -0.21119392 -0.086889476 0.06780168 -0.022028292 -0.2125885 0.027160978 0.07694874
0.0640204 0.10108336 -0.0143145695 -0.049471635 0.030012524 0.026887113 0.10655949 0.021620482
0.054236 0.03910147 -0.06635408 0.057026636 -0.02078848 -0.2999642 -0.11944475 0.013801091
0.058978423 -0.033991046 -0.112445265 0.017036084 0.059470795 0.12636584 -0.004829451 -0.08094722
-0.071273915 0.044190425 0.13175967 -0.0426763 0.29917228 -0.07279566 -0.13726044 -0.1552581
0.0036967685 0.038224712 0.0052736877 0.17024142 -0.0478581 -0.052122716 -0.05919217 0.03838528
0.08460933 0.06587298 -0.008224387 -0.00010012288 -0.07081232 -0.120346874 0.10520978 -0.07187269
-0.026205573 -0.0032961548 -0.19524962 0.18001841 0.03856599 -0.043536477 0.010681208 0.06566558
-0.022006707 0.2108333 0.18381678 -0.06728252 -0.08012967 0.06422029 -0.021011082 1.9547377e-05
-0.020775294 -0.13638942 0.021177711 0.0395806 0.0009359361 0.0679827 0.05248209 -0.0019147712
-0.082356915 0.03142313 -0.05983966 0.109994724 -0.062399797 0.017297244 0.11599919 -0.017429845

cnn.block1.3.weight f4 [32]
00000000: 0e73 dd3f 9b86 e03f f105 873f 7d43 1440
00000010: b743 bf3f 5d23 ef3f 36f8 4a3f a1a7 933f
00000020: 0d5d 813f 4c8f d93f 69c8 f33f ca5d c43f
00000030: 28b5 a73f 43b2 c63f b442 9d3f cc26 ac3f
00000040: 709f d63f 8ccf fc3f 2850 e03f 6d96 463f
00000050: febd 4a3f 7c33 5f3f 1237 e23f 4969 f73f
00000060: af89 e83f 5b27 793f e520 cc3f aa19 8d3f
00000070: 6e4a 0a40 34ca c03f 47c1 ab3f a7f9 c83f
1.7300737 1.7541078 1.0548688 2.3166192 1.494254 1.8682667 0.7928499 1.1535531
1.0106522 1.6996856 1.9045535 1.5341122 1.310216 1.5523151 1.2285981 1.344934
1.6767406 1.9750838 1.7524462 0.7757328 0.79196155 0.87187934 1.7673056 1.9329005
1.8167018 0.97325677 1.5947539 1.1023457 2.1607928 1.5061707 1.3418359 1.5701188

cnn.block1.3.bias f4 [32]
00000000: c21d 0abf 0dab 43bf a6b9 b6be 58b9 51bf
00000010: 4d13 96be 9f9d 39bf 7125 0fbe e73b a0be
00000020: dcfc a9be 5c64 37bf 7c98 55bf 6c87 3fbf
00000030: 1d6d 23bf 1722 05bf 8291 0ebf 8be6 1ebf
00000040: 550e 1abf 902d 1ebf 0b84 3fbf a1cd a9bd
00000050: 0d74 fbbd 2006 a0bd 081d 69bf d347 37bf
00000060: 2a10 41bf 52f3 3ebe cb75 19bf d426 78bd
00000070: efc4 5dbf 3ba9 11bf 6946 c5be bedc d6be
-0.53951657 -0.7643288 -0.35688514 -0.8192344 -0.293116 -0.72506136 -0.13979127 -0.31295702
-0.3320073 -0.7163751 -0.834358 -0.7481601 -0.6383837 -0.5200514 -0.5569078 -0.6207053
-0.6017812 -0.6178827 -0.74810857 -0.08291174 -0.12277994 -0.07813668 -0.91059923 -0.7159397
-0.7541529 -0.18647507 -0.5994536 -0.060583904 -0.8662862 -0.5689885 -0.3853028 -0.41965288

cnn.block1.3.running_mean f4 [32]
00000000: 5a3d 513a 6880 bdb9 7b35 5db9 d880 123a
00000010: b953 a83c 7a5e cd3a 6c7e 69bb 86f5 8eba
00000020: b3c9 153b fb26 dd3b ed7d 45b7 3c59 6a37
00000030: 8be6 113c a401 d0bb f81f 3739 dfc8 a63a
00000040: f880 56ba ad79 ba38 e0a3 15b9 66e8 c5b9
00000050: d108 c1b9 d461 a9bc 131b d8b9 efd2 4bb9
00000060: 055f 7339 ea59 c23a 6ec1 acba 2661 e5bb
00000070: 7bec 82ba 482d aa39 30b7 a5bb 6642 133c
0.00079818594 -0.0003614456 -0.00021096125 0.0005588657 0.020547735 0.0015668415 -0.0035628332 -0.0010906912
0.0022855818 0.0067490316 -1.1771434e-05 1.3968263e-05 0.008905063 -0.006347852 0.0001746415 0.0012724659
-0.000818267 8.891835e-05 -0.00014270796 -0.00037747918 -0.00036818397 -0.02067653 -0.00041218902 -0.00019438168
0.00023209683 0.0014827822 -0.0013180205 -0.0070001064 -0.000998869 0.00032458664 -0.005057238 0.008987999

cnn.block1.3.running_var f4 [32]
00000000: d27b 853d 4a26 6e3d fb96 1e3e 8166 4f3d
00000010: 006b 053f 2cf7 0c3d b375 613e a2f8 313d
00000020: 7d58 f13d 982f d73d 71e8 a33d eafd 9b3d
00000030: 2ddd 893d 899d c33d 079f fd3c 876a 4e3d
00000040: 9820 813d d01f 773d fa51 d13c c37c 533d
00000050: 2b61 233c d692 c83e fb22 a93d 5c6f 0e3d
00000060: 577b e63c fd09 a33e 8a0b 133d b8fc 4e3d
00000070: a699 eb3d 0f23 0b3d 9b94 4e3d 7434 7b3e
0.065177575 0.058141984 0.15487282 0.050634865 0.52116394 0.03441541 0.22017555 0.043450005
0.11784456 0.10507125 0.08003319 0.0761679 0.06731639 0.09551532 0.03095962 0.05039456
0.06305045 0.060333073 0.025551785 0.051632654 0.009971897 0.39174527 0.08258625 0.03477417
0.028134985 0.31843558 0.035899676 0.05053398 0.115039155 0.03396898 0.05043469 0.24531728
