models/2a_subject specific/model_5.pth (torch, 985978 bytes, 93 tensors)

fusion_proj f4 [48, 48]
000000 51 25 7e bf 54 96 5e bf 27 5a 9c bf 1c 95 03 c0
       -0.9927569 -0.8694813 -1.2215012 -2.055976
000010 4e 23 f9 3d 4f 44 c2 bf da a5 24 3f 02 2c d1 be
       0.12164937 -1.5177096 0.6431557 -0.40853888
000020 2f 2f 2e 3e e3 08 f2 3e b9 78 03 bf aa 77 50 be
       0.17010187 0.47272405 -0.51356083 -0.20358148
000030 e3 92 80 3f 5b b3 ac 3e 83 90 b4 3e 40 a9 80 3e
       1.0044826 0.33730587 0.35266504 0.25129128
000040 da 75 66 3e c4 e3 11 bf 20 d5 31 bd f5 63 b7 bf
       0.22505894 -0.5698817 -0.043416142 -1.432738
000050 e3 b6 8a bf 24 44 86 bf cf 89 fd 3e f3 5c a0 bd
       -1.0837063 -1.0489545 0.49519202 -0.07830229
000060 be 07 81 bf 0a 22 14 c0 5f 69 ad be 05 76 5f 3d
       -1.0080488 -2.3145776 -0.33869454 0.05455591
000070 2f 11 f2 bf 3f f2 a4 3f 92 cc 01 3f c5 72 81 3f
       -1.8911494 1.2886428 0.50702775 1.011315
000080 3d 26 13 3e 0b f5 6e 3c 18 e2 5a bf c0 a6 bb 3e
       0.14370055 0.01458479 -0.8550124 0.36650658
000090 ff 4b 4e be b7 95 c4 bd 97 c8 f0 bf 98 11 16 be
       -0.20146178 -0.09598868 -1.8811215 -0.14655149
0000a0 a7 62 00 bf 24 08 59 bf 6b b2 c0 3e ca dd 34 be
       -0.5015053 -0.84778047 0.37636122 -0.17662731
0000b0 2f 98 e1 3c d0 5f f6 3d 53 d8 32 bf 2a d6 5b 3f
       0.027538387 0.120299935 -0.69861335 0.85873663
0000c0 1c eb 10 bf 92 cc 5f bf 58 04 74 3f 46 f5 53 be
       -0.5660875 -0.87421525 0.9531913 -0.20699033
0000d0 d7 69 88 bf ac ce 54 3f e7 86 05 c0 9f 73 22 3f
       -1.06573 0.83127856 -2.0863588 0.63457674
0000e0 07 12 b7 bf 51 3f 8d bf 7f 58 e9 bf 89 f9 49 3e
       -1.4302377 -1.1034948 -1.8230132 0.19724096
0000f0 2d 0b e6 bd b0 23 7f 3f 6d 22 04 40 c8 50 cd be
       -0.112326 0.9966383 2.0646012 -0.40100694
000100 8b 33 76 bb 61 7e 53 3d 03 b7 07 be b8 4d cd bf
       -0.0037567343 0.051634196 -0.13253407 -1.6039343
000110 44 13 44 be 2a 21 69 bc c2 be ef bf 45 f1 06 3f
       -0.19147974 -0.014229098 -1.873009 0.527119
000120 d2 b0 e3 bd c7 05 1d bf 6f 5f 87 3f c1 f8 82 bf
       -0.1111771 -0.6133694 1.0575999 -1.0232164
000130 02 f9 41 3f b9 41 64 bf 92 07 e0 bf a9 39 76 bd
       0.7577058 -0.89162785 -1.750231 -0.060113583
000140 93 6e c2 be df 7b af 3e 37 de 68 3f 01 23 f5 bf
       -0.37974986 0.34274194 0.9096407 -1.9151307
000150 35 42 4d be cb 90 6a bf 1d 15 7a bf 80 c7 1a 3f
       -0.20044787 -0.91627187 -0.97688466 0.6046066
000160 c7 a6 c2 3f b2 5c 82 bf b6 1e bf be 07 8b 8e 3c
       1.5207146 -1.0184538 -0.37328118 0.017400278
000170 fc 0c 0d c0 ad 01 1c 3f 76 d5 a5 3f d8 4c fd bb
       -2.2039175 0.6094006 1.2955768 -0.0077301078
000180 d7 97 6e bf f0 03 93 bf 6d c8 a0 bf 92 7c f5 3d
       -0.9320044 -1.1485577 -1.2561165 0.119866505
000190 8d 66 7a 3f 90 25 24 3f 6a ee 93 3e 1e 83 42 3f
       0.9781273 0.64119816 0.28892833 0.7598132
0001a0 a2 a5 5b bf bc 1c 1b bd c4 6e 5d bf 41 f5 5e 3e
       -0.8579961 -0.0378692 -0.8649714 0.21773244
0001b0 2c e5 a4 be 58 10 0c 3f b9 19 6c 3f 46 1d 02 40
       -0.32206094 0.5471244 0.9222675 2.0330367
0001c0 78 4f 35 3f 85 67 6d 3e 67 f0 9b 3f 6b 45 85 be
       0.70824385 0.23184021 1.218274 -0.26029524
0001d0 e8 64 09 3e 52 87 e6 3e 6d f0 47 c0 54 58 e1 bf
       0.13417399 0.45025116 -3.1240494 -1.7605081
0001e0 db de b5 be db 6b f1 3f 6c aa 82 3f 6e 65 8e 3f
       -0.35521588 1.886104 1.0208259 1.1124704
0001f0 a4 d1 08 bf 43 f1 c6 3f 74 e5 4d bf 0b da 45 3f
       -0.53444886 1.5542377 -0.8042824 0.7728583
000200 1c 97 e9 3f 26 9b 3a 3f 6b 0e 1d 3f 0e 3d 3d 3f
       1.824924 0.7289299 0.61350125 0.7392129
000210 e5 22 49 3f ed 35 44 3d a7 18 8f bf df ed 2b 3e
       0.7856887 0.04790299 -1.1179398 0.1678996
000220 36 4d 2f bf 32 83 f9 be e0 e5 88 bf 85 8b 6d 3f
       -0.6847719 -0.48732907 -1.0695152 0.92791015
000230 b7 ee 67 3e 17 3c 28 bf 8b af 10 3e 29 13 3c bf
       0.22649656 -0.6571669 0.14129464 -0.73466736
000240 66 60 e8 bf a6 0d 6c 3f b9 81 75 bf e4 57 f3 be
       -1.8154418 0.92208326 -0.95901066 -0.47527993
000250 59 d9 14 3f 55 ea 94 be b8 12 1f 3f b9 9c 73 3f
       0.58144146 -0.2908503 0.6213794 0.95161015
000260 31 3a 21 3e bf 05 a5 be 32 31 4f 3d e0 7d 59 3f
       0.15744855 -0.32230946 0.050584026 0.84957695
000270 b1 60 6b 3f 3b 55 d5 bf bd 0b 21 3f 6b 8c 79 bf
       0.91944414 -1.6666635 0.62908536 -0.97479886
000280 fe 6a 0d c0 df 54 13 40 81 7a fd be c4 04 a4 bd
       -2.2096553 2.3020551 -0.49507526 -0.080087215
000290 39 97 3b 3f c9 60 3b be b5 0c 63 3f fd f3 7b 3f
       0.7327762 -0.1829864 0.88691264 0.9841917
0002a0 e0 a9 95 be d3 97 98 3e b4 d6 85 be 80 47 f7 3d
       -0.29231167 0.29803333 -0.26140368 0.120741844
0002b0 25 7c 6f 3f d9 be 8a 3f 9b 54 8d bd d8 9c 31 3e
       0.93548805 1.0839492 -0.06900903 0.17344987
0002c0 e4 c1 32 3f c0 93 68 3f f2 bd 6b 3f 85 ec 92 be
       0.69827104 0.9085045 0.9208671 -0.28696075
0002d0 c8 d3 c9 3e a4 6a 05 bf 0d 14 7a bf d3 db 3c bf
       0.3941939 -0.52115846 -0.97686845 -0.73772925
0002e0 e9 3c d5 bd 76 a5 60 3f 01 e7 c9 3f 15 75 cd 3e
       -0.10412008 0.87752473 1.5773622 0.4012839
0002f0 bd 37 bb be c2 59 7f bf 5a a6 0b c0 6f 8d 79 bf
       -0.36565962 -0.99746335 -2.1820283 -0.97481436
000300 ab ef 89 bd 3c 27 e1 be cf f8 1a bf 2d 88 53 bf
       -0.06735166 -0.43975246 -0.605359 -0.8262966
000310 e1 5f e5 be cf e7 03 bf 52 80 b1 3c 65 3f e9 bd
       -0.44799712 -0.51525587 0.021667633 -0.11389045
000320 df 7f a7 bf 1f fa 63 bf 93 ae e3 bf 10 09 33 3f
       -1.3085898 -0.8905353 -1.7787651 0.69935703
000330 b4 f1 86 bf 33 8d fc bf b2 22 9d 3e 2b cb 1d 3f
       -1.0542512 -1.973059 0.30690533 0.61638135
000340 b4 c5 e7 3d e5 d4 a5 bf d6 0e c1 3f a7 e4 18 3e
       0.11317006 -1.2955595 1.5082653 0.14930974
000350 c7 8a bf bf db ce 04 bf 25 e8 81 be d6 8b 61 3f
       -1.4964226 -0.51878136 -0.25372425 0.88104
000360 5a 4f 78 bf 96 34 ac be b3 6d 4f 3f 13 06 c2 be
       -0.9699608 -0.3363387 0.8102676 -0.3789526
000370 7c 07 4c bf 98 37 3c bf fa a8 e1 bf 30 d0 7f bd
       -0.7969892 -0.7352233 -1.7629693 -0.062454402
000380 08 5c d9 bd ac c5 a3 3f 9a d8 2f bf 22 f1 14 3f
       -0.10613257 1.27947 -0.6868988 0.5818044
000390 b3 5f f9 bf 28 78 8b bf 04 52 74 3f 49 5b c2 3e
       -1.948233 -1.0896044 0.95437646 0.3796027
0003a0 41 a7 a5 3e 1e 39 2e c0 05 24 5e 3e 00 07 21 be
       0.32354167 -2.7222362 0.21693428 -0.15725327
0003b0 4f 08 4c bf f6 a4 b5 3f 98 6c 08 bf 41 d3 c6 3f
       -0.7970018 1.4190967 -0.532907 1.553322
0003c0 9f f3 ac 3d f1 cf 16 be 82 11 00 bf d5 67 61 bf
       0.084449045 -0.14727761 -0.50026715 -0.8804906
0003d0 17 63 8d 3e 0b ae 48 bf 7c b3 6f be fc 5c 14 be
       0.27614662 -0.7839057 -0.23408312 -0.14488596
0003e0 5c d5 8d 3f b1 5e cc bc 4d 39 df bd ac 8a 53 3e
       1.1080737 -0.024947496 -0.10899601 0.20658368
0003f0 5e 8c 7f 3f 3e 2a fc bf 6b 7f 7b 3f 51 d4 08 3f
       0.9982356 -1.9700391 0.982413 0.5344897

pos_enc f4 [1, 500, 48]
000000 62 31 b1 be 05 54 60 bf a5 f4 5b 3f 95 a5 28 be
       -0.3460799 -0.87628204 0.8592017 -0.16469415
000010 ea 92 a4 3f d8 02 5e bf c8 b7 be 3f ab 15 72 3f
       1.2857335 -0.8672309 1.4899836 0.9456431
000020 5e db cd be b9 7c 1a 3f c1 42 26 c0 1e 51 6f 3f
       -0.40206426 0.6034656 -2.5978243 0.9348315
000030 9f 18 fd 3e 79 0b 56 be 27 5c 25 40 74 13 15 bc
       0.49432847 -0.20902814 2.5837495 -0.009098876
000040 03 a6 f1 bd b3 8b f3 bf d3 e4 12 bf 77 e1 01 3e
       -0.11799242 -1.9027008 -0.5738041 0.12683664
000050 cb 62 58 3f 4a 0e 1a 3f 34 3d 50 bf 79 97 7c be
       0.84525746 0.60178053 -0.8134339 -0.24667157
000060 42 c5 06 40 89 d2 10 bf 62 81 1b be 98 16 d0 3e
       2.1057897 -0.5657125 -0.15186074 0.40642238
000070 c1 92 07 bf 98 9a a5 be 4a 57 ab bd 32 44 46 bf
       -0.52958304 -0.32344508 -0.083662584 -0.7744781
000080 29 57 67 be 8d 4b d0 bf 8d ac fc 3f 7f b6 40 bf
       -0.22591843 -1.6273056 1.9740158 -0.75278467
000090 81 8d d5 bf ad b1 83 bf b4 25 0c bf 8d 9f c0 bf
       -1.6683809 -1.0288597 -0.5474503 -1.5048691
0000a0 55 9a a1 bd c7 06 ac be 1c 8d 3a 3e 7c be 99 3f
       -0.078907646 -0.3359892 0.18217891 1.2011256
0000b0 d1 23 71 bf c2 42 06 c0 fd 0a ac be c9 35 1b bf
       -0.94195276 -2.0978246 -0.33602133 -0.60628945
0000c0 8d 99 8a be b8 54 ef be 1e 18 98 bf 3b 99 06 40
       -0.27070275 -0.46744323 -1.188236 2.1031024
0000d0 49 b6 7b be fb d4 69 3f e2 00 8d 3f b4 9e bd 3f
       -0.24581255 0.9134061 1.1015894 1.4814057
0000e0 9c 7f 68 be ef 13 e2 3f 37 4a 06 3f 42 b5 2d bf
       -0.22704929 1.7662333 0.5245699 -0.678547
0000f0 2b 1d 12 c0 c6 e2 8b 3f d3 99 56 bf 23 92 1e 40
       -2.2830303 1.0928581 -0.8382847 2.4776695
000100 9e a7 80 3f f4 80 4f 3f d4 e4 b1 3e 52 61 67 3e
       1.0051153 0.8105614 0.34744895 0.22595719
000110 fd 24 db bd d7 c5 03 bd fb 56 9f be 38 34 b3 3d
       -0.10700414 -0.032171097 -0.31121048 0.08750194
000120 3d e7 f7 bf 09 62 1d bf 9f 5c a6 bf 8a 15 ce 3f
       -1.9367443 -0.61477715 -1.2997016 1.6100323
000130 a9 7b d4 3f 9e c4 07 bf 8b 3a 02 bf 24 ea 80 be
       1.6600238 -0.5303439 -0.5087058 -0.25178635
000140 f4 f7 fe be 67 a9 a8 bf ed 25 47 40 f7 42 47 bf
       -0.49798548 -1.3176697 3.1116898 -0.77836555
000150 15 6f 13 bf 92 fb dd 3f 6f de eb 3e ea 94 0b 40
       -0.5759137 1.7342398 0.4606814 2.180964
000160 d1 e5 1a c0 5f c6 ce 3e ce 5c ee 3f 5c ac 08 3f
       -2.4202769 0.4038572 1.8622072 0.53388
000170 72 89 09 c0 07 a3 8a 3f 28 4e 44 bf a3 f6 ae bf
       -2.149014 1.0831002 -0.76681757 -1.3669018
000180 c9 27 25 3f 77 d2 9d be 19 77 27 40 a0 63 94 bf
       0.6451383 -0.30824634 2.6166441 -1.1592903
000190 3d 3e 31 3f ca 12 4e be c6 d2 b8 3f 59 99 cd 3e
       0.69235593 -0.20124355 1.4439323 0.40156057
0001a0 fe fe 25 be bf 8f d3 bf 80 b8 25 c0 3e 96 2b 40
       -0.16210553 -1.6528243 -2.589386 2.681045
0001b0 ea aa 9e 3f 55 2d 19 40 a1 04 57 3f 8f 7d 40 be
       1.2395909 2.3933918 0.8399144 -0.18797897
0001c0 ef d7 a2 bf cc 23 05 3f f3 4b 49 3f 1e 97 85 bf
       -1.2722148 0.52007747 0.78631514 -1.0436742
0001d0 44 0b a7 3d 95 e5 7f 3e 8f db c0 3f 89 07 2b c0
       0.081564456 0.24989922 1.5067004 -2.672335
0001e0 be 58 a7 bf 43 79 4e c0 01 a5 b5 3e cf 22 d6 3e
       -1.3073957 -3.2261512 0.3547745 0.41823432
0001f0 3b 58 02 c0 5e ab dc bd 09 1d fd be 16 04 6c 3f
       -2.0366352 -0.10774873 -0.49436215 0.92193735
000200 30 77 eb be 9a 08 12 40 06 bf 27 3f 42 0f 14 bf
       -0.4598937 2.281775 0.65525854 -0.5783578
000210 e1 ab 8f 3f db 68 a2 3e 9a 3f 17 be 94 50 d9 3f
       1.1224328 0.31720623 -0.14770356 1.6977715
000220 e9 ff 8f 3f 98 39 18 3f 07 23 34 40 d3 b2 58 bf
       1.1249973 0.5946288 2.814638 -0.84647864
000230 b9 e6 52 3f 22 bd 11 c0 b0 30 a4 bf f4 0c e6 bf
       0.82383305 -2.2771688 -1.2827358 -1.7972703
000240 22 95 21 3f d8 2a c5 3f f8 25 7d be b1 bb 91 bf
       0.63118184 1.54037 -0.24721515 -1.1385404
000250 02 44 26 bf 32 c3 9f be c7 1f 0f c0 bc 6e 0a 40
       -0.6494752 -0.3120361 -2.2363145 2.1630087
000260 0b a2 8f bf 34 7f 9e bf 29 00 b1 3d f6 7e 92 3f
       -1.1221327 -1.2382569 0.08642609 1.1444995
000270 f0 08 89 3d 77 13 90 3f ea 77 68 be 3d 9a 36 3f
       0.06691158 1.125594 -0.22701994 0.713291
000280 43 9d 2e bf c2 8a b2 bf 31 a0 bf 3f e7 9c c0 bf
       -0.6820871 -1.3948596 1.4970762 -1.5047883
000290 29 8d 0d 3f 2f 0e 4a 3f c7 0a 18 c0 3e 6e c3 3f
       0.5529352 0.7892789 -2.3756578 1.5268018
0002a0 97 9f c3 be dd f8 d7 bf 02 5e d2 bd 78 c1 00 c0
       -0.38207695 -1.6872822 -0.10271837 -2.0118084
0002b0 88 5f 7b bf 2f 29 4b 40 4e 19 51 be 2d 91 fc 3f
       -0.98192644 3.1743886 -0.20419809 1.9731804
0002c0 b5 5b fb be 61 71 1b 3f 48 90 82 be 53 98 ab 3f
       -0.49093404 0.6071988 -0.25500703 1.3405861
0002d0 cf 93 aa 3f 8c f5 a7 3f 6e d9 81 be 0e 64 1a c0
       1.3326358 1.312181 -0.25361198 -2.4123569
0002e0 ac 44 b2 3f 9c 72 17 40 3d 4a 4e 3e bd 42 b6 bd
       1.3927207 2.3663702 0.20145507 -0.08899448
0002f0 7c 71 08 c0 c1 5c 26 bc 9e af 1e bf 51 d5 85 3f
       -2.1319265 -0.01015395 -0.6198672 1.0455724
000300 3e dd e3 bf f8 e2 60 3f c1 9a ab bf a1 fc 5d bf
       -1.7801893 0.87846327 -1.3406602 -0.86713606
000310 15 26 70 3f 19 bd c6 3f b1 b8 77 be a0 bd a5 3f
       0.9380811 1.5526458 -0.24191548 1.2948494
000320 6c 4b 8d 3d 6f 9a 41 be 46 b0 04 40 b8 4f 9c be
       0.06899151 -0.18906568 2.0732589 -0.3052957
000330 b4 cc 33 40 79 69 33 3f d0 bb 86 be b8 da 8e be
       2.809369 0.70082814 -0.26315165 -0.27901244
000340 a4 1c 09 3d 91 cd 61 bf c7 8c 95 3f 7a e0 c2 3f
       0.03347458 -0.88204294 1.1683587 1.5224755
000350 51 07 3a bf 36 41 a3 3f 46 11 69 bf 96 28 3a 3f
       -0.72667414 1.2754276 -0.9104198 0.7271818
000360 d3 4e 69 3f 51 f3 cc 3f 4a a5 a2 bf dd ab a8 bf
       0.911359 1.6011754 -1.2706692 -1.3177449
000370 88 6d 11 c0 ee 2d 47 3e 24 4a 2f 3e 05 5a 53 bf
       -2.2723103 0.19451115 0.17118126 -0.82559234
000380 fb 45 77 3f d6 04 84 bf 25 58 07 c0 4a 75 95 bf
       0.96591157 -1.0313976 -2.114755 -1.1676419
000390 18 9a 31 bf f7 df 88 bf 71 54 24 40 f5 f8 7c c0
       -0.69375753 -1.0693349 2.567654 -3.9526951
0003a0 32 d5 4a c0 4a ad a7 3f 91 0d 53 bf 11 20 f2 bf
       -3.1692624 1.3099759 -0.82442576 -1.8916036
0003b0 95 4f 7d bf 8f 05 e7 be 09 c7 a9 3e 16 27 8d 3f
       -0.9894956 -0.45121428 0.33159664 1.1027553
0003c0 1c 56 f2 bf e6 e8 2a 3f f5 ef e1 3e 2a e4 7e 3e
       -1.8932528 0.66761625 0.44128385 0.24891725
0003d0 72 8a ad 3e f5 c2 d3 3f 88 66 9b 3f 7a dc c7 3e
       0.33894688 1.6543871 1.2140665 0.39035398
0003e0 c1 4d e1 3e e7 66 cb 3f 8c db a3 3f 2f 59 06 be
       0.44004634 1.5890778 1.2801375 -0.13119958
0003f0 9a 3d 35 3f ff ca a3 bf 3e 53 b4 3e 88 3d 61 bf
       0.7079712 -1.2796324 0.3521976 -0.87984514

riemannian.proj.0.weight f4 [256, 253]
000000 57 f7 78 3e d7 d9 90 bc 42 25 c2 3d 2a 7b f1 3d
       0.24313103 -0.017682 0.094797626 0.1179107
000010 9f 1a 95 bd 14 6e 27 3c dc 88 22 3e 6b 86 9c bc
       -0.07280468 0.010219116 0.1587252 -0.019107064
000020 21 c5 5b 3d 58 d3 a6 3d 9e 45 2a 3d 55 b6 36 3d
       0.053654794 0.08145779 0.0415703 0.04460748
000030 37 83 80 3c ee 85 63 3d c5 33 ca bd 54 da 0c bd
       0.015687568 0.055547647 -0.098731555 -0.0343879
000040 3b 83 84 bd 13 18 8d 3b e8 b9 60 bd 08 2e 81 bd
       -0.06470343 0.0043058484 -0.054864794 -0.06307608
000050 21 b7 1b bc b2 4c 22 3b 79 11 8c 3d 49 74 60 bd
       -0.009504111 0.0024764952 0.0683927 -0.0547984
000060 8a e3 1d 3c 8c 2d c1 3c ad f0 10 3d a6 15 e3 3d
       0.009636769 0.023581289 0.035385776 0.110881135
000070 50 0a 0d 3d 36 a5 4b 3c 15 95 a8 bc c6 69 d9 bb
       0.034433663 0.012429526 -0.0205789 -0.0066349236
000080 93 de bd bc 6c ce 6d 3d 3c 69 3f 3c 26 cc a4 3d
       -0.02317742 0.058058187 0.011682805 0.08046751
000090 ce 9e d1 3d 40 1c c9 bd 0c 8c 17 bb f0 09 00 bd
       0.10235368 -0.098198414 -0.0023124246 -0.031259477
0000a0 3d b8 ff bd 09 b9 c5 bd 8c c1 a7 3b ce 9f 12 bc
       -0.124863125 -0.09654433 0.005119508 -0.008949233
0000b0 b1 ed 16 3d ca e3 c1 bc f7 d6 08 bc ce bd 3b 3c
       0.036847774 -0.023668189 -0.008352033 0.011458827
0000c0 07 3a ce 3c f0 4c 81 bd ca ab 44 3d 0f 6b 99 bd
       0.025174154 -0.06313503 0.048015393 -0.07491123
0000d0 c6 87 ec bd 3b 48 91 3c 79 d1 b4 3c b5 96 8c bd
       -0.11549334 0.017734637 0.02207254 -0.068646826
0000e0 be 8d 89 bd b8 bc 58 3d ee 14 69 3d fc ac 33 bd
       -0.06716488 0.05291435 0.056904726 -0.043866143
0000f0 7d eb ea bc a3 fc eb 3c e1 1b 2f 3d 27 0d 0d bc
       -0.028676743 0.02880699 0.042751197 -0.008609093
000100 fe c0 c9 3d 16 24 21 bd de 7d 89 bc 0e 57 88 3d
       0.098512635 -0.039341055 -0.016783651 0.06657229
000110 4c 00 ad bd f0 de 4a bc 60 15 80 3c df b0 34 bc
       -0.08447322 -0.012382254 0.015635192 -0.0110284975
000120 fb 52 d3 bc 6a 29 1e 3c 1d 80 08 3d 43 7b b7 bc
       -0.025796404 0.009653429 0.033325303 -0.022397643
000130 24 e8 4c 3d f8 37 03 3d 0d 3c 2e be 02 a5 a8 bc
       0.050026074 0.032035798 -0.17015095 -0.020586494
000140 1b 16 c5 bd 04 48 9d bd 78 1e 84 bd 8e 77 38 3d
       -0.09623357 -0.076797515 -0.06451124 0.04503589
000150 19 c4 89 bd d8 82 da 3a eb 33 99 3d 7b 56 ff 3d
       -0.06726856 0.0016671075 0.07480606 0.12467667
000160 7a e6 09 3d 1c 41 57 bd 48 98 0c bd b2 37 55 bc
       0.033667065 -0.052552328 -0.034324914 -0.013013767
000170 cb f9 02 be 49 7d b8 bc 92 30 f7 bd 9c 75 60 3a
       -0.12790601 -0.022520678 -0.12069811 0.0008562447
000180 76 8f 10 3d 98 3d 14 bd ce 7b b8 ba fc 97 53 3d
       0.035293065 -0.036191553 -0.0014074983 0.051658615
000190 05 8c 19 bd 75 6f 97 3d 10 8e 77 3c af c1 ef 3b
       -0.03748705 0.073943056 0.015109554 0.00731679
0001a0 29 be b6 bc c2 1f a2 3d 27 72 77 3d 4d ae c9 3d
       -0.022307472 0.079162136 0.0604116 0.09847698
0001b0 99 b9 85 bd 73 56 08 3e 6a b8 16 bc 84 14 bf bc
       -0.065295406 0.13314228 -0.009199241 -0.023325212
0001c0 ce 4d 42 bd 5b 9b 17 bd c9 de 3c 3d ca 99 02 bc
       -0.04743748 -0.037013393 0.046110902 -0.0079712365
0001d0 f4 6f 95 3d b2 f4 da bc 4d d1 c0 3d 59 86 04 bd
       0.07296744 -0.026728008 0.09414921 -0.032354686
0001e0 25 82 a7 bc 05 d3 38 bd 4e cc 08 be 1a 79 74 bc
       -0.0204478 -0.04512312 -0.13359186 -0.014921451
0001f0 81 7a ae 3d 23 96 a4 bc 71 e4 54 3d 4d 14 5c 3d
       0.085194595 -0.020091122 0.05197567 0.053730298
000200 50 5b 48 3d f9 53 5b bd 07 0d ec bd 62 b6 b9 bc
       0.048915207 -0.05354688 -0.11525922 -0.022669975
000210 a0 2e ea 3c 51 69 d4 3c 67 38 ad 3d e8 64 2f bd
       0.028586686 0.025929125 0.084580235 -0.04282084
000220 1b e7 bf b9 a2 70 1a 3d f9 c6 3e 3c 12 cb 03 3d
       -0.00036602546 0.03770507 0.011644118 0.032176085
000230 e4 b3 d3 3d 7f ec 9c bb 07 cd 00 bc 03 d6 f2 3c
       0.10337046 -0.0047889347 -0.007861382 0.029643064
000240 a2 a3 46 bd 03 31 9f bd c1 a0 56 bc d7 0a 5e 3d
       -0.048495896 -0.0777302 -0.01309985 0.054209556
000250 09 b3 8c 3c 6d 02 96 bc 9d d8 3c bd 66 b8 a2 3d
       0.017175214 -0.018311704 -0.046105016 0.079453275
000260 60 68 f0 bb c1 8f 31 bc 02 cc 49 bd 36 ff f3 bb
       -0.007336661 -0.010837496 -0.049266823 -0.007446195
000270 f7 87 88 bd 86 bb 15 bd ee 80 ca 3b 95 91 a5 bd
       -0.06666558 -0.03655579 0.0061799204 -0.08084408
000280 ec 66 8d 3d 50 13 cc 3d 63 94 58 bc 2e 56 ec 3c
       0.069043964 0.09964621 -0.013218972 0.028849687
000290 20 71 85 3d 2b 38 3f 3d a8 04 16 be b4 7a aa bd
       0.065157175 0.046684425 -0.14650214 -0.08324185
0002a0 59 69 77 bc 50 92 aa 3d 2d 18 32 3c 33 33 3c 3d
       -0.0151008 0.08328688 0.010870022 0.045947265
0002b0 e2 68 58 bd ac 44 b7 3c 27 10 b3 bd 62 7f 33 bd
       -0.0528344 0.022371612 -0.08743315 -0.043822654
0002c0 94 70 8f 3b ef 77 c0 bd b9 37 cb 3d b5 f6 0e 3d
       0.004377434 -0.093978755 0.09922738 0.034903247
0002d0 be 6e d4 3d 8a 57 f3 bd 82 6d 46 bd f6 ab 71 3d
       0.10372685 -0.11881931 -0.04844428 0.059001885
0002e0 77 0f de bc 48 39 52 3d 47 5b 21 3d a5 48 93 3d
       -0.027106984 0.05132416 0.03939369 0.0719159
0002f0 9a 1c 42 3d 78 35 3f bd b0 c0 28 3e 6d 12 0b 3c
       0.047390558 -0.04668185 0.16479754 0.00848828
000300 56 a7 5c bd 51 71 79 3c 79 b9 99 3d 3c a4 e3 3c
       -0.05387052 0.015224771 0.07506079 0.027788274
000310 33 d4 ed b9 34 76 4c bd ca 3d a4 b9 7d d4 e7 ba
       -0.00045362263 -0.049917415 -0.00031326554 -0.0017687228
000320 ba 47 23 bd 8b 2e c0 bc 63 6f 90 3d 42 98 df 3d
       -0.039863326 -0.023459693 0.07052495 0.10917713
000330 a2 8f af 3d 48 0c b7 bd 49 e3 0d be 57 2b b7 3d
       0.08572318 -0.08937889 -0.13856234 0.08943813
000340 68 ba 2f 3d 06 22 b5 3d a9 e2 a9 3a 52 de 85 3d
       0.04290238 0.0884438 0.0012961227 0.06536545
000350 73 c6 d0 bc f9 ce c7 bd 6c 3b 6d bd 42 fa 02 bd
       -0.025485253 -0.09756274 -0.057917997 -0.031976946
000360 d3 d5 1e bd 11 5b 4e 3c 0d 51 a6 bd 79 fe e5 3c
       -0.038778137 0.012594954 -0.08120928 0.028075444
000370 5a d4 43 bd cb a4 36 3c 3f f1 f4 3c 73 15 62 3d
       -0.047809936 0.011147688 0.029900191 0.055196237
000380 06 64 d6 b9 a7 5c a1 3d 41 4d 0a 3d ca cf ab 3c
       -0.00040891784 0.07879 0.03376508 0.020973105
000390 6a 25 81 bd 5c 38 a8 3c d6 73 80 3d da 83 ec 3d
       -0.06305964 0.020534687 0.06272094 0.11548586
0003a0 e2 35 74 bd 5e 61 0d 3c cd e5 87 3c 87 73 89 3d
       -0.0596217 0.008629171 0.01658907 0.06711488
0003b0 79 70 b4 3d b0 18 8b bd 6a 47 e5 3d 9d 8c a5 bb
       0.08810515 -0.06791818 0.11195262 -0.005052163
0003c0 69 c3 4f 3d f1 30 b5 3c 47 85 43 3d b7 10 ce 3c
       0.050723467 0.022118064 0.047734525 0.025154455
0003d0 59 24 f0 3c 91 e1 0c bd 63 2f 7b bc df 27 2e bc
       0.029314207 -0.034394804 -0.015331122 -0.010629623
0003e0 d8 33 e5 bc c2 74 eb 3d 24 53 a6 bc 6c 51 cc 3a
       -0.027978823 0.11496879 -0.020303316 0.001558823
0003f0 9c 9c 02 3e 2a 69 f4 3d 5d 25 9d bd 6b d4 80 3d
       0.12755054 0.11934121 -0.07673142 0.062905155

riemannian.proj.0.bias f4 [256]
000000 94 85 03 3c 04 00 96 3b 9e 24 59 3a ac b4 9d bc
       0.008027453 0.0045776386 0.00082833495 -0.01925119
000010 53 28 be 3b d7 bf 4e 3c 93 87 4a 3b 98 9f 8a bc
       0.005803147 0.01261898 0.0030903562 -0.016921803
000020 05 52 81 bc 28 df 26 3c ee da 16 bc 74 ac b8 3c
       -0.01578618 0.0101850405 -0.00920747 0.02254317
000030 dc aa 98 bb 23 bf 4c 3a 29 3f 1d bb e8 ad 3e bc
       -0.00465904 0.0007810464 -0.0023993945 -0.011638142
000040 94 9d 82 bc 45 af 4a 3c e1 31 78 3b 76 10 0b 3a
       -0.01594428 0.012370889 0.0037871527 0.0005304882
000050 ea 2a 2a bd b5 d4 d4 bc 6b a2 03 bc 3f 50 37 3c
       -0.041544832 -0.025980333 -0.008034329 0.011188566
000060 42 08 93 bb 80 41 c9 bb 78 39 c6 bc c0 5d 72 ba
       -0.0044870684 -0.0061418414 -0.024197325 -0.0009245537
000070 9a 60 cc bb 6f a5 40 3b 36 36 ce 3a 82 7d 0e bc
       -0.0062371017 0.002939548 0.0015732709 -0.008696916
000080 8b 77 a5 3c 2e f6 f2 bc ca 09 b5 bb 52 93 8e bc
       0.020198604 -0.029658403 -0.0055248486 -0.017404232
000090 62 d2 74 3c 10 21 15 ba ea e0 59 3b 34 63 0e bc
       0.014942737 -0.00056888256 0.0033245631 -0.008690644
0000a0 8b ae 0f 3b 18 ab e7 bb 54 f5 6b bc 31 b8 36 3c
       0.0021924104 -0.0070699565 -0.0144017525 0.011152313
0000b0 09 e7 9d 3c 8a 48 a2 b9 f6 71 81 3b b4 7b 1b 3c
       0.019275205 -0.00030953094 0.003950353 0.009489942
0000c0 17 73 1f 3b 0e bd 41 3a c1 7e 0d 3c 56 f7 c3 3c
       0.0024330074 0.0007390537 0.0086361775 0.02392165
0000d0 ba 6a f3 3b 3d b4 b3 b9 ed fb 1a 3d ae f1 a6 3c
       0.0074284943 -0.00034275829 0.03783791 0.020378914
0000e0 02 09 80 3a 57 08 f7 3b 9e 4f 82 3c 77 ef 0d 3c
       0.000976831 0.007538836 0.015907105 0.00866305
0000f0 e6 af c0 bb 07 01 60 3c 2c 86 9e 3c 1c 5c 78 bc
       -0.0058803437 0.01367212 0.019351088 -0.015158679
000100 78 b3 94 bb 3a 42 f8 3c cc d2 23 bc 9d 04 ca bb
       -0.004537996 0.030305017 -0.009998988 -0.0061651007
000110 32 c3 88 3b b0 7f 23 bb 06 4d 88 bc 85 f2 51 3c
       0.0041736597 -0.0024947934 -0.01663829 0.012814169
000120 4c fa d2 ba 34 0b 13 bc 2a 77 d8 3b d4 73 5f 39
       -0.0016096323 -0.008974839 0.0066060023 0.00021310087
000130 de 62 48 bc f0 b7 77 3c 8f e9 6e 3c b6 72 36 3b
       -0.012230603 0.015119538 0.014582052 0.002783937
000140 5e 2e 06 3b cc 5e b7 3c af c3 2b bb 98 95 cd bb
       0.0020474414 0.02238407 -0.0026209166 -0.0062739365
000150 c1 c5 cb bc 43 04 d7 3b d3 f9 1d bb 2c f2 d9 3c
       -0.02487457 0.0065617873 -0.0024105206 0.026604734
000160 0b 73 74 3c 0d 70 01 bd dc 36 32 3c d0 dd 9e bb
       0.0149200065 -0.031601 0.010877337 -0.0048482195
000170 80 05 1e bb 65 75 2b 3d ec 67 85 3b de cd f2 3c
       -0.0024112165 0.041860003 0.0040712263 0.02963918
000180 81 91 1c bd 95 33 60 39 4c 48 12 3d b9 cc c7 bb
       -0.0382247 0.0002138152 0.03571348 -0.006097403
000190 ff fd 68 3b 7b 15 3e bb f9 da bc bc 4b 91 8a bc
       0.0035551784 -0.0029004503 -0.023053633 -0.016914984
0001a0 e6 6e 5b 3c 43 d3 d4 3b 8d ed 92 3c a1 f7 65 3a
       0.0133931395 0.006494911 0.017935539 0.00087725563
0001b0 54 0e 03 bc 4d e4 5f 3b e1 65 c7 bc 0f 36 41 bb
       -0.007999022 0.0034163177 -0.024340572 -0.0029481684
0001c0 06 49 19 bc 46 2c be 3a fc af 06 3c 32 55 fe bb
       -0.009355789 0.0014509044 0.008220669 -0.007761621
0001d0 0f e5 fb 3c a4 7e ca ba 17 92 2f 3d 8d 1a d0 3b
       0.030748872 -0.0015449119 0.04286393 0.0063508213
0001e0 7f b3 85 bc 43 2f 74 bb c9 56 16 3c 1c 24 b8 bc
       -0.016320942 -0.0037259615 0.009175965 -0.022478156
0001f0 71 ee 2f bc 69 64 73 3b e1 0d 50 bc 5d 95 3e 3c
       -0.010738001 0.0037138707 -0.0126986215 0.011632291
000200 6b d7 01 3d b1 aa 6d 3c ab 16 75 bc 10 7f 9c 3b
       0.03169958 0.014506028 -0.014959018 0.004775889
000210 9d 81 b1 3a 79 ba 2d bc 6d 17 65 bc 56 97 08 3b
       0.0013542656 -0.010603541 -0.013982636 0.0020842156
000220 be 81 04 3c b2 74 b0 3a 78 bf b4 bc 19 9a 71 bd
       0.008087574 0.0013462512 -0.022063956 -0.05898485
000230 0d ad cf bb b5 91 37 bb d6 bf 77 bc ff 52 18 3d
       -0.006337768 -0.0028010432 -0.015121421 0.037188526
000240 45 32 82 ba a7 20 69 3c 41 07 92 3c 40 b9 03 3c
       -0.0009933194 0.014228976 0.017825725 0.0080397725
000250 ee cc 85 3c 13 1a ed bc fa fd a8 3c 99 db 5a 3c
       0.01633307 -0.028943097 0.020628918 0.01335802
000260 2d da 5d bc 1c b4 ca ba c0 4c 8c bc 9e 0a 49 bc
       -0.013540787 -0.0015465054 -0.017126441 -0.012270598
000270 46 33 8e bc 87 d7 70 3b 0f fe d4 3c 3f eb 9e bc
       -0.017358433 0.0036749558 0.02600005 -0.019399283
000280 28 fb 0c bd d7 71 6b 3c 3c d7 e5 b9 33 6e 9a bc
       -0.03441921 0.014370403 -0.00043838646 -0.018851375
000290 c5 88 95 3c bf 73 35 bb 15 bb 4a bc a5 61 47 bc
       0.018253693 -0.0027687398 -0.012373705 -0.012169276
0002a0 8a 50 10 bd 66 95 a6 bb 74 ad c2 bb dc df 87 3c
       -0.035233058 -0.0050837277 -0.0059410874 0.016586237
0002b0 7e 8e b1 bb 9d ba 03 3d 3c 39 7b 3c 63 95 39 bc
       -0.0054185977 0.03216039 0.01533347 -0.0113271205
0002c0 ac d3 0b 3c 46 bb b5 39 0b 41 7f bb 40 81 d2 bb
       0.008534353 0.0003466254 -0.003894868 -0.006424099
0002d0 3f b0 29 3c 60 bb d2 3b 3d f9 00 bc 1a a4 59 3c
       0.010356962 0.0064310282 -0.007871923 0.013283754
0002e0 dd 05 f9 3a d3 bc 7f 3b 99 87 21 bc 15 66 6d bc
       0.001899894 0.003902246 -0.009858989 -0.01448967
0002f0 eb 31 c5 bb 41 9a 42 3b d0 b6 1e bc f7 12 10 3c
       -0.0060179136 0.0029693993 -0.009687141 0.008793584
000300 fa f2 27 3c ab fe 53 bc 4a e7 8f bc a0 dd a0 bc
       0.010250801 -0.012939136 -0.017566342 -0.019636929
000310 73 d7 2f 3c 39 8e 09 bc 1f f0 9d bb 2a dc 6e 3c
       0.010732519 -0.008395725 -0.0048198844 0.014578858
000320 a6 9e 9d ba 1d ca a3 3c 5e 6f 8a bc a4 7d d1 bb
       -0.001202543 0.019993836 -0.016898807 -0.0063931514
000330 5e 12 ba bc ce 9c 31 bb cb 9d 2c bb 5c a7 e6 bc
       -0.022713836 -0.002710152 -0.002633917 -0.028155975
000340 77 cd 13 bd ee 3f 92 bb fc 74 fd 3b 7e 11 36 3c
       -0.03608462 -0.0044631874 0.007734893 0.011112569
000350 70 cb 1b bc 02 16 f2 bb ea 6d e5 bb fc a2 c0 3b
       -0.0095089525 -0.0073878774 -0.007001628 0.0058788043
000360 09 00 66 3b e6 f3 34 3c 1d f6 cd 3c a8 6a ef 39
       0.0035095236 0.011044478 0.02514177 0.00045665097
000370 fc ee d0 bb a3 29 b6 3b ad af ae bc 38 13 6d bd
       -0.0063761454 0.0055591627 -0.021324003 -0.057879657
000380 0a c7 da bb 47 70 86 3c ae 6e e0 3b 33 0a cc 3b
       -0.0066765593 0.01641096 0.0068491315 0.006226802
000390 b6 18 34 3d f7 e4 20 3c 3c 82 0f bd 22 a3 fc 3b
       0.04396888 0.0098202145 -0.03503631 0.0077098766
0003a0 a6 66 86 ba 6b 3b 99 bc 1d 1c c9 3c 2a eb 9c 3c
       -0.001025398 -0.01870509 0.024549538 0.019155104
0003b0 5b c7 47 3b 6c ee dc bc 85 f3 26 3c 9a 67 c0 3c
       0.0030483815 -0.026969157 0.0101898955 0.023486901
0003c0 f4 27 36 3b 4a 89 e2 3a d7 5c 43 3c c5 1c 03 bc
       0.002779481 0.0017283347 0.01192399 -0.008002465
0003d0 35 50 be bb 6c 07 74 bc c5 57 e2 3b 9d 59 7f 3c
       -0.0058079013 -0.014894348 0.0069074356 0.01558533
0003e0 4c 7e 9e 3b 6c 9d 20 bc d2 85 0c 3c 3b e8 e4 b8
       0.004836833 -0.009803157 0.008576827 -0.000109151435
0003f0 a9 7a 40 3c f0 75 83 3b 97 22 14 bc e2 df 51 3b
       0.011747994 0.004011862 -0.00904145 0.0032024314

riemannian.proj.3.weight f4 [48, 256]
000000 e6 a3 bc 3c 75 05 58 bd 30 80 bb 3d 53 9d 8f 3d
       0.023027372 -0.05273958 0.09155309 0.07012429
000010 40 7c c4 bc a7 b4 77 bd 94 2e 15 3e f8 ba 5d bd
       -0.023985028 -0.060475018 0.1456855 -0.054133385
000020 5e e9 16 bd 82 06 e7 3c fa 00 48 bb be c1 34 3d
       -0.03684365 0.028201345 -0.003051816 0.04413008
000030 35 10 b8 bd 44 fb 59 3d cb cf f7 bb 52 7b 80 bd
       -0.08987466 0.05321814 -0.0075626126 -0.062735215
000040 65 75 01 bd ff 85 06 bd 61 2c 18 be 8f 69 b3 bc
       -0.031606097 -0.032842632 -0.14860679 -0.02190092
000050 97 ee e5 bc 8e 51 c6 bc 76 d3 e3 bd 1f 06 81 bd
       -0.02806787 -0.02420881 -0.11124317 -0.06299996
000060 93 b7 8f bd 51 f1 7b bc 27 e2 8b 3d 43 fc cb 3d
       -0.07017436 -0.0153773585 0.068302445 0.099602245
000070 f4 e5 09 3d e3 41 ae bd 7f 43 bc bc 89 d8 3d bd
       0.033666566 -0.08508661 -0.022981403 -0.046349082
000080 67 fc 96 3d 6f e5 c3 bd 2b 07 ba bd 7e 27 77 3c
       0.07372361 -0.09565245 -0.090833984 0.015085099
000090 42 e8 d7 bd 77 fb 94 bd 1e 3b ea 3c 25 42 58 bd
       -0.105423465 -0.072745256 0.028592642 -0.052797455
0000a0 34 af b9 bc 89 9b e8 3c 65 26 e1 bd 13 a2 bd bd
       -0.022666551 0.028394477 -0.10993651 -0.09259429
0000b0 0f 26 16 be 78 09 d1 3d c1 f2 8a bc fb 59 f6 bd
       -0.14662956 0.10206884 -0.016961457 -0.12028881
0000c0 13 46 80 bb a0 54 00 3d 2a 9e 36 bd fc 0f bc ba
       -0.0039146035 0.031330705 -0.04458443 -0.0014348025
0000d0 29 17 55 3e 59 6c e2 3c f5 d4 16 3e 7f 76 83 3c
       0.20809616 0.027639555 0.14729674 0.016047714
0000e0 1c 92 11 3a a7 43 61 bd f9 2c 8f bc 42 1a 37 bd
       0.0005553083 -0.05499616 -0.0174775 -0.044702776
0000f0 b2 63 b4 bc 0a 56 d3 bd 90 13 17 be bf 8d 6e 3d
       -0.022020195 -0.10319145 -0.14753556 0.05824065
000100 5c f1 0a 3e ee 1c 10 3e e6 9e 07 be 4f 35 c9 3c
       0.13568634 0.14073536 -0.13244209 0.024561552
000110 e7 25 3c 3c bb 38 8f bd 3d 95 46 bc c5 f1 ac bc
       0.011483646 -0.06993242 -0.012120542 -0.021111378
000120 cb 0c 33 3d 1c 26 21 bd 2c b9 c6 3d b0 f1 fa 3d
       0.043713372 -0.039342985 0.097032875 0.122531295
000130 f7 46 0e bd 1f 38 a2 3c cd f0 0e bd 90 6d d1 3d
       -0.034735646 0.019802151 -0.034897614 0.102259755
000140 84 cc f4 bd d9 b8 9b 3d e1 1c 76 bd b6 88 96 bc
       -0.11953071 0.07603616 -0.060086135 -0.018375736
000150 80 7a 33 bc 5d 5b b3 3d b4 74 00 3c 43 7d 1e 3d
       -0.010954499 0.087576605 0.007840324 0.038693678
000160 b2 f9 8d bc 0c 86 60 3d 01 c3 a6 3d 38 b9 9d 3c
       -0.017330978 0.054815337 0.08142663 0.019253358
000170 8b 23 56 3d d4 e0 82 bd 94 35 0d 3e fc 6e a8 3b
       0.05227999 -0.06390539 0.1378997 0.0051401835
000180 33 4c a9 bd 4c 22 d1 bc 1c 20 7f bd 65 57 39 3d
       -0.08266487 -0.02552905 -0.06228648 0.04524936
000190 58 78 90 3d 62 66 6d bd dc 3d 21 3e 03 0a ea bd
       0.07054204 -0.057958968 0.15746254 -0.11427691
0001a0 7e 02 6d 3d 91 97 8a bd ea 8d 4c bc 8f a0 84 3d
       0.057863705 -0.0676719 -0.012485007 0.064759366
0001b0 27 76 fd 3c 1b 01 e2 bd c4 0f a0 bd 51 7f 2f bd
       0.030940128 -0.11035367 -0.07815507 -0.042846028
0001c0 fe 42 d6 3d 72 85 d6 3c be 3d 9b bc ae 59 0c be
       0.104619965 0.026186679 -0.01895034 -0.13706085
0001d0 1b 00 e1 3d b6 27 ec 3d 3c 12 6b 3a 15 4a 1f be
       0.10986348 0.11531012 0.00089672557 -0.15555604
0001e0 c4 ca 28 bd 1b e8 8f bc ca f6 88 3d b9 ff 04 bd
       -0.041208997 -0.017566731 0.06687696 -0.03247044
0001f0 53 ed 4a 3d 77 27 2e bd d9 51 d5 3d 80 d2 b1 bd
       0.049542736 -0.042518105 0.10416002 -0.08682728
000200 ae ce 62 3e 74 1c 27 3e f4 c5 a6 bd 2d 5c 68 3c
       0.22149155 0.16319448 -0.08143225 0.014182133
000210 d7 c1 4b 3d aa 41 df bb a1 89 7b bd 71 60 4e 3d
       0.049745407 -0.0068132477 -0.06141055 0.050384942
000220 7e 51 93 bd 84 50 22 be 4c 4c df bd 03 1f 75 bd
       -0.07193278 -0.15851027 -0.10903224 -0.05984403
000230 eb 08 f9 3c 36 f6 ea 3c c9 92 87 3d fc 89 3f 3e
       0.03039976 0.028681856 0.06619794 0.1870498
000240 27 55 6c be bb e9 10 bd 04 7a a5 bc e3 8f 2a 3d
       -0.23079358 -0.035379153 -0.020199783 0.041641127
000250 6c b0 b3 bd f8 fc c8 3c 42 be 02 bd d8 b5 7e bc
       -0.08773884 0.024534687 -0.031919725 -0.015546285
000260 e6 81 8e bd 83 76 2c bb 78 0e b0 bd 8d 22 1d 3d
       -0.0695837 -0.0026315756 -0.0859651 0.03836303
000270 ab 42 a6 bc f9 a2 7d bb c0 a7 e1 3b f8 ac f3 bc
       -0.020295462 -0.0038701876 0.0068864524 -0.029745564
000280 61 6a 94 bd b4 ee a4 3c 05 69 bf bd 20 aa 47 38
       -0.07246853 0.020133354 -0.09346203 4.760374e-05
000290 00 3c 78 bd da 4d 2d 3d 13 89 34 3c 0c 71 1b 3d
       -0.060604095 0.042310573 0.011019009 0.037949607
0002a0 10 58 56 bd f5 d8 4a bd 42 57 54 3d 20 ce 76 bd
       -0.052330077 -0.049523313 0.051841028 -0.06025517
0002b0 4b e1 68 bd 06 b3 39 3e e1 bb 13 bd 24 89 92 3d
       -0.05685548 0.18134698 -0.036067847 0.07155064
0002c0 10 35 1d be 1b 27 b7 bc e6 28 68 bc 06 e0 6a 3c
       -0.15352273 -0.022357514 -0.014169907 0.014335638
0002d0 94 97 d1 3d 85 9e 35 bd e1 b2 fd bd ba 3b ce bd
       0.10233989 -0.04434063 -0.12387634 -0.10069986
0002e0 ff e6 00 be 48 20 09 be 2d 47 31 3d c8 ba c9 bd
       -0.12588118 -0.1339122 0.04328077 -0.09850079
0002f0 97 6a 8e 3c a0 a8 10 bd 3c da cb bd 8b d9 24 bd
       0.01738481 -0.035317063 -0.09953734 -0.040246528
000300 b1 8a 39 be 83 cd 92 bd 9a 02 8a 3c 6e c9 7c bd
       -0.18119313 -0.071681045 0.016846944 -0.061715536
000310 73 08 a7 bc 4c 94 e2 3d 1d 7f 08 bd 84 ab 8a bb
       -0.020389771 0.11063442 -0.03332435 -0.004231872
000320 6a 39 41 be 14 5e db 3d a8 ea c5 3c 47 dd a2 3c
       -0.18869558 0.10711303 0.024159744 0.019880904
000330 e9 da 63 bd 7c 88 09 3d 70 99 ee bd 35 49 b8 bb
       -0.05562869 0.033577427 -0.1165036 -0.0056239613
000340 80 0e b1 bd 50 5b 07 3e f2 0a a1 bc f4 83 58 bd
       -0.08645344 0.13218427 -0.01965854 -0.052860215
000350 80 dd a2 3c 09 4e ba 3a 86 29 22 bc 5d a1 f2 3d
       0.01988101 0.001421393 -0.009897595 0.11847184
000360 c3 34 a9 bd 65 0c f5 3d fe b4 04 3e e2 41 fd 3d
       -0.082620166 0.11965255 0.12959668 0.12366082
000370 ca ed 4b bd ac 12 06 3c 75 33 cd bc fa f6 c8 3c
       -0.04978732 0.008183163 -0.02504895 0.02453183
000380 2a f6 dc bc 7c dc 87 bc a2 0d c1 bc 23 cb e2 bc
       -0.026972849 -0.016584627 -0.023566071 -0.027684754
000390 c2 e1 10 3e b4 f1 fa 3d 47 f1 de bd 86 9e 35 3d
       0.1414862 0.122531325 -0.10885864 0.044340633
0003a0 6e ff 96 3d 53 8c d1 bd 14 2d 02 3e 16 66 dc 3c
       0.07372938 -0.10231843 0.12712508 0.026904147
0003b0 84 0c ec bd 96 c7 27 bd f1 fa 80 bd b6 43 31 3d
       -0.11525825 -0.040961824 -0.06297863 0.043277465
0003c0 53 b9 08 3e be 44 2a be c0 55 c0 bb 3a 24 9b 3d
       0.13351946 -0.16627786 -0.005869597 0.07575269
0003d0 ee 0b d3 3b a6 3e a3 bc 88 09 25 3e 1b b1 63 bd
       0.006440631 -0.019927334 0.16116917 -0.055588823
0003e0 95 3f bc 3d ef 5e 4a 3e 33 af 23 3c 30 34 fa 3d
       0.09191815 0.19762777 0.009990501 0.12216985
0003f0 4f 5e db bd 5c c4 96 bb 29 44 d7 bd 5a f4 f3 bc
       -0.10711347 -0.0046010446 -0.105110474 -0.029779602

riemannian.proj.3.bias f4 [48]
000000 d6 27 fc 3c 53 c8 82 3c ff 12 a6 3d 49 e2 13 bd
       0.030780714 0.015964663 0.08109092 -0.036104474
000010 73 51 0a bd 12 1b 98 bd b5 84 2c bd 7b 18 9a bd
       -0.033769082 -0.07427038 -0.042118747 -0.075242005
000020 d0 2a c7 bd 34 88 ed bd 79 87 cd 3c 8c d3 3a 3d
       -0.09724963 -0.11598244 0.025089012 0.045611903
000030 15 64 0b bc a3 84 a3 bc fe cc de 3c 60 8c 85 bc
       -0.008507748 -0.019960707 0.027197357 -0.016302288
000040 d4 01 9f 3b 70 5d a0 bd 49 46 6c 3c fd b4 3f bd
       0.004852513 -0.07830322 0.014421054 -0.046803463
000050 6a 33 7c 3d 25 38 47 bc 17 6e 8a 3c 40 59 06 bd
       0.06157247 -0.012159382 0.016898198 -0.03279996
000060 d1 f9 d5 bc be e4 94 3c bd b6 de bb c2 b0 2e bc
       -0.026120098 0.018175479 -0.0067966864 -0.0106622595
000070 79 33 3d 3c 24 55 39 bd f4 e0 b3 b9 bf e8 b1 3d
       0.011547917 -0.045247212 -0.00034309144 0.08686971
000080 bb 00 c3 3c d3 cf 26 bd 64 34 f8 bb 62 30 00 be
       0.02380406 -0.04072554 -0.007574605 -0.12518457
000090 03 70 5c bd 02 8a e8 bc 5b 65 a0 3c 5b 59 81 3d
       -0.05381776 -0.02838612 0.01957958 0.06315871
0000a0 0a 53 a6 3c 85 7d 66 bc 6a 6f cf b8 19 ec 98 bc
       0.020303268 -0.014068012 -9.891282e-05 -0.018667268
0000b0 ec 9d 3a 3c 1d c1 fb bd e8 03 c3 bb a1 f1 08 bd
       0.011390191 -0.12292693 -0.0059513934 -0.03343356

cnn.block1.0.weight f4 [16, 1, 1, 64]
000000 4b f4 0a 3e 66 0f 0c 3e 0f 06 c4 3d c1 39 94 3d
       0.13569753 0.13677749 0.09571468 0.07237578
000010 c9 6d 61 3b c9 dd 6a 3d 93 27 b8 3c 64 9a 14 3e
       0.0034397712 0.057340417 0.022479808 0.1451202
000020 d9 73 07 3d 0f e3 e9 3c ca 83 d9 3c 69 d7 b2 3d
       0.033069465 0.028550653 0.0265521 0.087324925
000030 33 c0 d4 3c 4b bf 49 3d 71 26 dd 3d ab 06 67 bb
       0.025970554 0.049254697 0.10798348 -0.0035251777
000040 22 b6 24 3d 0f 97 27 bc 6d b7 6c bc 20 60 50 3c
       0.040212758 -0.010228886 -0.014448029 0.0127182305
000050 e5 31 dc bd da 49 6e 3a e0 0f 70 bd 62 52 83 bd
       -0.10751704 0.0009089984 -0.05860889 -0.06412198
000060 71 9a 30 bd 14 65 75 bd 05 39 b3 bb c0 71 53 bd
       -0.043116037 -0.05991085 -0.0054694437 -0.051622152
000070 ae b8 d5 bd 62 2a 73 bd 10 ee 95 bd 17 c8 08 bd
       -0.104356155 -0.05936659 -0.073207974 -0.033393946
000080 51 1e c2 bd d6 c5 ea bc 99 5a 5b bc 0a 4f b6 bd
       -0.09478439 -0.028658789 -0.013388299 -0.08901794
000090 75 26 29 bd 7d 4a 13 be 1c b8 2b bd c9 6a 05 be
       -0.04129644 -0.14383884 -0.041923627 -0.13029017
0000a0 32 be c2 ba 13 cf d6 bc cd 78 d6 bc be 75 cc bd
       -0.0014857708 -0.026221788 -0.02618065 -0.09983395
0000b0 91 63 ad bd 77 38 fe bc ff c2 4a 3d d0 a8 8e 3d
       -0.084662564 -0.031032784 0.04950237 0.06965792
0000c0 02 cd 16 3d 5e 41 4d bc 7b b2 25 bc 5f e2 c0 bc
       0.036816604 -0.012527792 -0.010113354 -0.023545442
0000d0 0c eb 52 3d 3d 25 6c 3b 6b d4 aa 3b 05 cf 20 3d
       0.05149369 0.0036032938 0.0052133105 0.03925993
0000e0 39 82 64 3d 56 7e 75 3d 1e c7 72 3c 43 5f ff 3b
       0.055788253 0.059934936 0.014817981 0.0077933385
0000f0 1e b4 28 bc d5 b2 a3 3d 70 e9 b6 3d 99 a2 b0 3d
       -0.0102968495 0.07993094 0.089312434 0.08624763
000100 52 f6 c6 bd a2 64 70 bd 29 ef 98 bd 2f 91 c4 bd
       -0.097149506 -0.05868972 -0.07467491 -0.09598004
000110 36 2a 32 3d 06 00 85 3b 26 fb 38 3d e2 9a 4c 3d
       0.043497287 0.0040588407 0.04516139 0.049952395
000120 17 e0 cb bc 6f 62 e9 bc 61 80 7b bd 6d 71 a8 bc
       -0.024887128 -0.02848932 -0.06140173 -0.020561898
000130 cf b5 7e 3d cd a5 82 bd a5 5d 46 3b 20 19 f2 3c
       0.062185105 -0.0637928 0.0030268219 0.029552996
000140 c2 8e 92 bd 2b 86 b5 3c 29 fa 9e 3c db 18 60 bb
       -0.07156135 0.022158703 0.019406395 -0.0034194503
000150 b2 42 d8 3c ee 68 18 bb 8d 55 1b 3d ee 9a 80 3d
       0.02639899 -0.0023255902 0.037923384 0.062795505
000160 5e 22 63 bd 7a b6 71 bd c2 51 36 bd 6b e0 87 bd
       -0.055452697 -0.059011914 -0.044511564 -0.06634601
000170 08 09 f5 bd 49 e1 f9 bc c5 69 cb bc ed 46 b4 3b
       -0.11964613 -0.030502932 -0.024830708 0.005501619
000180 4f 9d 0f 3c f0 83 a6 3b 11 b2 a3 bc c9 1f 10 bd
       0.008765533 0.005081646 -0.01998237 -0.035186563
000190 d6 9d 09 be 24 07 4a bd 68 50 de 3c 35 71 a7 38
       -0.13439116 -0.049323216 0.02713795 7.984267e-05
0001a0 bf 60 bd bd 3d d3 9e bc d4 20 a0 bd 99 5f df 3b
       -0.092469685 -0.019387836 -0.078187615 0.006816816
0001b0 8e 70 b0 bd b4 83 13 bd 79 aa b5 bd 11 c5 82 bd
       -0.08615218 -0.036014274 -0.08870406 -0.06385244
0001c0 18 27 9b bd 47 e2 ef bc ec cb 87 3b 50 4b 17 3d
       -0.07575816 -0.029282702 0.0041441824 0.036937058
0001d0 0c 79 ae bc 54 1c 81 3d 4d 41 aa bd 9f 5a dc 3c
       -0.021297954 0.06304231 -0.083132364 0.02689868
0001e0 17 aa be b8 6b be c1 bd 8d 9d 4b be 34 56 e3 bd
       -9.091588e-05 -0.094601475 -0.1988432 -0.11100426
0001f0 c4 2c d7 bd 12 a2 97 bd e0 da c4 bd 51 db 5e bd
       -0.10506585 -0.07403959 -0.096120596 -0.054408375
000200 00 69 ba bd 3d 16 fd bd c1 93 67 bd 25 bd 04 3d
       -0.091020584 -0.12357757 -0.056537393 0.032406945
000210 fb 7a f6 3c 69 5f d5 bc 89 4c a6 3c bf 84 61 3d
       0.030087939 -0.026046472 0.020300167 0.055058237
000220 e7 e8 0e 3c db 97 f8 3a 3f 8f c2 3c 34 9c 2e 3d
       0.00872252 0.0018966155 0.023749946 0.042629436
000230 2a 55 13 bc 23 b6 67 3c 9f 28 44 3d 79 79 64 3d
       -0.008992473 0.014142546 0.0478903 0.055779908
000240 42 b2 28 bd e7 59 4b 3d 60 66 f8 bc c4 03 bc bd
       -0.041185625 0.049646284 -0.030322254 -0.09180406
000250 1c f9 c1 bb 18 fc 82 3c da 7b 88 bc ee 0e 47 3b
       -0.0059195887 0.015989348 -0.01666062 0.003037389
000260 fc 3b 97 3c 6c ea 4c bd 21 5d 58 bc b5 fe a1 bd
       0.01846122 -0.05002825 -0.013205797 -0.0790991
000270 31 1a ad bd 3b 86 b8 3c 31 f1 f3 3c aa ca 6f 3d
       -0.08452261 0.022524944 0.029778095 0.058542885
000280 54 17 93 3d 8f bb 4d bb 89 fe 90 3d 7e 53 a9 3c
       0.07182184 -0.0031392311 0.07079799 0.020669695
000290 8c 88 71 bd 71 b6 65 3d 3b 25 aa bd cf 4e 15 3d
       -0.058968112 0.056082193 -0.083078824 0.03645211
0002a0 11 4c ea bd 70 12 1e bc 67 70 39 bd 56 4c 8d 3c
       -0.1144029 -0.0096479505 -0.04527321 0.017248314
0002b0 68 ef 9a 3b 7b db 9c 3c d2 3b 18 bd c0 46 ce bc
       0.0047282465 0.019147625 -0.037166424 -0.02518022
0002c0 d0 8d ed bd c7 9b 93 bd 64 42 ef 3d ea 7c fc 3a
       -0.11599314 -0.072074465 0.11682585 0.0019263302
0002d0 42 71 f0 ba 08 f7 54 bd 46 f4 00 be 41 04 ce bd
       -0.00183443 -0.0519934 -0.12593183 -0.10059405
0002e0 5f a3 00 be 28 eb 25 be cd 1b 0b bd 9d 70 34 bd
       -0.12562321 -0.16202986 -0.03396206 -0.04405271
0002f0 6b 94 8a bd 9a 8f d6 bd 97 c2 a8 bd 15 84 b6 3b
       -0.0676659 -0.104766086 -0.0824024 0.0055699446
000300 38 4b 7f bd c2 bc 44 bd 55 34 7d bd 59 6e e9 bc
       -0.062327594 -0.048031576 -0.061817486 -0.028495
000310 7e 9a 66 bd f7 e5 84 bd 72 f6 a5 bd 97 d2 6e bd
       -0.05629968 -0.06489175 -0.08103646 -0.058306303
000320 ef 37 ce bc 7d 9f 57 3d 80 ca a4 bc 01 ac 46 bc
       -0.025173156 0.052642334 -0.02011609 -0.01212597
000330 e2 51 4a 3d ef ce b6 bd 95 e6 a8 bc 7f 52 04 bc
       0.049394496 -0.08926188 -0.020617763 -0.008076309
000340 20 47 95 3d 4b d0 f7 3b 2f ea 16 3a 96 a6 8a 3d
       0.07288957 0.0075626723 0.0005756942 0.06770055
000350 64 ea f9 3d b4 f9 a2 3d 6b 3c 1c 3e bd 02 c0 3d
       0.122029096 0.07957783 0.15257423 0.09375522
000360 f1 74 0f 3e 0e 08 c2 3d a2 19 c5 3d 63 ac 14 bd
       0.14009453 0.094741926 0.0962403 -0.036297213
000370 1e bc 92 bd 4f a6 3a bc 7c 47 86 bd 8f 00 ca bd
       -0.07164787 -0.01139219 -0.06556603 -0.09863388
000380 2a ed 37 be 8a 4f ed bd 36 db 81 bd 49 45 6c 3c
       -0.17961565 -0.115874365 -0.06340639 0.014420816
000390 a3 d9 0c bd d4 01 b3 bd 93 63 8e bc 76 e6 86 bd
       -0.034387242 -0.08740583 -0.017381465 -0.06586926
0003a0 bc 3d 28 3d d5 11 97 3b 12 59 80 3d 82 c6 a9 bd
       0.0410745 0.00461028 0.06266989 -0.082898155
0003b0 22 f7 c7 bd d3 d1 39 bd f1 0d 8d bc c0 1b d1 3d
       -0.09763934 -0.04536612 -0.017218562 0.10210371
0003c0 ef 45 5b 3d 9c e6 d8 3d 6b b1 01 3c 7e b3 d7 3b
       0.05353349 0.1059086 0.007915835 0.0065826764
0003d0 73 dd 90 3d 9c bf 84 3d e5 cf a6 bc 38 e0 f7 bc
       0.07073488 0.06481859 -0.020362804 -0.030258283
0003e0 ae 08 ab 3c b2 0c 42 3a 05 fc 4c bd a9 3a de 3d
       0.020878162 0.00074024044 -0.050045032 0.10851032
0003f0 4d 11 36 bd 22 f0 af 3d 8f 62 08 bd 89 fa 0a be
       -0.044450093 0.085907236 -0.033297118 -0.13572134

cnn.block1.1.weight f4 [16]
000000 73 33 e2 3f 67 bf 89 3f 02 2f 21 3f 73 2b a3 3f
       1.7671951 1.0761536 0.62962353 1.2747635
000010 db 38 70 3f 63 6a 23 3c 5f 06 85 3f 8c d7 96 3f
       0.93836755 0.009974095 1.0392569 1.178453
000020 32 d6 ad 3f 28 c2 96 3f cf 2b 8c 3f 0a 64 84 3f
       1.3580992 1.1778002 1.0950869 1.034303
000030 79 0c 99 3f 53 33 90 3f b7 7c 94 3f d6 56 a8 3f
       1.1956931 1.1265663 1.160056 1.31515

cnn.block1.1.bias f4 [16]
000000 7a 6d 8e 3a b1 a9 fe bc cd 98 41 3d 18 12 16 bb
       0.0010866367 -0.031086775 0.047264863 -0.0022898968
000010 f7 98 84 3b c0 60 f1 3c 43 0a 65 3b 58 49 d8 3b
       0.004046555 0.02946508 0.0034948743 0.00660054
000020 8c ba b0 bc 10 89 c4 3c ad 24 e3 3c 07 f6 be 3b
       -0.021573327 0.023991138 0.02772745 0.0058276686
000030 70 8e 8e bc d4 92 89 bb c5 77 ff bb 79 d6 14 bd
       -0.017401904 -0.0041984115 -0.00779626 -0.03633735

cnn.block1.1.running_mean f4 [16]
000000 18 b7 aa ba e9 e2 7d 3c 17 40 1a 3c 18 83 0e 3b
       -0.0013024537 0.015495994 0.009414694 0.0021745618
000010 4c f7 aa 3c 78 b9 da bb ce fe 5f 3b 83 77 03 bb
       0.020869873 -0.0066749416 0.0034178975 -0.0020060248
000020 3d 49 86 3c 23 93 ae 3c 99 11 aa 3c 51 81 1d bc
       0.016392345 0.021310395 0.020760344 -0.009613351
000030 41 44 64 3c 61 94 af bc 86 32 a2 bc e0 08 8a 3c
       0.013932289 -0.021433057 -0.019799482 0.016849935

cnn.block1.1.running_var f4 [16]
000000 1a d1 93 3f 0e 19 b7 3f ac 35 51 3f 07 ce 13 3f
       1.1548188 1.4304521 0.8172252 0.5773625
000010 b3 15 28 40 7c 5c f3 3f b4 b8 dc 3f c7 df eb 3f
       2.6263244 1.9012599 1.7243867 1.8427666
000020 10 83 e7 3f a9 c6 19 40 81 35 08 40 3f de 8e 3f
       1.8086872 2.4027503 2.1282656 1.1161574
000030 5e 1b c4 3f f0 ce 50 40 a3 7d 06 40 87 25 ba 3f
       1.5320852 3.2626305 2.1014183 1.4542702
