models/2a_subject specific/model_9.pth (torch, 985978 bytes, 93 tensors)

fusion_proj f4 [48, 48]
000000 30 fc 55 bf 8d 4e 4c 3f 94 fd 18 3f ae bc 68 3e
       -0.8358793 0.7980736 0.5976193 0.22728226
000010 a5 16 5d bf e5 ac 8f bf 87 7f 04 3e b8 34 38 bf
       -0.8636268 -1.1224638 0.12939273 -0.7195544
000020 bc 62 42 3f 3f 78 a5 3f ab 4b 0e 3f 1c a2 f2 3f
       0.75931907 1.2927321 0.5558421 1.8955722
000030 98 bc 9a 3f 45 70 be be 27 8f 68 3f c0 97 68 3f
       1.2088804 -0.3719503 0.90843433 0.9085655
000040 e9 ad f7 3d 74 3a dc 3f 26 f2 8e 3f 36 7b 94 bf
       0.120937176 1.7205338 1.1167648 -1.1600101
000050 e9 c4 e1 3f 09 c7 25 bf 5b ba bb bf ce 26 d2 3e
       1.7638217 -0.6475683 -1.4666246 0.4104523
000060 f1 41 b5 3f b6 eb 02 c0 16 41 63 3e 13 8a 45 3e
       1.4160749 -2.0456367 0.22192797 0.19290952
000070 9d b9 84 bf df c1 30 3e 97 e8 4e bf 2b da 04 bf
       -1.0369145 0.17261456 -0.80823654 -0.518954
000080 43 85 08 40 f2 a6 24 3e a0 31 28 bf 4d 84 99 bf
       2.1331336 0.1607931 -0.6570072 -1.19935
000090 70 fb eb 3e 82 48 01 bf ac dc 30 bf 52 86 66 3e
       0.4609027 -0.50501263 -0.6908672 0.22512177
0000a0 e3 2c 51 bd 27 01 60 3f 3d ea 53 bf be aa 74 bf
       -0.051068198 0.8750176 -0.82779294 -0.9557303
0000b0 45 b0 a5 bf 36 3e e3 3d ea 0d 8f be 64 d1 d0 bb
       -1.2944418 0.1109585 -0.27940303 -0.0063726176
0000c0 c4 29 a2 3f 3b 19 d5 3f ed 40 33 3f 77 f4 65 bf
       1.2668996 1.6648325 0.70020944 -0.8982615
0000d0 13 5d 91 bf 24 cf 24 40 b1 2a 81 3f fd f0 86 bf
       -1.1356529 2.5751429 1.0091153 -1.0542294
0000e0 0c 6d 81 3f 35 ef a9 3e 6c 79 e4 3e aa 8f 5b be
       1.0111403 0.33190313 0.44623888 -0.21441522
0000f0 ca bf 5f 3e 1e a0 6c bd f1 26 fc 3e d1 1d 1a 3e
       0.21850505 -0.057769887 0.4924846 0.15050437
000100 60 85 2f 3f a9 46 88 be 9d e3 3a bf 4f 92 49 3d
       0.6856289 -0.2661641 -0.7300356 0.049211796
000110 94 fc 31 bf ac ce 9c be 65 42 18 bf 2f d4 77 3f
       -0.6952603 -0.30626428 -0.5947631 0.9680814
000120 07 9e d4 3f 63 90 01 be 29 6a a4 3f 61 de db 3f
       1.6610726 -0.12652735 1.2844898 1.717724
000130 5a df 32 bf ea d2 5a bf 88 ef bd 3e 3e 7a 71 3f
       -0.6987206 -0.8547808 0.3709681 0.9432715
000140 8a 58 02 be c8 4b 30 bf b1 9c 0c c0 e6 93 b7 3f
       -0.12729087 -0.68865633 -2.1970637 1.434201
000150 73 6f 15 40 e7 05 b8 bf d1 53 3a 3f 1b 5b be 3f
       2.3349273 -1.4376801 0.72784144 1.4871553
000160 bb 7c c3 be 7b 16 8b 3e 70 81 aa be 3f 30 17 c0
       -0.381811 0.2716559 -0.33301878 -2.3623197
000170 83 b4 a1 3f 1a c5 5f 3e 9e f9 58 bf a7 67 b3 3f
       1.2633213 0.21852532 -0.84755886 1.4016007
000180 aa a6 11 3f 90 81 86 bf c3 aa 7b be ec 75 c6 3f
       0.56894934 -1.0508289 -0.24576859 1.5504737
000190 e3 13 b3 be cd 18 26 3f 6d e2 d0 bf 83 09 45 bf
       -0.3497611 0.64881593 -1.63191 -0.7696764
0001a0 d5 28 71 bf fc d4 9c bf 0e 6b 5f 3f a8 00 60 bf
       -0.9420293 -1.2252498 0.8727273 -0.87501
0001b0 8e f7 40 bf c6 54 6a 3e 40 c4 22 bf 21 94 64 bf
       -0.7537774 0.22883901 -0.63580704 -0.89288527
0001c0 cc 58 d2 3d 6d 60 83 3f ee 97 1a 3e 24 a2 3d c0
       0.10270843 1.0263802 0.15097019 -2.9630213
0001d0 c0 2c e0 bf a2 8d ba bf ee f6 ae 3f d3 f8 e5 bf
       -1.7513657 -1.4574473 1.3669107 -1.796656
0001e0 8e ec 1e 3e ec c6 72 3f 8d e7 d2 bf 3f f6 d0 bf
       0.15519926 0.9483478 -1.6476914 -1.6325148
0001f0 18 73 42 be 22 f2 f0 bd 91 d2 76 3f 2f 59 3a 3d
       -0.18989217 -0.11764933 0.9641505 0.04549521
000200 f2 b3 83 3f da 43 50 bf 46 0f c3 bd 2d a2 70 bf
       1.028929 -0.81353533 -0.095243976 -0.9399746
000210 be 35 a7 bf 5f 92 20 3e 61 7d 6d bd 9a af 1a 3f
       -1.3063276 0.15680836 -0.0579809 0.60424197
000220 7f 9f 9f 3f 92 e7 c3 bf f3 29 57 3f 95 c5 88 3f
       1.2470549 -1.5305045 0.84048384 1.0685297
000230 ec eb f5 be 04 98 ee 3c 18 e1 9f 3f 0c 33 75 bf
       -0.48031557 0.029125221 1.2490568 -0.95781016
000240 03 47 66 3e e8 62 ca be 06 40 3b bf fa 4c fa bf
       0.22488026 -0.39528584 -0.73144567 -1.9554741
000250 26 0d b6 3f ae d8 9d be d5 0b 1d 3f 72 6b 21 3e
       1.4222763 -0.30829376 0.6134618 0.15763643
000260 d2 3b 52 bf a5 4c 60 3f 66 fc 59 be e9 6b a8 3d
       -0.8212253 0.8761695 -0.21287689 0.08223707
000270 4d 95 03 bf 76 ac 24 3f c1 fc e0 be 18 c2 b3 bf
       -0.5139969 0.64325655 -0.43942836 -1.4043608
000280 68 a1 1f bd fd 28 be 3f 3f 43 49 3e 8a 80 6c 3f
       -0.03897229 1.4856259 0.19654559 0.92383635
000290 c1 63 e9 be ee c3 6a bf e2 06 81 bf 01 0f f8 3e
       -0.4558392 -0.91705215 -1.0080225 0.48448947
0002a0 9b f0 dd 3e 26 67 03 bd 45 9a 84 3c b2 21 8b bf
       0.4334763 -0.032080792 0.016186843 -1.0869658
0002b0 da da 96 3f c5 73 2b 3f 74 13 e9 3e e4 f0 28 bf
       1.1785538 0.66973525 0.45522654 -0.6599257
0002c0 28 2b 66 bf b5 70 33 3f 8f 3b 0a c0 43 85 85 bf
       -0.899096 0.7009385 -2.1598852 -1.0431293
0002d0 f0 99 0a bf c4 b0 d5 3f 0a d4 1b bf c2 1f 89 bf
       -0.5414114 1.669457 -0.6087042 -1.0712817
0002e0 38 45 a9 3f 01 69 e7 3e 1c 54 c7 3f 87 c7 51 3f
       1.3224249 0.451973 1.5572543 0.8194508
0002f0 07 d7 72 bf 4e 4b 5d 3f b2 fb 48 bf 41 4b 32 bf
       -0.94859356 0.8644303 -0.78509057 -0.6964608
000300 c2 79 ad be b9 85 25 bf 1f c4 b9 be 5a 86 91 3e
       -0.33881956 -0.6465717 -0.3628244 0.28422815
000310 40 fa a7 3f 5a 86 6f bd 2d e2 c2 3f 52 51 8b bf
       1.3123245 -0.058477737 1.5225273 -1.0884192
000320 85 a7 95 bf 73 91 8a bf a7 93 39 bf 76 65 d9 bf
       -1.1691748 -1.0825638 -0.72490925 -1.6984088
000330 72 58 da 3e 97 d8 70 3f 42 56 22 40 57 ce f9 be
       0.42645603 0.9408049 2.5365148 -0.48790237
000340 5b c7 5c be a2 2a 04 40 88 6c 8b 3f 1f 14 32 bf
       -0.21560423 2.065102 1.0892496 -0.6956195
000350 18 f7 f0 be 34 8e a2 bf eb b0 4d 3e 0e 41 4b be
       -0.47063518 -1.2699647 0.2008702 -0.19849035
000360 14 c3 13 bf 42 1c b2 be da e2 78 3e 1d 8b b6 3f
       -0.5771954 -0.34787184 0.24305287 1.4261204
000370 e2 53 d8 3b 90 89 81 3f 9f b2 25 bf b2 c8 cf bf
       0.0066017965 1.0120106 -0.6472568 -1.6233122
000380 a9 04 3e 3f 5d 12 59 bf c2 a3 45 3f 3b 76 0d bf
       0.7422586 -0.84793645 0.77203 -0.5525853
000390 b8 c0 da 3b 34 9d 3a 3e fd 3d 8c be 0a 6c 2d 40
       0.006675806 0.1822403 -0.27391043 2.7097192
0003a0 8f 8a 89 3f bc 24 df bf f5 c3 f2 be e4 2a b4 be
       1.074541 -1.7433085 -0.47415128 -0.35188973
0003b0 60 f9 25 3f f0 79 51 be c6 a4 21 be 31 97 d7 be
       0.6483364 -0.20456672 -0.15785512 -0.42107537
0003c0 0e 83 be bf 14 1f c3 3e 15 5d 6b be 94 e9 63 3f
       -1.4883745 0.38109648 -0.22984727 0.89028287
0003d0 71 01 b5 3e 47 a6 b0 3e 8a ea a2 bf 25 91 bb 3e
       0.35352662 0.3450186 -1.2727826 0.36634174
0003e0 87 34 02 bc 76 8f 4d bf cb 66 06 bf fd 00 68 3d
       -0.007947094 -0.8029703 -0.525006 0.056641567
0003f0 df bc 2d be b4 33 29 bf 6c e5 49 bf 49 d8 47 bf
       -0.1696658 -0.6609452 -0.78865695 -0.780644

pos_enc f4 [1, 500, 48]
000000 89 00 55 3f 8a d4 21 40 f8 22 8f bf e3 ab b3 bf
       0.8320394 2.5285974 -1.1182547 -1.4036831
000010 a2 9f 22 40 4e 79 b8 3e 33 5d 12 3f e1 c6 91 3f
       2.5409932 0.36030048 0.5717346 1.1388818
000020 69 e5 30 3f 76 a1 09 bf 30 73 80 bf 47 2f 25 3f
       0.6910005 -0.53761995 -1.0035152 0.64525265
000030 11 d9 04 3f 42 64 46 bf ef 8a e1 3e 32 83 82 bf
       0.5189372 -0.7749673 0.4405131 -1.0196288
000040 cd a3 39 bf 97 28 db bf c6 cf c6 bf 86 ae 27 3f
       -0.72515565 -1.7121762 -1.5532157 0.65500677
000050 60 3c 95 bf ec 04 7c 3f b9 a7 8a 3e 4a b3 1b bf
       -1.165905 0.9844501 0.27081087 -0.6082045
000060 25 8c 79 bf ca 71 84 bd f9 5e 65 3f 01 9d d0 3e
       -0.9747947 -0.06467016 0.8959804 0.40744784
000070 a2 82 a5 bf d0 80 09 3f d7 72 80 3f 91 3e 5f 3f
       -1.2930491 0.5371218 1.0035046 0.87204844
000080 ce c7 16 c0 de 43 97 3e 0d 67 60 be 2b 93 e1 be
       -2.355945 0.29543966 -0.21914311 -0.44057593
000090 27 1d 5c bf de 3a 39 3c 46 94 a9 be 66 a3 52 3f
       -0.8598198 0.011305539 -0.33120936 0.82280576
0000a0 a7 06 4a be 85 3f 9d 3f 1c f5 b7 3f 40 7a a4 bf
       -0.197291 1.228501 1.4371676 -1.2849808
0000b0 08 21 1d c0 34 22 7b 3f f3 59 a2 3f 8e 46 1b be
       -2.455141 0.98099065 1.26837 -0.15163633
0000c0 44 5b 27 40 9b 91 1b bf 21 16 8a 3c db 01 88 3f
       2.6149454 -0.6076905 0.016856255 1.0625566
0000d0 0c 92 eb 3f 11 06 49 40 8c dd b1 bd 23 7e b2 3e
       1.8403945 3.1409953 -0.08684835 0.3486186
0000e0 ff 44 9d bf f8 80 0a be f8 31 26 3d cd 85 9d 3d
       -1.2286681 -0.1352576 0.040574998 0.07691536
0000f0 4a 8c 61 bf b2 13 9f bf 12 7d 1b be 60 2e 71 3f
       -0.8810469 -1.2427886 -0.1518443 0.9421139
000100 4d 0f 8b bf b9 29 a4 3e 06 27 db 3e f6 87 a7 bf
       -1.0864044 0.32063082 0.4280321 -1.3088367
000110 d1 c7 33 3f 86 41 c2 bf d2 f2 78 bf 70 ee e3 3e
       0.7022677 -1.5176246 -0.97245514 0.4451785
000120 26 59 0d bf a5 cd a8 3e 28 31 81 3f 79 18 8a bf
       -0.55214155 0.32969394 1.0093126 -1.0788718
000130 84 4c ec bf 9b 7b 7d bf ae 1b 93 3f 7f b7 ac 3f
       -1.8460851 -0.9901673 1.1492822 1.3493499
000140 53 9f f9 bf b4 83 01 3f 13 ff 4d bf ea 3b 75 40
       -1.9501747 0.5059159 -0.8046734 3.8317819
000150 cb cb 57 3f 83 39 f9 be fc 12 02 bf 34 11 6b bd
       0.8429534 -0.4867669 -0.5081022 -0.057389453
000160 18 a5 a2 bf fd 09 04 40 13 4d d3 be a1 a4 3b 40
       -1.2706633 2.0631096 -0.4126974 2.9319232
000170 ec c6 be 3d 76 63 8d 3f 30 8f 1b 3f bb 6d 66 bf
       0.09315285 1.1045978 0.6076536 -0.90011185
000180 57 15 1e c0 96 02 0c 3d 6f da 2b c0 8d 32 8c be
       -2.4700525 0.034182154 -2.6852071 -0.27382317
000190 8b b3 d4 3f 5b 22 c7 3f 88 a7 68 3f cb dd 37 bf
       1.6617292 1.555736 0.9088063 -0.71822804
0001a0 f8 f3 fd bf e1 f1 ac bf c5 a1 72 3f c1 73 98 bf
       -1.9840078 -1.3511316 0.9477809 -1.1910325
0001b0 05 c4 41 3f 57 2e e1 3f ba af 52 3f e4 23 55 bf
       0.7568973 1.7592267 0.8229939 -0.8325789
0001c0 69 08 79 be f5 9b 76 3f 98 ec 41 c0 54 f7 61 3f
       -0.24319614 0.9633172 -3.0300655 0.8826802
0001d0 a6 4d 3a bf 35 83 65 3f 85 1a 32 c0 c1 3f 94 3f
       -0.7277473 0.8965333 -2.7828686 1.1581956
0001e0 7a 9e 70 be 4b e4 1b 3f 63 b0 b3 3e d6 56 7d 3f
       -0.23497954 0.6089522 0.3509551 0.98960626
0001f0 f6 b6 26 bf be 4c 0c bf 45 5b ee bc 6b 4e ac 3f
       -0.65122926 -0.548046 -0.029096255 1.3461431
000200 68 f2 b3 3f eb 64 f9 bf 7e f4 e8 be ba a1 b3 3f
       1.4058352 -1.9483923 -0.45499033 1.403373
000210 b1 3e 57 bf c5 f5 16 bf b7 52 bd 3f 1d 41 38 bf
       -0.84080034 -0.58968765 1.4790868 -0.71974355
000220 95 bd 80 bf a1 a3 da 3f 5e fa e9 3e 49 26 24 bd
       -1.0057856 1.7081186 0.45698828 -0.040075574
000230 e7 65 e3 3e 6f fe 55 bc 3c dd 41 3f ea 93 31 bf
       0.44413683 -0.01306115 0.757282 -0.69366324
000240 a0 a8 f0 3d 9a a9 0e 40 54 9a 0e 3f 07 3e 40 bf
       0.11750913 2.2291017 0.55704236 -0.75094646
000250 0d 07 ca bf 94 a1 aa 3e 9b 5c d7 bf 38 d5 11 40
       -1.5783402 0.333264 -1.6825136 2.2786388
000260 d2 da bd 3e b3 fe 90 3e 30 d8 18 be ca 45 1a 3e
       0.3708101 0.2831932 -0.14926219 0.15065685
000270 e4 35 0b 3f e9 87 bb bf 2e 42 e2 3e d5 79 f9 3f
       0.54379106 -1.4650851 0.44191116 1.9490305
000280 c1 97 eb 3f b2 6b b3 3f 28 b1 f7 bd 68 4d 48 bd
       1.8405687 1.4017241 -0.12094337 -0.048901945
000290 4a ff 0e bf 4f a3 24 40 97 1e 9c 3e 23 a5 3b 3f
       -0.5585829 2.5724676 0.30492088 0.73298854
0002a0 b9 a0 fd bf 13 da 6c 3f df 1f a9 be e8 20 82 3f
       -1.9814674 0.92520255 -0.33032128 1.0166292
0002b0 2d 30 f5 bf 6b 0b db 3f 78 89 b1 3f 5b 06 eb bf
       -1.9155327 1.711286 1.3870077 -1.8361315
0002c0 bf ca 5c 3f e2 58 d5 3f bb 69 b4 3f f2 77 c7 3f
       0.86246866 1.666775 1.4094766 1.558348
0002d0 7a a2 d6 bf ef 73 30 3f 19 a0 20 bf 5b f4 2e 3f
       -1.6768334 0.689269 -0.6274429 0.68341607
0002e0 b3 33 8d 3f f5 5d af 3e 3c da 2e c0 cc fa 30 c0
       1.1031402 0.3425137 -2.73207 -2.7653074
0002f0 a0 17 9f bf d3 f0 0d bf 0f 09 ac bf 99 a4 60 bf
       -1.2429085 -0.55445594 -1.3440264 -0.87751156
000300 70 c9 4a be 8b 9e 35 c0 7a 6d 17 40 70 06 bb be
       -0.19803405 -2.8378017 2.366057 -0.3652835
000310 f9 de 89 bf 25 4f d2 bf 2f 3d 90 bf 36 8d f0 3f
       -1.0771171 -1.6430403 -1.1268672 1.8793094
000320 6c 62 c5 3e c9 21 78 3f fc b4 7e be 86 1d 92 3f
       0.38551652 0.9692655 -0.24873728 1.141526
000330 09 f5 4b be 6b fb af bd 4c b9 f3 3d 9f cd 24 bf
       -0.19917692 -0.08592876 0.11900577 -0.6437625
000340 82 36 dc 3c 01 e9 02 c0 25 21 37 3e 65 17 1b 3e
       0.02688146 -2.0454714 0.17883737 0.15145643
000350 85 5e 90 bf 29 fb 32 3f ce ef d4 3f f6 e8 99 3f
       -1.1278845 0.6991449 1.6635683 1.2024219
000360 95 94 0a bf 98 b0 ff bd ef b7 6f be 84 5c 82 be
       -0.5413297 -0.124848545 -0.23410009 -0.2546121
000370 e9 eb c6 3f 22 53 1c bf 92 3e d8 bf 69 3f 35 bf
       1.5540744 -0.6106435 -1.6894095 -0.7079988
000380 2f df a4 3f 65 65 e6 3f 13 ae 06 bf 59 8e d0 3e
       1.288061 1.7999693 -0.52609366 0.40733603
000390 f1 86 97 be 78 24 ab bf 64 1c f8 bf 50 09 ac bf
       -0.2959514 -1.3370504 -1.9383664 -1.3440342
0003a0 74 85 89 3e b2 e6 9f bf f9 2b 87 bf 7d 5a 61 40
       0.2685963 -1.2492278 -1.0560294 3.521148
0003b0 d2 d3 c5 3f 59 e7 f4 3e 68 f7 43 bf 51 86 1b 40
       1.5455267 0.47832754 -0.76549387 2.430073
0003c0 7b 8a a4 bf ed e2 12 bf 48 83 51 3e 53 1c 08 3f
       -1.2854761 -0.5737751 0.20460236 0.5316822
0003d0 cb 14 d8 bf 09 1c f1 3e d0 2b 54 bf 9e 26 e7 3f
       -1.6881346 0.47091702 -0.8287935 1.805866
0003e0 88 6e 4d 3f 15 f1 f5 3c f1 c4 4d bf 34 99 f6 3e
       0.8024678 0.030022183 -0.80378634 0.4816376
0003f0 d4 92 1f 3f d2 2b 61 3e 25 35 42 bb 03 11 4c 3f
       0.62333417 0.21989372 -0.0029633727 0.7971346

riemannian.proj.0.weight f4 [256, 253]
000000 a1 3d 25 be d9 0e 55 3d 5f 88 15 3d fb 18 5d 3d
       -0.16136791 0.052016113 0.036507007 0.0539789
000010 64 bb 04 3b 30 96 84 bd a1 aa 24 bc cf 41 b5 3d
       0.0020253295 -0.064739585 -0.010050447 0.088504426
000020 57 80 2f 3b 1c 9f 77 bc 64 4a b9 b9 2d f7 8d 3d
       0.0026779377 -0.015113618 -0.00035341375 0.06931911
000030 ff 42 03 3c 11 4a e7 bd 01 de 85 bd 8a 42 99 bc
       0.008011579 -0.11293424 -0.065364845 -0.018708486
000040 68 9b be bc 48 32 38 3d f1 6d 0f 3d 47 13 20 3c
       -0.023267463 0.044969827 0.035016958 0.009770221
000050 ba aa 54 3d 86 08 cf 3b 70 f5 69 bc fb 23 ca bc
       0.05192063 0.0063181547 -0.014279708 -0.02467536
000060 71 0c ca 3c 79 b1 66 bc 5d fe 84 bd 9e 45 10 bd
       0.024664136 -0.014080399 -0.064938284 -0.035222642
000070 d2 38 c7 bd 9c 25 9c bd 8b c4 8e 3d ce 35 89 bc
       -0.097276345 -0.07624361 0.06971081 -0.016749289
000080 a2 94 89 bd 16 c2 19 be 26 23 4d bd c5 00 97 bd
       -0.067178026 -0.15015444 -0.05008235 -0.07373194
000090 aa 99 af 3d 76 5d bc 3c 9b 2d ed bc 7a d4 98 bc
       0.08574231 0.022993784 -0.02895241 -0.018656004
0000a0 93 fa 9f 3c 21 cf a9 3d 14 87 ae bd dd 60 df bd
       0.019528663 0.0829146 -0.08521858 -0.10907147
0000b0 cb 80 f3 3c a6 66 c4 3c 9e b1 b2 3d f0 f6 00 3d
       0.0297245 0.023974728 0.08725284 0.031485498
0000c0 83 6b 9b bd fb 0b 04 3d a5 a4 b3 3b 64 b5 18 bd
       -0.075888656 0.032237988 0.0054822736 -0.037282363
0000d0 51 d7 4f bd 61 f9 17 3d 9c 76 08 3d 6a f1 28 3d
       -0.05074245 0.03710306 0.03331624 0.041245855
0000e0 2b ad 61 bd 90 2c a5 3c 7d e1 6c 3d b7 60 fd 3c
       -0.055096786 0.02016285 0.05783223 0.030929906
0000f0 22 af 7f bd 88 cb e9 3d b1 f4 9b bd 98 6b 76 3d
       -0.06242288 0.11415774 -0.076150306 0.060161203
000100 3a 55 c4 3d 16 29 11 bc 01 d7 75 bb 62 d5 02 3c
       0.09586568 -0.008859893 -0.0037512186 0.007985445
000110 a9 76 f5 bd f6 09 2d bc f5 b6 79 bd 0f f3 af 3d
       -0.11985523 -0.010561457 -0.060965497 0.085912816
000120 71 f5 86 bd c2 c7 c2 bd 9a 2f a8 3d f3 32 f0 3a
       -0.06589783 -0.09510757 0.08212204 0.0018325731
000130 f3 84 a0 bb 21 c8 79 bc e3 97 8c 3d 4a 5e 03 3c
       -0.0048986613 -0.015245468 0.068649076 0.008018086
000140 00 a5 4d bd e0 24 b7 bc 48 0d d7 3d 35 39 12 be
       -0.050206184 -0.02235645 0.1050058 -0.14279635
000150 ca e1 20 be 15 bf fe bc 74 53 d6 3d 63 69 c7 3b
       -0.15711132 -0.031096974 0.10465136 0.006085561
000160 39 46 c0 3d 40 6e 6f 3d 51 21 f4 bc 1e 4d 14 3d
       0.09388394 0.058454752 -0.029801043 0.036206357
000170 6b 4b ba bc 71 9e 26 be 4f f2 35 3c 53 34 10 bd
       -0.02274104 -0.16271378 0.011105134 -0.03520615
000180 a6 2b e1 bb 00 d0 7f bc 93 90 94 3c a5 4b 43 bd
       -0.0068716584 -0.015613556 0.018135345 -0.047679562
000190 99 f0 99 bb 32 3f 93 3d cc 66 d0 3c 05 c9 2b 3d
       -0.004697871 0.07189788 0.025439642 0.041939754
0001a0 cb 79 4c 3c 0b c7 58 bd 61 0d 13 3c 16 f8 a1 3c
       0.01248021 -0.052924197 0.008975358 0.019771617
0001b0 c5 19 ce bc 2e 51 02 be df 3c 24 3d ea 05 be bd
       -0.025158772 -0.1272628 0.040097114 -0.09278472
0001c0 fe 51 d9 bd 47 41 0c bc 86 8c 06 bd e0 24 25 3c
       -0.10611342 -0.008560485 -0.032848857 0.0100795925
0001d0 65 62 eb 3b 15 21 80 bd 94 7f 0a bd 81 8d 6d 3d
       0.0071833604 -0.0625631 -0.033813074 0.057996277
0001e0 92 17 7c bd e4 54 ea 3c cb 2a 18 3c 01 eb 6c bd
       -0.061545916 0.028604932 0.009287546 -0.057841305
0001f0 ed ce 54 bd ef 80 31 bd 01 f7 17 bd 0c 2b 85 3c
       -0.051955152 -0.04333585 -0.037100796 0.016255878
000200 f2 8f f0 3c 66 a1 bc bd f0 ec 45 3d 26 9d 86 3c
       0.029365513 -0.09210472 0.048321664 0.016432356
000210 fd ab 6a 3d b6 06 fd 3b c1 33 ed 3c 2d 40 81 3c
       0.057292927 0.0077217473 0.028955342 0.015777672
000220 5b 2d c2 bc b9 18 6f bd 53 cb 90 3d a5 b5 4b 3d
       -0.023703268 -0.058373187 0.07070031 0.049733777
000230 15 07 03 3e 29 2c e1 bd 97 fe 23 bd 6a 13 a2 3d
       0.1279567 -0.10994751 -0.040037718 0.07913859
000240 27 8d db bc 71 71 de 3d 75 9c a1 bc 85 f3 00 3c
       -0.026800705 0.10861481 -0.019727925 0.00787056
000250 4a 69 11 be 5b f6 58 bc b3 69 36 bd 24 75 98 bd
       -0.14200321 -0.0132423295 -0.044534396 -0.07444218
000260 ee 0e 4d 3d f1 be 64 bd 2e a6 0d 3d 24 82 07 bd
       0.050063066 -0.05584616 0.03458231 -0.033083096
000270 81 1c 02 3e 53 97 8c bc 22 1b d5 bd 0c f6 5e 3b
       0.12706186 -0.017162 -0.10405566 0.0034021167
000280 62 ca 67 3d 25 9d 47 ba 99 08 36 3d dc 02 37 bd
       0.05658949 -0.0007614664 0.044441793 -0.04468046
000290 4c 13 2d 3d 79 06 3a bd b2 b4 96 3c 2c 95 47 3d
       0.04225473 -0.04541633 0.01839671 0.048726246
0002a0 88 cb 39 bd ae 1f a2 bd 99 54 b4 bd ad d5 ae bc
       -0.04536012 -0.07916199 -0.08805198 -0.021342123
0002b0 60 6b dc bc 2d 9d b9 bd 19 e9 8c bc 0d 52 b3 3d
       -0.02690667 -0.09063182 -0.017200993 0.08755884
0002c0 6c 32 06 be 27 88 4f 3d 71 8f 0c 3d 49 7c 62 bd
       -0.13105172 0.050666954 0.034316484 -0.05529431
0002d0 27 37 c7 bd 26 02 14 be e9 94 00 3d 72 3c 4b bc
       -0.09727316 -0.14453945 0.03139201 -0.012404548
0002e0 e1 10 30 3d 2f 10 70 3d 91 2c 05 3e ca 82 7b bc
       0.042984847 0.058609184 0.13005282 -0.015351007
0002f0 59 2b 07 3d 43 a0 94 bd a0 57 32 3c 5a 18 8a bc
       0.033000324 -0.0725713 0.010885149 -0.016857315
000300 9d 1f 42 bd ee 53 83 bd d1 8f ef bc 39 fd 84 3d
       -0.04739343 -0.06412493 -0.029243382 0.06493611
000310 17 d9 d6 3d 90 4d 4e 3b f9 60 33 3b 6a 4b 48 3c
       0.10490625 0.0031479336 0.0027371033 0.012225011
000320 40 f3 a0 bb e7 c2 90 bc 80 23 9d bd d8 7a 6d 3c
       -0.00491181 -0.017671062 -0.07672787 0.01449462
000330 f7 69 dd bd 33 8a f6 ba 2f ca 1a bb a1 e2 c9 3d
       -0.10811227 -0.0018809497 -0.0023619046 0.09857679
000340 6f 11 8d bc 00 87 47 bd a3 2c b5 bd 4c e6 bd bc
       -0.017220227 -0.04871273 -0.088464044 -0.023181103
000350 bc b9 8e bd 1e 41 b8 3d 1a e7 ec 3b e5 54 41 3d
       -0.0696902 0.08996795 0.007229698 0.047200102
000360 f2 34 1e 3d 4b a4 f7 bd 0f 48 dd 3d 98 e4 69 3d
       0.03862471 -0.12091883 0.1080476 0.05710277
000370 d7 f1 1b bd c1 1b 9f bd 04 95 31 bc 45 f6 a0 3c
       -0.038072433 -0.077689655 -0.010838751 0.01964868
000380 be b4 90 3d f7 89 8b 3d 58 a5 07 3c 1d 2d 5f 3c
       0.07065724 0.06813424 0.008279167 0.013621596
000390 2d e1 d8 bc 10 c2 89 3d 15 be ad 3d cc d9 02 3d
       -0.02647456 0.067264676 0.08483521 0.03194599
0003a0 af db 31 3c ef ff 10 bc 1c b9 f2 3d 48 5d 17 3d
       0.010855599 -0.008850082 0.11851713 0.036954194
0003b0 0b ab 44 3d 28 10 36 bd ea 3e cd bc 9b 6e 81 3d
       0.04801468 -0.044449 -0.025054414 0.063199244
0003c0 b3 2a aa 3b 9b bf 66 bd 8b 03 28 3d 37 de 97 3c
       0.0051930784 -0.056335073 0.041019004 0.018538577
0003d0 65 58 95 3c ce 7e 85 3d 80 5d 2e 3c 6e 38 84 3d
       0.018230626 0.06518327 0.010642409 0.064560756
0003e0 2f 5a 1a 3c 81 2d 01 3c 89 db 8b 3d b9 23 2f 3c
       0.0094209155 0.007884384 0.068289824 0.010689669
0003f0 50 29 44 bd 4e f2 ef 3d e8 25 42 3e b5 0b 47 3d
       -0.04789096 0.11716138 0.18959773 0.04859515

riemannian.proj.0.bias f4 [256]
000000 32 a5 73 3c 51 4b e7 bc 96 fd 4e 3b ef c2 80 bc
       0.014870929 -0.028234156 0.0031584254 -0.015717952
000010 d6 08 c4 bc a9 f9 80 bb 3c 55 d8 3c 11 1f 6d bd
       -0.023929995 -0.003936012 0.02640783 -0.057890955
000020 30 b3 56 bb 04 5b a0 3c ee 41 1c 3c b0 d3 17 bd
       -0.0032760613 0.01957465 0.009537203 -0.037067115
000030 08 05 4a bc a3 82 e4 3b 74 1f 05 3c 33 9c 97 bc
       -0.012330301 0.006973581 0.008125175 -0.018507099
000040 e1 f4 b8 3b fb 18 87 3c 3f 10 4d ba c4 e1 ad bc
       0.005644426 0.016491404 -0.000782255 -0.021225818
000050 39 9b f3 bb 21 78 1b 3c 9d e4 cd bb e9 30 d4 3c
       -0.0074342755 0.00948909 -0.0062833563 0.025902228
000060 ea e5 84 3b 73 fb da 3a 7d f8 be bc f2 33 b5 bc
       0.004055728 0.0016707018 -0.023311848 -0.022119496
000070 e6 f6 e5 bc 9b 0c 56 bc 37 29 44 3c 87 8e 8f 3c
       -0.028071832 -0.013064529 0.011972717 0.017524017
000080 af 1f ae bc a5 43 59 bc 7f 15 ca bc ab 9a 2c 3d
       -0.021255342 -0.013260757 -0.024668453 0.04213969
000090 a4 5c e3 3c 07 40 2e 3c 08 2a ae bc 91 ed 92 bb
       0.027754135 0.0106353825 -0.021260276 -0.0044838865
0000a0 23 9a 53 3b e9 a0 39 bc ae 79 82 ba 96 ac 8d bc
       0.0032287918 -0.011329868 -0.0009954476 -0.01729421
0000b0 9d 3b 81 3b 30 e2 37 3d 13 17 72 3c 6c b6 31 bb
       0.003943874 0.044893444 0.014776009 -0.0027116789
0000c0 9b 26 4b 3b b5 a6 96 3b 2f 08 7e bc b0 32 9d 3c
       0.0030998352 0.0045975097 -0.015504881 0.019189209
0000d0 80 e7 e9 bb 1c 80 ca bb 82 f4 af 3b d7 00 b4 bc
       -0.0071381927 -0.0061798226 0.005369724 -0.021973057
0000e0 9d 40 3d bc c6 ac ac bb fd d6 6b bd d4 c5 34 3b
       -0.01155105 -0.0052696196 -0.057578076 0.0027583735
0000f0 1c 72 e4 ba 50 71 c2 3a bd af 37 bc 4b 1d 92 3c
       -0.0017429027 0.0014834795 -0.011211333 0.017836234
000100 1f 9a 34 ba 02 73 5c ba 57 f3 b5 bc fc 83 e4 3c
       -0.0006889421 -0.00084094715 -0.02221076 0.027894966
000110 a0 a2 78 3b e9 ba bd 3b 7b e8 e9 bc 13 6f fd bc
       0.003793873 0.0057901037 -0.028553238 -0.030936753
000120 4f 8f 35 bc 68 9e b9 3c 7a 65 12 3b f9 39 44 bd
       -0.011081531 0.022658542 0.0022338317 -0.04790685
000130 bc 99 78 bb fb 32 38 3c 6c 90 6a ba a2 55 94 bc
       -0.003793343 0.011242623 -0.0008947912 -0.01810724
000140 df 2b 0f bd 2b 51 ee 3c 9a b4 93 3c 27 40 d3 3b
       -0.034953948 0.029091438 0.018030453 0.0064468565
000150 85 a7 5a bc 99 02 52 bc de 0a 4b 3a 31 a4 d5 3b
       -0.013345604 -0.012818002 0.0007745455 0.0065198173
000160 4c 50 88 bc e7 a2 73 bb 28 8e 65 bb f1 73 e7 bc
       -0.016639851 -0.0037175955 -0.0035027359 -0.028253527
000170 83 4b 3a 3c 85 84 66 3d 22 f9 02 bd 8c c2 2a 3c
       0.011370542 0.056278724 -0.031975873 0.01042236
000180 9a df da 3b d8 61 5e 3c 15 92 51 3d e6 c3 3b bd
       0.0066794874 0.013573132 0.051164705 -0.04584112
000190 a5 18 b3 3c ca 99 8e bc 95 e5 29 3c 53 bc 34 bc
       0.021862337 -0.017407317 0.010369678 -0.011031228
0001a0 4b fe db bb 8d 56 67 bc b6 f8 a2 3b 5e 4d 7d bc
       -0.0067136637 -0.014119756 0.0049734963 -0.01546034
0001b0 93 86 41 3c ff f0 95 bb 77 ca 21 bc 3d 4b bf 3c
       0.01181187 -0.004575848 -0.009874932 0.023351306
0001c0 0f 3d 4b bc 61 31 18 3c bf 8a bd 3c c4 76 cc bc
       -0.012404694 0.009289117 0.023137448 -0.024958976
0001d0 ec 82 dd bc 34 25 2a bb 97 66 cc 3c 6a 01 74 bc
       -0.027039967 -0.0025962116 0.024951262 -0.014892915
0001e0 13 db 9c ba 3f 1d ad bc 13 2f 8d bb 41 90 65 3b
       -0.0011967145 -0.02113211 -0.00430859 0.003502861
0001f0 92 4d a8 3c 8b 36 95 bc d7 b1 07 bc 92 7f b4 bc
       0.0205448 -0.018214485 -0.008282146 -0.022033487
000200 5d aa d0 bc 91 07 7f 3c 1c fd 7d 3b e9 4e ae 3c
       -0.02547186 0.015565769 0.0038755601 0.021277862
000210 59 00 ae 3c 2b 3d 19 3c 07 bd 86 3c e3 f2 c5 bb
       0.0212404 0.0093529625 0.016447557 -0.0060409172
000220 23 5c dc bc ff b2 a7 bc 87 19 9c bc 77 b5 23 bb
       -0.026899403 -0.020471094 -0.019055141 -0.0024979988
000230 fa dc 04 bc da 6c 29 3c c1 4c 24 3c b4 65 02 bd
       -0.008109326 0.010340894 0.010028065 -0.031835273
000240 c3 07 9b 3c da 89 7d ba 00 91 af ba bd d3 e5 bc
       0.0189246 -0.00096717256 -0.0013394654 -0.028055066
000250 79 34 b8 3b 15 d7 0e 3b 4e 7f e1 3b 76 8a b0 3c
       0.0056214896 0.002179568 0.006881631 0.021550398
000260 bc 4d 03 bd 71 86 34 3c 4c ad 50 bd 28 4e 05 bd
       -0.032056555 0.011018381 -0.05094652 -0.03254524
000270 be af a9 3b 35 2a 1d 3d 2b b0 0b 3d 98 e1 1a bc
       0.005178421 0.03837033 0.034103554 -0.0094532
000280 b1 31 c7 3a 88 67 87 3c 1c aa ca bc 17 5b 83 bc
       0.0015197304 0.01652886 -0.024739318 -0.016034646
000290 42 06 f2 b8 f6 98 bc 3b 32 df ff bc 25 51 7b bd
       -0.00011540625 0.005755539 -0.031234358 -0.061356682
0002a0 0a 2e f2 3b f5 21 8e 3a 26 af 90 3b 80 19 31 3b
       0.007390742 0.001084386 0.0044154106 0.0027023256
0002b0 13 5e 2c 3c c8 a3 a0 bb a4 2a f2 3c 0f b1 b5 ba
       0.010520476 -0.0049023367 0.029561348 -0.0013861972
0002c0 63 f1 fc 3a 10 9f 28 3c 39 71 57 3c 38 b5 6a bc
       0.0019298013 0.01029183 0.013149553 -0.0143254325
0002d0 a7 bf 96 3c 99 f6 d7 bc d3 65 40 3c b2 e4 16 bc
       0.018401934 -0.026362704 0.011743027 -0.009209799
0002e0 cf 99 8c bc df 94 0a 3c a9 de ad 3c b8 d6 dc bc
       -0.017163185 0.008458345 0.021224337 -0.026957855
0002f0 cc 54 db bb 8c 84 e5 3c a4 94 27 3b c6 c2 f2 bb
       -0.006693458 0.028017305 0.0025570774 -0.0074084727
000300 f1 7e 05 bd aa cf bf bc 81 8a c1 b9 fb de d8 3b
       -0.032591764 -0.023414452 -0.00036915022 0.006618378
000310 32 3d 01 3c 02 5b 2e 3a e7 80 34 3c 44 d9 86 bc
       0.007888125 0.00066511345 0.011017061 -0.016461022
000320 83 3d 92 3d 0b de 80 3c 7c 54 f5 3b 93 19 f0 3c
       0.07140639 0.015730878 0.007486878 0.02930907
000330 50 f6 92 bc f7 a0 f3 bb 2e c2 a3 bc 60 01 a4 3b
       -0.017939717 -0.00743496 -0.019990053 0.0050050467
000340 e7 f8 c3 bb c5 6e a5 3c 59 75 ce ba 19 f0 0f 3c
       -0.005980599 0.02019442 -0.0015751525 0.008785271
000350 e6 6c 92 3c 89 16 94 3c 2a ef 8a bc 2c 72 b3 3c
       0.017874192 0.018077152 -0.016959745 0.021905027
000360 88 00 0f bc 1c d1 15 bc 28 0b 34 3c 61 9e 99 3b
       -0.008728154 -0.009144094 0.010988988 0.0046880697
000370 c5 01 65 3c 17 f4 8f bc 0c 5b be 3b e7 54 6d bc
       0.013977473 -0.017572446 0.0058091935 -0.014485574
000380 07 3f a5 bc 48 36 eb 3c 94 99 02 ba 24 df fa bc
       -0.020171655 0.028712407 -0.00049819914 -0.03062398
000390 45 4c 06 bd a6 a5 07 3d 80 5e 2a 3d 0c a9 45 bc
       -0.03278758 0.03311696 0.04159403 -0.01206423
0003a0 5b bb 98 3c d7 22 f5 bc 5a b4 87 3c d9 4e db 3b
       0.018644026 -0.02992384 0.01656549 0.006692749
0003b0 66 35 58 bd e9 05 9c bb 03 fb 88 3b e8 b7 fe bc
       -0.0527853 -0.0047614467 0.0041803136 -0.031093553
0003c0 8e 5f 8d 3c 78 e8 f1 bc 52 70 b3 3c 0b e2 fc bb
       0.017257478 -0.029529795 0.021904144 -0.007717376
0003d0 09 d9 39 bd b8 65 99 3b 06 a1 fc 3c 6b 89 63 bc
       -0.045372996 0.0046813153 0.0308385 -0.013887743
0003e0 9e ca 80 3b 79 1a 10 3d 02 08 b9 bb 5d c6 b7 bb
       0.003930404 0.035181496 -0.0056467066 -0.0056083635
0003f0 d8 a3 fc bb ff f4 86 bc f0 8f 93 3b c8 16 d4 bc
       -0.0077099614 -0.016474245 0.0045032427 -0.02588977

riemannian.proj.3.weight f4 [48, 256]
000000 29 8c 1f 3e 8d 2e a5 3c 90 fe 23 3d 87 e1 9b bd
       0.1558081 0.020163799 0.04003769 -0.07611375
000010 74 7c 90 3d ea 22 5a bd 77 e4 55 bd b9 e7 ab bc
       0.070549875 -0.053255953 -0.052219834 -0.020984517
000020 74 ee b8 bc a2 af 89 bc f8 ee cb bc 36 e1 d1 bd
       -0.02257464 -0.016807381 -0.024894223 -0.10248034
000030 e9 f5 43 be a0 09 8c 3b 86 2b 99 ba 30 65 9b bd
       -0.19136776 0.0042736083 -0.0011685945 -0.07587659
000040 6d 2a 54 bd ba c3 aa 3d 21 06 25 3d 5f f7 34 3d
       -0.051798273 0.08338113 0.040289048 0.044181224
000050 ae 99 22 bd 51 eb d0 3d 48 5d 16 be ed 33 6f bd
       -0.03969734 0.10201133 -0.14684021 -0.05839913
000060 57 9a c6 3d 5c b4 88 3d 79 82 45 bd d3 90 12 3d
       0.09697407 0.06675026 -0.04822013 0.035782646
000070 12 74 ea bc af aa 1f bb dd fa a8 3d a9 a9 4d 3d
       -0.0286198 -0.002436321 0.082509734 0.05021063
000080 e5 73 e3 3c d1 04 10 3d b7 65 ab bb a7 2b 41 3d
       0.027765224 0.035160843 -0.005230631 0.04716077
000090 d9 5b a8 bd c0 4f 9c bd 25 e9 ac bd 0b 56 95 bd
       -0.082206436 -0.076323986 -0.08442906 -0.07291802
0000a0 33 83 08 be 6e a5 1d bd b2 0a 06 3e a6 4f 98 bc
       -0.13331299 -0.038487844 0.13090017 -0.018592667
0000b0 d5 a0 c7 3c d2 00 3d 3b 7a 00 94 bc 11 e6 9a 3d
       0.024368683 0.00288396 -0.018066633 0.07563413
0000c0 d5 a9 04 3d 83 05 2f 3d dd 35 46 3d 37 9e d6 bb
       0.032388527 0.042729866 0.04839121 -0.0065496224
0000d0 df bd d1 3b 58 ed 9f 3b 30 42 56 bd 7f ed f2 3d
       0.006400808 0.0048805885 -0.052309215 0.11861705
0000e0 10 76 b7 bd df cb 74 bd 0c 32 97 3d 43 de 22 bc
       -0.089580655 -0.05976474 0.073825926 -0.009940687
0000f0 fe 4b 87 bc 6d 22 46 3d 15 5f 01 bd eb 29 32 be
       -0.016515728 0.048372675 -0.031584818 -0.17398803
000100 74 5c 84 3d e1 d7 a6 3d fc 9e 3d bd 72 45 cb bd
       0.064629465 0.081466444 -0.046294197 -0.09925355
000110 d4 86 9c 3d 4a c0 1a 3d 03 04 5c 3c e7 3b f6 3d
       0.07642904 0.037781037 0.013428691 0.12023144
000120 72 aa 05 3e 52 f9 a7 3d aa 1e 16 bd 1a 25 3c 3d
       0.13053301 0.08201851 -0.036650337 0.04593382
000130 5f cf 71 bd a6 0c 9c 3d 63 ec 10 3e 23 8c d6 3c
       -0.059035655 0.076196 0.14152674 0.02618987
000140 11 5c 57 be 6f 94 bf 3d 98 9b dd 3c 68 46 09 bd
       -0.21031214 0.09354483 0.027051732 -0.03351441
000150 89 36 35 3d de 35 86 bd 61 24 dd bd 0b a3 c8 3c
       0.044241462 -0.06553243 -0.10797954 0.024491807
000160 8a 27 96 bd 40 35 1d 3b 2d 50 f2 3d f5 85 f9 3b
       -0.0733176 0.0023988038 0.118316986 0.007614846
000170 27 34 9e 3b f2 59 a5 bd 96 f9 94 bc 16 bd 8d 3d
       0.0048279944 -0.08073796 -0.018185418 0.06920831
000180 c4 3c 91 3d d7 0e 02 be 5b 28 d6 bd 9b 7a e3 3d
       0.07091668 -0.12700973 -0.10456916 0.111073695
000190 e5 30 e2 bd c4 31 e2 bd 38 6d e5 39 f9 34 85 3d
       -0.11044482 -0.11044648 0.00043759658 0.06504244
0001a0 70 73 0d bd 5f 2c 30 bd 09 2e 09 bd c9 d8 29 bc
       -0.034533918 -0.043011066 -0.03349117 -0.010366627
0001b0 6a ef 03 bb 81 5b 62 bc 1a 13 57 3d 30 50 5e 3b
       -0.0020131716 -0.013815762 0.05250845 0.0033922307
0001c0 11 28 47 bd 6b 37 cf 3c e0 56 b8 3d 8b cf 89 3b
       -0.048622195 0.02529498 0.09000945 0.0042056493
0001d0 2a d0 e6 3b 8e c2 f7 3d 36 5d 46 bc 77 e3 e4 bd
       0.007043858 0.12097655 -0.012107184 -0.11176198
0001e0 97 e7 36 3d 5f 42 0a 3d 9f f1 b3 bd 94 54 61 3d
       0.044654455 0.033754703 -0.0878632 0.0550123
0001f0 d8 14 f8 bc ae 69 e8 3c da bc 5b 3d ce 1f 3d 3d
       -0.030283377 0.028370705 0.0536469 0.04617291
000200 15 83 81 bd 38 42 18 3d 86 61 b6 bd 47 39 6e bc
       -0.0632383 0.037172526 -0.0890532 -0.014540023
000210 6d ce a3 3d 52 3a cd 3d 5a c6 e6 3d 79 d9 c5 bd
       0.07998357 0.10020889 0.11268301 -0.0966062
000220 d9 cb f1 3c 83 4d 78 be 9d 17 f1 bc 93 b3 38 bc
       0.029516147 -0.24248318 -0.029430205 -0.011273283
000230 91 5c 92 bd 29 9a 47 bc 44 55 c6 3d 1c 36 e7 3c
       -0.07146562 -0.012182751 0.09684232 0.028224044
000240 23 0a 01 3e 70 d9 51 bd 4f c4 a4 3b 00 f0 29 3e
       0.12601523 -0.051232755 0.0050282846 0.16595459
000250 e9 c3 10 bc 83 11 b2 3b 31 b8 aa bd c1 85 53 be
       -0.008835771 0.0054342165 -0.08335913 -0.20656492
000260 da 1a ea bd b5 76 ac bd 25 2b 8c 3c bf 1a 84 bd
       -0.11430903 -0.08421079 0.017110417 -0.06450414
000270 63 d8 ae bd 0e 50 96 bd 4f e9 e0 bc 86 33 ae bd
       -0.08537366 -0.07339488 -0.027455 -0.08505921
000280 18 a3 4e 3d fe df d9 bc 8a db 75 be 89 7d ef bd
       0.050448507 -0.026596066 -0.24009529 -0.11693866
000290 61 e3 1a bb f6 32 b4 bc 8a db 90 bd 44 67 0e 3d
       -0.0023634064 -0.021996956 -0.07073124 0.03476645
0002a0 5f 54 6e 3d bd a3 ad bd 29 a1 f0 3d 5d 2c 14 3e
       0.05818593 -0.08478496 0.11749489 0.14470048
0002b0 83 f5 e9 bc 90 9f 7d bc 2b 67 3b 3e 74 bb a7 bd
       -0.028559452 -0.015479937 0.18301074 -0.08190051
0002c0 ff de 6b 3d 04 51 e3 bc 3a e2 3b 3d 90 92 30 bb
       0.057585713 -0.027748592 0.045870043 -0.0026942827
0002d0 3b 35 3a 3e ef 87 82 3c 51 45 1c 3e c5 39 b3 3d
       0.18184368 0.015933959 0.15260817 0.08751253
0002e0 2d 0d e4 3d 2b 3e 5b 3d d6 20 c1 bd 16 06 96 bc
       0.111353256 0.053526085 -0.09430091 -0.018313449
0002f0 ee 90 25 be 82 87 65 bd a3 8a f2 bd 97 6f a0 bd
       -0.16168568 -0.056037433 -0.11842849 -0.07833784
000300 3a 9e ca bd 42 ba 9a 3d 04 47 51 be d0 96 07 3d
       -0.098934606 0.07555057 -0.20437247 0.03310281
000310 d4 fb b3 3d 80 4e 23 3d 91 3f e2 bd e3 13 0f 3d
       0.08788267 0.039869785 -0.110472806 0.034931075
000320 b7 49 22 be fb 16 e6 bd fd 56 1d 3e f0 8d 53 bc
       -0.15848432 -0.11234852 0.15365215 -0.0129122585
000330 ed 5e a0 bc 16 11 aa bd 10 56 10 be e9 8a ee 3c
       -0.019576514 -0.0830404 -0.1409533 0.029118972
000340 7b c8 66 bc 8d 8b 4e 3d 32 52 c0 3b 63 99 3a 3d
       -0.014085884 0.050426055 0.0058691734 0.045556437
000350 32 a5 d2 bd 94 f9 3f 3e 74 9c a0 bd db cb 17 be
       -0.10285415 0.1874755 -0.07842341 -0.14823858
000360 b6 2c e7 bd 91 31 4f 3c ce 9c c0 3d 68 ce fb 3d
       -0.11287825 0.012646095 0.09404908 0.12295228
000370 92 53 2f 3e 99 75 4b be 3b 2b 8b 3c 89 96 15 3d
       0.17121723 -0.19869079 0.016988387 0.036520515
000380 60 a4 96 be b6 b4 8f 3d 02 2f 60 3c 54 f7 f7 3c
       -0.29422283 0.0701689 0.013683083 0.030269302
000390 73 f8 f7 3d e1 f6 27 be 39 ef 78 3d 1b 13 e1 3b
       0.12107935 -0.1640277 0.060775016 0.0068687326
0003a0 e8 dc 92 bd c9 82 73 bc b0 a6 5d ba bc 7f 2e 3e
       -0.07171041 -0.014862725 -0.00084553193 0.17040914
0003b0 51 43 8b bb 2e 0e 6b be 2c 7e fe bc 99 7b 02 bd
       -0.004249968 -0.22954628 -0.031066023 -0.031856153
0003c0 19 d2 61 bd 77 96 10 3d dc f9 fc 3d be da ce bc
       -0.055132005 0.035299744 0.123523444 -0.025250789
0003d0 3b ef 90 bc a2 23 8b 3d 08 c9 6f 3d fd 59 02 be
       -0.017692199 0.06793906 0.058541328 -0.1272964
0003e0 da af d5 3d e8 79 80 ba 8a 27 82 3d 47 23 0e 3d
       0.10433932 -0.0009801956 0.06355198 0.03470161
0003f0 a5 f8 05 bd 84 14 fb bc 77 9f 9f bd 3c 6f 4c bd
       -0.03270783 -0.030649431 -0.077940874 -0.04991077

riemannian.proj.3.bias f4 [48]
000000 a2 ec c6 3b 7d e1 68 bd a9 90 f0 bd 6a 4f 51 bb
       0.0060706893 -0.056855667 -0.11746342 -0.0031938204
000010 b3 05 e7 3c ad e1 6f 3d 90 20 1e bd 00 73 b8 3b
       0.02820096 0.05856483 -0.038605273 0.0056289434
000020 7c 3d ed b9 b5 06 aa bd 5d 3d dd 3b dd b0 cd bc
       -0.00045249972 -0.083020605 0.0067517 -0.025108749
000030 ef ab 73 3d 00 18 82 3b e5 8e db bd 7b 75 09 3d
       0.05949014 0.003970146 -0.10720614 0.033559304
000040 a8 0f d2 bb b9 74 d1 3b eb 24 d6 3c e1 85 25 bd
       -0.006410558 0.0063920883 0.02614065 -0.04041088
000050 f7 f5 36 3d 1d ed d9 bc 22 dc 45 bc 30 2f 97 bc
       0.044668164 -0.026602322 -0.0120764095 -0.018455118
000060 6a 6f 96 3d 38 f3 1f 3c 9e 3c ee bc 17 a8 f1 3d
       0.07345469 0.009762578 -0.029081639 0.11799639
000070 32 91 a8 3b 0c cd cb bc 34 05 08 bb b3 50 3f 3d
       0.0051442618 -0.024878047 -0.0020755054 0.04670782
000080 bf 8a e5 bc 31 df f0 bc cb d5 54 3c 27 53 86 ba
       -0.02802026 -0.029403301 0.012990425 -0.001024817
000090 df d9 6a 3d 8d bc 72 3d 68 80 04 3d e8 f1 74 3c
       0.057336684 0.059261847 0.03234902 0.014950253
0000a0 be 2e 5f bc f0 24 79 3c f4 77 2a bd 16 19 de bc
       -0.013621984 0.0152065605 -0.041618302 -0.027111571
0000b0 ab 93 71 b7 ea 7e 60 bc 42 e3 41 3d fc 2d 35 3d
       -1.4399101e-05 -0.013702134 0.04733587 0.044233307

cnn.block1.0.weight f4 [16, 1, 1, 64]
000000 f9 ca 57 3d 54 b8 12 3d c9 ff c6 bd b0 d7 9b bd
       0.052683804 0.03582032 -0.09716756 -0.076094985
000010 41 f7 da bd e3 85 e4 bd 77 e7 58 bd 73 9e 15 bd
       -0.10691691 -0.11158349 -0.052955117 -0.036528062
000020 a0 af dc 3c 81 75 a3 3d b8 9a be 3d 33 52 f9 3d
       0.026939213 0.079813965 0.09306854 0.121738814
000030 71 68 91 3d df 16 a4 3c 81 64 09 3d 89 86 77 bb
       0.07099999 0.020030437 0.033543114 -0.0037769398
000040 4f 65 80 bd 47 80 83 bd ed f9 3a bd c1 d1 b7 bb
       -0.06269323 -0.06420951 -0.045648504 -0.0056097214
000050 12 d8 9b 3c d5 4c 45 3d c8 67 3d bc 6c 1a 42 bd
       0.019023929 0.048168976 -0.011560388 -0.04738848
000060 bc 5a ff bd a0 91 04 be 36 a0 1a be 81 f6 35 bd
       -0.12468478 -0.12946177 -0.15100178 -0.044424538
000070 12 77 ca bc 51 93 b4 3d a1 21 91 3d 6d 4a c8 3d
       -0.02471498 0.08817161 0.07086492 0.097798206
000080 1b d9 ad 3d 2a 1e e4 3d 7c 8c 90 3d 32 66 b6 3d
       0.08488675 0.11138566 0.07058045 0.08906211
000090 62 0e d2 bb 8e 83 89 bd a8 c1 5a bd d5 57 3c bd
       -0.006410406 -0.06714545 -0.05340734 -0.0459822
0000a0 c1 62 d2 bc 8a 98 f6 3c 35 57 1a 3b fb 23 e8 bc
       -0.025681855 0.030102033 0.0023550515 -0.02833747
0000b0 00 92 53 bd c3 72 6e bd 16 6c c3 bd 27 67 53 bd
       -0.05165291 -0.058214914 -0.095421 -0.051612046
0000c0 07 a8 a5 bc 24 2b 0f 3c d5 9f 01 bc 17 1e b1 3c
       -0.020221723 0.008738313 -0.007911642 0.021620793
0000d0 bb 09 bf 3d ee fd f0 3d c8 ac cb 3d 4a ee 54 3d
       0.09328028 0.11767183 0.09945065 0.051985063
0000e0 a0 4c 54 3d 4e 6b 3b 3c 6c a8 29 bd 4e 40 d4 bd
       0.051830888 0.011439158 -0.041420385 -0.10363828
0000f0 6a e1 a7 bd 01 4f 7c bd 2e 7b d5 bc e5 67 ff bd
       -0.08197291 -0.06159878 -0.026059713 -0.12470988
000100 82 4f cf 3d 3f 14 4e 3d d5 08 38 bc c8 dd 1e bd
       0.10122587 0.050312277 -0.0112325745 -0.038785726
000110 36 38 a5 bd f9 87 57 bd d5 9d 49 bd 5f 63 16 be
       -0.08067362 -0.052619908 -0.049222786 -0.14686345
000120 49 ea 15 ba b9 f5 e4 3b 19 79 6a bc c8 7c 03 3d
       -0.000571881 0.0069873002 -0.0143110985 0.032101423
000130 eb 88 59 3d 6e b6 79 3d 76 6d 63 bc 11 2c bf 3d
       0.05310909 0.060964994 -0.013881078 0.09334577
000140 2f b2 4b 3d 75 70 85 bc 0e 20 3f bd ba 3a b4 bd
       0.049730476 -0.016288975 -0.04666143 -0.08800264
000150 cf 58 56 3d c3 22 81 bc f2 cb da bb c8 a1 88 3b
       0.05233079 -0.015763646 -0.006677144 0.0041696765
000160 d4 7f bc 3d e0 df 85 3d d9 ed 62 3d 9b 1e a1 3d
       0.09204069 0.065368414 0.05540261 0.07867166
000170 a9 23 02 bd 8e f6 40 3d 8d 19 92 bd 90 e8 93 bd
       -0.03177229 0.047110133 -0.0713378 -0.07222092
000180 af 07 23 3c f5 08 cc bd 83 2e 6d bd 13 b9 59 bd
       0.009950562 -0.09962646 -0.057905685 -0.053155016
000190 58 70 8a bd 72 ae c5 3d c3 87 67 bd d0 2a 85 bc
       -0.06759709 0.096524134 -0.056525957 -0.016255766
0001a0 ff 0c 4e bd 5a 68 d1 3b b4 17 8f bd a3 63 51 3b
       -0.050305363 0.0063906135 -0.06986943 0.0031950257
0001b0 f2 a2 87 bd a9 c9 3c 3c 93 e3 eb bd 36 ee 9b 3d
       -0.06622876 0.011522689 -0.11518016 0.076137945
0001c0 09 ab bb 3d b9 6e 0b 3e 1e 09 8f 3d 4d 3b 2d 3e
       0.09163482 0.13616456 0.06984161 0.16917153
0001d0 fe 9f 02 3e 11 29 5c 3d e1 c6 6a 3d 11 e6 59 bd
       0.12756345 0.0537501 0.057318572 -0.053197924
0001e0 07 52 d1 3c 98 ca c1 bd c6 75 56 bd a9 4f ed bc
       0.025551809 -0.0946247 -0.05235841 -0.028968649
0001f0 e0 e4 80 bd 43 16 c3 bd 5a 30 ab bd ca a9 91 bd
       -0.062936544 -0.095257305 -0.08358832 -0.07112463
000200 b4 3c 10 3d 90 58 63 3d 5a f2 2c 3e ba 1f 12 3d
       0.03521414 0.05550438 0.16889325 0.035674788
000210 68 73 59 3c 61 e3 33 bd 28 f4 24 ba 20 76 9a 3d
       0.013272144 -0.043918017 -0.00062924856 0.07542062
000220 54 ef 23 bc 50 86 da bd 44 69 89 bd 5d ad 8c bd
       -0.010005791 -0.10670149 -0.06709531 -0.06869004
000230 fe 54 5a bd 4c 3b ca bd 14 9a a8 3c 4a f7 4f bd
       -0.05330371 -0.09874591 0.020581283 -0.050772943
000240 37 2a a3 bc 5a 2c 80 bb c3 02 29 3d 9f 52 39 bd
       -0.01991759 -0.003911537 0.0412624 -0.04524481
000250 96 74 14 bd a5 46 d6 3c 26 c5 a0 bd cb b2 03 3d
       -0.036243998 0.026156733 -0.07850103 0.032152932
000260 27 eb 0d bc 2a 27 47 ba be 1c c1 3c ff ea 48 3c
       -0.008662022 -0.00075970835 0.023573276 0.012263059
000270 3a 47 45 3d cf 69 29 3d 3a be a8 3d 20 1b 03 3d
       0.04816363 0.041360673 0.08239408 0.03200829
000280 0d e0 fa b9 5d 02 15 3c 78 b6 93 bc cc a7 15 3d
       -0.00047850647 0.009094802 -0.018031344 0.036536977
000290 54 2f 1b 3d c0 f6 9a bd f0 f7 5d bd 70 3e fd 3b
       0.037886932 -0.07566595 -0.05419153 0.0077283904
0002a0 44 51 83 3c e2 5d 08 bd bd 30 b1 bd cb 9d 02 3d
       0.016029961 -0.03329266 -0.08651874 0.031888764
0002b0 67 10 84 3c 54 12 f7 3c 71 6a f8 bd 96 6f e0 bc
       0.016121102 0.030160107 -0.12129677 -0.027396958
0002c0 6d fb df bd bb b1 27 be f7 ba 1d be c2 f7 12 be
       -0.109366275 -0.16376393 -0.15403353 -0.14352325
0002d0 63 76 53 bd ed db c7 bd 8c 18 72 bd a7 0c a0 3c
       -0.051626574 -0.097587444 -0.05910544 0.019537283
0002e0 33 c0 0b 3a de 41 43 bd 23 1b 0d 3e c6 33 f3 3c
       0.0005331069 -0.047670238 0.13779883 0.029687773
0002f0 cc 2f 37 3c 5d 2e c2 3b fd 15 27 3d 2f b9 1b 3e
       0.011180829 0.005925937 0.040792454 0.1520736
000300 d9 eb 19 bd 51 3c 59 bc 4e 73 12 bd f1 f2 23 bd
       -0.037578437 -0.013259009 -0.035754494 -0.04002661
000310 f9 45 f6 3c 97 2f 22 3d 30 31 4f 3d 31 e8 03 bb
       0.030062662 0.039596166 0.05058402 -0.002012741
000320 be ba 11 3d 60 f6 01 3e f5 21 3a 3d f3 99 8f 3d
       0.03557848 0.12691641 0.04544254 0.07011785
000330 e2 e7 ba 3c 17 da 00 3d 56 db 16 3c 6d 39 38 3d
       0.022815648 0.031457987 0.009207567 0.04497664
000340 d7 c5 e4 bc 88 09 23 3b 88 d8 6d bd 38 cd 15 3c
       -0.027926369 0.0024877507 -0.05806783 0.009143166
000350 9c 93 8c bc 8b f0 ee 3c 46 51 31 3d e1 b6 6e 3c
       -0.01716023 0.029167434 0.0432904 0.014569969
000360 24 bf 22 bd f9 9f ba bc 1f 60 55 3d 6f 8d 6b 3b
       -0.039733067 -0.022781359 0.05209362 0.0035942455
000370 d0 95 83 3d 23 f9 af 3a 8c d8 24 3e 43 42 e6 3d
       0.06425059 0.0013425689 0.16098231 0.11243107
000380 bf af 15 3e 94 73 09 3e e0 6f 86 3d dc 79 c2 3d
       0.14617823 0.13422996 0.06564307 0.09495899
000390 f0 c3 65 3d f6 10 46 3d 4a d7 a5 bc 7c ca ce bd
       0.056095064 0.04835602 -0.02024426 -0.100972146
0003a0 53 b7 b6 bd 3b 09 41 3c ec cd 1b bc 3a ed a8 3d
       -0.08921685 0.011781986 -0.009509545 0.082483724
0003b0 36 b4 e4 3b 91 19 98 3c 97 f8 e4 bb 5b a8 6b bd
       0.0069794906 0.018566879 -0.006987642 -0.057533603
0003c0 f6 dd ee ba 0f e5 cd 3d de 98 02 3d cd 17 b9 3c
       -0.0018224108 0.10053455 0.031884067 0.022594357
0003d0 aa e9 74 3d a7 06 66 3d f0 7f 83 3d db 20 ab 3d
       0.059793152 0.056158688 0.064208865 0.08355876
0003e0 5d 32 e7 3d 85 a4 e7 3d f2 6f b6 3c b2 11 aa bb
       0.11288903 0.113106765 0.022270177 -0.0051900977
0003f0 21 4f f0 3b 7f 08 69 3d ff 58 46 bd 22 5a 24 bd
       0.0073336517 0.056892868 -0.048424717 -0.04012502

cnn.block1.1.weight f4 [16]
000000 56 91 cb 3f f4 d6 01 40 86 fb e0 3f 48 0b a3 3f
       1.5903728 2.0287447 1.7576759 1.2737818
000010 bf f6 ed 3f 5f 7d 0f 40 35 7d b2 3f 58 47 d6 3f
       1.8590926 2.242027 1.394446 1.6740522
000020 09 da dc 3f 3e b9 91 3f 41 a0 8a 3f 98 7e 5d 3f
       1.7254039 1.1384656 1.0830156 0.8652129
000030 55 48 38 3f c1 61 a0 3f d2 6d 0a 40 fa c3 65 3f
       0.7198537 1.2529832 2.162953 0.8975216

cnn.block1.1.bias f4 [16]
000000 9e 5c fd 3c dc 33 44 bc da e7 66 3c 67 a3 8a 3c
       0.030927952 -0.011975255 0.014093364 0.01692362
000010 19 7a e2 3a 09 b6 9c bc 79 cd 82 3c d0 22 bb 3c
       0.001727882 -0.01912977 0.015967118 0.022843748
000020 12 cd 01 3c 39 81 1a bc 15 a6 aa bb b1 21 5f ba
       0.007922428 -0.009430223 -0.005207787 -0.00085117953
000030 00 b8 c6 3c 9f b7 e0 3c c1 7c 0a 3c af 8c 70 3c
       0.02425766 0.027431307 0.008452595 0.014681979

cnn.block1.1.running_mean f4 [16]
000000 b6 9c 99 ba 76 b6 ed b9 b4 53 a3 ba 59 fd 78 3b
       -0.0011719677 -0.00045340107 -0.0012460859 0.0037992804
000010 c8 3f 73 3a 6f 62 6a b9 7e 51 f5 3a 7d 5a ab 39
       0.00092792185 -0.00022352648 0.0018716303 0.0003268308
000020 86 2d 87 39 94 a2 8f 3b 19 11 fa 3a e0 de 17 38
       0.00025783124 0.0043833945 0.0019078582 3.6208774e-05
000030 0b ea 01 3c 59 2c fa 3b 61 fd 8e ba ea 6d cd b9
       0.007929335 0.007634681 -0.0010909253 -0.0003918254

cnn.block1.1.running_var f4 [16]
000000 fc 71 20 3f 2f 14 5c 3f bf 47 4c 3f 99 3d a6 3f
       0.62673926 0.859683 0.79796976 1.2987548
000010 40 15 d8 3e 03 b6 e7 3f 6c ad 90 3f 62 64 78 3e
       0.42203712 1.810242 1.1302924 0.24257043
000020 83 1a 79 3e 6e 04 bb 3f de 9d 91 3f 98 85 0c 3f
       0.2432652 1.4610727 1.1376302 0.5489135
000030 2a 05 e7 3f d8 aa f1 3f f4 1c c4 3e 9d cd f0 3e
       1.8048451 1.8880262 0.3830334 0.4703187
